catanatron_experimental/my_DQN_wyniki1/my_DQN1_200_steps.pth (torch, 532839 bytes, 6 tensors)

layer1.weight f4 [128, 614]
0	0xbbcb95af	-0.006212912
1	0x3d062d60	0.032758117
2	0x3c885f24	0.01664693
3	0x3d02e5db	0.03195749
4	0x3d2381db	0.03991876
5	0x3cbe679b	0.023242762
6	0x3c936de8	0.017996743
7	0x3cc4f472	0.024042342
8	0xbcc84747	-0.02444805
9	0xbc73bd9d	-0.01487675
10	0x3b854121	0.004066602
11	0xbc023e11	-0.007949368
12	0xbc1b52e4	-0.009480212
13	0x3c1ab619	0.0094428295
14	0xbcc74e0d	-0.02432921
15	0xbc644ed0	-0.013934806
16	0xbd386171	-0.045014802
17	0xbca77421	-0.020441117
18	0x3da072ed	0.0783442
19	0x3d2fbdd5	0.042905647
20	0x3c08c4e7	0.008347726
21	0x3c726a56	0.01479586
22	0xbcfaf97b	-0.03063654
23	0xbbe365bf	-0.0069396193
24	0x3d068b32	0.03284759
25	0xbd0c391e	-0.03423416
26	0xbce1d7f2	-0.027568791
27	0x3cd6b371	0.026208611
28	0xbce42ede	-0.02785438
29	0x3db61557	0.08890789
30	0x3c1b085c	0.009462442
31	0xbc04b8af	-0.008100673
32	0x3d6ef7d4	0.058341816
33	0xbcbba5d6	-0.022906225
34	0x3c197491	0.0093661705
35	0x3bd7c4b4	0.006584728
36	0x3d314d26	0.043286465
37	0x3d4548b6	0.048165046
38	0xbd5af3a2	-0.053455003
39	0xbcc5be0d	-0.024138475
40	0xbbfb4328	-0.0076679178
41	0x3da8b582	0.08237745
42	0xbc5b32f6	-0.013378849
43	0xbce1b3d0	-0.027551562
44	0xbcc55a3b	-0.024090877
45	0x3d787b80	0.060664654
46	0x3d2537a8	0.04033628
47	0xbc32e4ff	-0.010918855
48	0xbd665fb8	-0.05624363
49	0xbc0ab80c	-0.008466732
50	0xbcf2b76a	-0.029628474
51	0x3cc63065	0.024192998
52	0x3c7f5417	0.015584013
53	0xbcff858e	-0.031191614
54	0xbc0284ad	-0.007966203
55	0x3b644888	0.003483327
56	0x3d7593bd	0.059955347
57	0x3dcae6de	0.09907316
58	0xbc15dede	-0.009147374
59	0x3d7df0fe	0.061997406
60	0x3d7fa8e3	0.062416922
61	0x3dc7036c	0.097174495
62	0x3bbcfbab	0.005767306
63	0xbaa927f2	-0.0012905581
64	0xbc4695f1	-0.01212071
65	0xbc3c05cc	-0.011475991
66	0xbd32ab59	-0.04362044
67	0xbd101d06	-0.03518393
68	0x3bf995db	0.007616741
69	0xbc6714b0	-0.014104053
70	0xbbd00615	-0.0063483813
71	0x3d3e99d3	0.046533417
72	0x3d6abb1d	0.05730735
73	0x3bfeb598	0.0077731125
74	0xbd00b031	-0.03141803
75	0x3d025666	0.031820677
76	0x3d05ddeb	0.03268234
77	0x3d52003a	0.051269747
78	0x3d2c594a	0.04207734
79	0x3c99e2fa	0.018784989
80	0xbb1fa183	-0.0024357743
81	0x3c3547e1	0.011064501
82	0x3d357f09	0.044310603
83	0x3b27c83e	0.0025601531
84	0x3c792f89	0.015209087
85	0xbd467a20	-0.04845631
86	0x3d1f37a7	0.038871434
87	0x3d404fe3	0.046951186
88	0x3ba8f4c7	0.005156133
89	0x3aeae5de	0.0017921289
90	0xbd0edb65	-0.0348772
91	0x3daa92b9	0.083287664
92	0x3a456017	0.0007529272
93	0x3d7247b4	0.059150413
94	0x3d0c33a7	0.034228947
95	0x3d3b5985	0.04573967
96	0xbcfd9355	-0.030954042
97	0x3c72c433	0.014817285
98	0xbcb49cbc	-0.022047393
99	0x3d439f12	0.047759123
100	0xbc453ecd	-0.012038899
101	0xbc8f858a	-0.017519731
102	0x3b5774ef	0.0032876094
103	0xbb36bbaf	-0.0027882864
104	0x3b9894f6	0.0046564294
105	0x3b87c7d3	0.004143694
106	0xbd1ab90f	-0.037774142
107	0xbd10eef9	-0.035384152
108	0x3cea6984	0.028614767
109	0xbd3154cb	-0.043293756
110	0x3d91a6fd	0.071119286
111	0x3c8508ed	0.016239608
112	0x3c929973	0.017895436
113	0xbc89ba7f	-0.016812561
114	0xbbea213b	-0.0071450747
115	0x3aaf9437	0.0013395612
116	0xbcb70473	-0.022340989
117	0x3d2e2dfc	0.042524323
118	0xbd0c3897	-0.034233656
119	0xbc21c771	-0.009874211
120	0xbb1b02d4	-0.0023652809
121	0x3cf2f2d7	0.02965681
122	0xbcd86565	-0.026415536
123	0x3c0e78b1	0.008695767
124	0xbbc08d16	-0.0058761938
125	0x3d876792	0.06611551
126	0x3d4a5221	0.04939473
127	0xb9a824fb	-0.0003207101
128	0xbca3d235	-0.019997695
129	0x3d84a0f2	0.064760104
130	0x3cceb8ea	0.025234658
131	0x3cdedbd6	0.027204435
132	0x3d84b076	0.0647897
133	0x3bb9e7ad	0.00567337
134	0xbba4b80c	-0.005026823
135	0xbd1429bb	-0.03617261
136	0x3c4c9b66	0.012488222
137	0xbb6f4ff4	-0.0036516162
138	0x3d767c57	0.060177173
139	0xbd0742bb	-0.033022624
140	0x3d2e3115	0.042527277
141	0xbdce88b6	-0.10084669
142	0xbbc2012b	-0.0059205494
143	0xbcf5ec90	-0.030020028
144	0xbc834fea	-0.016029317
145	0xbd98fa9a	-0.074696735
146	0x3db311f7	0.08743661
147	0xbd0fe546	-0.03513076
148	0x3c86443b	0.016389957
149	0xbd8d1082	-0.06887914
150	0xbd23be9c	-0.0399767
151	0x3b76b121	0.0037642198
152	0xbcaabe98	-0.020842835
153	0x3d0de878	0.034645528
154	0x3c7b1f72	0.015327321
155	0xbdae4ea6	-0.08511095
156	0xbca683c1	-0.020326497
157	0xbd839867	-0.06425553
158	0x3d565658	0.052328438
159	0xbd05848d	-0.032597113
160	0xbba4ccfe	-0.00502932
161	0xbc27e384	-0.010247115
162	0x3c889163	0.016670888
163	0x3c90df05	0.017684469
164	0x39238f4e	0.00015598277
165	0xbd0bf9bb	-0.03417371
166	0x3d25196b	0.040307444
167	0xbcbf0da5	-0.023321936
168	0x3c9a044d	0.018800879
169	0xbb0cc686	-0.0021480634
170	0x3d50bfe0	0.050964236
171	0x3d2eafed	0.042648245
172	0x3c8d0325	0.017213413
173	0xbc4b47d9	-0.012407267
174	0xbcaa7d8d	-0.02081182
175	0xbc9830df	-0.018577991
176	0xbae4aee5	-0.0017447142
177	0x3d097545	0.033559103
178	0x3c819c22	0.01582152
179	0x39ad1e8f	0.000330199
180	0x3cfb9ece	0.030715372
181	0xbc00e2ef	-0.007866605
182	0x3c96721b	0.018364957
183	0x3cade2ad	0.021226251
184	0x3cdcf65b	0.02697294
185	0xbbd7adfd	-0.0065820203
186	0xbd68fdf1	-0.056882802
187	0xbc49dcfb	-0.012320752
188	0xbc3a2ff7	-0.011363975
189	0x3be9e60f	0.007138021
190	0xbbf96994	-0.007611463
191	0x3daea5f0	0.08527744
192	0xbcc3410d	-0.02383473
193	0xbd6fe5e1	-0.05856884
194	0xbcff9443	-0.031198626
195	0x3d49ee04	0.049299255
196	0xbb8ab984	-0.004233541
197	0xbcefdaaa	-0.029279072
198	0x3d7e03d7	0.06201538
199	0xbd4ef0f6	-0.050522767
200	0x3c195d34	0.0093606
201	0xbd192558	-0.03738913
202	0x3c98ce83	0.01865316
203	0xbbfbabdb	-0.007680399
204	0xbd0e9eb2	-0.034819312
205	0xbce8f552	-0.02843729
206	0xbcd70e1f	-0.02625185
207	0x3cd911a4	0.02649767
208	0x3cbe4962	0.023228351
209	0xbc30160a	-0.010747442
210	0xbc4a9822	-0.012365373
211	0x3d5e1079	0.05421493
212	0xbd2701a0	-0.040773034
213	0x3d1fde5a	0.03903041
214	0xbcdafffd	-0.026733393
215	0x3cf8825d	0.0303356
216	0xbc969b25	-0.018384526
217	0x3ce43526	0.027857374
218	0xbc3879bf	-0.011259495
219	0x3cfe49ce	0.031041052
220	0x3c99348f	0.01870182
221	0xbd4c921b	-0.049944025
222	0x3c3d7fe0	0.011566132
223	0xbd649b86	-0.05581238
224	0xbb5f462d	-0.0034068928
225	0x3c59a96c	0.013285022
226	0x3d200dec	0.039075777
227	0xbbf22159	-0.0073892293
228	0x3aa39bae	0.0012482309
229	0xbcaa21e4	-0.020768113
230	0xbd921d10	-0.071344495
231	0xbc0698e2	-0.008215161
232	0xbcb4ffa3	-0.022094553
233	0x3cb41cfa	0.021986473
234	0xbc85e60b	-0.016345045
235	0xbc21815b	-0.009857501
236	0x3c84622d	0.016160095
237	0x3d502eb4	0.05082579
238	0xbdc68c7e	-0.096947655
239	0xbd1999de	-0.037500255
240	0x3c7e736e	0.01553045
241	0xbcb5abe8	-0.022176698
242	0x3c916ff4	0.017753579
243	0x3c1e6ff5	0.009670247
244	0xbc975387	-0.018472446
245	0x3cf397b1	0.029735418
246	0x3ca07631	0.019587608
247	0xbcc3c3b6	-0.023897033
248	0x3c721488	0.014775403
249	0xbc73d285	-0.014881735
250	0x3d64a634	0.055822566
251	0x3d5073bd	0.050891627
252	0xbccd6d03	-0.025076395
253	0x3c947846	0.018123757
254	0xbd4a14c8	-0.049336225
255	0xbcf5f7e4	-0.03002543

layer1.bias f4 [128]
0	0xbc0e39e4	-0.008680794
1	0x3c81eef0	0.015861005
2	0x3d53bcd9	0.05169377
3	0xbbc7cf67	-0.0060977223
4	0x3d5b13dc	0.053485736
5	0x3d0d3696	0.034475885
6	0x3d1637a1	0.036674146
7	0x3d242c4d	0.04008131
8	0x3d1706c9	0.036871705
9	0xbcb3337e	-0.02187514
10	0xbd1b1366	-0.037860297
11	0x3c19c810	0.0093860775
12	0xbb9cd7c8	-0.0047864653
13	0x3db616d5	0.088910736
14	0x3db220cd	0.086976625
15	0x3d6f1e78	0.058378667
16	0x3dd628f5	0.10457031
17	0x3ca68f79	0.020332085
18	0x3c4c477b	0.012468214
19	0x3d9dd566	0.07706718
20	0x3d08e90c	0.033425376
21	0x3d3c06c1	0.04590488
22	0x3d84b00a	0.06478889
23	0x3c391892	0.011297362
24	0x3c69c39d	0.014267829
25	0x3d161e3d	0.03664993
26	0x3d06f763	0.03295077
27	0xbd04856b	-0.0323538
28	0x3d3b4176	0.045716725
29	0x3d16c234	0.0368063
30	0x3ceac428	0.028657988
31	0x3d7fbbb5	0.06243487
32	0x3d800031	0.062500365
33	0x3d929d60	0.07158923
34	0x3d5856c5	0.052817125
35	0x3d377255	0.04478677
36	0x3cd400b3	0.02587924
37	0x3dd7c297	0.10535162
38	0xb99ad6c4	-0.00029533182
39	0x3c4061cf	0.011742069
40	0x3d017e5c	0.031614646
41	0x3d0bc887	0.034126785
42	0xbcd7d2f0	-0.0263457
43	0x3c795a15	0.015219231
44	0x3d2e4578	0.04254672
45	0xbc939e20	-0.018019736
46	0x3ceca65d	0.028887922
47	0x3d133352	0.035937615
48	0x3cb14018	0.021637008
49	0x3b370af5	0.0027930115
50	0x3ccf0408	0.025270477
51	0xbb03a1d2	-0.0020085466
52	0x3ca4d1cb	0.020119568
53	0xbc596f73	-0.0132712005
54	0x3dfbf470	0.12302482
55	0x3d6e0919	0.058114145
56	0x3d59606d	0.053070474
57	0x3da794c1	0.081826694
58	0x3c3c8fda	0.011508906
59	0x3d2369cc	0.039895818
60	0x3d2a9e3f	0.04165482
61	0x3d5d1f03	0.053984653
62	0xbcf629e1	-0.030049266
63	0x3db8bd79	0.09020514
64	0x3de840f6	0.11340515
65	0x3d798f9f	0.060927983
66	0x3d8043a7	0.06262904
67	0x3d0d94f6	0.03456589
68	0x3d9453e2	0.07242562
69	0x3cdca93a	0.026936162
70	0xbce47fae	-0.027892914
71	0x3ce5a134	0.02803097
72	0xbd072aa4	-0.03299965
73	0x3de4ea4a	0.111774996
74	0xbc8ea990	-0.017414838
75	0xbc632346	-0.01386339
76	0x3d232cd0	0.03983766
77	0x3e039526	0.12849864
78	0x3d81a936	0.063311026
79	0x3c81771c	0.015803866
80	0x3d95ed6a	0.07320674
81	0x3c9038fb	0.017605295
82	0x3d535711	0.051596705
83	0xbc94c932	-0.018162344
84	0x3d9b942e	0.075966224
85	0xbd05e960	-0.032693267
86	0x3d99c83f	0.07508897
87	0x3c9adee1	0.018905105
88	0x3c7a4404	0.015275005
89	0x3ce4cb07	0.027928842
90	0x3d9cca14	0.07655731
91	0xbbe06936	-0.0068484796
92	0xbb195169	-0.0023394472
93	0xbb72e2b4	-0.0037061395
94	0x3d56b414	0.05241783
95	0xbc82836d	-0.01593181
96	0x3dd9f76d	0.10642896
97	0xbbe5e710	-0.00701607
98	0x3c0fca0a	0.008776197
99	0x3cb0e952	0.02159563
100	0x3cb89edb	0.022536686
101	0x3dacc8c9	0.08436734
102	0x3da26e47	0.0793119
103	0x3c3bfb73	0.011473524
104	0x3d3fb250	0.04680091
105	0x3d3a5170	0.04548782
106	0x3d2daa64	0.042398825
107	0x3c976be8	0.01848407
108	0x3d2cd674	0.042196706
109	0x3d14d2f7	0.036334004
110	0x3c9b882a	0.018985827
111	0x3cef2d14	0.0291963
112	0x3ca8e070	0.020614833
113	0x3d1b2263	0.03787459
114	0x3d8f269e	0.069897875
115	0x3c738fc4	0.014865819
116	0x3db090c5	0.086213626
117	0x3db08840	0.086197376
118	0xbca9f28d	-0.02074554
119	0x3d859634	0.065227896
120	0x3d02094d	0.03174715
121	0x3c850654	0.016238369
122	0x3bc114fb	0.0058923936
123	0x3db7de78	0.089779794
124	0x3df21d9d	0.118220545
125	0x3d2b5853	0.04183228
126	0x3d863bf7	0.06554406
127	0x3d88eb09	0.066854544

layer2.weight f4 [128, 128]
0	0x3c94ca2a	0.018162806
1	0x3ca965c5	0.02067841
2	0x3cc00876	0.023441534
3	0x3d8c4c0b	0.068504415
4	0x3d86fcaf	0.06591164
5	0xbd50ee20	-0.051008344
6	0x3dafd1eb	0.085849606
7	0x3dbc456a	0.09192927
8	0x3d5e77ca	0.05431346
9	0xbe006385	-0.12537964
10	0x3d52795d	0.051385272
11	0xbd89c300	-0.067266464
12	0x3c5dbc3c	0.013533648
13	0x3e0f363b	0.13985531
14	0x3c9a2a08	0.01881887
15	0x3df9b4f0	0.12192714
16	0x3e08f809	0.13375868
17	0x3cf9f011	0.03050998
18	0x3c28fb5d	0.010313836
19	0x3d75496c	0.059884474
20	0x3cb67fc8	0.022277728
21	0x3d434175	0.047669847
22	0xbc9d191b	-0.01917701
23	0x3da0d443	0.07852986
24	0x3cfe69f2	0.031056378
25	0x3c677f1e	0.014129428
26	0xbcdfac94	-0.027303971
27	0xbd855add	-0.065114714
28	0x3d47a415	0.048740465
29	0x3cecf13d	0.028923625
30	0x3debc884	0.11512855
31	0x3c191ab7	0.009344748
32	0x3e05f8ee	0.1308324
33	0x3dd8f73b	0.105940305
34	0xbbbc5297	-0.00574715
35	0x3cc7dc61	0.024397077
36	0x3d8ac9e5	0.067767896
37	0x3da11393	0.078650616
38	0x3df1188a	0.117722586
39	0xbd160d9e	-0.03663408
40	0xbc436244	-0.011925284
41	0xbdfecb9b	-0.124411784
42	0xbe075507	-0.13216029
43	0xbb9a24f4	-0.004704112
44	0x3dda8943	0.10670712
45	0x3bbb8457	0.0057225632
46	0x3d87ae42	0.06625034
47	0x3d2c8658	0.042120308
48	0xbc6a8159	-0.014313065
49	0xbce092bd	-0.02741372
50	0x3bf748d4	0.0075465236
51	0x3d80a6f2	0.06281842
52	0x3cc10df0	0.023566216
53	0x3dfe1024	0.12405422
54	0x3e026696	0.12734446
55	0xbaec31db	-0.0018020229
56	0x3e01f2ab	0.12690227
57	0x3d9e1c87	0.07720285
58	0x3cd2ffcf	0.025756745
59	0xbc145447	-0.009053296
60	0x3cef2f2b	0.029197296
61	0x3def6814	0.11689773
62	0xbe170e6d	-0.14751597
63	0x3e1c480e	0.15261862
64	0x3cb43a67	0.022000505
65	0x3d128fe6	0.035781763
66	0x3d7b8048	0.061401635
67	0x3cff3785	0.031154403
68	0x3dd21713	0.10258307
69	0x3dac2160	0.08404803
70	0xba988f25	-0.001163934
71	0x3d80c316	0.0628721
72	0xbd0c690c	-0.034279868
73	0x3cd98156	0.02655093
74	0xbd1b3235	-0.037889678
75	0xbd99d2d9	-0.07510919
76	0x3d8bf2e4	0.06833437
77	0x3db5d2de	0.0887811
78	0x3d745ede	0.059660785
79	0x3d0aa2de	0.03384673
80	0x3d9d96fb	0.07694813
81	0x3dd3d108	0.10342604
82	0x3dbe9fb4	0.09307805
83	0xbdba6fbb	-0.09103342
84	0xba219849	-0.0006164355
85	0x3d2ec477	0.042667832
86	0x3ca9379a	0.020656396
87	0x3d62c07b	0.055359345
88	0x3dfbd024	0.12295559
89	0x3d47d5d5	0.04878791
90	0x3d746259	0.059664104
91	0xbd8a1a7f	-0.06743335
92	0xbddca618	-0.10773867
93	0x3d6a2078	0.05715987
94	0x3df474ad	0.11936317
95	0xbccdf81c	-0.025142722
96	0x3de5cc5e	0.112206206
97	0x3d87b0f9	0.06625552
98	0x3da69b74	0.08135119
99	0x3da47a53	0.08031144
100	0x3d171f8f	0.03689533
101	0x3d9715a6	0.07377176
102	0x3d4301d2	0.047609158
103	0x3c2fc1d9	0.010727369
104	0x3d1a0537	0.03760263
105	0x3d677a42	0.05651308
106	0x3db65f71	0.08904923
107	0x3db8d29c	0.090245456
108	0xbc8010c3	-0.015632993
109	0x3dc882a3	0.09790542
110	0xb92f25f4	-0.00016703439
111	0x3be80c2c	0.007081529
112	0xbe39175b	-0.18075316
113	0x3df7477c	0.120741814
114	0x3e1b6a09	0.15177168
115	0x3d5d092d	0.05396383
116	0x3dcccc9a	0.09999962
117	0x3dfb80fb	0.122804604
118	0x3b025eca	0.0019892924
119	0x3c41b25b	0.011822308
120	0xbd7c565c	-0.061605796
121	0x3d5b5120	0.053544164
122	0x3d7bf08d	0.061508704
123	0x3e03b3b1	0.12861516
124	0xbb677ea6	-0.003532329
125	0x3de88764	0.11353949
126	0xbb173dcd	-0.0023077608
127	0x3d0729d8	0.03299889
128	0x3d7476df	0.059683677
129	0x3db94d8b	0.09047993
130	0x3d014a95	0.031565268
131	0x3c45ccb1	0.012072728
132	0x3c5e03d6	0.013550719
133	0x3983ed0f	0.0002516289
134	0x3d357091	0.044296805
135	0xbd401ff4	-0.046905473
136	0x3d96e354	0.07367578
137	0x3d25c993	0.04047544
138	0x3cc40ec8	0.02393283
139	0x3cab5444	0.020914204
140	0xbd16444b	-0.036686223
141	0xbd4e70d0	-0.050400555
142	0x3d9976d5	0.074933685
143	0x3cfb28ab	0.03065904
144	0x3d639862	0.055565245
145	0xbbdcc5cc	-0.0067374464
146	0xbd877ce7	-0.0661562
147	0xbcb60fd9	-0.022224354
148	0xbd8b8e7e	-0.068142876
149	0xbcac426f	-0.021027772
150	0x3c7b9421	0.015355141
151	0x3d066014	0.03280647
152	0x3c02ef67	0.007991648
153	0xbd298125	-0.041382927
154	0x3dbb4cf1	0.09145535
155	0xbcf28687	-0.029605163
156	0xbc839c5a	-0.016065765
157	0x3d4de46b	0.050266664
158	0x3dd48795	0.10377423
159	0xbbef2ebe	-0.0072992733
160	0x3d2ff18d	0.04295497
161	0x3d5d09be	0.05396437
162	0x3d3ecf00	0.04658413
163	0x3db580ac	0.08862433
164	0xbc2e5274	-0.010639776
165	0xbc7562ea	-0.014977196
166	0xbc1325f7	-0.0089812195
167	0xbca73ccd	-0.020414734
168	0x3d2a6a8b	0.041605514
169	0x3dd495b2	0.103801146
170	0x3db63c91	0.08898271
171	0x3ce1dae7	0.027570201
172	0x3d29b56d	0.041432787
173	0x3d94221e	0.0723307
174	0xbda6eec5	-0.081510104
175	0x3d3a8f43	0.04554678
176	0xbd4290c9	-0.04750136
177	0x3d2160b4	0.039398864
178	0x3d50831e	0.050906293
179	0xbc4df6e3	-0.012571069
180	0xbb56447b	-0.0032694626
181	0x3d5ce8e1	0.053933028
182	0x3d535eee	0.051604204
183	0x3c9dd36b	0.019265851
184	0x3d8e41f3	0.069461726
185	0xbc97a103	-0.018509394
186	0x3d8dc4ef	0.06922328
187	0x3da067b6	0.07832281
188	0x3ba113b7	0.0049156803
189	0xbd6472bb	-0.055773478
190	0xbe0a185f	-0.1348586
191	0xbd188b77	-0.03724238
192	0x3db32f19	0.087492175
193	0x3d609cd0	0.054837048
194	0xbd3b8867	-0.04578438
195	0x3c4048cf	0.011736109
196	0x3c47206f	0.012153729
197	0x3d6b3420	0.057422757
198	0x3cdd5acd	0.027020836
199	0x3db7d933	0.08976974
200	0xbd752ff1	-0.059860174
201	0x3d76bbb2	0.060237594
202	0xbd99122d	-0.0747417
203	0xbcc294d5	-0.02375261
204	0x3d7f7243	0.062364828
205	0x3af0fd79	0.0018386088
206	0x3d2ba2ae	0.04190319
207	0x3d492ce6	0.049115084
208	0x3d03cd37	0.03217813
209	0x3d68843b	0.05676673
210	0xbd233f50	-0.0398553
211	0xbcb1cf7d	-0.021705383
212	0xbd539d4b	-0.05166368
213	0xbd2ae9fe	-0.04172706
214	0xbc79f9d1	-0.015257315
215	0x3c8e93ef	0.017404525
216	0xbccf6cff	-0.025320528
217	0xbcbdcded	-0.023169482
218	0x3d8d6f89	0.06906039
219	0xbca7afef	-0.020469634
220	0x3c686dd6	0.014186343
221	0x3cbd6cc5	0.023123154
222	0x3da46ac4	0.080281764
223	0xbd1f855f	-0.038945552
224	0x3d94dfa7	0.07269221
225	0xbc660fbe	-0.014041839
226	0xbd8d5621	-0.069011934
227	0x3c8c9d4b	0.017164847
228	0xbd0f714a	-0.03502015
229	0x3d2083af	0.039188083
230	0xbc2c4c25	-0.010516201
231	0x3be0e7ed	0.006863585
232	0x3d849374	0.06473437
233	0x3d51e70f	0.051245745
234	0x3dd1576f	0.10221755
235	0xbbedef1a	-0.007261169
236	0xbce58748	-0.028018609
237	0x3d885fff	0.06658935
238	0xbd209ab9	-0.039210055
239	0x3d8281e7	0.06372433
240	0x3de352bb	0.11099764
241	0x3dceff05	0.10107235
242	0x3d983712	0.07432379
243	0x3d6de964	0.058083907
244	0x3d9e6222	0.07733561
245	0x3caa24f3	0.020769572
246	0xbe54bef4	-0.20775968
247	0x3ced7828	0.028987959
248	0x3c957424	0.018243857
249	0x3d078195	0.033082563
250	0xbcc68b58	-0.024236366
251	0xbd419c7b	-0.047268372
252	0x3d8aab30	0.06770933
253	0xbd70732b	-0.058703583
254	0x3d87322d	0.06601367
255	0x3d8d0a21	0.068866976

layer2.bias f4 [128]
0	0xbd31ba1d	-0.043390382
1	0xbc3bc402	-0.011460306
2	0x3d6469d9	0.055765007
3	0x3cb5ef68	0.022208884
4	0xbc0303df	-0.007996528
5	0x3cd721bf	0.026261209
6	0xbd84e5bd	-0.064891316
7	0xbd8c6909	-0.06855971
8	0x3d895195	0.06705014
9	0xbbac204b	-0.005252873
10	0x3d9360d9	0.071962066
11	0x3d170dfa	0.036878563
12	0x3cd4baf4	0.025968052
13	0xbd3a7748	-0.04552391
14	0x3b1434f5	0.0022614573
15	0x3da2814e	0.07934819
16	0xbc760616	-0.015016099
17	0x3c543571	0.012952195
18	0x3c0b1091	0.008487836
19	0x3bdcb097	0.0067349183
20	0xbd0fc8bc	-0.035103545
21	0x3c75ffbd	0.015014586
22	0x3da62931	0.081133254
23	0xbc73eb5d	-0.014887658
24	0x3dd105f8	0.102062166
25	0xbce5206d	-0.027969563
26	0x3d4a500e	0.049392752
27	0x3d8ceecf	0.068814866
28	0xbbe60b43	-0.0070203855
29	0x3d0cf011	0.034408633
30	0x39c93305	0.0003837572
31	0x3daf9ab0	0.08574426
32	0x3cb3cbdb	0.021947792
33	0x3d78e65d	0.060766567
34	0xbcf26db3	-0.029593324
35	0x3da2c07f	0.07946872
36	0xbda25053	-0.07925477
37	0xbd2c7d64	-0.04211177
38	0x3d5fdd1f	0.054654237
39	0x3d7cf632	0.061758228
40	0x3d8fffd5	0.07031218
41	0x3d843a5b	0.06456443
42	0x3cf58ce4	0.029974408
43	0xbd641fba	-0.05569432
44	0x3b4d61f6	0.0031338907
45	0xbb528c17	-0.0032126957
46	0x3cc50aa4	0.024052925
47	0x3cfda6c2	0.030963305
48	0xbd36a775	-0.044593293
49	0xbd151f12	-0.036406584
50	0x3dfba816	0.12287919
51	0xbd759451	-0.0599559
52	0x3d81c123	0.06335666
53	0xbc19a64a	-0.009378025
54	0xbd302cec	-0.04301159
55	0xbcde1f6e	-0.027114596
56	0x3c878757	0.016544027
57	0xbc82b293	-0.015954291
58	0xb986b478	-0.0002569293
59	0xbd47f25c	-0.048815116
60	0x3da8b729	0.0823806
61	0xbc8244cb	-0.015901944
62	0x3cbc2614	0.022967376
63	0x3db6fed4	0.08935323
64	0x3d0a3c60	0.033748984
65	0x3d4be470	0.0497784
66	0xbc5af92f	-0.013365074
67	0xbc7989af	-0.01523058
68	0x3c2533c5	0.010083144
69	0x3dae7ab3	0.08519497
70	0xbd8df55d	-0.06931565
71	0xbd8f012f	-0.06982648
72	0x3d174d99	0.036939237
73	0xbc8c5c58	-0.017133877
74	0x3d77bafd	0.06048106
75	0x3d2292e1	0.039690856
76	0xbb2eb449	-0.0026657751
77	0x3d43bd37	0.04778787
78	0x3d3c1ead	0.045927692
79	0x3c377c36	0.011199048
80	0xbd137e90	-0.03600937
81	0xbd3336f8	-0.043753594
82	0xbd8fb384	-0.07016662
83	0x3d6bfaa7	0.057612088
84	0x3c9be924	0.019032069
85	0x3dace668	0.08442384
86	0x3d1adaf6	0.037806474
87	0x3d7ce84e	0.06174498
88	0xbca9fcc6	-0.020750415
89	0x3d7c30d8	0.06157002
90	0x3cfc57fc	0.030803673
91	0x3d822df5	0.06356422
92	0xbd303690	-0.043020785
93	0x3df83438	0.12119335
94	0x3d4c3571	0.049855653
95	0xbcc8a43c	-0.024492376
96	0xbd067f2d	-0.032836128
97	0xbd965468	-0.07340318
98	0x3d211719	0.03932867
99	0x3cc191cb	0.02362909
100	0xbd26d3a0	-0.040729165
101	0x3d171967	0.03688946
102	0x3d2b0bc9	0.041759286
103	0xbcf16cee	-0.029470887
104	0xbcc53dfd	-0.02407741
105	0x3d76a99c	0.060220346
106	0xbc9bff3f	-0.01904261
107	0xbcca6ebd	-0.024711007
108	0x3d3f12c9	0.046648774
109	0x3da7916a	0.081820324
110	0xbd35c8c6	-0.044380926
111	0x3dfe7920	0.124254465
112	0xbb1fbac8	-0.0024372805
113	0x3d6603c7	0.056155946
114	0xbc18ba5a	-0.009321773
115	0x3d88dd60	0.06682849
116	0xbd850a45	-0.064960994
117	0x39e7b41c	0.00044193945
118	0x3d1e60f9	0.0386667
119	0x3d143c4a	0.03619031
120	0x3cdd9138	0.027046785
121	0xbd87409f	-0.06604122
122	0xbd6b6af1	-0.057475034
123	0x3c3bb954	0.01145776
124	0x3d30a337	0.043124404
125	0x3d4cbe37	0.04998609
126	0xbce0ffed	-0.027465785
127	0x3daa4c15	0.08315293

layer3.weight f4 [290, 128]
0	0x3dad6833	0.0846714
1	0xbcb32fb1	-0.021873327
2	0xbd271194	-0.04078825
3	0x3da4eed6	0.08053367
4	0x3d9e2c21	0.07723261
5	0xba369ce4	-0.00069661275
6	0xbd9f59c5	-0.07780794
7	0x3ce2ba34	0.02767668
8	0x3ce9e823	0.028553074
9	0xbd83414f	-0.06408941
10	0x3d8bc509	0.06824691
11	0xbd9996b4	-0.074994475
12	0x3d580eb6	0.052748404
13	0x3b5da683	0.0033821173
14	0xbd2513cd	-0.040302087
15	0x3dcc9392	0.09989084
16	0x3d378e4a	0.04481343
17	0x3d1671f7	0.03672978
18	0x3d382c7a	0.04496429
19	0x3ce9cb54	0.028539337
20	0xbd2120b4	-0.03933783
21	0xbc7f530d	-0.015583766
22	0x3de68e6c	0.112576336
23	0xbd2be155	-0.04196294
24	0x3ce0776c	0.027400695
25	0x3d6500ae	0.05590885
26	0x3dc385b4	0.09546986
27	0x3da31f4a	0.07964952
28	0x3d85fd3c	0.06542441
29	0x3cf40cda	0.029791284
30	0xbe1dbc58	-0.15403879
31	0x3db23bbd	0.087028004
32	0xbc9e58b2	-0.019329403
33	0xbc53d26e	-0.012928588
34	0xbcee3632	-0.029078577
35	0xbd806912	-0.062700406
36	0x3d6bb8bc	0.057549223
37	0x3d10e7cc	0.03537731
38	0xbdc4e6ac	-0.0961431
39	0xbaf785c6	-0.0018884472
40	0xbc767744	-0.015043084
41	0x3ca05601	0.01957226
42	0xbc3feb23	-0.011713776
43	0xbd5c5e04	-0.053800598
44	0xbd3d9887	-0.04628804
45	0xbd908745	-0.070570506
46	0xbd3f6d07	-0.046734836
47	0x3c092296	0.008370062
48	0xbcba3135	-0.022728542
49	0xbc8ef355	-0.017450014
50	0x3d9306f9	0.07179064
51	0x3c7d33d1	0.0154542485
52	0xbbd2aa6f	-0.0064290087
53	0x3d852a8e	0.06502257
54	0xbd5b9957	-0.053613033
55	0xbdfef231	-0.12448538
56	0xbcb38887	-0.021915687
57	0x3d87d4f3	0.06632414
58	0x3dccbce8	0.099969685
59	0xbd07f02c	-0.03318803
60	0x3d53cf14	0.051711157
61	0x3dbf1ad1	0.09331287
62	0xbcc5ec67	-0.024160577
63	0x3db63de2	0.08898522
64	0xbd629b06	-0.055323623
65	0xbd3e8b83	-0.046519767
66	0xbcd4623e	-0.025925752
67	0x3c412054	0.011787493
68	0x3d0db1f8	0.034593552
69	0x3dab572d	0.08366237
70	0x3cded989	0.027203338
71	0xbd973238	-0.07382625
72	0xbca3514d	-0.019936228
73	0x3d4c9112	0.049943037
74	0xbd224680	-0.039618015
75	0x3da57f52	0.08080925
76	0x3d929205	0.07156757
77	0xba41cf93	-0.00073932967
78	0x3d2a1c55	0.041530926
79	0x3d635e31	0.05550975
80	0x3d8418d3	0.06450047
81	0xbd5dbf2c	-0.054137394
82	0xbd919894	-0.0710918
83	0x3d8e3e05	0.06945423
84	0x3d9965db	0.074901305
85	0x3d1c11f7	0.03810307
86	0xbd8af27f	-0.06784534
87	0xbc383f44	-0.011245552
88	0xbcbcb8be	-0.02303731
89	0xbce968e5	-0.0284924
90	0x3d9e8c7a	0.077416375
91	0xbcf89433	-0.030344104
92	0xbc9b3808	-0.018947616
93	0xbca990bd	-0.0206989
94	0x3d1bac83	0.038006317
95	0xbc88f05d	-0.016716177
96	0xbd3f6ceb	-0.04673473
97	0x3d2134c9	0.03935698
98	0x3d3b2849	0.045692716
99	0x3e075c4a	0.13218799
100	0xbd000fd0	-0.03126508
101	0x3d9c9e1e	0.07647346
102	0x3d7d3d52	0.061826058
103	0xbd531a3e	-0.0515387
104	0xbd28f557	-0.0412496
105	0x3da7cdea	0.08193572
106	0xbc859c8f	-0.016310005
107	0xbd5aefd3	-0.05345137
108	0x3c6d146c	0.014470201
109	0xbd4ce234	-0.05002041
110	0xbd45bcff	-0.048275944
111	0x3dd6c63e	0.104870304
112	0x3cbd5812	0.023113284
113	0xbbb4e4c7	-0.0055204364
114	0xbd2d1903	-0.04226018
115	0xbd563583	-0.052297127
116	0xbd119ec1	-0.03555179
117	0xbc2ed401	-0.010670663
118	0x3d281d0f	0.041043337
119	0xbcb0a0b5	-0.021561006
120	0x3dae5bcc	0.085136026
121	0xbd980059	-0.07421941
122	0x3d598a5c	0.053110465
123	0x3cc17f1f	0.023620186
124	0xbce924bc	-0.0284599
125	0xbd808362	-0.06275059
126	0x3d64e098	0.05587825
127	0xbd05dd08	-0.032681495
128	0x3ddae2c0	0.106877804
129	0x3d8ec65d	0.069714285
130	0x3d882a0c	0.06648645
131	0x3d1c2da6	0.03812947
132	0xbc602f7d	-0.013683197
133	0x3b419ca9	0.002954284
134	0x3ca9ef93	0.02074412
135	0xbd2e9491	-0.042622153
136	0x3d193709	0.037406
137	0xbc013dcd	-0.00788827
138	0xbcc39151	-0.023873003
139	0x3c925920	0.017864764
140	0xbc2e0f04	-0.010623697
141	0xbc930ade	-0.017949518
142	0x3ca81713	0.020518815
143	0x3d5e07e4	0.054206744
144	0xbae520df	-0.001748111
145	0xbd8939e4	-0.06700495
146	0x3d2e272c	0.042517826
147	0x3df25a4b	0.11833628
148	0xbccb46c7	-0.024814023
149	0xbcfabc35	-0.030607322
150	0x3de3d8a9	0.11125309
151	0xbd67596e	-0.05648177
152	0x3cf79ed2	0.030227099
153	0xbc8bcb1a	-0.01706462
154	0x3d323dcc	0.043515965
155	0x3caccacb	0.021092793
156	0x3d4682dd	0.048464645
157	0xbc9d1264	-0.019173808
158	0xbd1bc380	-0.03802824
159	0x3dd10cee	0.10207544
160	0xbd4ce5b1	-0.05002374
161	0x3df66417	0.120308094
162	0x3a3b3595	0.0007141468
163	0xbce3f380	-0.02782607
164	0x3d73b1f5	0.059495885
165	0x3d925935	0.07145921
166	0x3d258ee3	0.04041947
167	0xbd69e2b5	-0.05710097
168	0x3c3ee9de	0.011652438
169	0x3b532b1f	0.0032221747
170	0x3da21214	0.079136044
171	0x3d3208c6	0.0434654
172	0xbc720acb	-0.014773081
173	0x3d5733a1	0.05253947
174	0x3dfdc58f	0.12391197
175	0x3d98efef	0.07467639
176	0xbd2f8f68	-0.042861372
177	0x3d93b190	0.07211602
178	0x3d9cc861	0.07655407
179	0xbd9f0d44	-0.07766202
180	0xbc53b481	-0.012921453
181	0x3d86ab23	0.065756105
182	0x3be2d1e9	0.006921996
183	0xbd35b866	-0.04436531
184	0xbbd19aa9	-0.0063966108
185	0xbcb90ee1	-0.022590103
186	0x3c61d5b6	0.013783863
187	0x3d1c7b12	0.038203306
188	0x3d3fc102	0.046814926
189	0x3d32e0d1	0.043671433
190	0x3d4db9ff	0.050226208
191	0x3dc2d6c9	0.09513623
192	0xbc163d63	-0.009169909
193	0xbc1f5335	-0.009724428
194	0x3da7f2ba	0.08200593
195	0xbd7ddc34	-0.06197758
196	0x3ce8c108	0.028412357
197	0xbc050cf1	-0.008120761
198	0xbd4c93a2	-0.04994548
199	0x3ca6904b	0.020332476
200	0xbae40514	-0.0017396533
201	0xbd0cd97d	-0.0343871
202	0x3d886f84	0.06661895
203	0xbcfb12b8	-0.030648574
204	0x3d9f2304	0.077703506
205	0xbcc637fe	-0.024196621
206	0xbd5ee750	-0.054419816
207	0xbc15701b	-0.009120966
208	0xbc1b1f14	-0.009467859
209	0xbd37f99e	-0.044915788
210	0x3d0c06a7	0.03418603
211	0xbc9230ba	-0.0178455
212	0x3c8b9671	0.01703951
213	0x3d0a012a	0.033692516
214	0xbd9a3231	-0.075291045
215	0xbcd8bf88	-0.026458517
216	0xbd5bf632	-0.053701587
217	0xbd786755	-0.06064542
218	0x3d7129bc	0.05887769
219	0xbd2b0ce9	-0.04176036
220	0x3d87bbab	0.06627592
221	0x3d83dc8a	0.06438549
222	0x3cb45c62	0.022016708
223	0xbc4aea50	-0.012384966
224	0xbd078681	-0.033087257
225	0x3c814fe3	0.015785163
226	0x3cff7edb	0.03118842
227	0xbbb83bcf	-0.005622364
228	0x3c16bfb4	0.009200979
229	0x3c2b5240	0.010456622
230	0x3dbaf1db	0.091281615
231	0x3d818153	0.06323495
232	0x3d94ea42	0.07271244
233	0x3dcc7042	0.09982349
234	0x3dacfee1	0.08447052
235	0x3c9e386a	0.01931401
236	0x3d325be4	0.043544665
237	0x3b905763	0.0044049486
238	0xbd19b1fc	-0.037523255
239	0x3dcb7ff5	0.09936515
240	0x3dbb0463	0.09131696
241	0xbca0b25d	-0.0196163
242	0xbd217870	-0.0394215
243	0xbc6ee241	-0.01458031
244	0xbd09c168	-0.033631712
245	0xbd6ee9c7	-0.058328416
246	0x3d6a8ab5	0.057261188
247	0xbd8067a6	-0.06269769
248	0xbcf4af1b	-0.029868653
249	0x3d85f9c9	0.06541783
250	0x3d2be204	0.041963592
251	0xbd214709	-0.039374385
252	0xbda135fa	-0.07871623
253	0x3dceeb83	0.10103514
254	0xbcdd4b60	-0.02701348
255	0xbd3dd434	-0.04634495

layer3.bias f4 [290]
0	0x3d3f6584	0.046727672
1	0x3ccb603a	0.024826158
2	0xbb55b406	-0.0032608523
3	0x3c9e1c80	0.0193007
4	0xbcf8d406	-0.030374538
5	0x3ceecf30	0.02915153
6	0xbd4a49b2	-0.049386688
7	0x3daba564	0.08381155
8	0x3c801c89	0.015638607
9	0xbceabf8f	-0.028655795
10	0x3d019adf	0.031641837
11	0x3d5a5d95	0.053311903
12	0x3d5507cd	0.052009393
13	0xbd58b725	-0.052909035
14	0xbc82db64	-0.015973754
15	0xbc5c020f	-0.013428225
16	0xbcdcd543	-0.02695716
17	0x3cd2b1a6	0.025719475
18	0xbc9219a5	-0.017834494
19	0x3d902de0	0.0704
20	0x3b453ad5	0.003009488
21	0x3db74c5e	0.08950113
22	0x3bdfd497	0.0068307626
23	0x3cb2ffd0	0.021850497
24	0x3d549029	0.051895294
25	0xbc3be68c	-0.011468541
26	0xbd0fd4c2	-0.03511501
27	0xbd21ec39	-0.03953192
28	0xbcf26841	-0.029590728
29	0xbcd109e5	-0.025517413
30	0xbc7ba5c9	-0.0153593505
31	0x3dcf6c76	0.10128109
32	0x3d3f9695	0.046774466
33	0x3dbc9d72	0.09209718
34	0x3da58dda	0.08083697
35	0x3db6973d	0.08915565
36	0x3be38339	0.006943133
37	0xbcbeac59	-0.023275541
38	0xbd28493c	-0.041085467
39	0x3d797066	0.060898207
40	0x3dcbd449	0.099525996
41	0x3bda8329	0.0066684675
42	0x3d99a62c	0.07502398
43	0x3b0a938f	0.002114508
44	0x3d495aba	0.04915879
45	0xbb4bcf12	-0.0031098765
46	0x3dc92d8c	0.098231405
47	0xbcc27af1	-0.023740264
48	0x3dc36297	0.09540289
49	0xbd29042a	-0.041263737
50	0xbcd96bcc	-0.02654066
51	0xbd1ef6a2	-0.038809426
52	0x3d79f1de	0.06102168
53	0x3dca9c64	0.098931104
54	0xbca6ab76	-0.02034543
55	0x3dcd7eb2	0.10033931
56	0x3cfcd206	0.030861866
57	0x3d1f884f	0.038948353
58	0x3dae0fcf	0.08499109
59	0x3d5b09e6	0.053476237
60	0xbcfd4ca5	-0.030920336
61	0x3ccdbf70	0.025115699
62	0x3d5484b1	0.051884357
63	0x3d496947	0.049172666
64	0x3d4be0a4	0.04977478
65	0xbcbe4398	-0.02322559
66	0xbd342058	-0.043976158
67	0xbbd0ff34	-0.006378079
68	0x3d13dc61	0.03609884
69	0x395446a8	0.00020244217
70	0xbc41f1b5	-0.011837413
71	0xbcabb5ae	-0.020960655
72	0xbd79bca1	-0.060970906
73	0xbd844817	-0.064590625
74	0x3da05682	0.07829
75	0x3c9a2d56	0.018820446
76	0x3d08dcc3	0.03341366
77	0x3d963713	0.07334723
78	0x3d105784	0.03523971
79	0x3d8c25c8	0.06843144
80	0xbd00273a	-0.03128741
81	0x3a2432ae	0.00062636554
82	0x3ce29680	0.027659655
83	0x3c0561b6	0.008140972
84	0x3caf6d8a	0.021414537
85	0xbcc5e1cb	-0.024155518
86	0x3d002c57	0.031292286
87	0x3d93efe3	0.07223489
88	0x3d894cd0	0.06704104
89	0x3dd79c7c	0.10527894
90	0x3d822be4	0.06356028
91	0x3d0886d8	0.033331722
92	0x3c5a224d	0.013313842
93	0x3d759e6f	0.059965547
94	0xbd42ea35	-0.04758664
95	0xbd45b0a9	-0.04826418
96	0x3c9dc7fe	0.019260403
97	0xbd9ef4b4	-0.07761517
98	0xbb4b9fc1	-0.0031070563
99	0x3c342ff2	0.010997759
100	0xbbadbdea	-0.0053021805
101	0xbd13b0e7	-0.03605738
102	0x3db1bc30	0.08678472
103	0x3cd47a85	0.025937328
104	0x3d5f61fd	0.05453681
105	0x3d031277	0.03200003
106	0x3c5017ed	0.012701017
107	0xbd0ed52d	-0.03487127
108	0x3c8b2a69	0.016987996
109	0x3c8a0488	0.016847864
110	0xbd8b7b11	-0.068105824
111	0x3cc9a2f0	0.024613827
112	0xbcf92cf2	-0.03041694
113	0x3bd41e03	0.0064733042
114	0xbc399671	-0.011327372
115	0xbca37ff0	-0.019958466
116	0x3d6e0381	0.05810881
117	0x3d196bbb	0.037456255
118	0x3bee3e75	0.007270629
119	0xbd26a53e	-0.04068493
120	0x3d226b27	0.03965297
121	0xbbcc3188	-0.0062314905
122	0x3d8123c9	0.063056536
123	0x3d85af7b	0.06527611
124	0xbcceb943	-0.025234824
125	0xbd091132	-0.033463664
126	0xbca5a988	-0.02022244
127	0x3c7af9d7	0.0153183555
128	0xbd9bcbe6	-0.0760725
129	0xbca4f3b7	-0.020135744
130	0x3d3920b7	0.045197215
131	0xbd25b36f	-0.040454324
132	0x3b2fa162	0.0026799073
133	0xbd54857f	-0.051885124
134	0x3daef9bf	0.08543729
135	0x3bae0078	0.0053101145
136	0xbd63b7c6	-0.055595182
137	0x3ce63b0f	0.028104333
138	0x3ce76b25	0.028249333
139	0x3d4d4085	0.05011036
140	0x3dcbfc51	0.09960235
141	0x3cabaccb	0.020956418
142	0xbd65007f	-0.055908676
143	0x3d6edf3c	0.05831836
144	0xbc153101	-0.009105922
145	0x3d7f5abf	0.0623424
146	0x3d3b490d	0.045723964
147	0x3d276162	0.040864356
148	0xbcc38e52	-0.023871575
149	0x3de40e99	0.11135597
150	0xbd9cf349	-0.076635905
151	0x3cdbd5b2	0.026835296
152	0xbc7ed69b	-0.015554096
153	0x3cf6028c	0.030030511
154	0xbc138e51	-0.009006099
155	0xbd1454b2	-0.036213584
156	0xbd3832db	-0.044970375
157	0x3d875b13	0.06609168
158	0x3ce6fc28	0.02819641
159	0xb899657c	-7.3145115e-05
160	0x3d7261fc	0.059175476
161	0xbd9bcd97	-0.076075725
162	0x3db249a8	0.08705455
163	0x3d09846e	0.03357356
164	0x3d6a16ea	0.05715076
165	0xbd874e6c	-0.06606755
166	0x3d8c8947	0.06862121
167	0xbd6b0e15	-0.057386477
168	0x3ab66b35	0.0013917448
169	0xbd106837	-0.035255637
170	0x3d2efc7d	0.04272126
171	0xbc18e1e2	-0.009331198
172	0x3c9469b8	0.018116817
173	0x3b7116b1	0.0036787207
174	0x3d940821	0.07228113
175	0x3cb0fda2	0.021605317
176	0x3bd2a5b5	0.006428445
177	0x3d5a76a4	0.0533358
178	0xbd49d049	-0.0492709
179	0xbd314ce2	-0.04328621
180	0x3d1f2a81	0.038858894
181	0x3d33f6e7	0.043936636
182	0xbd841519	-0.064493366
183	0xbc50caeb	-0.012743692
184	0xbbd2e1c9	-0.006435607
185	0xbd0930ed	-0.033493925
186	0xbc5a0ca3	-0.013308677
187	0x3d2f4bec	0.042797014
188	0xbd17c101	-0.037049297
189	0x3bcbc78d	0.0062188567
190	0xbd8d3163	-0.068941854
191	0xbb022d4b	-0.0019863422
192	0xbd077ff0	-0.033080995
193	0x3d941888	0.072312415
194	0x3cff22e6	0.03114457
195	0x3bd86021	0.0066032563
196	0x3d84233c	0.06452033
197	0xbd819a46	-0.063282534
198	0xbd68b9d3	-0.05681784
199	0xbcbce447	-0.02305807
200	0xbc3f7c9e	-0.011687426
201	0x3cf2f055	0.029655615
202	0xbd340ba7	-0.043956425
203	0x3db57a84	0.088612586
204	0x3d2b0b63	0.041758906
205	0x3d9d7bb7	0.07689612
206	0x3d79dc4b	0.061001103
207	0xbc6fa081	-0.014625669
208	0xbd2b4f0a	-0.041823424
209	0x3d6c35b1	0.05766839
210	0xbd42aef8	-0.047530144
211	0xbd27d680	-0.040976048
212	0x3d92dacf	0.07170641
213	0xbaf9bf68	-0.0019054236
214	0x3d20f996	0.039300524
215	0xbd38e144	-0.045136705
216	0x3d8b9ead	0.068173744
217	0xbd4823a1	-0.048862103
218	0xbca59b74	-0.020215727
219	0x3caa9b73	0.020826077
220	0x3d74e37d	0.059787262
221	0xbd878820	-0.06617761
222	0xbd7805cf	-0.060552415
223	0x3d8ce052	0.06878723
224	0x3da6a943	0.08137753
225	0x3d476d0a	0.048687972
226	0x3ce64e2e	0.02811345
227	0x3d88c4e0	0.06678176
228	0xbd2fbdc4	-0.042905584
229	0x3d428196	0.047486864
230	0x3d6a6152	0.057221718
231	0xbd666e5a	-0.056257583
232	0x3ca904d9	0.020632194
233	0x3d67d7e8	0.05660239
234	0x3dd90e5f	0.10598444
235	0x3d71d974	0.05904527
236	0x3cf5d365	0.030008027
237	0x3beda81f	0.0072527076
238	0xbc5e0a7d	-0.013552305
239	0xbc979bcc	-0.018506907
240	0xbd336d9d	-0.043805707
241	0xbcd51589	-0.026011245
242	0x3dafd933	0.08586349
243	0x3da0fef0	0.078611255
244	0xbce49383	-0.02790237
245	0x3d8d79ef	0.069080226
246	0x3d70c685	0.058783073
247	0xbcd0ddb1	-0.025496336
248	0x3d0d805d	0.034546245
249	0x3d116e35	0.035505492
250	0x3a852688	0.0010158578
251	0x3d7ccef4	0.061720803
252	0x3d5ae879	0.05344436
253	0x3d8f0503	0.06983378
254	0x3dc1eedb	0.09469386
255	0xbd063574	-0.03276582
