catanatron_experimental/my_DQN_wyniki1/my_DQN1_250_steps.pth (torch, 532839 bytes, 6 tensors)

layer1.weight f4 [128, 614]
0	0xbb81c4da	-0.003960234
1	0x3d15cd93	0.036573004
2	0x3c91c4c8	0.017794028
3	0x3d0f2e1d	0.034956086
4	0x3d2762af	0.040865596
5	0x3ccd0d08	0.025030628
6	0x3bc48fb7	0.0059985775
7	0x3d409048	0.047012597
8	0xbc7136c9	-0.014722534
9	0xbbe69159	-0.0070363698
10	0x3c61f244	0.013790671
11	0xbc014a30	-0.007891223
12	0xbbb0fc33	-0.0054011582
13	0x3c1f1e66	0.009711837
14	0xbce74c41	-0.028234603
15	0xbc7e85b2	-0.015534805
16	0xbd277686	-0.040884517
17	0xbcafb2d3	-0.021447575
18	0x3d9e51b1	0.07730425
19	0x3d577ec1	0.052611116
20	0x3bb1ee20	0.005429998
21	0x3cfa5aa8	0.030560806
22	0xbcf4a6a6	-0.02986462
23	0xbcb3b8c6	-0.021938693
24	0x3ca46cae	0.020071354
25	0xbcd14aca	-0.025548358
26	0xbd153e18	-0.03643617
27	0x3cbd9a29	0.023144798
28	0xbcde6490	-0.027147561
29	0x3da8fb91	0.082511075
30	0xbc8d312f	-0.017235367
31	0xbc4f3fbc	-0.012649473
32	0x3d580f60	0.052749038
33	0xbba01e11	-0.0048863967
34	0xbc8a0fc7	-0.016853226
35	0xbbafa73b	-0.0053605116
36	0x3c949ec2	0.018142108
37	0x3d546f5a	0.051864006
38	0xbd0e7de5	-0.03478803
39	0xbc1a468b	-0.009416233
40	0x3d0863ae	0.033298187
41	0x3dc7d712	0.09757818
42	0xbb2f01aa	-0.0026703873
43	0xbc940aef	-0.01807162
44	0xbc80c6bc	-0.015719764
45	0x3d628812	0.055305548
46	0x3d4aa981	0.049478058
47	0xbcadd059	-0.021217512
48	0xbd55b5ea	-0.05217544
49	0x3c0ade84	0.008475903
50	0xbc4a560a	-0.012349615
51	0x3c4cde48	0.012504168
52	0x3c78c425	0.015183483
53	0xbcdacc41	-0.026708724
54	0x3b411cf0	0.002946671
55	0xba9d329b	-0.0011993231
56	0x3d5f7ee8	0.054564387
57	0x3dce5fd2	0.1007687
58	0xbc92772b	-0.01787909
59	0x3d6ce8da	0.057839252
60	0x3d83148a	0.06400402
61	0x3dbce631	0.09223593
62	0xbb80e64a	-0.0039337026
63	0x3c117853	0.008878785
64	0xbc32e919	-0.010919833
65	0xbb8552fa	-0.0040687295
66	0xbd460e4e	-0.048353486
67	0xbcfe3315	-0.031030217
68	0x3c8573f3	0.01629064
69	0xbb1b121f	-0.0023661924
70	0xbcc0027f	-0.02343869
71	0x3d425443	0.04744364
72	0x3d41f2c1	0.04735065
73	0x3b58ca04	0.0033079395
74	0xbc1b0265	-0.00946102
75	0x3cf37c77	0.029722435
76	0x3d21138c	0.039325282
77	0x3d545cb6	0.05184623
78	0x3d3283aa	0.043582596
79	0x3c8b48d0	0.017002493
80	0x3ba38272	0.0049899155
81	0x3c70b576	0.014691701
82	0x3d14d2c5	0.036333818
83	0x3c5c33e6	0.013440108
84	0xba58e93a	-0.00082744996
85	0xbd832efc	-0.06405446
86	0x3d1b41da	0.037904598
87	0x3ce13405	0.027490625
88	0x3ba4b5c1	0.0050265496
89	0xba8a87eb	-0.0010569071
90	0xbd0b6203	-0.034029018
91	0x3da07f9f	0.07836842
92	0x3a405b6d	0.0007337842
93	0x3d950cab	0.07277807
94	0x3d08ba45	0.033380765
95	0x3d1c00f4	0.038086846
96	0xbcf71955	-0.030163446
97	0x3cc9bf24	0.024627276
98	0xbcaffae4	-0.021481939
99	0x3d40e01b	0.047088724
100	0xbc403a23	-0.011732611
101	0xbbfa15aa	-0.007631977
102	0x3ca0fac2	0.01965082
103	0x3b5063e6	0.0031797825
104	0xbbaf6295	-0.005352328
105	0xbc84b9ce	-0.01620188
106	0xbcdf516c	-0.027260505
107	0xbca9cb78	-0.020726904
108	0x3ce48f34	0.027900316
109	0xbd20fd1e	-0.03930389
110	0x3d5bc6a1	0.053656224
111	0xbc5fed19	-0.013667368
112	0x3ca1b527	0.0197397
113	0xbd044295	-0.03229006
114	0xbcbcf832	-0.023067567
115	0x3bf2a863	0.007405327
116	0xbcd0ba63	-0.025479501
117	0x3d45308d	0.048142005
118	0xbcefd454	-0.02927605
119	0xbc8932d5	-0.016747871
120	0xbb1726a0	-0.0023063794
121	0x3d07c206	0.03314402
122	0xbce3b22d	-0.027794922
123	0x3ba79a73	0.0051148473
124	0xbc83cb46	-0.01608814
125	0x3d7873bf	0.06065726
126	0x3d394447	0.04523113
127	0x3c05418f	0.008133306
128	0xbc60d54e	-0.013722731
129	0x3da104c0	0.07862234
130	0x3cc6145f	0.024179636
131	0x3c9c26f5	0.019061545
132	0x3d813714	0.063093334
133	0xbbe30bd2	-0.0069288993
134	0xbc95f34d	-0.018304491
135	0xbd3909ca	-0.04517535
136	0x3c412715	0.011789103
137	0xbb64513b	-0.0034838456
138	0x3d711047	0.058853414
139	0xbbe889d6	-0.0070965094
140	0x3d5a53d1	0.05330259
141	0xbdc8f822	-0.098129526
142	0xbcb5e028	-0.022201613
143	0xbcde48d2	-0.027134333
144	0xbcd374ff	-0.025812624
145	0xbd892287	-0.06696039
146	0x3db53e8a	0.08849819
147	0xbd046304	-0.03232099
148	0x3c296d9d	0.010341075
149	0xbd772d0c	-0.060345694
150	0xbd26c6eb	-0.040717047
151	0x3b909ba6	0.004413086
152	0xbca67f92	-0.020324502
153	0x3d0a6f16	0.033797346
154	0x3c74ca61	0.014940829
155	0xbdc531ea	-0.09628661
156	0xbd6f9c67	-0.058498766
157	0xbd5f027c	-0.05444573
158	0x3d9384fa	0.07203098
159	0xbc084c30	-0.008318946
160	0xbc040f24	-0.00806025
161	0xbc2ebd44	-0.010665242
162	0xbc9b1592	-0.018931184
163	0x3ca19e0b	0.019728681
164	0x391f5048	0.00015193329
165	0xbd088059	-0.033325527
166	0x3d20da65	0.039270777
167	0xbcd17cee	-0.025572266
168	0x3c962819	0.018329667
169	0xbcf15ef2	-0.029464219
170	0x3d16cd53	0.036816906
171	0x3cb0008a	0.021484632
172	0x3c8989c3	0.016789323
173	0xbc46432f	-0.012100979
174	0xbce2dc22	-0.027692858
175	0x3b00e195	0.0019665707
176	0xbc81edb6	-0.01586042
177	0x3d241958	0.040063232
178	0x3c15d68f	0.009145393
179	0xbc1ead9a	-0.0096849445
180	0x3cf5423f	0.029938815
181	0xbbfb1cb5	-0.0076633343
182	0x3cf55a62	0.029950324
183	0x3c37b44c	0.01121242
184	0x3cd76256	0.026292007
185	0xbbd24681	-0.006417096
186	0xbd5971d1	-0.05308706
187	0xbd0fa8b5	-0.035073
188	0xbc358e1f	-0.011081248
189	0x3be413f6	0.0069603873
190	0xbbf32e45	-0.0074212872
191	0x3db68cce	0.08913575
192	0xbcf3fe97	-0.029784484
193	0xbd61100f	-0.054946955
194	0x3b519068	0.0031976942
195	0x3d31bffc	0.04339598
196	0xbb874022	-0.0041275183
197	0xbce9ad8a	-0.028525133
198	0x3d778338	0.060427874
199	0xbd49a99b	-0.049234014
200	0x3c158100	0.009124994
201	0xbd154924	-0.036446705
202	0x3cca2c0e	0.02467921
203	0xbced4244	-0.028962262
204	0xbd0b2550	-0.03397113
205	0xbce32b04	-0.027730472
206	0xbcd1a6a3	-0.025592154
207	0x3cb3ca2f	0.021946995
208	0x3cbbbea6	0.022918057
209	0xbc38fa0f	-0.011290087
210	0xbcc8c5a4	-0.024508305
211	0x3d6fa918	0.05851087
212	0xbd22c29a	-0.039736368
213	0x3ccab898	0.024746224
214	0xbcd6ae04	-0.026206024
215	0x3cdef703	0.027217394
216	0xbc720c66	-0.014773464
217	0x3d20307e	0.039108746
218	0xbc3909f2	-0.011293875
219	0x3b910578	0.0044257008
220	0x3c95585b	0.018230608
221	0xbd477619	-0.04869661
222	0x3cc75c71	0.024336072
223	0xbd61c948	-0.055123597
224	0xbb598ab4	-0.0033194246
225	0x3cef0387	0.029176487
226	0x3d4eb590	0.05046612
227	0xbccfc6a9	-0.025363283
228	0x3a9f5ca8	0.0012158351
229	0xbca5e2de	-0.02024978
230	0xbd060aa0	-0.032724977
231	0xbd19ad2f	-0.037518676
232	0xbcb05dcb	-0.021529099
233	0x3c83a2c4	0.016068824
234	0xbc826ca9	-0.015920954
235	0xbd0dec9d	-0.03464948
236	0x3c0ba89f	0.008524089
237	0x3d857c3d	0.06517837
238	0xbdc187d4	-0.09449735
239	0xbcc44a08	-0.023961082
240	0xbb3b5017	-0.0028581673
241	0xbbf9341f	-0.0076050903
242	0x3c8db9ae	0.017300453
243	0x3c20acd8	0.009806834
244	0xbc937753	-0.018001234
245	0x3ced6a91	0.028981479
246	0x3c9c636f	0.019090382
247	0xbcf7a186	-0.030228388
248	0x3c6be768	0.014398433
249	0xbc6da565	-0.014504765
250	0x3d5edbe6	0.05440893
251	0x3d3808aa	0.044930138
252	0xbcc8415e	-0.024445232
253	0x3c909c12	0.017652545
254	0xbd45101e	-0.048111074
255	0xbc30d652	-0.010793285

layer1.bias f4 [128]
0	0xbbc605b8	-0.006043162
1	0x3c9366f2	0.017993424
2	0x3d57044b	0.05249433
3	0xbb6bd0e6	-0.0035982667
4	0x3d5f26be	0.054480307
5	0x3d087ff8	0.033325166
6	0x3d1d73ee	0.038440637
7	0x3d29e1b9	0.04147503
8	0x3d17ba7a	0.037043072
9	0xbcb4cdea	-0.022070844
10	0xbd173732	-0.036917873
11	0x3c15ebdc	0.009150472
12	0xbba0807d	-0.0048981295
13	0x3db6018d	0.088870145
14	0x3db3ba9a	0.08775826
15	0x3d745351	0.05964977
16	0x3dd63020	0.10458398
17	0x3cb75ce8	0.022383168
18	0x3c46cc9d	0.012133745
19	0x3d9e592b	0.07731851
20	0x3d056faa	0.032577194
21	0x3d3f3c1c	0.046688184
22	0x3d85470d	0.065076925
23	0x3c60d10c	0.013721716
24	0x3c854f37	0.016273124
25	0x3d1b2a51	0.037882153
26	0x3d0d1874	0.03444715
27	0xbd010c09	-0.03150562
28	0x3d3d93f9	0.046283696
29	0x3d1cb731	0.038260642
30	0x3cf8a2fd	0.030351156
31	0x3d80a21f	0.06280922
32	0x3d8067cd	0.062697984
33	0x3d93ef84	0.07223418
34	0x3d5d997b	0.05410145
35	0x3d3c85d3	0.046026062
36	0x3ce0a54c	0.02742257
37	0x3dd7c18f	0.10534965
38	0xbb4d9dbe	-0.003137454
39	0x3c3b6e4e	0.011439873
40	0x3d05abb4	0.032634452
41	0x3cfea6da	0.03108542
42	0xbcce501c	-0.025184684
43	0x3c731faf	0.014839097
44	0x3d337da9	0.04382101
45	0xbc8fc1ec	-0.017548524
46	0x3ce6a83f	0.028156398
47	0x3d18a8f3	0.037270498
48	0x3cacaa29	0.021077232
49	0x3b32691d	0.0027223297
50	0x3cdfc4be	0.027315494
51	0xba896391	-0.0010481944
52	0x3cb3a862	0.021930877
53	0xbc418fbc	-0.011814054
54	0x3dfabd84	0.122431785
55	0x3d72fae4	0.0593213
56	0x3d5d1f97	0.053985205
57	0x3da7dad7	0.08196037
58	0x3c1e91e7	0.0096783405
59	0x3d295f71	0.041350786
60	0x3d2d266c	0.04227297
61	0x3d619087	0.055069473
62	0xbcf81ef5	-0.030288199
63	0x3db8fbcf	0.09032404
64	0x3de777f7	0.11302178
65	0x3d7d73d7	0.06187805
66	0x3d820fee	0.063506946
67	0x3d10f48f	0.03538948
68	0x3d960b40	0.073263645
69	0x3cecf866	0.02892704
70	0xbcdeb560	-0.027186096
71	0x3cf22b6d	0.029561723
72	0xbd040487	-0.03223088
73	0x3de32f54	0.110930115
74	0xbc8b302e	-0.016990747
75	0xbc5d58f8	-0.013509981
76	0x3d292509	0.041295085
77	0x3e02a8f8	0.12759769
78	0x3d829b04	0.06377223
79	0x3c904c61	0.017614545
80	0x3d97eb20	0.074178934
81	0x3c9d7a3c	0.019223325
82	0x3d56b5c2	0.05241943
83	0xbc914e9b	-0.017737677
84	0x3d9d3c5b	0.076775275
85	0xbd322f15	-0.043501932
86	0x3d9b1df4	0.075740725
87	0x3ca5fac5	0.020261178
88	0x3c88ff0e	0.016723182
89	0x3cefa91f	0.029255448
90	0x3d9d47f2	0.07679738
91	0xbbda9ee8	-0.006671775
92	0xba9a685a	-0.0011780367
93	0xbb2c586c	-0.002629782
94	0x3d5c6864	0.053810492
95	0xbc7a1703	-0.0152642755
96	0x3dd9e2a5	0.10638932
97	0xbbe01cc2	-0.0068393657
98	0x3c0c3df5	0.008559694
99	0x3cc332e5	0.02382798
100	0x3cc1f67c	0.023677103
101	0x3dace014	0.08441177
102	0x3da398d7	0.07988136
103	0x3c55afec	0.013042431
104	0x3d43db1c	0.04781638
105	0x3d3fc9ed	0.04682343
106	0x3d338956	0.043832146
107	0x3caefb4e	0.021360066
108	0x3d3092a0	0.043108582
109	0x3d180ace	0.03711968
110	0x3cabecc2	0.020986918
111	0x3cf9c57f	0.030489681
112	0x3c9c65c8	0.019091502
113	0x3d21f1ee	0.039537363
114	0x3d90ada5	0.0706437
115	0x3c89ae41	0.016806724
116	0x3db19610	0.086712
117	0x3db1a8cb	0.08674773
118	0xbc97f255	-0.01854817
119	0x3d8734e6	0.066018865
120	0x3cfd48bc	0.030918472
121	0x3c818cf2	0.015814278
122	0x3bbc13b1	0.005739652
123	0x3db80902	0.08986093
124	0x3df1a8f9	0.11799807
125	0x3d2f87ac	0.042853996
126	0x3d884cfd	0.06655309
127	0x3d89cb1a	0.06728192

layer2.weight f4 [128, 128]
0	0x3cac45be	0.02102935
1	0x3cc068d2	0.023487482
2	0x3cc8ccee	0.02451178
3	0x3d8f559b	0.0699875
4	0x3d878e61	0.066189535
5	0xbd5e5a34	-0.054285243
6	0x3db01e92	0.08599581
7	0x3dbddaaf	0.09270226
8	0x3d85f9a8	0.06541759
9	0xbe0ce93d	-0.13760848
10	0x3d4d11e1	0.05006588
11	0xbd86499e	-0.0655701
12	0x3cd1d9f3	0.025616622
13	0x3e0d73a1	0.1381364
14	0x3ca604fa	0.020266045
15	0x3df6ef55	0.12057368
16	0x3e075693	0.13216619
17	0x3d017278	0.031603307
18	0x3c6405f9	0.01391744
19	0x3d77f843	0.060539495
20	0x3cb1ddf0	0.021712273
21	0x3d458668	0.048223883
22	0xbc861f06	-0.016372215
23	0x3d9db81b	0.07701131
24	0x3d05849b	0.032597166
25	0x3c86a425	0.016435692
26	0xbccc702d	-0.024955833
27	0xbd81e17b	-0.06341835
28	0x3d4dad55	0.05021413
29	0x3cf7c1bb	0.030243745
30	0x3de8e3e0	0.11371589
31	0x3c36c82b	0.011156122
32	0x3e051e64	0.12999874
33	0x3dd56fb9	0.104217
34	0xbb8f29b8	-0.004368987
35	0x3cd0ca4d	0.02548709
36	0x3d8b413a	0.0679955
37	0x3da062de	0.078313574
38	0x3de0dbc8	0.1097942
39	0xbd12316a	-0.035691656
40	0xbc0c0f23	-0.008548531
41	0xbdfbc811	-0.12294019
42	0xbe2dd564	-0.16975933
43	0xbb9648c0	-0.004586309
44	0x3dd914b3	0.10599651
45	0x3bb6e27f	0.0055811997
46	0x3d8434e0	0.064553976
47	0x3d2e837f	0.042605873
48	0xbc64a58c	-0.013955485
49	0xbcdac86f	-0.026706902
50	0x3c14b251	0.009075717
51	0x3d94f26f	0.07272803
52	0x3cc40262	0.023926917
53	0x3e114e83	0.14190106
54	0x3e010cce	0.12602541
55	0xb9144932	-0.00014141647
56	0x3e00ac98	0.1256584
57	0x3d9d76c4	0.07688668
58	0x3d43e47d	0.047825325
59	0xbbe43f9f	-0.006965592
60	0x3cfb60b3	0.030685758
61	0x3dedbeab	0.11608633
62	0xbe358c10	-0.17729211
63	0x3e1a469f	0.15066002
64	0x3cc0b004	0.02352143
65	0x3d16bc1b	0.036800485
66	0x3d7c7bd4	0.06164153
67	0x3d02f980	0.031976223
68	0x3dd09ec9	0.10186536
69	0x3dac30a0	0.08407712
70	0xba94b2f1	-0.0011344833
71	0x3d818321	0.06323839
72	0xbd08c08e	-0.03338676
73	0x3ce267fb	0.027637472
74	0xbd175601	-0.036947254
75	0xbd95f6a5	-0.07322434
76	0x3d8e3465	0.06943587
77	0x3db582cd	0.08862839
78	0x3d770694	0.060309008
79	0x3d1272a7	0.035753872
80	0x3d9e7767	0.07737618
81	0x3dd352b0	0.10318506
82	0x3dbcf364	0.092261106
83	0xbdec5d21	-0.115412004
84	0x3ae25f38	0.0017270809
85	0x3d43c65d	0.047796596
86	0x3cb73e22	0.022368494
87	0x3d9275b9	0.0715136
88	0x3dfa5e52	0.122250214
89	0x3d4dea6e	0.050272398
90	0x3d761cb0	0.060085952
91	0xbd86a11d	-0.06573699
92	0xbdd799e3	-0.105273984
93	0x3d5a80ef	0.053345617
94	0x3df1dbe8	0.11809522
95	0xbcbe19ab	-0.023205599
96	0x3de42950	0.11140692
97	0x3d843797	0.064559154
98	0x3da25c6e	0.07927786
99	0x3da417a3	0.08012321
100	0x3d21c3ee	0.039493494
101	0x3d96c69d	0.07362101
102	0x3d420289	0.0473657
103	0x3c4664a2	0.012108954
104	0x3d1e1615	0.038595278
105	0x3d6835b3	0.056691837
106	0x3db546b5	0.08851377
107	0x3dc8c053	0.09802308
108	0xbc57c59c	-0.013169672
109	0x3dc8822a	0.09790452
110	0x3b22f264	0.0024863714
111	0x3c1048bc	0.008806404
112	0xbe367d8e	-0.17821333
113	0x3df4f9b6	0.11961691
114	0x3e193d86	0.14964876
115	0x3d5d6d5e	0.05405938
116	0x3dcb5f3f	0.09930276
117	0x3df8ad26	0.121424004
118	0x3c992ea3	0.018698996
119	0x3c5b6691	0.013391153
120	0xbd75ef01	-0.060042385
121	0x3d55d930	0.05220908
122	0x3d758f2f	0.059951004
123	0x3e01f267	0.12690125
124	0xbaec6fd9	-0.0018038704
125	0x3de737e5	0.11289958
126	0xb96e2c39	-0.00022713923
127	0x3d0daa13	0.034586024
128	0x3d838447	0.06421714
129	0x3dc47e91	0.09594453
130	0x3d167129	0.03672901
131	0x3ca362be	0.019944545
132	0x3c984e78	0.018592104
133	0x3cac219b	0.021012118
134	0x3d500533	0.05078621
135	0xbd1dcc90	-0.038525164
136	0x3d9904f9	0.074716516
137	0x3bfea51e	0.0077711483
138	0x3cbf0a1e	0.023320254
139	0x3ca7153e	0.020395871
140	0xbd0a9fb7	-0.033843722
141	0xbd2cee33	-0.042219352
142	0x3da01a97	0.078175716
143	0x3d0dcf67	0.034621622
144	0x3d77682f	0.06040209
145	0xba97a229	-0.0011568713
146	0xbd50eaa8	-0.051005036
147	0xbc83ecba	-0.016104091
148	0xbd88151c	-0.06644651
149	0xbc7581c9	-0.0149845565
150	0x3cb53b36	0.02212296
151	0x3cdc95b9	0.026926862
152	0x3c5bb16c	0.013409
153	0xbd0cd8a2	-0.034386285
154	0x3dc54bbe	0.09633587
155	0xbcec5967	-0.028851224
156	0xbba7c358	-0.0051197223
157	0x3d5fc616	0.05463227
158	0x3ddda59a	0.108226016
159	0xbb0fc95e	-0.0021940093
160	0x3d3e8636	0.046514712
161	0x3d7265b9	0.05917904
162	0x3d5043dd	0.05084597
163	0x3dbd5a86	0.092457816
164	0xbb831d6d	-0.0040013106
165	0xbc0b86b2	-0.008516001
166	0xbd25ee57	-0.0405105
167	0xbca2fdc7	-0.019896401
168	0x3d2bfa9a	0.04198704
169	0x3dcb63e5	0.09931163
170	0x3d3e4e3c	0.04646133
171	0x3cdc1099	0.026863383
172	0x3d3eb5fa	0.046560265
173	0x3d9045ea	0.07044585
174	0xbda2afbf	-0.07943677
175	0x3d5148fd	0.051094998
176	0xbd3d8c1f	-0.046276208
177	0x3d1d38a0	0.03838408
178	0x3d651034	0.055923656
179	0x3cbff6e2	0.023433153
180	0x3b992cd4	0.0046745334
181	0x3d591fe5	0.053008933
182	0x3d5ff0b0	0.054672897
183	0x3cc31449	0.023813384
184	0x3d949fb2	0.07257022
185	0xbc187cbd	-0.009307084
186	0x3d9a70c6	0.07541041
187	0x3dae0d9d	0.0849869
188	0x3c1f37f2	0.009717928
189	0xbd46b6c5	-0.048514146
190	0xbdbac096	-0.09118764
191	0xbcfff505	-0.031244764
192	0x3db78b56	0.08962123
193	0x3d700a10	0.058603346
194	0xbd1cd1d0	-0.03828603
195	0x3caabc20	0.020841658
196	0x3c9720e7	0.018448306
197	0x3d7af93b	0.06127284
198	0x3cd7c016	0.02633671
199	0x3dbb5945	0.09147886
200	0xbd6ec8d2	-0.058296986
201	0x3d8279e5	0.06370906
202	0xbd9535f9	-0.07285685
203	0xbcbd902b	-0.023140034
204	0x3d880bcf	0.06642877
205	0x3bef020f	0.0072939466
206	0x3d457dc9	0.04821566
207	0x3d590673	0.052984666
208	0x3d18e8f5	0.03733154
209	0x3d78e789	0.060767684
210	0xbd04bd5a	-0.032407142
211	0xbc54f237	-0.012997202
212	0xbd380e74	-0.04493566
213	0xbd649f41	-0.05581594
214	0xbc154dc0	-0.009112775
215	0xb9ada8d6	-0.00033122924
216	0xbc8becff	-0.017080782
217	0xbc354bf6	-0.011065474
218	0x3d958159	0.07300062
219	0xbca370e9	-0.0199513
220	0x3c8bd809	0.017070787
221	0x3bda9a3a	0.0066712173
222	0x3dacdce8	0.08440572
223	0xbd0ba074	-0.034088567
224	0x3d9b647b	0.075875245
225	0xbc604570	-0.01368843
226	0xbd89dcbf	-0.06731557
227	0x3cd10dda	0.0255193
228	0xbcc49c14	-0.024000205
229	0x3d33f652	0.04393608
230	0xbb67348b	-0.003527912
231	0x3c40fc66	0.0117789265
232	0x3d8abefb	0.06774708
233	0x3d643462	0.05571402
234	0x3dd617c4	0.10453752
235	0xbbad2815	-0.005284319
236	0xbcb111bf	-0.021614907
237	0x3d93df0d	0.07220278
238	0xbd06aff4	-0.032882646
239	0x3d8c3d9a	0.06847687
240	0x3dd7d1b0	0.105380416
241	0x3dd6375f	0.1045978
242	0x3d9f7394	0.07785717
243	0x3d8435d4	0.064555794
244	0x3da71ad0	0.08159411
245	0x3cd8763d	0.026423568
246	0xbe4f0e23	-0.20220236
247	0x3d096575	0.033544023
248	0x3c9197f0	0.017772645
249	0x3d040833	0.032234382
250	0xbcc186ae	-0.02362379
251	0xbd232fe0	-0.03984058
252	0x3d93882d	0.07203708
253	0xbd5681c5	-0.05236985
254	0x3d8f34dc	0.06992504
255	0x3d928fe1	0.07156349

layer2.bias f4 [128]
0	0xbd23aefb	-0.039961796
1	0xbc08bf71	-0.008346424
2	0x3d5e2a27	0.05423942
3	0x3cd65f30	0.026168436
4	0xbbc10d3e	-0.005891471
5	0x3cd1ba43	0.025601512
6	0xbd816c5b	-0.06319495
7	0xbd88efa7	-0.06686335
8	0x3d85d833	0.06535377
9	0xbba7e145	-0.00512329
10	0x3d973360	0.07382846
11	0x3d1331c6	0.03593614
12	0x3ce7170b	0.02820923
13	0xbd35d570	-0.044393003
14	0x3b86c7ac	0.004113158
15	0x3d9fdaf2	0.078054324
16	0xbc45f2b0	-0.012081787
17	0x3c858b2a	0.01630171
18	0x3bd97b69	0.006637026
19	0x3c21ddef	0.009879573
20	0xbd10ff88	-0.035399944
21	0x3c2617ff	0.010137557
22	0x3da5eb23	0.081014894
23	0xbc6dbe3d	-0.014510688
24	0x3dce496e	0.10072599
25	0xbcdf561f	-0.027262745
26	0x3d510e69	0.051039133
27	0x3d8e2aee	0.06941782
28	0xbbe040f5	-0.006843681
29	0x3d0976af	0.03356045
30	0x39c42e5b	0.0003741857
31	0x3dac008e	0.08398543
32	0x3cb84653	0.02249447
33	0x3d857f40	0.06518412
34	0xbce30f2f	-0.027717201
35	0x3d9f85d4	0.077891976
36	0xbd9e1277	-0.07718366
37	0xbd19c199	-0.037538145
38	0x3d5a1795	0.053245146
39	0x3d789b5b	0.060695034
40	0x3d945496	0.07242696
41	0x3d80c0f9	0.062868066
42	0x3cf512e5	0.029916236
43	0xbd5f2a5b	-0.054483753
44	0x3aeb5bb8	0.0017956411
45	0xbb4d249b	-0.0031302336
46	0x3cc861f9	0.02446078
47	0x3cd6b54a	0.026209492
48	0xbd32059d	-0.043462384
49	0xbd06f2ce	-0.0329464
50	0x3e00e594	0.12587577
51	0xbd6f6731	-0.05844802
52	0x3d828520	0.06373048
53	0xbc15ca16	-0.009142419
54	0xbd2c9934	-0.042138293
55	0xbcd8779b	-0.02642422
56	0x3c875918	0.016521975
57	0xbc5a2342	-0.01331407
58	0x39fa8c3c	0.000477882
59	0xbd42edb2	-0.047589965
60	0x3da9821c	0.082767695
61	0xbc5222f4	-0.012825716
62	0x3cc75db1	0.024336668
63	0x3db31a65	0.08745269
64	0x3d06c2fe	0.032900803
65	0x3d469b6b	0.048488062
66	0xbc5a539b	-0.013325597
67	0xbc734c7c	-0.014849778
68	0x3c4e3c30	0.012587592
69	0x3dad0739	0.08448643
70	0xbd8a7bfb	-0.06761929
71	0xbd8b87cd	-0.06813011
72	0x3d137165	0.035996813
73	0xbc74fc77	-0.01495277
74	0x3d718ddd	0.058973182
75	0x3d27c3b0	0.040958107
76	0xbb2a54ab	-0.0025990407
77	0x3d479c95	0.048733313
78	0x3d377cd5	0.044796783
79	0x3c7f75b6	0.015592029
80	0xbd079182	-0.03309775
81	0xbd2e9520	-0.042622685
82	0xbd8c29af	-0.06843888
83	0x3d660745	0.056159277
84	0x3ca6d85d	0.020366842
85	0x3dac8aa5	0.08424882
86	0x3d16fec2	0.03686405
87	0x3d71eaff	0.059062
88	0xbca9e5c6	-0.020739447
89	0x3d7921be	0.060823195
90	0x3cf5f088	0.03002192
91	0x3d7d8dfa	0.061902978
92	0xbd2bb6c1	-0.041922335
93	0x3df37bf3	0.11888876
94	0x3d52a99d	0.051431287
95	0xbcc39f92	-0.0238798
96	0xbce1a3f8	-0.027544007
97	0xbd927834	-0.07151833
98	0x3d1cf5b6	0.038320266
99	0x3ccd822c	0.025086485
100	0xbd22949a	-0.0396925
101	0x3d17f5f9	0.037099812
102	0x3d2e2a35	0.04252072
103	0xbce0843a	-0.0274068
104	0xbcc03953	-0.023464834
105	0x3d7828df	0.060585853
106	0xbc842609	-0.016131418
107	0xbcc56a13	-0.024098432
108	0x3d3a390d	0.045464564
109	0x3d9f5635	0.077801146
110	0xbd3126ee	-0.043250017
111	0x3dfb35f4	0.1226615
112	0xbad94874	-0.0016577379
113	0x3d6e780c	0.058219954
114	0xbc14de26	-0.009086167
115	0x3d8563fe	0.065132126
116	0xbd8190e3	-0.06326463
117	0x39e1e9ce	0.00043089542
118	0x3d202751	0.039099995
119	0x3d106016	0.035247885
120	0x3cec2cbb	0.028829923
121	0xbd83c73d	-0.06434486
122	0xbd65808a	-0.056030788
123	0x3c37177c	0.011175033
124	0x3d2c1a5a	0.04201732
125	0x3d4d6ca3	0.050152432
126	0xbcd8dfba	-0.026473869
127	0x3da6b1cd	0.081393816

layer3.weight f4 [290, 128]
0	0x3daae0e1	0.083436735
1	0xbca3805d	-0.01995867
2	0xbd18bf70	-0.037291944
3	0x3da23549	0.079203196
4	0x3d9b603b	0.07586714
5	0xba31fb0c	-0.0006789423
6	0xbd9b60de	-0.07586835
7	0x3cdcefe6	0.026969861
8	0x3ce415e9	0.027842479
9	0xbd7f9615	-0.06239899
10	0x3d8a2f04	0.06747249
11	0xbd95ba80	-0.07310963
12	0x3d565642	0.052328356
13	0x3b5806c0	0.0032963008
14	0xbd1b9c3f	-0.037990805
15	0x3dc8bd3c	0.098017186
16	0x3d36e805	0.044654865
17	0x3d162bc6	0.03666284
18	0x3d2df283	0.042467605
19	0x3cebecc2	0.028799418
20	0xbd16941a	-0.036762334
21	0xbc63e666	-0.013909912
22	0x3de26108	0.110536635
23	0xbd27a24f	-0.040926274
24	0x3ce2f333	0.027703857
25	0x3d5f3660	0.054495215
26	0x3dc02cbb	0.09383532
27	0x3da0adc6	0.07845645
28	0x3d8283da	0.06372805
29	0x3ceddfba	0.029037345
30	0xbe19e024	-0.15026909
31	0x3daf4595	0.085581936
32	0xbc909f51	-0.017654093
33	0xbc3a7a9b	-0.0113817705
34	0xbcde56da	-0.027141023
35	0xbd73a45c	-0.059482917
36	0x3d65c978	0.05610034
37	0x3d10ec5d	0.035381664
38	0xbdbfe202	-0.093692794
39	0xbbe1e000	-0.006893158
40	0xbc5dc6c8	-0.013536163
41	0x3c9c462c	0.01907643
42	0xbc288bdd	-0.010287252
43	0xbd50f0e8	-0.051010996
44	0xbd31076d	-0.043219972
45	0xbd8ce844	-0.06880239
46	0xbd34c77a	-0.04413555
47	0x3c130782	0.008973958
48	0xbcb58f5d	-0.022163088
49	0xbc8238e2	-0.015896264
50	0x3d910d7e	0.070826516
51	0x3c76bf6f	0.01506029
52	0xbba9c2b4	-0.005180681
53	0x3d81b12c	0.06332621
54	0xbd4c9776	-0.049949132
55	0xbdf8638d	-0.12128363
56	0xbca5f026	-0.020256113
57	0x3d864041	0.06555224
58	0x3dc8f997	0.098132305
59	0xbd0476ca	-0.03233985
60	0x3d51f5c6	0.05125978
61	0x3dbbf728	0.09178001
62	0xbcb6eeca	-0.02233066
63	0x3db3425f	0.08752894
64	0xbd5cd0b8	-0.053909987
65	0xbd2cfb7a	-0.042232014
66	0xbcc395f3	-0.023875212
67	0x3c3c1e2b	0.011481802
68	0x3d0e1209	0.03468517
69	0x3da83894	0.082139164
70	0x3cd9254e	0.026507046
71	0xbd935604	-0.071941406
72	0xbc9f1247	-0.019417895
73	0x3d4a8bb6	0.049449645
74	0xbd1e0988	-0.03858331
75	0x3da31b6d	0.079642154
76	0x3d8ebebd	0.06969974
77	0x39b76ee8	0.00034987112
78	0x3d25dd4f	0.04049426
79	0x3d6086f9	0.05481622
80	0x3d81647a	0.063179925
81	0xbd581dc4	-0.05276276
82	0xbd8dde3e	-0.06927155
83	0x3d8ac4a3	0.06775787
84	0x3d9703c9	0.07373769
85	0x3d1c45a1	0.03815234
86	0xbd87791d	-0.066148974
87	0xbc161bab	-0.00916187
88	0xbc9ff7b6	-0.019527297
89	0xbccc8342	-0.024964932
90	0x3d9aa63d	0.07551239
91	0xbcf26571	-0.029589387
92	0xbc975bd4	-0.018476404
93	0xbc9c40f6	-0.019073945
94	0x3d1acd1e	0.03779327
95	0xbc8576fb	-0.016292086
96	0xbd34c7f7	-0.044136014
97	0x3d1d10b4	0.038346007
98	0x3d368671	0.044561807
99	0x3e0492a8	0.1294657
100	0xbcf98ded	-0.030463183
101	0x3d9a73c4	0.07541612
102	0x3d78d0bd	0.060745943
103	0xbd47f088	-0.048813373
104	0xbd24b651	-0.040212933
105	0x3da5172b	0.080610596
106	0xbc727eb4	-0.014800716
107	0xbd557e60	-0.052122474
108	0x3c670f6d	0.014102799
109	0xbd407dee	-0.046995096
110	0xbd40b855	-0.047050793
111	0x3dd306be	0.1030402
112	0x3cc034f9	0.02346276
113	0xbb8d729f	-0.0043166424
114	0xbd28d9fd	-0.041223515
115	0xbd50ce07	-0.050977733
116	0xbd0de3cd	-0.034641076
117	0xbc2a71be	-0.010403095
118	0x3d2300cf	0.039795693
119	0xbcac180e	-0.021007564
120	0x3dabac73	0.083825015
121	0xbd942425	-0.072334565
122	0x3d5422e0	0.051791072
123	0x3cbc7a75	0.02300761
124	0xbce35a6e	-0.027753081
125	0xbd742934	-0.059609607
126	0x3d605fa5	0.054778714
127	0xbcfa031d	-0.030519063
128	0x3dd7ee1c	0.10543463
129	0x3d8e26d3	0.06940999
130	0x3d88decd	0.06683121
131	0x3d1d9765	0.03847446
132	0xbc469e28	-0.012122668
133	0x3b3c97ff	0.002877712
134	0x3ca5b08d	0.020225788
135	0xbd2a3798	-0.041556925
136	0x3d155ad5	0.036463577
137	0xbbfbc859	-0.0076837954
138	0xbcb31ddb	-0.021864822
139	0x3c8e8b89	0.01740052
140	0xbc141c39	-0.009039932
141	0xbc8f2eaa	-0.017478306
142	0x3cad8c41	0.021185042
143	0x3d5d9f6e	0.054107122
144	0xb9d5b82b	-0.00040763742
145	0xbd832c49	-0.06404931
146	0x3d2d2440	0.0422709
147	0x3def187e	0.116745934
148	0xbcbcdf78	-0.023055777
149	0xbce9c928	-0.028538302
150	0x3de109d6	0.10988204
151	0xbd618f20	-0.055068135
152	0x3cfb88b4	0.030704834
153	0xbc8851b8	-0.016640529
154	0x3d32c521	0.043645028
155	0x3cb28520	0.021791995
156	0x3d417e33	0.047239494
157	0xbc993630	-0.018702596
158	0xbd17e74c	-0.037085816
159	0x3dce4dbb	0.1007342
160	0xbd429640	-0.04750657
161	0x3df2d478	0.118569314
162	0x3b00a624	0.0019630278
163	0xbcd2b01f	-0.025718747
164	0x3d6d84d5	0.057988007
165	0x3d910153	0.07080331
166	0x3d214fdd	0.039382804
167	0xbd553db0	-0.052060783
168	0x3c4e70c7	0.01260013
169	0x3b4dc3a3	0.0031397126
170	0x3d9fbf0b	0.078001104
171	0x3d32c8f6	0.043648683
172	0xbc59e6cf	-0.013299658
173	0x3d51cc25	0.051220078
174	0x3df9ee06	0.122036025
175	0x3d9778a6	0.07396059
176	0xbd2b1d87	-0.041776206
177	0x3d92eeb9	0.07174439
178	0x3d9ba4a2	0.075997606
179	0xbd9b1b52	-0.0757357
180	0xbc370bd9	-0.011172258
181	0x3d8331c1	0.06405974
182	0x3c0f1d30	0.008734986
183	0xbd31168e	-0.0432344
184	0xbba43851	-0.0050115963
185	0xbcaa1802	-0.020763401
186	0x3c725cef	0.014792665
187	0x3d189ede	0.037260883
188	0x3d3fccc2	0.04682613
189	0x3d33dee2	0.04391373
190	0x3d4dc82e	0.050239734
191	0x3dc083c1	0.0940013
192	0xbc12612f	-0.008934303
193	0xbc03474b	-0.008012603
194	0x3da62d90	0.08114159
195	0xbd775dea	-0.060392298
196	0x3ced1df5	0.028944949
197	0xbbdc2bb3	-0.0067190765
198	0xbd477784	-0.048697963
199	0x3ca25145	0.019814143
200	0xbade3ac6	-0.0016954772
201	0xbd03a4bf	-0.032139536
202	0x3d84f622	0.064922586
203	0xbce960f5	-0.028488616
204	0x3d9b2f18	0.07577342
205	0xbcb655db	-0.022257736
206	0xbd59322a	-0.053026356
207	0xbbf76016	-0.007549296
208	0xbc010e4a	-0.007876942
209	0xbd3357c6	-0.04378488
210	0x3d088d45	0.03333785
211	0xbc8e672d	-0.017383182
212	0x3c937a74	0.018002726
213	0x3d0b854b	0.034062665
214	0xbd9655fd	-0.0734062
215	0xbccfca8c	-0.025365137
216	0xbd4d61a3	-0.05014194
217	0xbd6bd818	-0.05757913
218	0x3d6afc9c	0.057369813
219	0xbd26cde3	-0.040723693
220	0x3d844249	0.064579554
221	0x3d8314a9	0.06400425
222	0x3cba83d5	0.02276794
223	0xbc45e5a6	-0.012078678
224	0xbcfd3250	-0.03090778
225	0x3c7bea82	0.015375735
226	0x3cf8eee9	0.030387359
227	0xbb8aa0c1	-0.004230589
228	0x3c12e380	0.008965373
229	0x3c3b9445	0.011448924
230	0x3db9056a	0.09034236
231	0x3d806721	0.0626967
232	0x3d910e0e	0.07082759
233	0x3dc9da13	0.098560475
234	0x3dab3eaa	0.083615616
235	0x3c9a59d2	0.018841658
236	0x3d2dba0c	0.042413756
237	0x3bbb1186	0.005708876
238	0xbd15d5c8	-0.03658083
239	0x3dc908e4	0.09816149
240	0x3db8c22c	0.0902141
241	0xbc91f9e3	-0.01781935
242	0xbd1d4e34	-0.03840466
243	0xbc68c065	-0.014206027
244	0xbd064806	-0.03278353
245	0xbd68c773	-0.056830835
246	0x3d6e3b14	0.05816181
247	0xbd7a33d6	-0.06108459
248	0xbce3814f	-0.02777162
249	0x3d828067	0.06372147
250	0x3d27a2fe	0.040926926
251	0xbd1d214b	-0.03836183
252	0xbd9d11c9	-0.07669408
253	0x3dcc3a3c	0.09972045
254	0xbcce4781	-0.02518058
255	0xbd32d8e0	-0.04366386

layer3.bias f4 [290]
0	0x3d3f138e	0.04664951
1	0x3cca0039	0.02465831
2	0xba87e4bd	-0.0010367852
3	0x3ca425aa	0.02003749
4	0xbcff005e	-0.031128105
5	0x3cefaa5a	0.029256035
6	0xbd42048e	-0.047367625
7	0x3da723ad	0.081611015
8	0x3c7328ee	0.014841301
9	0xbcd8d546	-0.026468884
10	0x3cffde04	0.031233795
11	0x3d56bc71	0.052425805
12	0x3d52d6ec	0.051474497
13	0xbd4dcbdc	-0.050243244
14	0xbc5d20a2	-0.01349655
15	0xbc3f6af4	-0.011683214
16	0xbcc767d6	-0.024341505
17	0x3cda7bfa	0.026670445
18	0xbc85ad09	-0.016317861
19	0x3d8e18f5	0.06938354
20	0x3b80b88b	0.0039282492
21	0x3db60dbf	0.088893406
22	0x3beb7c9a	0.0071864845
23	0x3cb25c46	0.021772515
24	0x3d4f56db	0.05061994
25	0xbc272523	-0.010201725
26	0xbd0c479a	-0.034247972
27	0xbd1724fe	-0.036900513
28	0xbce232cd	-0.027612114
29	0xbcc06b30	-0.023488611
30	0xbc38ea9b	-0.011286403
31	0x3dcce9e6	0.1000555
32	0x3d3eaa19	0.046548937
33	0x3dba32b5	0.09091703
34	0x3da4be83	0.0804415
35	0x3db3de64	0.08782652
36	0x3bed4890	0.007241316
37	0xbcb2ab7e	-0.02181029
38	0xbd1f2039	-0.03884909
39	0x3d769eb5	0.06020995
40	0x3dca263b	0.09870573
41	0x3bd63c9f	0.0065379883
42	0x3d963d81	0.0733595
43	0x3b071a2d	0.0020614967
44	0x3d479b53	0.048732113
45	0x3cf7af0c	0.030234836
46	0x3dc428e2	0.0957811
47	0x3c62283e	0.01380354
48	0x3dc1a2d2	0.09454884
49	0xbd089fd5	-0.033355553
50	0xbccf05f1	-0.025271388
51	0xbd12872c	-0.03577344
52	0x3dc3b26d	0.095555164
53	0x3dc9e960	0.09858966
54	0xbc9991f2	-0.01874635
55	0x3dc9d01f	0.09854149
56	0x3d01f9a7	0.031732228
57	0x3d31fbf4	0.04345317
58	0x3dab1ed4	0.083554894
59	0x3d58a0f2	0.052887864
60	0xbceb6518	-0.028734729
61	0x3cd219f8	0.025647148
62	0x3d580314	0.05273731
63	0x3d4598ac	0.048241302
64	0x3d4ddac2	0.05025745
65	0xbcb637b5	-0.02224336
66	0xbd2cec25	-0.042217392
67	0xbb70d010	-0.0036745109
68	0x3d125607	0.035726573
69	0x3ac9c29c	0.0015393081
70	0xbc1320b6	-0.008979967
71	0xbca776a8	-0.020442322
72	0xbd737c6f	-0.05944484
73	0xbd80ceb5	-0.06289426
74	0x3d9c46a2	0.0763066
75	0x3c965122	0.018349234
76	0x3d056361	0.03256548
77	0x3d925adf	0.071462385
78	0x3d0cbd49	0.034360204
79	0x3d8aad9c	0.067713946
80	0xbcf9ba27	-0.030484272
81	0x3b0dcfdb	0.0021638784
82	0x3ce911f3	0.028450942
83	0x3c18acca	0.00931854
84	0x3cb89cc4	0.02253569
85	0xbcc0dd21	-0.023542942
86	0x3d80f0ad	0.06295905
87	0x3d9310ae	0.07180916
88	0x3d87bb68	0.06627542
89	0x3dd4f6ce	0.10398637
90	0x3d7c5ff8	0.06161496
91	0x3d050d76	0.03248354
92	0x3c6e9f70	0.01456438
93	0x3d6f714f	0.05845767
94	0xbd3de58b	-0.046361487
95	0xbd385889	-0.04500631
96	0x3d56a296	0.052401148
97	0xbd9b04fe	-0.075693116
98	0xbb09c672	-0.0021022824
99	0x3c2f8e1a	0.010715032
100	0xbb8a40d4	-0.004219154
101	0xbd109be9	-0.035304938
102	0x3dad1be9	0.08452589
103	0x3cd4dd17	0.02598433
104	0x3d5b41df	0.053529616
105	0x3cff3d9a	0.031157304
106	0x3d1fb5f0	0.03899187
107	0xbd0b5bcb	-0.034023087
108	0x3c8f92cc	0.017526053
109	0x3c868b26	0.016423773
110	0xbd8801af	-0.06640946
111	0x3cbf5923	0.023357933
112	0xbcf13b43	-0.029447204
113	0x3bceb687	0.00630838
114	0xbc34f499	-0.011044645
115	0xbc9c5a88	-0.019086137
116	0x3d661c13	0.056179117
117	0x3d18186b	0.03713266
118	0x3be826d6	0.0070847077
119	0xbd972209	-0.073795386
120	0x3d1e2c21	0.038616303
121	0xbbbb3294	-0.0057128165
122	0x3d823862	0.063584104
123	0x3d823619	0.063579746
124	0xbcc975e2	-0.024592344
125	0xbd0597d0	-0.032615483
126	0xbca16a82	-0.019704107
127	0x3c74a6fc	0.01493239
128	0xbd97efb2	-0.07418765
129	0xbca0b4b1	-0.01961741
130	0x3d347edf	0.044066306
131	0xbd217469	-0.039417658
132	0x3b2b2e02	0.0026119952
133	0xbd4f1e03	-0.05056573
134	0x3daa9457	0.08329075
135	0x3bba6316	0.0056880815
136	0xbc63b499	-0.013898038
137	0x3ce070c1	0.027397515
138	0x3ce1a0d7	0.027542515
139	0x3d48180d	0.04885106
140	0x3dc6eb02	0.09712793
141	0x3cb82fb6	0.022483688
142	0xbd1ee136	-0.038788997
143	0x3db7bfa4	0.089720994
144	0xbc13ebc7	-0.009028382
145	0x3d78cacd	0.06074028
146	0x3d36a735	0.044593055
147	0x3d23225c	0.03982769
148	0xbcbe89a8	-0.023258999
149	0x3de3167d	0.11088274
150	0xbd991715	-0.07475106
151	0x3cd654eb	0.026163539
152	0xbc77c5a4	-0.015122805
153	0x3cefd56c	0.029276572
154	0x3cd51cb3	0.026014661
155	0xbd074767	-0.03302708
156	0xbd339103	-0.043839466
157	0x3d859635	0.0652279
158	0x3ce8b367	0.028405858
159	0xb8958948	-7.130444e-05
160	0x3d6c34dc	0.057667598
161	0xbd97f163	-0.07419088
162	0x3db1c716	0.08680551
163	0x3d060b0c	0.03272538
164	0x3d6441c3	0.055726778
165	0xbd83d50a	-0.06437118
166	0x3dac10fa	0.084016755
167	0xbd65297c	-0.055947766
168	0x3ab1c95d	0.0013564039
169	0xbd0bc232	-0.034120746
170	0x3d2a96db	0.041647773
171	0xbc10bb9e	-0.008833794
172	0x3c908d84	0.017645605
173	0x3b6ae991	0.0035844783
174	0x3d902bed	0.07039628
175	0x3cac6d3c	0.02104818
176	0x3b97a203	0.0046274676
177	0x3d550d45	0.052014608
178	0xbd44cb9f	-0.04804575
179	0xbd2cb5e2	-0.042165644
180	0x3d1b35e6	0.0378932
181	0x3d2f550f	0.042805728
182	0xbd809bb7	-0.062797
183	0xbc4b636f	-0.012413844
184	0xbbcd7a4d	-0.006270683
185	0xbd05b78b	-0.032645743
186	0xbc54a527	-0.0129788285
187	0x3d2adfab	0.041717213
188	0xbd13e4cd	-0.036106873
189	0x3be52a4e	0.0069935685
190	0xbd89b801	-0.06724549
191	0xbafd8cb9	-0.0019344307
192	0xbd04068e	-0.032232814
193	0x3d903c54	0.07042757
194	0x3cf892f4	0.03034351
195	0x3bd2f8a5	0.006438332
196	0x3d80a9da	0.062823966
197	0xbd7c7704	-0.06163694
198	0xbd62ef85	-0.055404205
199	0xbcb83581	-0.02248645
200	0xbc3a9abe	-0.0113894325
201	0x3d01dab2	0.031702705
202	0xbd2c2410	-0.04202658
203	0x3db30d5e	0.08742784
204	0x3d26cc5d	0.04072224
205	0x3d999f83	0.075011276
206	0x3d739a3c	0.05947326
207	0xbc697361	-0.0142487
208	0xbd271004	-0.040786758
209	0x3d663e9e	0.05621206
210	0xbd3daa4e	-0.046304993
211	0xbd23977a	-0.03993938
212	0x3d8f0040	0.069824696
213	0xbaf37f0c	-0.0018577292
214	0x3d1cdae2	0.03829468
215	0xbd343f6c	-0.044005796
216	0x3d88254b	0.06647738
217	0xbd431ef7	-0.047636952
218	0xbca15c6e	-0.019697394
219	0x3ca65c6d	0.020307744
220	0x3d6eb65d	0.058279384
221	0xbd840ebe	-0.06448124
222	0xbd71d8af	-0.059044536
223	0x3d8a2be9	0.067466564
224	0x3da26a3d	0.079304196
225	0x3d499f30	0.04922408
226	0x3cff63dd	0.031175548
227	0x3d854b7e	0.065085396
228	0xbd2b4806	-0.041816734
229	0x3d444580	0.047917843
230	0x3d6c8fca	0.057754315
231	0xbd5f07e0	-0.05445087
232	0x3cb2545c	0.021768741
233	0x3d6823f2	0.056674905
234	0x3dd3a6e3	0.103345655
235	0x3d71bdfe	0.05901908
236	0x3cf891e1	0.030342998
237	0x3c0b1988	0.008489974
238	0xbc2ebe29	-0.010665455
239	0xbc92db72	-0.017926905
240	0xbd3016fc	-0.04299067
241	0xbcb3209b	-0.021866133
242	0x3dafe19a	0.08587952
243	0x3d9e93ff	0.07743072
244	0xbcbd606b	-0.023117265
245	0x3d8d67ab	0.06904539
246	0x3d6f3872	0.05840344
247	0xbcc9d33e	-0.024636861
248	0x3d08d27e	0.033403866
249	0x3d1a59e2	0.037683375
250	0x3b0fdd22	0.0021951874
251	0x3d7d2214	0.061800078
252	0x3d59c13e	0.053162806
253	0x3d8e10e3	0.06936815
254	0x3dc13e8e	0.094357595
255	0xbce86365	-0.028367708
