catanatron_experimental/my_DQN_wyniki1/my_DQN1_100_steps.pth (torch, 532839 bytes, 6 tensors)

layer1.weight f4 [128, 614]
00000000: 8d38 c1bc cf43 753c 49ee 963b 29d7 8f3c
00000010: c667 ea3c b639 ed3b edb6 473c 1631 f8bb
00000020: 1617 9fbc 8ce2 65bc d90f fabb 0072 c1bc
00000030: dbc1 c6bc 43e4 933b fc6e 17bd cb33 11bd
00000040: 758c 55bc 5372 6ebc b484 803d 3fa0 373d
00000050: c672 613c a390 313d 7979 26bd d589 abbb
00000060: e313 e73c 0bbc 0dbd 3879 efbc b018 f73b
00000070: 12f8 f1bc 77f4 a53d 1071 243c 7765 0fbd
00000080: f80c 063d 19ac febc 8c5e 1a3d 0b22 fdbc
00000090: 95a9 423d 0695 66ba 1018 993b ced2 23bd
000000a0: 4771 05bc e817 853d a615 2e3b 659b 61bd
000000b0: 57eb 0cbd 14e2 493d f043 093d 7b55 48bc
000000c0: 3b1b 0dbd 40f8 4bbc 52ba 00bd 93b1 583d
000000d0: 30c0 b33c 0f95 0ebd 75fc 293c 49a8 33bd
000000e0: 546f 8b3d 68a8 873d e091 e93b b7e9 f43c
000000f0: 4b71 3b3d fb20 8f3d c08f a2bc be47 d2bb
00000100: cbd9 9cb9 68fb 7d3c 8ee6 7dbd f2d7 6ebd
00000110: d320 183c f12d 8ebc e7f0 31bc f3de e93c
00000120: 8163 353d 1719 85bc eecb f8bc 7c34 07bd
00000130: 1057 d03c fda1 bd3c acbb de3c 9fdb a83c
00000140: a79a 29bb 95f7 ccbc 879e 23bc c5eb e8b9
00000150: 3b1f 4fbc 7af4 99bd ffba 133d baa4 083d
00000160: 642c b33b 4ef1 fabc 2eab 17bd d9c6 993d
00000170: ac49 513a e386 8a3d e9b7 143d ccae 033d
00000180: c8aa 06bd 9742 a43c 7d97 aabc ba62 703d
00000190: c9e7 1cbc c13c a0bc 1cf2 6abb a44a f3ba
000001a0: 86a7 093c d316 7cbc a83e 50bd 52a5 84bc
000001b0: 618e c63c a432 5cbd c1fe 8c3c 79fd 033a
000001c0: 9569 ebbb 41d2 11bb 1f8f dbbc a9a6 e2bb
000001d0: 4dad 893c 4710 e93c 66bd 14bd 6089 db3a
000001e0: f321 c83b 8ae4 853c 4739 82bc dc94 033d
000001f0: 7eb1 843c 8b00 e03c 9462 2b3d 4bc7 50bb
00000200: 1bc4 a2bc b407 143d 0969 e13c a1b7 f53c
00000210: 3399 8e3d 503d d0bc b5b5 83bc 0b37 04bd
00000220: 4e72 423c dfd6 03bc a264 0e3d f945 2cbd
00000230: 2aeb a83c 0a75 0ebe a539 a0bc 444e 80bd
00000240: 830c 67bc 5a29 f2bd 9a1c 8a3d 8cd0 3dbd
00000250: 40ea bd3c 157a 9dbd a0b8 0fbd 009a 33ba
00000260: c81c a6bc d07a 203d 5f5e 853c 529d efbd
00000270: 2858 a8bb f6b8 92bd 344d 633d 78b6 173c
00000280: ceee 0ebd 9ba8 243c 48ae 903c bc02 513d
00000290: 5449 2d39 8d77 14bd d8f2 013d 731e 9abc
000002a0: ff52 a33c 1a5b 15bb e848 153d 898b 7d3d
000002b0: 759e 953c b8a5 57bc 91cf 97bc c761 46bd
000002c0: 3283 f0bc 93e9 c73c 818f 893c 5488 14bc
000002d0: cca1 053d 4ed6 08bc ddac 87bc d35e 073c
000002e0: 5344 ea3c 64bd e4bb 9e7b 9b3a 8435 2cbd
000002f0: 4280 45bc 7f08 f83b 4a49 19bd 8b96 8c3d
00000300: dc00 cfbc 0135 4ebd 55ba 07bd 98bc 7b3c
00000310: 5bce 92bb 47dc 44bd a90a da3c ab55 133d
00000320: 319b 223c be5d 22bd 27fd 773c a998 77bd
00000330: bc67 17bd 0510 f7bc 541b d9bc e6af efbc
00000340: 7122 91bc 6b3d c9bc b650 86ba bb75 1c3d
00000350: 2cb6 82bc 4a48 b83c 5645 dabc 762e f03c
00000360: 4d34 9dbc be43 5f3c fbd7 c13a af16 4bbc
00000370: 7b6e a23c 34cb 35bd 7b6b b339 de4f 49bd
00000380: 9abb 6cbb 00a8 913b 6013 e33c 9492 cdbc
00000390: d456 ad3a e074 b4bc 7aed 0dbd 7922 fdbc
000003a0: 3ce1 bfbc 2d2d 243d 6ad9 8dbc 37c0 cdbc
000003b0: cd20 9bbc 89d6 023d 2e8d d2bd 858d 69bc
000003c0: c99a 6cbc 1e30 20bd 29bc 203d 4132 08bd
000003d0: 595d a0bc 7a38 013d de2d aa3c 5170 04bd
000003e0: b35e 803c 2618 8abc f514 793d e30a 993d
000003f0: 25cb d9bc cc4d 9d3c fd23 c8bc 2860 61bd
-0.023586536 0.01496978 0.0046060425 0.017558651 0.028613936 0.0072395457 0.012189609 -0.007574211
-0.019420188 -0.014031064 -0.0076312837 -0.02361393 -0.02426236 0.004513295 -0.036971077 -0.035449784
-0.013033976 -0.014553624 0.06275311 0.044830557 0.013760274 0.043350827 -0.04064319 -0.0052349367
0.028207725 -0.03460316 -0.029232606 0.007540785 -0.029537234 0.081032686 0.010036722 -0.035008874
0.03272721 -0.031087922 0.037687823 -0.030900022 0.047525007 -0.000879601 0.004672058 -0.03999596
-0.008144683 0.064987004 0.0026563196 -0.055079836 -0.034404125 0.04928787 0.033512056 -0.012227411
-0.034449797 -0.012449324 -0.03142769 0.052903723 0.021942228 -0.034810122 0.010375132 -0.04386166
0.068083435 0.06623918 0.0071279854 0.0298966 0.04576234 0.069887124 -0.019843936 -0.0064172437
-0.00029916907 0.015501834 -0.061987452 -0.05831141 0.00928517 -0.017355891 -0.010860658 0.028548693
0.044284347 -0.016247315 -0.030370679 -0.033009037 0.02543214 0.023148531 0.027189098 0.020612536
-0.0025879533 -0.0250204 -0.009986526 -0.0004442615 -0.012641723 -0.07517333 0.036067005 0.03336022
0.0054679383 -0.030632641 -0.037028484 0.0750863 0.0007983695 0.06764009 0.036308203 0.03214912
-0.032877713 0.020051284 -0.020824188 0.058687903 -0.009576746 -0.01956022 -0.0035849875 -0.0018561673
0.008401757 -0.015386301 -0.050841004 -0.016192112 0.024237813 -0.053759232 0.01721132 0.0005035024
-0.007184217 -0.0022250565 -0.026801644 -0.00691684 0.016806269 0.028450144 -0.036313437 0.0016749315
0.0061075627 0.016344327 -0.015896453 0.032124385 0.016197916 0.027344009 0.04184206 -0.003185707
-0.019868901 0.03614016 0.027515905 0.029994788 0.06962814 -0.025419861 -0.016077856 -0.032279056
0.011868073 -0.008046835 0.03476394 -0.04205892 0.020619947 -0.13911834 -0.019558737 -0.06264928
-0.014102104 -0.118242934 0.067437366 -0.046341464 0.023182988 -0.07689301 -0.03508818 -0.0006851256
-0.020277396 0.039179623 0.016280351 -0.11699928 -0.005137462 -0.07164185 0.05549355 0.0092598125
-0.03489571 0.010049964 0.017661229 0.051028 0.00016525883 -0.036246825 0.031725734 -0.018813347
0.019937037 -0.0022789896 0.036446482 0.06190065 0.018264035 -0.013162069 -0.018531593 -0.04843309
-0.029359434 0.024403369 0.01679206 -0.009065706 0.032625005 -0.0083518755 -0.01656192 0.008262354
0.028597033 -0.006980585 0.0011862402 -0.042043224 -0.012054505 0.007569372 -0.03742341 0.06864651
-0.025268964 -0.050343517 -0.033136684 0.0153647885 -0.004480166 -0.048061635 0.026616411 0.03597037
0.009924696 -0.03964018 0.01513604 -0.060448322 -0.036964163 -0.030159006 -0.026502289 -0.02925868
-0.017716618 -0.02456542 -0.0010247442 0.038198214 -0.015956007 0.022495408 -0.02664439 0.02931903
-0.019189978 0.013626991 0.0014789099 -0.012395545 0.019828072 -0.044383243 0.0003422162 -0.049148433
-0.0036122561 0.004445076 0.0277192 -0.025094308 0.0013224729 -0.022028387 -0.034650303 -0.030900227
-0.02342283 0.040082145 -0.017315585 -0.02511607 -0.01893654 0.031942878 -0.10280834 -0.014254932
-0.0144412005 -0.039108388 0.039241944 -0.03325105 -0.019575762 0.031548 0.020773824 -0.032333676
0.015670156 -0.016857218 0.060811 0.074727796 -0.026586125 0.019202136 -0.024431223 -0.055023342

layer1.bias f4 [128]
00000000: ed0e c6bc ebd5 1aba 7c00 173d f77c b2bc
00000010: 997f 203d 0a20 1b3d 257b ab3c 5973 c23c
00000020: 290f 133d 22a0 b7bc 347d 24bd bc10 233c
00000030: 9fae 90bb 6f3e 9b3d 06c6 8e3d 14cf 283d
00000040: 9350 bb3d 02e1 d53b 91d2 153c bc3b 823d
00000050: af0f 113d 041b 073d f3c4 443d 7eba 1a3c
00000060: 8d76 ddba ebdf a33c ec72 833c ca78 0cbd
00000070: 2f9f e73c baa7 bd3c 6629 373c 27fd 4b3d
00000080: 8016 463d ddc4 753d f91b 1f3d ff78 013d
00000090: 94db 4d3c b980 bd3d 7a7c 0cba 0fe9 4b3c
000000a0: c4cb b63c 2fa7 0d3d 3b41 efbc 5b6e 843c
000000b0: 1323 e63c f03a 82bc d3ed fa3c 10fb 943c
000000c0: ecd9 bb3c 2b18 423b ebd4 1a3c 6d1f c73a
000000d0: 7ce7 683b 5781 76bc 9476 e33d 278a 3b3d
000000e0: dc26 243d 555f 903d d5b8 563c 99aa af3c
000000f0: 6b0e e53c 2173 253d 81b9 20bd 9a77 a13d
00000100: f4d4 cf3d ba99 423d dfda 403d d3e2 9c3c
00000110: 3e9f 773d f1b8 163c 454e f2bc d4bd 763c
00000120: ad1f 0fbd 042f cd3d cf73 97bc a3da 70bc
00000130: 0c06 b03c 0d54 e73d 3135 553d 557e c1ba
00000140: 2f45 6d3d b87a 233b 04bb 1b3d 5829 99bc
00000150: 1875 7c3d 92e6 14bd 2b33 7a3d d864 993c
00000160: b7b1 9d39 8c24 813c 34fb 863d 09f2 edbb
00000170: 5393 1dba a803 10bc 8ba7 123d 90ae 71bc
00000180: e468 c13d f08a 8dbb eee5 203c ad24 d03b
00000190: f60c f43b ed6c 913d 9ac9 883d c188 913a
000001a0: 0b98 063d 5432 f43c 7b19 d63c aa6f 323c
000001b0: 1bb6 d53c 068b 9c3c 10cf fd3a 731d 393c
000001c0: 6ee3 fa3c 6e97 a73c 53b0 633d 6d77 71bb
000001d0: b921 943d 0cb7 933d 277f bcbc 21f8 593d
000001e0: acfc 093d b3f9 8c3c 04aa cc3b 530c 993d
000001f0: 5093 d03d 47b3 d73c 46a4 593d 743b 633d
-0.024177039 -0.000590651 0.036865696 -0.021788104 0.039184187 0.03787235 0.020932743 0.023736643
0.03590313 -0.022415224 -0.040158466 0.00995272 -0.0044153477 0.07580268 0.06971364 0.04121311
0.09146228 0.006527067 0.009144441 0.0635905 0.035415348 0.03298475 0.048039388 0.009443877
-0.0016896293 0.020004233 0.01604601 -0.03429488 0.028274147 0.023151267 0.011179304 0.04980197
0.0483613 0.060002197 0.038845036 0.03160953 0.012564559 0.092530675 -0.00053591246 0.012445702
0.02231396 0.034583267 -0.029205909 0.016165903 0.028092897 -0.015897244 0.030630982 0.018186122
0.022931062 0.0029616456 0.009450178 0.0015191861 0.0035538366 -0.015045485 0.11106601 0.04578605
0.04007612 0.07049433 0.013105591 0.021443652 0.027960977 0.040393 -0.03923941 0.0788414
0.101480395 0.047509886 0.04708373 0.019151127 0.0604546 0.009199367 -0.029578337 0.015059907
-0.034942318 0.10018733 -0.018487839 -0.014700565 0.021487258 0.11295328 0.05205268 -0.0014762381
0.057927307 0.0024944972 0.03802015 -0.018696472 0.061635107 -0.0363527 0.061083954 0.018724844
0.0003007778 0.015764497 0.06590882 -0.007261519 -0.0006011028 -0.008789934 0.035804313 -0.014751092
0.094438344 -0.004319541 0.0098204445 0.0063520283 0.007447834 0.07100854 0.066790774 0.0011103378
0.032859843 0.029809155 0.026135197 0.010890881 0.026087811 0.01910926 0.0019364078 0.011298525
0.030626025 0.02045795 0.055588078 -0.0036844865 0.072329946 0.07212648 -0.02300985 0.05321515
0.033688232 0.01720891 0.0062458534 0.07473054 0.10184348 0.026330603 0.05313518 0.05547662

layer2.weight f4 [128, 128]
00000000: 38a5 6e3c 0df4 043c 2ee5 643c 609d 6d3d
00000010: 61a4 6f3d c021 f3bc 4080 a53d b6cc b53d
00000020: e62d b53c 7c87 d8bd 9429 5f3d da01 92bd
00000030: 647c e03b 7598 0c3e 94c3 103c e7cb f63d
00000040: 40f4 053e e79b b33c 3e1d 5d3c a641 5b3d
00000050: 6481 c13c 9169 233d dc82 f0bc b4ca bb3d
00000060: 0cd1 b83c d452 a83a 0f2c 20bd 3c4e 8dbd
00000070: 0c7a 153d 396b 9f3c ae86 e43d 82f8 e1ba
00000080: 4d6d 013e 7001 d43d 38c4 7abc beeb 893c
00000090: e2a7 783d 5000 993d eeaf bb3c d8f6 1ebd
000000a0: 07b8 e5bc aed7 b2bd 4fa7 0cbe ea76 a3bb
000000b0: 45c2 cf3d 4630 a03b ebb1 8f3d e7d3 083d
000000c0: 7fa6 78bc 551e eebc 7b9e 2fbb 5c94 b3ba
000000d0: f6c7 bd3c e81a 803d 5b3d 003e f479 45bc
000000e0: ec44 fd3d 16f0 933d 3a3c 4cbc 4eb2 c2bc
000000f0: 3cba 9e3c 14c1 ea3d 5e13 2dbc d84b 1c3e
00000100: b2a0 4e3c 49f5 e03c f03f 5d3d 716f c23c
00000110: 446d c93d 936b 9e3d 86b8 a1ba 4542 713d
00000120: 3df3 14bd bb35 903c 189f 24bd 991c a3bd
00000130: 7acd 713d ef37 ac3d 2b52 5c3d 29ec d83c
00000140: afe3 903d 8bfe c73d cc0c b53d 82fe 00bc
00000150: e4a9 1fbc 667f 163d 9eb8 1b3c 6d26 6a3c
00000160: 0ba5 f63d ba0d fe3c e3c9 5b3d 1263 92bd
00000170: cfcf 9dbd eba4 fd3c a0b2 ee3d 2501 cabc
00000180: b812 e03d 18f0 893d 0cb7 b03d 2c51 983d
00000190: 7e0a a03c edfa 8a3d d838 263d d6fc 053a
000001a0: bf67 f23c 8c2f 4d3d ed16 ab3d b5f8 6f3d
000001b0: d2e7 dfbc e043 ba3d 7ea0 31bc dffe 3dbb
000001c0: 10a9 39be 9ead f13d 335a 193e ff9e 3f3d
000001d0: c2b6 c23d e7bb f43d 1af5 33bc db06 c83a
000001e0: f902 86bd 6991 683d 13cd 853d e4aa ff3d
000001f0: 356e 80bc d12a e13d 2f68 69bc 36a0 c83c
00000200: 9874 8c3d f120 a53d dd30 c43c 949a 893b
00000210: 61cd a63b d0ad 933b 3f8b 183d 97ed 69bd
00000220: 0b14 803d 1a71 e83c 6ade cf3c 1bc3 b53c
00000230: 84df b6b9 8c95 81bd 79ac 963d d5a9 dc3c
00000240: d428 4f3d b008 81bc 1084 adbc fa6e efbc
00000250: 6600 94bd a4c0 ecbc 82c6 103c 27ad 753d
00000260: 1a53 3a3a 3836 5fbd aa9a b83d d29e 00bd
00000270: 1059 0fbd bef4 3f3d 032b ce3d 2f58 78bc
00000280: c4f9 123d e51b 4e3d 3e5a 2e3d cb36 b53d
00000290: a90e 95bc 9e43 b9bc 5e1c 0fbd 6a4c b1bc
000002a0: 7111 313d c45f 933d 3616 b53d 607c ef3c
000002b0: 38ed 0c3d 2b34 9e3d 4af7 b0bd a684 0e3d
000002c0: 0943 4ebd 6118 2b3d 7197 463d 6c23 913b
000002d0: 6ad5 a03b 3480 45bc 5f10 453d b126 363c
000002e0: 479f 823d 9482 d8bc fab9 263d 771c 8e3d
000002f0: 66fa c13a 2d0e 86bd 90b1 23be 33b2 3abd
00000300: a033 ad3d 4e63 4c3d 6b80 6dbd 1cbd 0d3c
00000310: b2a9 d63b 96e5 5e3d 77af ea3c 8473 b73d
00000320: 1e1e 82bd 8235 673d a948 a2bd 6547 cebc
00000330: 2ffc 6a3d 0cd2 84bb 4ee8 2f3d a3b5 4c3d
00000340: f77a e13c d93c 513d 1993 3bbd 740f 27bd
00000350: 92b8 70bd 06ab 613c b80c d4bc 077e a13c
00000360: e393 16bd 32b5 24bd a0a6 823d 04ca b1bc
00000370: e9b6 1e3c c3db 423c 3862 9f3d 1cd7 6dbd
00000380: 7ffe 8d3d 1013 49bc 67aa 95bd 7115 3d3c
00000390: 2de9 65bd 9187 133d 234c 82bc 0d62 843a
000003a0: a212 823d 9c33 353d 5e66 cd3d 8be7 30bd
000003b0: a7c6 12bd e740 7a3d f347 54bd 79af 743d
000003c0: 0d4c c13d 37f4 c33d 7b1b 8e3d 8891 693d
000003d0: 0c2c 9f3d 019b 673c ab0f f5bd 05a9 c23c
000003e0: 054e 9e3c 4780 0f3d f28b d2bc 80e4 6fbd
000003f0: 7a6c 7f3d 11ba 8abd 3290 803d df3a 883d
0.014565758 0.008114827 0.013970656 0.058011413 0.058506373 -0.02967918 0.08081102 0.08876936
0.022116613 -0.105727166 0.05448301 -0.071292594 0.006850766 0.13730033 0.008835692 0.1205061
0.13081455 0.021924926 0.013495741 0.053529404 0.023621269 0.039895598 -0.029359274 0.09169522
0.022560619 0.0012842068 -0.039104518 -0.06899688 0.036493346 0.019460307 0.111585006 -0.0017240199
0.12639351 0.10351837 -0.015305571 0.016836043 0.06070698 0.07470763 0.022911038 -0.038809627
-0.028041853 -0.08732544 -0.13735698 -0.004988541 0.10144476 0.004888567 0.07016357 0.03340521
-0.0151764145 -0.029067198 -0.0026797343 -0.0013700831 0.023166638 0.06255132 0.12523405 -0.012053002
0.123666614 0.07223527 -0.012465531 -0.023766663 0.019375913 0.11462608 -0.0105636995 0.15263307
0.012611555 0.027460711 0.054016054 0.02373478 0.09835294 0.07735362 -0.0012338317 0.05890109
-0.036364783 0.017603746 -0.040190786 -0.07964439 0.05903385 0.08409106 0.0537893 0.026479797
0.07074677 0.09765347 0.088403314 -0.007873179 -0.009745095 0.03674259 0.009504465 0.014291388
0.12043198 0.031012405 0.05365933 -0.071478024 -0.07705652 0.030962428 0.11655164 -0.024658749
0.1094107 0.067352474 0.086286634 0.07437357 0.019536253 0.067861415 0.040581554 0.0005111223
0.029590486 0.050094172 0.08353982 0.058586795 -0.02733222 0.090949774 -0.010841487 -0.0028991026
-0.18130898 0.11800693 0.14975815 0.04678249 0.095075145 0.11949902 -0.01098373 0.0015260832
-0.06543536 0.0567793 0.065332554 0.12483767 -0.01567755 0.10994495 -0.014246031 0.024490457
0.06858176 0.08062924 0.023949081 0.0041993354 0.005090401 0.004506804 0.03724217 -0.05711135
0.06253823 0.028374244 0.02537461 0.02218776 -0.00034880277 -0.06327352 0.07357115 0.026936451
0.050576046 -0.015751213 -0.021181136 -0.029227722 -0.072266385 -0.028900452 0.00883639 0.059979584
0.000710772 -0.054495066 0.09013875 -0.031401463 -0.034997046 0.046864264 0.100667976 -0.015157743
0.035882726 0.05031957 0.04256653 0.088483416 -0.018195467 -0.02261525 -0.034939162 -0.021642882
0.043229524 0.07196 0.08842127 0.029234111 0.034405917 0.07724794 -0.08640917 0.034794472
-0.0503569 0.041771296 0.04848427 0.0044292714 0.0049082534 -0.012054492 0.048111316 0.011117623
0.06378036 -0.026429452 0.040704705 0.06939023 0.0014799356 -0.065456726 -0.15985703 -0.0455801
0.08457112 0.04989939 -0.057983797 0.008651044 0.006550991 0.05441817 0.028648121 0.0895758
-0.06353401 0.056447513 -0.07924015 -0.025180528 0.057369407 -0.00405336 0.042946152 0.04997791
0.027524455 0.05108342 -0.04579458 -0.04078622 -0.05876977 0.013773685 -0.025884971 0.019713415
-0.03676213 -0.040211864 0.063794374 -0.021702774 0.009687164 0.011893216 0.077824056 -0.058066472
0.06933307 -0.012272611 -0.07307892 0.011540757 -0.056130577 0.036017958 -0.015905445 0.0010100022
0.0635121 0.04423867 0.100292906 -0.043189567 -0.03583398 0.061097052 -0.05182643 0.059737656
0.09438334 0.09568065 0.06938835 0.057023555 0.07772073 0.014136077 -0.11965879 0.023762235
0.019324312 0.035034444 -0.025701497 -0.058567524 0.06235931 -0.067737706 0.06277503 0.06651854

layer2.bias f4 [128]
00000000: 0d24 70bd f926 82bc 7e04 7a3d 81f2 303c
00000010: 2838 50bc 2227 e43c 1cd9 8cbd 3af3 94bd
00000020: d583 913d 5987 b6bb 0deb 793d d710 203d
00000030: a6d2 743c 84cd 45bd 5a2f 35bc 462a 993d
00000040: d82c e9bc 3dda a8ba e0f6 2c3c 0b57 c9bb
00000050: 9aaa 1fbd f3bb 8f3b 0fea 943d 8b67 81bc
00000060: 3dfa bf3d bcf9 f2bc 0392 193d 5925 703d
00000070: 3af4 f3bb 4289 153d e767 d539 26e5 993d
00000080: 8a87 0d3c b32c 383d 3ef5 19bd c852 9c3d
00000090: 0008 acbd f7fb 73bd 9c5c 6d3d b870 843d
000000a0: 62ac 703d ba2d 8c3d 93a8 0c3d 9a0e 88bd
000000b0: f209 853b a53d 5fbb a9e0 923c 4814 d73c
000000c0: 60ac 41bd 4ab0 4cbd 210e df3d 9456 82bd
000000d0: e248 5a3d aaeb 1cbc db4b 3fbd 3481 ebbc
000000e0: 6b1b d13b 78d0 febc 4fef 61bc 930e 54bd
000000f0: a385 963d fe01 f6bc 182b 203c 23cc 9e3d
00000100: b788 123d e1b0 603d 5b1e cabc 8e87 84bc
00000110: 4f05 6dbc 9536 a23d 97ab 96bd 2bd5 97bd
00000120: d356 203d be08 d0bc 558c 833d eed4 d93c
00000130: 1d4e 39bb 1da1 e13c 3298 473d 2791 0b3b
00000140: 7b5a 32bd 83f2 3dbd 0a89 98bd 6137 7a3d
00000150: f6ad cf3b f702 a03d 203f 243d 3c9d 863d
00000160: 1d01 bcbc d380 8c3d d503 063d 5421 8a3d
00000170: 64d0 3abd e859 e43d 1b3f 273d 22ce d4bc
00000180: ea6d 44bd b644 9fbd c6ce 2a3d 4f52 523c
00000190: add9 30bd c2fe 9d3c c3d8 053d 1055 26bd
000001a0: f224 d1bc d689 5f3d c6d8 04bd e8bb d6bc
000001b0: c48e 4a3d 0753 9d3d 22bb 40bd f2e4 ef3d
000001c0: 0e8c 8fbc 4daa 483d 0de8 21bc b702 913d
000001d0: a4fd 8cbd 65b9 f539 8348 ff3c d011 1d3d
000001e0: 6caa 763c 1938 8fbd b09e 79bd 672a 473c
000001f0: 0b3d 3b3d 9ed7 343d 51c0 0fbd 6e56 963d
-0.05862813 -0.015887724 0.06103944 0.010800005 -0.012708701 0.027850691 -0.06877348 -0.07272954
0.07105223 -0.005570334 0.061015178 0.03907856 0.014942801 -0.048291698 -0.011058653 0.07478766
-0.028463766 -0.0012882423 0.010556906 -0.0061444095 -0.038981058 0.004386419 0.07271206 -0.015796443
0.09373901 -0.029660098 0.037492763 0.058629368 -0.0074448856 0.036507852 0.0004070394 0.0751441
0.008638272 0.044964503 -0.037587397 0.07632977 -0.083999634 -0.059566464 0.057949647 0.06466812
0.058758147 0.06844659 0.034340452 -0.0664341 0.0040600235 -0.0034063843 0.017929392 0.026254788
-0.04728353 -0.04997281 0.10891367 -0.0636417 0.053292163 -0.009577671 -0.0467032 -0.028748132
0.0063814423 -0.031105265 -0.013789966 -0.05177171 0.07349708 -0.030030247 0.009775899 0.0775378
0.035774913 0.054856185 -0.024672678 -0.016177919 -0.014466598 0.07920567 -0.07356947 -0.074137054
0.039145302 -0.025394794 0.064232506 0.02659079 -0.002827532 0.027542645 0.04872913 0.0021296234
-0.04354332 -0.046373855 -0.07448013 0.06108797 0.0063378764 0.078130655 0.040099263 0.06572959
-0.02294975 0.06860509 0.0327185 0.06744638 -0.045608893 0.11149961 0.040831666 -0.025977198
-0.047956385 -0.077767774 0.0417011 0.012837007 -0.04317634 0.019286517 0.032677423 -0.040608466
-0.025530312 0.05457481 -0.032433294 -0.026212648 0.04945256 0.07681852 -0.047053464 0.1171359
-0.017522838 0.048990536 -0.009881985 0.07080596 -0.068843156 0.0004686817 0.031162506 0.038347065
0.01505528 -0.06993122 -0.06094235 0.012156106 0.045712512 0.04415094 -0.035095517 0.07340704

layer3.weight f4 [290, 128]
00000000: 0bc1 ad3d 1941 f4bc 4ad5 54bd 921d a53d
00000010: bd9e 9f3d eea0 41ba 7211 a9bd 906a f03c
00000020: 930a f83c 1437 8bbd c56f 893d 71da a2bd
00000030: 7e2f 503d 3a00 6b3b 2c64 4abd 41c7 d03d
00000040: 0df3 2c3d ddc6 0a3d 971b 443d 2d8a ca3c
00000050: 8003 49bd 289d bebc be52 eb3d ff5c 36bd
00000060: 41d7 c13c dfd7 723d 10b2 c53d 0ec8 a23d
00000070: 9bf0 8d3d 617a 013d 3f6a 27be b0f8 b23d
00000080: 8cb6 d9bc cace a2bc b701 18bd 11fd 96bd
00000090: 58f1 793d 09d5 033d eac6 d0bd 07bf cdbb
000000a0: c5d7 b5bc ae0d aa3c ed25 94bc ffd9 82bd
000000b0: df64 6fbd cb5c 99bd 1f8e 67bd 907b 6a3b
000000c0: 9b81 c5bc a231 cbbc 3fb3 913d 3778 863c
000000d0: 1ca0 51bc ed1d 8d3d 3d9c 86bd 8864 07be
000000e0: c2f5 f0bc ffd1 853d 94e3 cf3d 28fb 0fbd
000000f0: 68fd 4b3d 259b c03d c658 01bd 8531 b73d
00000100: 4e49 70bd 4149 73bd a802 0cbd 3cb6 4c3c
00000110: 617c 003d 12cf ac3d b747 ec3c b538 a0bd
00000120: fa08 adbc 5dad 443d 2dfe 2bbd 9bd9 a43d
00000130: 8b67 9b3d 53e8 d8bb d06e 343d f0c5 5e3d
00000140: 3c40 843d 871a 6bbd 1a6e 9abd 52fc 963d
00000150: e623 993d 8d39 0f3d 1253 93bd 27e9 b6bc
00000160: 625f 15bd cb43 22bd 2744 a83d 9805 04bd
00000170: 80a5 a4bc 1494 e3bc 250d 113d d017 91bc
00000180: a5a7 67bd 76ec 2a3d 468d 463d de90 0a3e
00000190: 2f03 08bd daaf 9b3d 8de6 7d3d 31af 7abd
000001a0: 012d 33bd 361c a83d e145 bdbc 1c30 68bd
000001b0: c362 7b3c 955b 7bbd b9ad 51bd b7d3 d93d
000001c0: 3686 9c3c a79f 42bc 02b1 37bd 062a 63bd
000001d0: 4774 1abd d56d 39bc 22c0 313d 893a bbbc
000001e0: c4a8 ae3d 731b a1bd cabb 663d 521c cd3c
000001f0: 9842 f7bc 034d 97bd c9e5 633d 9618 29bd
00000200: ca56 de3d d8ac 8d3d 5f12 a03d ee8f 0b3d
00000210: d2db 9abc 223c 4d3b fc3d b43c 652e 39bd
00000220: 3471 223d d928 09bc 31b2 f8bc a62e 9b3c
00000230: ee7f 8bbc 64e0 9bbc 2413 513c 2caa 503d
00000240: b8de e2bb 2cb2 9ebd d781 383d 37c5 f73d
00000250: 854b 18bd 0ac3 2abd 3db2 ec3d ac58 75bd
00000260: 015b cf3c be43 94bc 4f32 293d b801 893c
00000270: d082 523d 4caf a6bc eb3e 25bd 822a d23d
00000280: aff9 70bd f0bf f93d c7bb 69bb 5dd2 0ebd
00000290: 4047 813d b201 8f3d 6b77 2f3d a48d 58bd
000002a0: f3c3 673b 09e8 5f3b 42d1 a33d 282a 233d
000002b0: e540 d7bc 4b3a 643d 19f1 033e 5d8c 983d
000002c0: 3c29 3abd 5b61 903d 775f 9b3d f1c4 a8bd
000002d0: e3ca 9bbc 829e 8e3d 87b5 073c 65a9 40bd
000002e0: b709 60bc 98e1 f0bc bc0e 0b3c d808 263d
000002f0: 4c19 333d acab 2b3d b712 473d 692d c13d
00000300: 642b 1fbc 9e58 34bc e55f a53d 5cd1 86bd
00000310: 5754 c93c ce1a c3bc c4f1 58bd 3a90 b03c
00000320: 7fcb f1ba d863 27bd a688 903d 938f 1abd
00000330: b1da a83d e77e 03bd 6a56 6cbd 7c47 7ebc
00000340: 7b81 86bc b71a 43bd e985 143d 4006 9bbc
00000350: 703e 553c 9a3c ed3c 7a85 a3bd 4111 32bd
00000360: 8e35 96bd 5167 97bd 68b9 7f3d 4375 35bd
00000370: d1c0 8f3d 55d5 813d 0faf 893c fd40 57bc
00000380: 6756 34bd 4243 893c 00af 073d f247 64bc
00000390: bdba 1f3c d0ca 913b ad68 b53d d148 763d
000003a0: c8bf 9d3d 34e6 cc3d 495d ac3d 17f0 a73c
000003b0: 2d05 3d3d 6294 f9ba 73f8 22bd 2955 cb3d
000003c0: 6d6f b93d ef60 e7bc 1d30 2bbd 754d 7dbc
000003d0: 1500 12bd 7355 7dbd 1726 873d 055b 88bd
000003e0: 6d8e 18bd 28ed 8d3d be5d 363d b6fe 2abd
000003f0: a7ed aabd 5ca3 cf3d dc3a 1dbd c8f0 58bd
0.08484086 -0.029816197 -0.05196122 0.08062281 0.07793949 -0.0007386346 -0.082552806 0.029347688
0.03027848 -0.06797615 0.067107715 -0.07951821 0.050826542 0.003585829 -0.049411938 0.10194255
0.04222398 0.033881057 0.047877874 0.02472409 -0.049075603 -0.023268297 0.11490391 -0.04452228
0.023662211 0.059287902 0.09653103 0.07948314 0.069306575 0.03161085 -0.16349123 0.087388396
-0.026576303 -0.019873995 -0.03711101 -0.07372487 0.06102118 0.032185588 -0.1019419 -0.0062788757
-0.022197613 0.020758476 -0.01808449 -0.06389236 -0.058445808 -0.07488402 -0.05653202 0.0035779215
-0.024109652 -0.02480394 0.071142666 0.016414745 -0.012794521 0.068904735 -0.06572769 -0.13221943
-0.029414061 0.06534194 0.10150829 -0.03515163 0.049802214 0.094045915 -0.0315788 0.08944992
-0.05866366 -0.059396032 -0.03418222 0.01249462 0.031368617 0.08437933 0.02884279 -0.07823316
-0.021122444 0.048016895 -0.041990448 0.080493174 0.07588109 -0.006619492 0.04405099 0.054387987
0.06457564 -0.057398345 -0.075405315 0.07372345 0.0747755 0.034966994 -0.07193579 -0.022327973
-0.036467917 -0.039615434 0.08216124 -0.032231897 -0.020098448 -0.02778057 0.035412926 -0.01771155
-0.056556363 0.041729413 0.048474573 0.13531825 -0.03320616 0.076019004 0.06198745 -0.06120223
-0.04374409 0.08208506 -0.02310461 -0.056686506 0.015343371 -0.061366636 -0.051191065 0.106360845
0.019106966 -0.011878884 -0.044846542 -0.05546 -0.037708547 -0.01131769 0.043396123 -0.02285506
0.08528283 -0.07866564 0.056331433 0.025037918 -0.030183122 -0.07387736 0.055639062 -0.041283213
0.108563974 0.06917733 0.07816004 0.03407281 -0.018903647 0.003131636 0.022002213 -0.04521026
0.03965874 -0.008371555 -0.030358406 0.018943142 -0.017028775 -0.019027896 0.012760911 0.05094354
-0.006923523 -0.07748827 0.0450457 0.120981626 -0.037181396 -0.04168991 0.11557434 -0.059899017
0.025311949 -0.018098708 0.041307744 0.016724452 0.051394284 -0.02034726 -0.040343206 0.10262014
-0.058831867 0.12194812 -0.0035664903 -0.034868587 0.06312418 0.06982745 0.042838495 -0.052869454
0.0035364598 0.0034165403 0.07998897 0.039835125 -0.026276061 0.055719655 0.1288494 0.07448647
-0.04544948 0.07049819 0.07586568 -0.082406886 -0.019017642 0.06963827 0.008283026 -0.047036547
-0.013674191 -0.029404446 0.0084874 0.040535778 0.043725297 0.041911766 0.048601832 0.094324894
-0.009714935 -0.011007456 0.08074931 -0.06582901 0.02457635 -0.023816492 -0.05296494 0.021553148
-0.0018447487 -0.040866703 0.070573136 -0.03773458 0.08244837 -0.032103445 -0.0576996 -0.015519973
-0.016419163 -0.0476329 0.03626052 -0.018923879 0.013015375 0.028959561 -0.07984443 -0.043473486
-0.073344335 -0.07392753 0.062432677 -0.044301283 0.07019199 0.06339518 0.016807107 -0.013138053
-0.044027712 0.016755704 0.033125877 -0.013933169 0.009749112 0.004449226 0.08857856 0.060128037
0.07702595 0.10004845 0.0841623 0.020500226 0.046147514 -0.0019041414 -0.03978772 0.099283524
0.09054456 -0.028244464 -0.04179393 -0.015460362 -0.03564461 -0.06184907 0.06599062 -0.066579856
-0.037245203 0.069299996 0.044522993 -0.041746818 -0.0834611 0.1013858 -0.03838621 -0.052964002

layer3.bias f4 [290]
00000000: 05fe 2f3d 4135 be3c c16c 46bc 4e31 893c
00000010: 84a5 07bd 08dc c33c 2578 67bd 0571 af3d
00000020: 6709 6b3c c26a 11bd 95b0 053d 7079 643d
00000030: f8de 643d 0e90 80bd 81a7 95bc ce09 9dbc
00000040: e450 16bd d076 a33c 2c34 b9bc bdef 8f3d
00000050: df9e d1bb b888 b83d 2183 e73a 4b1f 913c
00000060: 3e3f 583d 70e9 80bc 55ef 29bd 2a9f 3dbd
00000070: f3fb 14bd 1303 5fbd e5f6 bfbc ad16 d53d
00000080: f393 373d a1b3 be3d 4992 a83d 4c94 b93d
00000090: 3b1e 323b fd74 00bd bf32 4dbd b3ca 773d
000000a0: 54fa d33d 8fad 373b a0b3 973d 7778 813a
000000b0: 234c c33c 342d 58bb 0262 d53d 832b cebc
000000c0: dbc9 8e3d 8744 95bd 3a92 02bd bb2e 97bd
000000d0: b6be 843d 2a24 d23d 22f0 4dbd 786d 8a3d
000000e0: f53c cb3c fc3f 293d 9f20 af3d 83dc e23c
000000f0: 7860 17bd f181 c03c 898d 513d 909c 343d
00000100: e650 493d 4c11 d6bc 0295 4bbd 2bb8 67bc
00000110: 92bb fe3c 0e58 e3bb 242c 81bc 7d07 77bd
00000120: 87a2 84bd 763b 8cbd 2f0e aa3d 2380 a33c
00000130: 0802 113d ffa4 953d 3f74 0d3d 4146 023d
00000140: 3101 75bd 26cd 06bd f1af 75bc 1913 9abc
00000150: 208f 32bc eb74 6bbd b61f 083d 3e4e 173d
00000160: b34c 883d cc26 dc3d d510 813d 0a10 fb3c
00000170: c1e7 033c 5978 7f3d 6602 55bd 6e85 5fbd
00000180: 0f77 a73c 61ac a8bd 58e7 ecbb fb04 2e3c
00000190: 9457 1fbd b36e 2dbd 2a58 bc3d 9336 cb3c
000001a0: e773 a83c d605 0b3d 9c9c 5c3c 45a4 17bd
000001b0: d2ac dbbc aa4a 923c d1ea 93bd 6ee0 d53c
000001c0: 4c26 36bd 46ec e03b f1d9 44bc 38ea 68bd
000001d0: 0995 703d bdcc 133d ee31 ed3b 4c19 41bd
000001e0: d422 2c3d 2e1c 50bc d2ff 743d daa2 8d3d
000001f0: dbfc dcbc 4b3c 11bd 7c94 afbc 764a 853c
00000200: 2848 a5bd 24ce aebc 675a 443d 6450 a9bd
00000210: 58a2 243b 275b 61bd 1aea 763d 58ee b2bc
00000220: 0a79 71bd 3527 f43c 916b f53c a79e 593d
00000230: 6bd9 873d 11a3 903c add7 72bd 404a 7d3d
00000240: 6f79 59bc e29b 873d e152 973c 3acb 2f3d
00000250: 8878 e6bc 6c16 a03d 148d a6bd fb15 e93c
00000260: 96eb d7bc 9594 023d d763 1cbc 3637 41bd
00000270: b958 43bd c3ec 003d f8f6 74bc 4da4 a2b8
00000280: 448a 803d 044a a5bd 4995 653d 54bc 113d
00000290: 5a39 783d 6f47 8fbd 0d17 953d 063c 79bd
000002a0: 1b6b c13a e511 8dbd d338 2d3d 33ad 68bc
000002b0: 3e3f 9d3c 2ca5 7f3b a7dd 9c3d 7697 bb3c
000002c0: 6285 e9bc edb6 673d 4411 56bd b6e6 3bbd
000002d0: 2ee2 283d 71c2 3e3d 7808 8cbd 635c 5dbc
000002e0: 7699 dfbb 8c5f 11bd 5f47 67bc c0e5 393d
000002f0: c5d5 20bd 7320 dabc d6d1 95bd aa20 0abb
00000300: 737e 0fbd 0eee 9c3d 517e 073d 427c e53b
00000310: 9b16 8c3d a58d 89bd 8fd0 76bd 4260 c8bc
00000320: 9ac4 4cbc d66b 043d c7a6 48bd 9411 ad3d
00000330: 9973 353d 2723 a73d 4ab3 843d 9917 7ebc
00000340: 0246 38bd 1c76 7a3d 71d4 4fbd 10eb 35bd
00000350: 55b0 9b3d ffa3 04bb ff51 a63c ab15 44bd
00000360: f0cc 923d a343 54bd 2085 afbc 7cf9 b43c
00000370: 1df3 813d 8c87 8fbd 6bb6 83bd 8af3 883d
00000380: 77ab b03d a944 373d 9b3b f43c 7ee7 903d
00000390: 9857 3abd cbee 3d3d d060 5c3d 90c8 7ebd
000003a0: 7123 933c b298 683d df28 e43d 3bfc 6b3d
000003b0: ecd8 cf3c 9740 953b 7237 a5bc bf80 c7bc
000003c0: 6b0e 4bbd f75b 20bd fb35 ad3d dae6 a53d
000003d0: e99e 1abd 711d 8b3d 002d 743d 666c 07bd
000003e0: 95fe 053d 4b34 0b3d 2e3f 44bb 2769 7f3d
000003f0: 70fe 4b3d 1b8c 8c3d 2a76 d03d d328 0ebd
0.04296686 0.023218753 -0.01211089 0.016747143 -0.033116832 0.02390863 -0.056511063 0.08566479
0.014345503 -0.035502203 0.032639105 0.055779874 0.055876702 -0.06277476 -0.018268349 -0.019169714
-0.036698237 0.019954115 -0.022607885 0.07028148 -0.0063971127 0.09010452 0.0017662981 0.017715117
0.052794687 -0.015736312 -0.04148801 -0.04629437 -0.03637309 -0.05444629 -0.023433158 0.10404716
0.04481883 0.09311605 0.08231027 0.090614885 0.0027178663 -0.03136157 -0.050097223 0.060496043
0.10350481 0.0028027033 0.074073076 0.000987782 0.023840016 -0.0032985928 0.10419084 -0.025167232
0.069720946 -0.07288461 -0.031877734 -0.0738196 0.06481688 0.10260804 -0.050277837 0.06759161
0.02480934 0.041320786 0.08551144 0.027693039 -0.036957234 0.02349946 0.05116037 0.044094622
0.049149416 -0.026131295 -0.04970265 -0.01414303 0.0310953 -0.006937987 -0.015768118 -0.060309876
-0.06476312 -0.06847279 0.083034866 0.019958561 0.035402328 0.07306861 0.03453469 0.03180528
-0.05981559 -0.03291049 -0.014995561 -0.018807935 -0.0108983815 -0.05748455 0.033233367 0.036939852
0.06655254 0.107495874 0.063020386 0.030647296 0.00805086 0.06237063 -0.05200424 -0.054570608
0.020442514 -0.08236004 -0.0072297268 0.010621305 -0.03890188 -0.0423419 0.091965035 0.024806296
0.020563079 0.033941112 0.013465073 -0.037021894 -0.026815806 0.017857868 -0.07222522 0.026107993
-0.044470116 0.0068641035 -0.012014852 -0.056863993 0.05873588 0.036083926 0.007238618 -0.047143266
0.042025402 -0.012702031 0.05981428 0.06915827 -0.02697604 -0.03545789 -0.021433108 0.016270857
-0.08070403 -0.02133853 0.047937777 -0.082672864 0.0025121178 -0.05501857 0.06028185 -0.021842167
-0.058953322 0.029803852 0.029958518 0.05312982 0.06633266 0.017655881 -0.059287716 0.06183839
-0.013273581 0.06621529 0.018472137 0.04291842 -0.028133646 0.07816777 -0.08132377 0.028452864
-0.026357453 0.03187998 -0.009545288 -0.047171794 -0.047692034 0.031475794 -0.01495146 -7.7553654e-05
0.06276372 -0.08070758 0.056050573 0.035579994 0.06060157 -0.06996047 0.07279787 -0.06084826
0.0014756651 -0.06888179 0.04229052 -0.01420145 0.019195195 0.0039008362 0.07659464 0.02289937
-0.028505985 0.056570936 -0.05226256 -0.04587432 0.041231327 0.046572153 -0.06837553 -0.013510796
-0.006823714 -0.03549151 -0.014116137 0.045385122 -0.039266367 -0.026626801 -0.07315414 -0.0021076598
-0.0350327 0.07662593 0.03307945 0.007003338 0.06840249 -0.0671647 -0.06025749 -0.024459962
-0.012498045 0.032329403 -0.048987176 0.084506184 0.044299696 0.08161002 0.06479509 -0.015508556
-0.04498864 0.061147794 -0.05073971 -0.044413626 0.07601992 -0.002023935 0.02030277 -0.047872227
0.07167995 -0.051822316 -0.021425784 0.02209162 0.06345198 -0.070082754 -0.06431278 0.066870764
0.08626454 0.044743214 0.029813578 0.07075404 -0.045493692 0.04637031 0.053803265 -0.06220299
0.017961236 0.056786247 0.11140608 0.057613593 0.025371991 0.004554819 -0.02016804 -0.024353383
-0.049574297 -0.039150205 0.084575616 0.08100672 -0.037749205 0.06792725 0.059613228 -0.03306236
0.03271349 0.033985417 -0.0029944885 0.06235614 0.049803197 0.068626605 0.10178788 -0.0347069
