catanatron_experimental/my_DQN_wyniki1/my_DQN1_150_steps.pth (torch, 532839 bytes, 6 tensors)

layer1.weight f4 [128, 614]
000000 13 7a 47 bc eb 14 d3 3c 9f 13 21 3c 51 b6 e6 3c
       -0.012175101 0.02576681 0.009831338 0.028163107
000010 16 5a 18 3d 56 c0 8b 3c ab 06 96 3c 25 ef e0 3c
       0.037195288 0.017059486 0.018313726 0.027457783
000020 ca e7 7c bc 49 f3 44 bb 15 31 97 3b c1 df e4 bb
       -0.015436122 -0.0030052236 0.0046140053 -0.0069846814
000030 da 3b c1 bc 7c d4 1f 3c 0a 08 82 bc c1 cc 1c bd
       -0.02358811 0.00975525 -0.015872974 -0.038281206
000040 8d db 17 bd 6d a4 da bc fb 59 61 3d 65 2a 2f 3d
       -0.037074614 -0.026689732 0.055017453 0.04276504
000050 17 33 19 3d 2c df 03 3d 62 e2 85 bc 5d a0 90 bc
       0.03740224 0.032195255 -0.0163433 -0.017654592
000060 58 b4 e0 3c 5c a4 f0 bc b0 b8 e8 bc 5d 36 a3 3c
       0.027429745 -0.029375248 -0.028408378 0.019923383
000070 c2 2b eb bc 4b 88 8f 3d 99 c4 1f 3c 93 d1 19 bc
       -0.028707389 0.07008418 0.009751462 -0.009388345
000080 0b 3a 02 3d 03 64 24 bd da 1e 16 3d 84 dc ed bb
       0.031793635 -0.04013444 0.036650516 -0.0072589535
000090 af 07 12 3d 6f f8 a5 3c 5e d8 94 3b 41 63 d5 bc
       0.03565186 0.020260064 0.0045423945 -0.026048305
0000a0 5a 9e 01 bc 51 e5 b4 3d c4 44 f9 ba 90 11 09 bd
       -0.007911289 0.08832801 -0.0019017686 -0.033464015
0000b0 6a 18 09 bd ef 72 6a 3d f5 89 ca 3c 7e 76 00 bd
       -0.03347055 0.057238515 0.024723986 -0.031363003
0000c0 36 98 a5 bc c2 0d 01 3b dc 26 fa bc ed ae 17 3d
       -0.020214181 0.0019692038 -0.030536108 0.037032057
0000d0 2d 4a 44 3c c1 74 3b bd 7f 7f 43 3b ed d6 54 bc
       0.0119805755 -0.045765642 0.0029830632 -0.012990695
0000e0 33 80 72 3d fb 24 91 3d cd 2f e3 3b b8 d2 4c 3d
       0.05920429 0.070871316 0.0069331885 0.050005645
0000f0 9a 7e 64 3d 82 56 aa 3d 93 53 2f bc 3c 9b b6 3b
       0.0557848 0.08317281 -0.010701078 0.0055727046
000100 dd d0 63 bb 91 d5 65 bb 8e 07 47 bd f8 b4 41 bd
       -0.0034761943 -0.0035069922 -0.04859119 -0.047291726
000110 69 a2 27 3c a6 bc f6 bc fd f3 66 bc f5 20 0b 3d
       0.010231593 -0.030119251 -0.014096257 0.033966977
000120 46 43 58 3d 24 c6 2c bc 1c b1 2c bd 30 c4 15 bc
       0.052798532 -0.010545287 -0.042161092 -0.009141013
000130 d5 8f ff 3c 32 2d 15 3d b5 2f 01 3d 98 3a a0 3c
       0.031196514 0.036420055 0.031539638 0.01955919
000140 26 fb 7a 3c 69 24 61 ba 77 7f c2 3c 3d fe 39 3b
       0.0153186675 -0.00085884944 0.02374242 0.0028380298
000150 1d db 85 3b 8d 43 37 bd 7a 16 cc 3c 85 41 78 3d
       0.004084958 -0.044742156 0.024913061 0.06060936
000160 28 13 ae 3b e6 a7 af bc 7c 6b 13 bd c5 68 a2 3d
       0.005312342 -0.021442365 -0.035991177 0.079301395
000170 e6 56 4b 3a 30 cb 8b 3d 37 78 10 3d df 28 5a 3d
       0.00077567843 0.06825864 0.035270896 0.053261634
000180 db d7 02 bd 8b 41 8b 3c 8d 45 ca bc 81 75 53 3d
       -0.031944137 0.016999027 -0.024691368 0.051625732
000190 d7 32 b6 bc 53 bf c2 bc 01 bc eb 3b 5c de a3 3c
       -0.02224104 -0.023772871 0.0071940427 0.02000349
0001a0 71 73 93 bb c5 54 0b bd b6 0a 36 bd 6a 7e ce bc
       -0.0044998457 -0.03401639 -0.04444381 -0.025206763
0001b0 60 08 c1 3c 53 03 57 bd d4 2b 89 3c 58 20 53 3b
       0.023563564 -0.052493405 0.016744532 0.0032215323
0001c0 07 ea e4 bb cd 2e d1 39 c3 87 d5 bc 28 5c 0b bb
       -0.006985906 0.00039898456 -0.026065713 -0.0021264646
0001d0 60 da 85 3c dc aa c6 3c b4 7d 10 bd 17 46 99 bc
       0.01633948 0.024251394 -0.03527613 -0.01871018
0001e0 f2 9b c2 3b 6c e4 0d 3d 39 fa 7c bc a0 9d 07 bb
       0.0059390003 0.03464167 -0.015440517 -0.0020693317
0001f0 91 de 80 3c 7a 10 7c 3d 43 8c 06 3d 2e 6f 05 bb
       0.015731128 0.06153915 0.032848608 -0.0020360458
000200 45 29 6b bc ad f1 9b 3d 33 af 0b 3d f7 be 0d 3d
       -0.014353101 0.07614455 0.03410263 0.034605946
000210 bb 02 81 3d 6f 5e 0b bc 68 9d 84 bc a2 e3 38 bd
       0.06299349 -0.008506401 -0.016188338 -0.045138963
000220 7a 59 c7 3a 2a 49 91 bc fd 7c 37 3d c3 a1 fd bc
       0.0015209161 -0.017735083 0.044796932 -0.030960923
000230 1f 70 fd 3c 02 71 cd bd aa 42 a6 bc 27 b7 33 bd
       0.030937253 -0.1003132 -0.02029546 -0.04387584
000240 b9 3b 0a bd 4f 3c a2 bd 7c b2 9d 3d 5f 98 18 bd
       -0.033748362 -0.07921659 0.07700059 -0.037254687
000250 8c 52 5b 3c 8a 97 6f bd d5 fd 19 bd 32 6b 1d 3b
       0.01338638 -0.05849413 -0.03759559 0.0024020192
000260 97 06 b0 bc 91 5d 12 3d 72 8b 81 3c 12 1c e8 bd
       -0.021487517 0.035733763 0.015813563 -0.11333479
000270 b1 ab a3 bb 3e 88 8e bd a9 ed 5c 3d 5f 85 d6 bc
       -0.0049948324 -0.0695958 0.053937588 -0.026186643
000280 e1 1b 0b bd 24 fc 1f 3c d5 b1 8c 3c 25 f6 35 3d
       -0.033962134 0.009764705 0.01717464 0.044424195
000290 84 9a 28 39 db 37 10 bd 16 df f6 3c 71 65 73 bb
       0.0001607929 -0.035209518 0.030135673 -0.0037139321
0002a0 88 a6 9e 3c 68 1b 11 bb 36 09 11 3d b4 0d 59 3d
       0.019366518 -0.002214158 0.035409175 0.052991584
0002b0 c3 5e 91 3c f2 b2 51 bc b2 a8 ab bc 9f 03 0c bd
       0.017745381 -0.012799012 -0.020954464 -0.03418314
0002c0 e2 b6 e9 bc 92 63 c2 3c 94 bc 85 3c 0e 2e b3 3c
       -0.028529588 0.02372912 0.016325273 0.021872547
0002d0 df ce 01 3d 61 03 05 bc 2f de 71 ba a0 0d b6 3c
       0.03169143 -0.008118481 -0.00092265283 0.022223294
0002e0 19 d7 e3 3c d9 5d de bb 65 ca 57 bd 19 a5 8f bc
       0.027812527 -0.00678609 -0.052683253 -0.01753478
0002f0 41 fa 3f bc 2f 3c f1 3b 98 09 15 bd 9d ac a8 3d
       -0.01171738 0.007361911 -0.036386102 0.08236048
000300 07 37 c9 bc bc 79 48 bd 68 e7 03 bd b1 26 23 3d
       -0.024562372 -0.04894422 -0.032203108 0.03983182
000310 f6 d9 8e bb ca 30 f7 bc e3 17 d4 3c 92 38 1f 3c
       -0.004359479 -0.030174632 0.025890296 0.009718077
000320 08 f3 1d 3c 2c bb 1d bd d7 30 71 3c f0 9f 0e bc
       0.009640463 -0.03850858 0.014721117 -0.008705124
000330 0a 28 13 bd b5 43 f0 bc 90 b2 dd bc 51 0c ad ba
       -0.035926856 -0.02932916 -0.027062684 -0.0013202523
000340 60 1a 8d bc 98 94 06 bb c9 7d 82 ba 34 23 92 3d
       -0.01722449 -0.0020535346 -0.00099557 0.07135621
000350 d6 0c 2c bd b4 c3 05 3d bb e0 e1 bc b0 e8 f5 3c
       -0.04200443 0.03265734 -0.02757298 0.03001818
000360 c3 17 f3 bc 3e 54 03 3d 9a e9 1f bc 9d 96 e4 3c
       -0.029674416 0.03206276 -0.009760285 0.02790385
000370 63 ca 9d 3c 77 fd 52 bd da 75 43 3c e6 33 52 bd
       0.019261545 -0.051511254 0.0119299535 -0.051319025
000380 eb 26 66 bb 79 89 3c 3b d5 b3 dc 3c 5c bc 8a 3b
       -0.0035118412 0.0028768464 0.02694122 0.00423388
000390 e4 a6 a8 3a a4 5b af bc aa 14 83 bd e8 1a a2 bc
       0.001286712 -0.021406002 -0.06400426 -0.01978822
0003a0 3b 80 ba bc fb 8b 3e 3d 7d 06 8a bc 2a 4d a9 bc
       -0.022766223 0.046520215 -0.016848797 -0.020666678
0003b0 15 ce d8 bb 9f 08 cb 3c 68 9a cc bd 0e c6 e1 bb
       -0.006616364 0.024784384 -0.09990388 -0.006890065
0003c0 7f 4e 83 3c c8 0b 15 bd f6 55 ce 3c 57 49 1d bc
       0.01602864 -0.03638819 0.025187474 -0.009600005
0003d0 5b e9 9b bc 27 15 fb 3c 67 81 a5 3c e7 39 16 bd
       -0.019032171 0.030649735 0.020203305 -0.036676314
0003e0 cc 79 79 3c a8 53 7b bc 0d ab 6b 3d ee 88 87 3d
       0.015226793 -0.015339769 0.057536174 0.06617914
0003f0 5f d8 d3 bc 1a 0e 99 3c 42 68 50 bd 94 a4 fd bc
       -0.02586001 0.018683482 -0.050880678 -0.030962266

layer1.bias f4 [128]
000000 14 a9 6a bc d0 0d 3d 3c f6 b4 47 3d 9e df 25 bc
       -0.014322538 0.011538938 0.048756562 -0.010124115
000010 a2 32 4e 3d 21 49 15 3d 29 92 06 3d 61 ee 16 3d
       0.050341256 0.036446694 0.032854233 0.03684843
000020 ab f1 1a 3d 42 29 b4 bc bd d0 1f bd 45 64 1e 3c
       0.03782813 -0.02199233 -0.039017428 0.009667461
000030 6a 1b 81 bb cb 4f b1 3d aa 2e ac 3d 5e 5b 61 3d
       -0.0039400356 0.086577974 0.08407338 0.055018775
000040 41 1e d2 3d 77 df 89 3c fe b9 32 3c 72 7f 97 3d
       0.10259677 0.01683019 0.010908602 0.07397355
000050 7e 09 0d 3d 1e c1 2f 3d 26 cd 7b 3d 55 33 18 3c
       0.03443288 0.04290878 0.06147494 0.009289582
000060 08 cb 28 3c 12 ed 08 3d 88 38 ec 3c dd a5 08 bd
       0.010302313 0.033429213 0.02883555 -0.033361305
000070 f4 e2 27 3d 53 74 09 3d 4e 6f ca 3c f0 5b 76 3d
       0.040987924 0.0335582 0.024711277 0.060146272
000080 dc d8 74 3d cb 63 8e 3d ab 7d 4a 3d 14 63 2b 3d
       0.059777126 0.06952628 0.049436253 0.041842535
000090 a1 ce b9 3c 19 f2 d3 3d 4b 89 0d b9 c9 57 46 3c
       0.022681536 0.10348911 -0.00013497953 0.012105891
0000a0 f9 4f f5 3c 0d d5 0d 3d 4e 9f e1 bc 6e 9b 80 3c
       0.02994536 0.03462701 -0.027541783 0.015699115
0000b0 56 e1 1f 3d 5b fd 7c bc 7d fc f3 3c 0f 0d 03 3d
       0.039033256 -0.015441264 0.029783482 0.031994876
0000c0 b0 c0 b6 3c 2a 92 3c 3b 86 a1 ac 3c 64 b0 fb ba
       0.022308677 0.0028773644 0.021073114 -0.0019202349
0000d0 c3 36 81 3c 39 ad d2 bb 81 91 f8 3d 10 02 63 3d
       0.015773183 -0.006429341 0.12137128 0.05542189
0000e0 7c da 4e 3d 5b fe a3 3d c1 f0 35 3c b0 22 11 3d
       0.05050133 0.08007499 0.0111047635 0.03543347
0000f0 17 58 1f 3d 06 b6 4f 3d 30 71 0c bd 47 ef b4 3d
       0.03890237 0.0507107 -0.03428763 0.08834701
000100 bc 13 e5 3d 85 6d 6e 3d 23 d5 71 3d 45 f8 fa 3c
       0.11185405 0.058209915 0.059041154 0.030635962
000110 73 b2 8f 3d 24 a3 b9 3c f5 81 eb bc ff 7b cb 3c
       0.07016458 0.0226608 -0.028748492 0.0248394
000120 16 4b 0b bd 85 02 e2 3d 1d 34 93 bc 53 0e 6a bc
       -0.034007154 0.11035637 -0.017969185 -0.014285642
000130 f5 dd 0e 3d d4 92 01 3e bd 21 7a 3d bc e1 36 3c
       0.034879643 0.12653667 0.06106733 0.011162218
000140 55 54 90 3d 1d 50 5a 3c 6b 00 4a 3d 26 d4 89 bc
       0.07047335 0.013324765 0.049316805 -0.016824793
000150 86 2b 96 3d e0 a6 10 bd 77 82 94 3d 24 92 99 3c
       0.0733252 -0.035315394 0.07251447 0.018746443
000160 47 96 40 3c 0d b2 cb 3c b6 38 99 3d f4 49 e7 bb
       0.011754579 0.024865175 0.0748152 -0.0070583764
000170 8b 75 d0 ba 4e ad df bb 8a b1 49 3d c2 88 7f bc
       -0.0015904171 -0.0068260795 0.04924158 -0.01559657
000180 0c 1b d6 3d 4d 01 ed bb de 5f 14 3c 22 24 93 3c
       0.104543775 -0.007232821 0.00905606 0.017961565
000190 c3 91 a0 3c 97 04 a8 3d 4e 17 9e 3d 1d 7f 08 3c
       0.019600755 0.082040004 0.07719289 0.008331087
0001a0 9a bb 32 3d 3a 26 2c 3d b0 02 1e 3d d0 48 7c 3c
       0.043635942 0.042028643 0.03857678 0.015398219
0001b0 99 83 1a 3d c6 af 03 3d 80 69 69 3c 37 cb cd 3c
       0.037723158 0.032150052 0.014246345 0.025121314
0001c0 7a c0 f3 3c 8a 0e 0b 3d 4f cc 89 3d 9d 6f 28 3c
       0.029754866 0.033949412 0.06728422 0.010280517
0001d0 79 88 ab 3d 36 96 ab 3d e0 aa 9a bc 95 6c 81 3d
       0.083756395 0.0837826 -0.018880308 0.063195385
0001e0 bf 29 06 3d c6 26 89 3c f5 0a c7 3b b3 68 b3 3d
       0.032754656 0.016742121 0.006074304 0.08760204
0001f0 73 15 ee 3d 22 ed 1b 3d f6 18 81 3d 74 e3 84 3d
       0.11625185 0.038067944 0.06303589 0.06488696

layer2.weight f4 [128, 128]
000000 a5 8f 8c 3c 98 8f 93 3c 06 c4 b7 3c 94 b2 89 3d
       0.017158339 0.018012807 0.022432338 0.06723514
000010 d2 74 87 3d 84 8e 58 bd f4 b5 b2 3d 13 54 bf 3d
       0.066140786 -0.05287029 0.08726111 0.09342208
000020 c1 37 47 3d be 36 1a be b9 e4 58 3d 72 e3 8d bd
       0.048637155 -0.15059945 0.052952502 -0.069281474
000030 9f 35 97 3c db 77 12 3e 74 93 92 3c 4d 46 00 3e
       0.018458186 0.14303534 0.017892577 0.12526818
000040 ad ef 0b 3e 3e bc f7 3c 64 d3 b0 3c 40 14 7a 3d
       0.13665648 0.030241128 0.021585174 0.06105447
000050 60 00 bc 3c 8a b0 45 3d 56 02 a9 bc b1 d3 ab 3d
       0.022949398 0.048264064 -0.020630997 0.08389986
000060 c1 39 fc 3c 95 fb 41 3c 4d 9c ee bc 4f 7b 89 bd
       0.030789258 0.011839767 -0.029127264 -0.067129724
000070 23 ec 3c 3d 9f 24 e6 3c df 84 f0 3d 3c 9d fb 3b
       0.046123635 0.028093634 0.11744093 0.007678656
000080 22 34 08 3e c1 33 df 3d 8a 7b da bb 18 b4 ca 3c
       0.13301137 0.10898543 -0.006667559 0.024744079
000090 c2 44 8b 3d 5a 8d a5 3d d9 6a 97 3d 72 a3 1a bd
       0.06800224 0.08083601 0.073934264 -0.03775353
0000a0 f9 8d 87 bc aa c9 bc bd 1b 98 0c be 73 ca 9e bb
       -0.01654719 -0.09218152 -0.13729899 -0.004845911
0000b0 35 f1 dd 3d 61 c0 9b 3b b4 ce 8b 3d 88 be 2a 3d
       0.10837022 0.004753158 0.06826535 0.04168561
0000c0 79 d7 71 bc 7b 73 e7 bc 98 d8 d3 3b f8 b4 29 3d
       -0.014760845 -0.028253308 0.006465029 0.04143235
0000d0 47 f8 cb 3c cb ad f2 3d cd 6c 05 3e 4d 55 48 bb
       0.024898661 0.11849555 0.13029785 -0.0030568421
0000e0 2b 73 04 3e f3 7d a1 3d eb cf 97 3c 6b 6e 44 bc
       0.12934558 0.07885351 0.01853176 -0.011989216
0000f0 51 66 e6 3c 02 d4 f4 3d 8f 99 82 bd 4b 90 20 3e
       0.02812496 0.119545 -0.06376945 0.15680043
000100 12 26 ae 3c 37 36 11 3d 90 93 7b 3d bf 8d 04 3d
       0.021258388 0.035452094 0.061420023 0.032361742
000110 bd 5d d5 3d 90 af ad 3d f9 24 9d ba a7 bc 83 3d
       0.1041827 0.084807515 -0.0011989168 0.06432467
000120 8b b3 10 bd 8d 8a d5 3c a1 f2 1f bd 22 70 9e bd
       -0.035327476 0.026067043 -0.03904975 -0.077362314
000130 14 2e 8a 3d 47 69 b9 3d ad 0e 79 3d bd 3d 0b 3d
       0.0674707 0.09053283 0.06080501 0.033994425
000140 48 9b 9f 3d d0 ee d5 3d f1 64 c2 3d 0c 49 99 bd
       0.077932894 0.104459405 0.09491909 -0.07484636
000150 83 53 97 ba b4 3f 12 3d b2 1b 9c 3c 39 92 d0 3c
       -0.0011545274 0.035705283 0.019056175 0.02546035
000160 bf 60 00 3e 5f 35 3c 3d e3 86 76 3d f1 3a 8e bd
       0.12536906 0.045949336 0.06018723 -0.06944836
000170 40 05 cf bd 80 cd 7a 3d b4 3e fa 3d 03 6b e8 bc
       -0.10108423 0.061231136 0.12218991 -0.02837134
000180 91 bc ea 3d 6b d1 8b 3d aa a6 ab 3d 86 29 a8 3d
       0.114617474 0.06827053 0.08381398 0.08211045
000190 17 7f 01 3d ac 3f 99 3d ac 81 42 3d b0 e2 2b 3c
       0.031615343 0.074828476 0.047486946 0.010491058
0001a0 33 15 1a 3d a1 89 69 3d 5a a7 b8 3d 5c 07 c5 3d
       0.037617873 0.05701602 0.09016295 0.09620544
0001b0 ea 75 8d bc d3 8e c9 3d 7e 7d ea ba 08 b0 bd 3b
       -0.01726814 0.09841695 -0.0017890183 0.005788807
0001c0 b1 1d 3c be 75 30 fc 3d 1a 39 1e 3e 91 22 5f 3d
       -0.18370701 0.1231393 0.1545147 0.054476324
0001d0 fa 3f d0 3d 3a 4b 00 3e de 7c bb bc 01 b2 30 3c
       0.101684526 0.12528697 -0.02288669 0.010784627
0001e0 0c 30 82 bd de 31 62 3d 26 fa 81 3d 99 6b 06 3e
       -0.063568205 0.05522334 0.0634654 0.13126983
0001f0 43 0e ab bb 74 10 ed 3d 71 56 85 bb 95 31 08 3d
       -0.005220206 0.11575404 -0.0040691425 0.03325041
000200 83 f7 74 3d 20 b3 b5 3d d8 d9 ea 3c 22 9b 3d 3c
       0.059806358 0.08872056 0.02866833 0.011572631
000210 4e 18 2a 3c d5 f4 b0 3c cd fe 2a 3d 84 a2 62 bd
       0.010381771 0.02160112 0.041746903 -0.05533077
000220 c3 31 a1 3d 54 1c 87 3c c2 04 ca 3c df a9 b0 3c
       0.078708194 0.016493 0.024660472 0.021565376
000230 82 c0 26 bd 6f 89 61 bd 54 2a 98 3d 6c 4f e6 3c
       -0.040710934 -0.055062708 0.074299484 0.028114043
000240 45 30 5a 3d 1d 48 39 bc 2e 3c b5 bd c1 ed de bc
       0.05326869 -0.011308697 -0.08849369 -0.02721298
000250 b4 c0 8f bd ac b0 c1 bc cc 37 36 3c 18 88 e8 3c
       -0.07019177 -0.023643814 0.011121701 0.028385207
000260 86 ee 9b 3b 93 08 3d bd 25 73 b9 3d ea f2 f9 bc
       0.004758659 -0.046150755 0.09055165 -0.030511338
000270 4a 6c d3 bc cb a4 4a 3d 27 99 d3 3d b7 88 29 bc
       -0.025808472 0.049473565 0.10331946 -0.010347537
000280 0a a6 25 3d 8c fd 55 3d ce ba 38 3d c8 1c b4 3d
       0.04044155 0.052243754 0.045100026 0.08794552
000290 aa ec 55 bc 3d b3 98 bc 2a 68 bd bd 03 48 ac bc
       -0.013056913 -0.018640155 -0.09248383 -0.021030432
0002a0 e0 6c 2c 3d cb 18 8a 3d ff 95 b1 3d a5 bb e8 3c
       0.04209602 0.0674301 0.086711876 0.028409788
0002b0 64 fd 22 3d 77 f2 99 3d fb f9 ab bd 36 32 28 3d
       0.039792433 0.075169496 -0.08397289 0.04106351
0002c0 c3 86 48 bd ea 6b 26 3d f3 90 53 3d 86 4b d9 3c
       -0.048956644 0.04063026 0.051651906 0.02652527
0002d0 35 c5 32 bc 7d 44 62 3d 0a 58 4e 3d 03 ea 7c 3c
       -0.010911276 0.055241097 0.05037693 0.015436652
0002e0 2d 79 8a 3d 6a 75 a9 bc 2e cc ba 3d b5 b3 9e 3d
       0.06761394 -0.02068587 0.091209754 0.0774912
0002f0 96 8e de 3a bb 2f 79 bd e3 12 4e be 35 ad 2f bd
       0.001697975 -0.060836535 -0.20124392 -0.042889792
000300 32 34 b1 3d ab d5 55 3d 96 bd 4f bd d4 b7 05 3c
       0.086525336 0.052205723 -0.050717913 0.008161504
000310 f1 81 2e 3c 19 b5 6b 3d 8b 3b e4 3c a6 5e b0 3d
       0.010651098 0.057545755 0.027860424 0.08611803
000320 eb c6 7c bd 67 85 72 3d 01 a8 9d bd cf 8a c8 bc
       -0.06171314 0.059209254 -0.0769806 -0.024480252
000330 cd 61 73 3d 48 a6 54 ba f6 56 30 3d aa 33 4e 3d
       0.059419442 -0.0008111936 0.043051682 0.05034224
000340 53 ac fb 3c 08 93 66 3d bb 79 2c bd dd 6f 0f bd
       0.030721819 0.056292564 -0.04210828 -0.03501879
000350 b9 82 64 bd 7b 4b 5b 3c e6 05 9c bc 44 52 a8 3c
       -0.05578873 0.013384695 -0.019045781 0.02054704
000360 ae e6 f2 bc b0 bc b1 bc ad c0 8a 3d 25 bb ac bc
       -0.029651012 -0.021696419 0.06775031 -0.021085331
000370 bd 40 9e 3c a7 b7 58 3c 08 f3 a5 3d 3c 3e 35 bd
       0.019317979 0.01322738 0.08102995 -0.044248804
000380 71 2a 92 3d b1 2c 6d bc f8 ba 91 bd 9c cb 8a 3c
       0.07137001 -0.014475987 -0.071157396 0.016942792
000390 a3 b1 1e bd ae 0a 1d 3d 2d 86 50 bc a2 86 88 3b
       -0.038743626 0.038340263 -0.0127273025 0.00416644
0003a0 39 5b 83 3d 54 76 4b 3d 8c e0 cf 3d f3 8e d7 3b
       0.06413884 0.049673393 0.10150251 0.00657832
0003b0 cd ce 00 bd b2 4c 83 3d b8 00 39 bd 61 e8 70 3d
       -0.03144722 0.06411113 -0.0451667 0.058815364
0003c0 83 22 09 3e c4 6d cb 3d f3 06 97 3d 6a 66 72 3d
       0.13392071 0.099330455 0.07374372 0.0591797
0003d0 de 1b a1 3d 14 91 a3 3c 54 ef 2c be ec b8 e1 3c
       0.07866643 0.01996664 -0.16888171 0.027553998
0003e0 f8 09 9a 3c 07 a2 0b 3d 2c 99 cc bc 24 ec 50 bd
       0.018803582 0.03409007 -0.024975382 -0.05100645
0003f0 02 71 87 3d 52 ca 80 bd 2d 8e 89 3d e8 f2 89 3d
       0.066133514 -0.062885895 0.06716571 0.06735784

layer2.bias f4 [128]
000000 cb 18 3f bd 0b 56 57 bc 2b 8b 69 3d 06 b8 a7 3c
       -0.046654504 -0.013143073 0.057017487 0.020473491
000010 2d 4e 00 bc 97 c7 dd 3c 2f 06 89 bd 88 b3 90 bd
       -0.007831139 0.02707271 -0.066906326 -0.07065493
000020 07 72 8d 3d 72 88 b1 bb 99 64 8a 3d ce a3 1b 3d
       0.069065146 -0.005417877 0.06757469 0.037998013
000030 49 61 c0 3c 83 47 40 bd 51 2a e4 ba 5c ca a0 3d
       0.02348389 -0.0469432 -0.0017407631 0.07851097
000040 84 86 a4 bc 7a 96 15 3c e2 f3 19 3c 60 31 6c 3b
       -0.020083673 0.009130115 0.009396525 0.0036040172
000050 e6 0a 1a bd f4 e5 3a 3c 2c 63 a1 3d 0e 6e 7b bc
       -0.03760805 0.011407364 0.07880244 -0.015346063
000060 16 ad ce 3d 6c 2d ec bc 81 eb 3e 3d 59 3d 8d 3d
       0.10091607 -0.028830253 0.046611313 0.06896467
000070 ea 27 ed bb 90 49 11 3d 21 75 cf 39 5b ee aa 3d
       -0.007237424 0.035470545 0.00039569385 0.08346244
000080 dd da 98 3c a1 e9 77 3d 9e 06 fe bc 46 d4 a0 3d
       0.01865905 0.06052554 -0.031009015 0.07852988
000090 89 5b a7 bd 03 ad 40 bd dd bd 66 3d e3 31 82 3d
       -0.08171756 -0.047039997 0.05633341 0.063571714
0000a0 64 85 8b 3d cd 5a 88 3d 36 d9 07 3d 61 b0 7d bd
       0.068125516 0.06657944 0.033166133 -0.061935786
0000b0 2d c9 af 3b 73 f7 58 bb a3 43 b5 3c bf e6 01 3d
       0.005364558 -0.0033106476 0.022126978 0.031714197
0000c0 0d 28 3c bd 09 f9 30 bd 22 a5 f6 3d 91 31 7d bd
       -0.045936633 -0.04320625 0.12043215 -0.06181485
0000d0 0f b5 70 3d 1e 3f 1e bc c0 b2 3a bd 2c 00 e5 bc
       0.05876642 -0.009658603 -0.045580626 -0.027954184
0000e0 3d 00 6b 3c ff 8f a3 bc 22 92 89 bb cd 1b 4e bd
       0.0143433185 -0.019966124 -0.0041983286 -0.05031948
0000f0 d6 a4 a6 3d 58 b5 ab bc 6d 41 98 3c 5d 6d ab 3d
       0.08136909 -0.020960495 0.018585885 0.08370469
000100 d2 5c 0e 3d 6d 6c 56 3d 68 68 4b bc a1 b4 80 bc
       0.03475649 0.052349497 -0.012415029 -0.01571113
000110 7a bd 25 3b 99 26 b0 3d e5 6b 92 bd 79 95 93 bd
       0.0025289939 0.08601112 -0.071494855 -0.07206244
000120 6d e3 1b 3d 83 b1 a0 bc a8 7a 7f 3d 3c 79 16 3d
       0.038058687 -0.019615894 0.062372833 0.03673671
000130 e1 34 34 bb 07 dc 3a 3d 31 12 42 3d 02 d3 19 3c
       -0.0027497339 0.04561999 0.04738063 0.009388687
000140 e1 03 1b bd 90 b7 38 bd 58 49 94 bd c7 50 73 3d
       -0.037845496 -0.045096934 -0.07240552 0.059403207
000150 ca 6f 53 3c 85 a4 aa 3d a9 92 1f 3d 43 ea 82 3d
       0.012905071 0.08332161 0.038958225 0.06392338
000160 ac 0b bb bc 21 93 82 3d e8 30 02 3d 67 4e 86 3d
       -0.022832714 0.06375719 0.031784922 0.06557923
000170 28 b7 35 bd 67 2b f6 3d a3 ec 49 3d 5c db ce bc
       -0.044364125 0.12019997 0.04929794 -0.025251083
000180 b7 02 1c bd 3c ea 9a bd 4f 22 26 3d da 15 a7 3c
       -0.038088527 -0.07564208 0.040560063 0.020396162
000190 d6 de 2b bd c9 69 08 3d 7b 90 18 3d 09 82 06 bd
       -0.04196056 0.03330401 0.037247162 -0.032838855
0001a0 f7 33 cb bc bc ee 70 3d 4f 8d bc bc 22 c9 d0 bc
       -0.024805052 0.058821425 -0.0230166 -0.025486533
0001b0 c3 08 45 3d ad d9 a6 3d 5e 49 3b bd c7 0a fa 3d
       0.04810406 0.08146987 -0.045724265 0.12209087
0001c0 b2 71 a0 bb c4 fc 61 3d 2e 50 1d bc d2 fd 8c 3d
       -0.004896366 0.055172697 -0.009601636 0.0688435
0001d0 b7 2a 89 bd 15 ed ee 39 62 e5 0c 3d 1e d2 18 3d
       -0.066976 0.00045571537 0.034398444 0.03730976
0001e0 c5 92 c6 3c 11 61 8b bd 11 c1 72 bd 66 a4 41 3c
       0.024239907 -0.06805623 -0.059266154 0.011818981
0001f0 cf 23 36 3d 38 b9 41 3d 8f f6 ed bc 2f e6 a1 3d
       0.044467743 0.04729578 -0.029048232 0.07905232

layer3.weight f4 [290, 128]
000000 78 67 b0 3d ef 16 c8 bc c0 e9 38 bd 73 bd a7 3d
       0.08613485 -0.024424998 -0.045144796 0.081904314
000010 ea 56 a1 3d 7c 1d 3c ba fb 64 a4 bd 40 9e e9 3c
       0.07877906 -0.00071760244 -0.08027073 0.028517842
000020 43 3e f1 3c c1 61 87 bd 39 6f 8d 3d fa 2d 9e bd
       0.029448634 -0.06610442 0.0690598 -0.07723613
000030 ef 89 59 3d 41 87 64 3b ff 8b 31 bd 95 4b d1 3d
       0.05311006 0.0034870657 -0.0433464 0.10219494
000040 26 c1 37 3d 21 30 16 3d d0 24 44 3d 71 b3 e6 3c
       0.044861935 0.036666993 0.04788667 0.028161736
000050 cb 0c 2f bd 00 e4 92 bc 64 cb eb 3d c3 43 31 bd
       -0.04273681 -0.017930984 0.11513403 -0.043277513
000060 4f 91 dc 3c 8f 0b 6c 3d fb 33 c7 3d 64 cb a5 3d
       0.026924757 0.05762821 0.09726711 0.08095434
000070 ae 1d 8a 3d a3 91 fb 3c c8 bd 22 be cd 7d b5 3d
       0.06743942 0.030709093 -0.15892708 0.08861885
000080 89 74 b0 bc c8 6b 75 bc 30 fe 01 bd 06 9f 88 bd
       -0.021539943 -0.01497931 -0.031736553 -0.06670956
000090 dc 0e 73 3d 0e 56 10 3d a6 dc ca bd 88 d1 57 3c
       0.059340343 0.03523832 -0.099053666 0.013172515
0000a0 5d 8c 8c bc 37 61 a5 3c f3 bd 5c bc f5 f8 6a bd
       -0.017156774 0.020187957 -0.013473022 -0.05736633
0000b0 a5 3d 4f bd 19 1d 95 bd 40 e5 4c bd a8 05 f0 3b
       -0.0505959 -0.072809406 -0.050023317 0.007324893
0000c0 9a fb bf bc 69 21 a1 bc 85 34 95 3d 4a a5 82 3c
       -0.023435403 -0.019669252 0.07285408 0.015947957
0000d0 fe fe 05 bc 00 4b 89 3d c3 e0 6d bd 9b 91 03 be
       -0.008178471 0.06703758 -0.058075678 -0.12848513
0000e0 21 82 c6 bc 5c d3 89 3d 6c 07 d1 3d 9e 10 0c bd
       -0.024231972 0.06729767 0.10206494 -0.034195535
0000f0 df 7a 55 3d 52 ce c2 3d d3 ce d8 bc 3b 76 b9 3d
       0.052119132 0.09512009 -0.026465809 0.09055754
000100 fe 7c 69 bd e4 a2 51 bd a6 c8 e9 bc 4e 16 47 3c
       -0.057003967 -0.051180735 -0.02853806 0.012151314
000110 a4 d3 0c 3d 48 b9 ae 3d 47 ba e5 3c 0c c8 9b bd
       0.034381524 0.08531433 0.028042926 -0.07606515
000120 83 5c a8 bc b1 3a 4e 3d b6 51 27 bd 2a f8 a7 3d
       -0.020551926 0.05034894 -0.04084941 0.082016304
000130 d9 27 97 3d b4 12 16 bb 94 55 2f 3d 28 0c 66 3d
       0.07380647 -0.0022899332 0.042806223 0.056163937
000140 ce 73 86 3d ea 9f 64 bd 68 2e 96 bd a0 bc 92 3d
       0.06565057 -0.05581657 -0.0733307 0.071648836
000150 06 f0 9b 3d 62 8d 1b 3d 60 13 8f bd 6d d7 6c bc
       0.0761414 0.03797663 -0.06986117 -0.014455658
000160 72 ce e2 bc 6f d8 05 bd b0 97 a3 3d ab 32 00 bd
       -0.027686331 -0.03267711 0.079879165 -0.03129832
000170 09 f9 9f bc 74 a3 bb bc 95 06 1c 3d cf 10 8d bc
       -0.019527929 -0.022905089 0.038092215 -0.017219929
000180 c7 30 4d bd ff 3f 26 3d 45 07 41 3d 46 82 0a 3e
       -0.050095346 0.040588375 0.047126073 0.13526258
000190 42 30 04 bd f2 f6 9e 3d 44 da 80 3d 9b 8a 60 bd
       -0.032272585 0.07761945 0.06291631 -0.054819684
0001a0 c5 13 2e bd 0b 97 aa 3d ba 29 96 bc 91 d0 61 bd
       -0.042499322 0.083295904 -0.018330444 -0.055130545
0001b0 8c 6a 74 3c b4 cc 5b bd f3 ba 4b bd e1 f8 da 3d
       0.014917981 -0.053662017 -0.049738836 0.10692001
0001c0 8c 89 b8 3c d3 69 ec bb c6 97 32 bd 7b ca 5c bd
       0.022526525 -0.0072147637 -0.043601774 -0.053904038
0001d0 95 34 16 bd 99 54 34 bc 9c 9b 2d 3d 4d 21 b6 bc
       -0.03667124 -0.011006498 0.04238473 -0.022232676
0001e0 0d 4f b1 3d 2d 96 9c bd 3f 5c 60 3d 19 75 c7 3c
       0.08657656 -0.07645831 0.054775473 0.024347829
0001f0 48 76 f0 bc 48 d3 88 bd e7 f9 69 3d 85 7e 11 bd
       -0.029353276 -0.06680924 0.05712309 -0.03552105
000200 fd 72 df 3d 33 4d 90 3d 84 1b 8c 3d 6f a7 1b 3d
       0.10910604 0.070459746 0.06841186 0.038001474
000210 8e 86 79 bc a3 92 47 3b c0 24 af 3c 29 15 34 bd
       -0.015229834 0.0030452393 0.021379828 -0.043965492
000220 dd cc 1d 3d 3f 5e 05 bc b3 82 d5 bc f4 ee 96 3c
       0.03852545 -0.008140146 -0.026063299 0.018424489
000230 aa 18 48 bc b2 a0 97 bc 0c 0c a1 3c 20 8e 60 3d
       -0.012212912 -0.018509243 0.019659065 0.05482304
000240 ff 08 3e bb f7 58 90 bd c6 38 35 3d 9e 3d f7 3d
       -0.0028997061 -0.07048219 0.044243596 0.120722994
000250 2d 52 da bc 13 4e 08 bd 86 52 e8 3d 5c 8c 6e bd
       -0.026650513 -0.033277582 0.11343865 -0.058239326
000260 9e 0b f5 3c 0c 04 90 bc 60 a5 32 3d 1b 93 a7 3c
       0.029912766 -0.017580055 0.043614745 0.020455888
000270 0a 90 4c 3d d5 02 a2 bc 74 92 20 bd d6 da d4 3d
       0.049942054 -0.019776741 -0.03920217 0.10393302
000280 48 88 58 bd 93 cb fb 3d d7 0f 2e ba 02 5d f6 bc
       -0.052864343 0.12294688 -0.00066399336 -0.030073646
000290 0f 31 7b 3d ea 43 94 3d 19 9a 2a 3d 9e 53 9c bd
       0.061326083 0.07239516 0.041650865 -0.07633136
0002a0 10 68 2b 3c 7b 96 59 3b 5c be a5 3d 95 47 31 3d
       0.010461822 0.0033201266 0.08092949 0.043281157
0002b0 b7 31 8e bc c0 da 5d 3d 5d 29 02 3e c1 42 9b 3d
       -0.01735769 0.054163694 0.12711091 0.07581092
0002c0 00 10 35 bd 05 10 95 3d 23 15 9f 3d 7a 18 a4 bd
       -0.044204712 0.07278446 0.077677034 -0.08012481
0002d0 27 7a 70 bc 95 cb 8a 3d 85 4b c4 3b fe 38 3b bd
       -0.014677561 0.067771114 0.005990448 -0.04570865
0002e0 0f 65 03 bc a1 99 c9 bc fa b1 52 3c 61 5c 21 3d
       -0.0080197 -0.024609389 0.012859816 0.03939474
0002f0 90 31 41 3d 07 25 33 3d fb 2c 50 3d 25 ee c5 3d
       0.047166407 0.043736484 0.050824147 0.09664563
000300 37 d3 1a bc 3a c0 2c bc 97 11 ab 3d 6f fe 82 bd
       -0.009449772 -0.010543877 0.08352964 -0.063961856
000310 c2 d8 e5 3c fc e3 2e bc fe fe 52 bd 81 9b ab 3c
       0.02805746 -0.010674473 -0.05151271 0.020948173
000320 2f ff ea ba 22 9f 15 bd f6 8f 8c 3d 79 18 06 bd
       -0.0017928834 -0.036528714 0.06863396 -0.032738183
000330 3a 2e a4 3d db 71 d7 bc 0e c8 65 bd 07 74 30 bc
       0.080166295 -0.026299408 -0.05609899 -0.010769851
000340 11 63 3a bc b6 94 3d bd 37 46 10 3d 8e c6 96 bc
       -0.011376158 -0.0462844 0.035223212 -0.018405225
000350 ec fc 86 3c 2b 5c 08 3d 03 d9 9e bd c6 f8 e7 bc
       0.016478024 0.033291023 -0.077562355 -0.028316867
000360 96 74 74 bd 66 e1 85 bd 53 80 78 3d 07 5c 30 bd
       -0.059681498 -0.06537132 0.060669255 -0.043056514
000370 1d dc 8b 3d 02 94 85 3d cb 71 af 3c 37 4e 51 bc
       0.06829093 0.06522371 0.021416565 -0.0127749955
000380 48 28 13 bd 55 70 85 3c 13 dc 03 3d b9 9b e8 bb
       -0.035927087 0.016288916 0.0321923 -0.0070986417
000390 88 55 1b 3c fa d1 19 3c 4d 88 bd 3d 53 0c 83 3d
       0.009480841 0.009388441 0.09254513 0.06398835
0003a0 16 80 99 3d 9b 67 d0 3d a9 fe af 3d a0 43 a3 3c
       0.074951336 0.10176011 0.085934944 0.019929707
0003b0 7c dc 37 3d a3 f3 3d 3b fc 4b 1e bd d7 1a cf 3d
       0.044888005 0.002898433 -0.038646683 0.10112541
0003c0 cf 11 be 3d c3 34 b2 bc a6 83 26 bd 61 38 76 bc
       0.092807405 -0.021753674 -0.040652893 -0.01502809
0003d0 da e1 0d bd e7 3f 76 bd a9 1e 6e 3d 18 88 84 bd
       -0.034639217 -0.060119536 0.05813471 -0.0647127
0003e0 18 4c 03 bd 3b 1a 8a 3d 82 44 31 3d 3f 52 26 bd
       -0.03205499 0.06743284 0.043278225 -0.04060578
0003f0 30 41 a6 bd 38 d9 d2 3d b5 07 f1 bc 4a 5b 48 bd
       -0.08117902 0.102953374 -0.02942262 -0.048915185

layer3.bias f4 [290]
000000 41 30 3d 3d 21 8b c9 3c c5 ed e9 bb 57 ba a1 3c
       0.046188597 0.024602475 -0.00713894 0.019742174
000010 34 92 00 bd 58 2b df 3c 4c d6 54 bd 85 82 ac 3d
       -0.03138943 0.027242348 -0.051962182 0.08423332
000020 4f 03 81 3c 33 84 f9 bc d3 1f 0d 3d 8e 62 60 3d
       0.015748648 -0.030458545 0.034454178 0.05478149
000030 f2 bb 5b 3d bc 66 6a bd 00 a3 89 bc 21 53 79 bc
       0.053646035 -0.05722688 -0.016801357 -0.015217573
000040 23 39 fe bc ad 81 ce 3c f8 14 a5 bc 62 b0 93 3d
       -0.031033104 0.025208319 -0.0201516 0.07211377
000050 6a ae 10 3b ea f6 b8 3d a5 bc c0 3b ae 3f ac 3c
       0.0022076615 0.0903147 0.005881863 0.021026459
000060 78 4c 52 3d 8f 32 52 bc b6 8f 14 bd ae 3d 24 bd
       0.051342458 -0.012829437 -0.036269866 -0.040097885
000070 8e 0e 03 bd fe 01 d9 bc 30 5c 9b bc e6 57 d5 3d
       -0.031996302 -0.026490208 -0.018964857 0.10417156
000080 d2 d2 41 3d be e6 be 3d ce 02 ac 3d 93 84 ba 3d
       0.047320195 0.09321354 0.083989725 0.09107318
000090 92 ff a3 3b 91 db d2 bc cf 77 39 bd 5f 9f 7d 3d
       0.0050048316 -0.025739463 -0.045280274 0.061919566
0000a0 1e 7c d2 3d a8 70 e9 3b 4e e7 9d 3d d4 2a 86 3b
       0.1027758 0.0071240254 0.077101335 0.004094461
0000b0 22 c6 bd 3c 6e 3a 52 bb 3c 6f cf 3d eb 70 c8 bc
       0.023165766 -0.0032078284 0.10128638 -0.024467906
0000c0 ee f6 8a 3d d5 04 91 bd 11 e4 ea bc 09 ef 92 bd
       0.06785379 -0.07081 -0.028673204 -0.071744986
0000d0 c9 eb 80 3d 04 f9 cc 3d c8 39 48 bd 97 24 cf 3d
       0.062949724 0.100084335 -0.04888323 0.10114401
0000e0 79 d2 e2 3c 85 93 24 3d ed c3 b2 3d f8 7c dc 3c
       0.027688252 0.040179748 0.08728776 0.026915058
0000f0 ba 1c 07 bd 5d a3 cf 3c b5 09 5b 3d ef cf 45 3d
       -0.03298638 0.025346452 0.053476054 0.048294004
000100 93 cf 4e 3d e3 97 bc bc 9a a6 35 bd 58 83 14 bc
       0.050490927 -0.023021644 -0.044348337 -0.009064518
000110 88 37 16 3d 8c 5c 08 bb 5a 62 4c bc 66 2d b8 bc
       0.036674052 -0.0020807115 -0.012474621 -0.022482585
000120 9a cf 80 bd 89 68 88 bd b8 61 a5 3d ac d3 9e 3c
       -0.06289597 -0.066605635 0.08075279 0.019388042
000130 35 fd 0c 3d 70 58 97 3d 5a 5c 17 3d 09 bd 8f 3d
       0.034421165 0.07389915 0.036953308 0.070184775
000140 e1 34 6e bd 39 fa 02 bd a1 e3 6e bc 67 d3 95 bc
       -0.058155898 -0.031976912 -0.014580638 -0.018289281
000150 e4 75 2d bc a7 f4 64 bd c9 4c 04 3d 8c 0e 13 3d
       -0.010587189 -0.05589738 0.03229979 0.035902545
000160 c6 79 84 3d 23 57 db 3d c5 1a 84 3d 1a 01 0b 3d
       0.06468539 0.107099794 0.064504184 0.033936597
000170 0a a6 58 3c 51 3c 7d 3d 2f e0 48 bd a2 62 49 bd
       0.013223181 0.0618251 -0.049041923 -0.04916633
000180 98 ca a2 3c ea ff a3 bd ef 7a 8b bb 8a b0 39 3c
       0.019871995 -0.08007796 -0.004256598 0.011333594
000190 62 fb 1a bd 98 c2 1a bd c8 3c b7 3d 92 b0 c5 3c
       -0.037837394 -0.037783235 0.0894714 0.024132047
0001a0 70 c7 a3 3c e9 32 07 3d 49 83 56 3c 93 64 13 bd
       0.01999256 0.033007536 0.013092824 -0.035984587
0001b0 7b a3 d5 bc fa 24 8e 3c 1f ab 8f bd a8 ed cf 3c
       -0.02607893 0.017351616 -0.07015061 0.025381878
0001c0 10 0d 31 bd bb 8c da 3b f0 53 3f bc 90 72 aa bc
       -0.043225348 0.0066696084 -0.011677727 -0.02080658
0001d0 81 c4 6f 3d 24 e9 11 3d 95 94 f5 3b cf 0f 32 bd
       0.05853701 0.03562273 0.007494519 -0.043472107
0001e0 5d 76 27 3d 0a e0 07 bc 69 81 7f 3d ed cf 89 3d
       0.040884364 -0.008293161 0.062379275 0.06729112
0001f0 9f 24 d5 bc a4 31 0d bd be b4 aa bc 89 77 81 3c
       -0.026018439 -0.03447117 -0.020838138 0.01580407
000200 b1 9b a0 bd ed fe a9 bc 66 d4 3e 3d f1 56 2b bd
       -0.07842196 -0.02075144 0.046589278 -0.04183096
000210 fa 21 35 3b 9c fb 5a bd 22 a1 b5 3d 1c d5 ad bc
       0.002763866 -0.05346261 0.08868624 -0.021219783
000220 ba ac 6a bd e5 5a ed 3c 41 9f ee 3c e1 ab 53 3d
       -0.05729363 0.028974006 0.029128673 0.05167759
000230 7e 06 84 3d bd a7 8c 3c 5d 0b 6c bd 5c 35 76 3d
       0.06446551 0.017169828 -0.057628024 0.06010948
000240 6b 0f 28 bc f5 c8 83 3d c4 2a 41 3d 98 6c 2c 3d
       -0.010257582 0.06434814 0.047159925 0.04209575
000250 4c 84 c9 bc 56 09 eb 3d 9d e0 a1 bd 70 b6 e2 3c
       -0.024599217 0.1147639 -0.0790417 0.027674884
000260 ba 1a be bc b0 a6 fd 3c 25 24 18 bc 65 5f 19 bd
       -0.023206104 0.030963272 -0.009285961 -0.03744449
000270 b8 d2 3d bd 23 86 fa 3c a8 2a 6e bc 50 fb 9d b8
       -0.046343535 0.03058154 -0.014536537 -7.533154e-05
000280 17 cc 79 3d 8d 9d a0 bd be 35 5f 3d e0 a4 0d 3d
       0.06098565 -0.078425504 0.054494612 0.034581065
000290 0a 6d 71 3d de 6e 8b bd 5b d7 90 3d 35 64 72 bd
       0.05894188 -0.068082556 0.07072326 -0.059177596
0002a0 cd eb bb 3a f8 3e 89 bd 15 7d 34 3d de 55 4c bc
       0.0014337242 -0.067014635 0.0440646 -0.012471644
0002b0 8c ff 98 3c d1 6c 78 3b f5 9d 98 3d 3a 7e b6 3c
       0.018676542 0.0037906657 0.07452003 0.022276986
0002c0 ba b5 91 3b 62 57 61 3d 7e 1e 50 bd 7a cd 36 bd
       0.0044467123 0.055014975 -0.05081033 -0.04462955
0002d0 b7 35 24 3d 7f 77 39 3d 8b 35 88 bd 47 36 57 bc
       0.04009029 0.045279976 -0.066508375 -0.013135499
0002e0 25 4d d9 bb 5f 51 0d bd d4 e7 60 bc 84 cc 34 3d
       -0.006631511 -0.03450143 -0.013727147 0.044140354
0002f0 d5 56 1c bd ad 2d d4 bc 24 92 91 bd bd 4d 06 bb
       -0.038168747 -0.025900686 -0.07107952 -0.0020493113
000300 62 a0 0b bd 5c ae 98 3d 64 ab 03 3d b7 1c df 3b
       -0.0340885 0.074551314 0.032145873 0.006808843
000310 ae 43 88 3d b8 ba 85 bd 3f 04 70 bd 41 da c2 bc
       0.06653534 -0.065297544 -0.0585978 -0.023785712
000320 98 72 45 bc 42 aa 03 3d 2c 7f 3f bd f3 80 b4 3d
       -0.012051247 0.032144792 -0.04675214 0.088136576
000330 5d 5a 30 3d b0 76 a2 3d 5d e0 80 3d a1 f6 76 bc
       0.043054927 0.07932794 0.06292794 -0.015073449
000340 2b a4 30 bd d1 8b 73 3d f2 a4 48 bd b6 e1 2c bd
       -0.043125313 0.05945951 -0.04898543 -0.042207442
000350 a3 70 97 3d 12 d1 00 bb fe 86 26 3d aa 8f 3e bd
       0.073945306 -0.0019655866 0.040656082 -0.046523727
000360 b0 d2 8f 3d dd 50 4e bd aa a6 aa bc 40 e0 af 3c
       0.07022607 -0.050370086 -0.020831425 0.021469235
000370 b0 75 7c 3d 92 a8 8b bd 27 ca 7f bd 35 02 8d 3d
       0.061635673 -0.068192616 -0.062448647 0.068851866
000380 79 b4 ab 3d 39 9f 41 3d 4b 6f ed 3c 52 e5 8c 3d
       0.08384032 0.047270987 0.028983733 0.06879677
000390 5c 3e 35 bd da e4 44 3d ca fc 69 3d 9a c8 6e bd
       -0.044248924 0.048069812 0.057125844 -0.058296777
0003a0 f7 a1 aa 3c 34 15 69 3d 08 d2 de 3d 92 20 74 3d
       0.020829184 0.056904987 0.10879904 0.059601374
0003b0 56 ea ee 3c 60 03 b8 3b 13 46 83 bc 01 97 a9 bc
       0.029164474 0.0056156367 -0.016024625 -0.020701887
0003c0 2b 2b 3d bd 26 31 fe bc 95 59 b2 3d dc 27 a5 3d
       -0.046183746 -0.031029295 0.08708493 0.08064243
0003d0 44 0a ff bc 27 50 8d 3d 40 32 75 3d f0 c9 ea bc
       -0.031132825 0.069000535 0.059862375 -0.028660744
0003e0 6a 93 10 3d dc 7e 16 3d 6d de 95 ba 06 15 81 3d
       0.035296835 0.036742076 -0.0011434086 0.06302838
0003f0 62 b2 58 3d d5 86 90 3d d5 e4 c7 3d e6 55 0a bd
       0.052904494 0.07056967 0.09760443 -0.033773325
