catanatron_experimental/my_DQN_wyniki1/my_DQN1_1000_steps.pth (torch, 532847 bytes, 6 tensors)

layer1.weight f4 [128, 614]
0	0x40ab4335	5.351954
1	0x40aaf94d	5.342932
2	0x40ac1f29	5.3788037
3	0x40af24c4	5.473238
4	0x40aecbd5	5.462382
5	0x40ac7a9f	5.3899684
6	0x40154800	2.3325195
7	0x40539ca1	3.3064349
8	0x3ea13ad7	0.31490204
9	0x40778446	3.8674483
10	0x3f2ebcc4	0.68256783
11	0x40629f85	3.5409863
12	0x40524bf2	3.2858853
13	0x406e0b01	3.7194216
14	0x403ba44c	2.931903
15	0x40657715	3.5853932
16	0x401627da	2.3461823
17	0x403a10f6	2.9072852
18	0x3fa158e4	1.2605252
19	0x403669ff	2.8502195
20	0x406a0b40	3.6569366
21	0x4017c3c8	2.3713245
22	0x4031b6ed	2.77679
23	0x40173237	2.3624399
24	0x40120b31	2.281933
25	0x404fac39	3.2448866
26	0x3fef8752	1.8713171
27	0x404095ab	3.009135
28	0x3fd82637	1.6886662
29	0x4047896c	3.1177626
30	0x400ad6d8	2.169363
31	0x4051d8b4	3.2788515
32	0x4010aeb6	2.2606635
33	0x4036b237	2.8546274
34	0x3fc08b07	1.5042428
35	0x40655cc7	3.5837877
36	0x40aa93d9	5.330548
37	0x401be0f6	2.4356055
38	0x40be53d5	5.9477334
39	0x401c1b92	2.4391828
40	0x400c8945	2.1958783
41	0x404ea46e	3.228786
42	0x3fcd6048	1.6045008
43	0x405154e3	3.270806
44	0x40b01579	5.502621
45	0x4035303b	2.8310688
46	0x400d378f	2.206516
47	0x4057f54a	3.3743463
48	0x408b81dc	4.359602
49	0x40361f21	2.84565
50	0x4067037c	3.6095877
51	0x4038084b	2.8755062
52	0x402d41d9	2.707144
53	0x4028eb41	2.6393588
54	0x4004a1cb	2.072375
55	0x4028db24	2.6383753
56	0x3f95f883	1.1716465
57	0x405d7759	3.4604094
58	0x407cf760	3.9525986
59	0x40382d83	2.8777778
60	0x3f724ab6	0.9464525
61	0x40701c72	3.7517362
62	0x3f4ff7ba	0.81237376
63	0x4057aaad	3.3697922
64	0x4009d3ac	2.1535444
65	0x406805e6	3.62536
66	0x40265ac2	2.5992894
67	0x40339db0	2.8064995
68	0x3fb3cd20	1.4046974
69	0x403e7de8	2.9764347
70	0x401288e7	2.2896059
71	0x4021506a	2.520533
72	0x3fde1d02	1.7352602
73	0x40178ea0	2.3680801
74	0x3efde74e	0.49590534
75	0x4036569b	2.849036
76	0x3ee4023a	0.4453295
77	0x40462e9f	3.0965955
78	0x3df87f57	0.12133663
79	0x403e0146	2.9688277
80	0x400d333a	2.2062516
81	0x40336127	2.8028047
82	0x40364e7e	2.8485408
83	0x4045f1ae	3.092876
84	0x3f59bcf4	0.85053945
85	0x40592f03	3.3934944
86	0x4008cb8a	2.137423
87	0x4027cb04	2.621766
88	0x40116af9	2.272154
89	0x401f1856	2.4858603
90	0x400891ce	2.1338992
91	0x4040ad08	3.010561
92	0x3f818700	1.0119324
93	0x405016d8	3.2513943
94	0x400b458b	2.1761196
95	0x4028e577	2.6390054
96	0x4029af79	2.651335
97	0x401be685	2.4359448
98	0x3f804b78	1.0023031
99	0x402fa514	2.7444506
100	0x3feb3963	1.8376888
101	0x40478a74	3.1178255
102	0x40077a14	2.116826
103	0x4034c971	2.824795
104	0x3ff5db3c	1.920753
105	0x4030bad4	2.761403
106	0x3fb754cf	1.4322757
107	0x403d58a9	2.9585364
108	0x3fb051ca	1.377496
109	0x40198c2c	2.3991804
110	0x408dcbf0	4.4311447
111	0x4025edc9	2.5926383
112	0x3f13b9bc	0.57705283
113	0x402b8929	2.6802466
114	0x408bc1c7	4.3674045
115	0x4019238c	2.3927946
116	0x401a7747	2.41353
117	0x402d55b6	2.7083564
118	0x3fe4dce6	1.7879913
119	0x402026f1	2.5023768
120	0x4002edd3	2.0457656
121	0x40095406	2.1457534
122	0x401c79f8	2.4449444
123	0x4048bbb4	3.1364565
124	0x3f92b0d3	1.1460212
125	0x4047cfdb	3.1220615
126	0x3f32aca7	0.69794697
127	0x405b4d0d	3.4265778
128	0x409535c4	4.662813
129	0x40239e41	2.556534
130	0x3ff1b47f	1.8883208
131	0x404af543	3.1712196
132	0x40721ddc	3.7830725
133	0x4053fa4d	3.3121521
134	0x4004a3fd	2.072509
135	0x404a02b0	3.156414
136	0x401fc452	2.4963574
137	0x405e1d1d	3.470527
138	0x404ddc4f	3.2165716
139	0x4045cf91	3.0907938
140	0x404e2ad4	3.221364
141	0x40306ea8	2.756754
142	0x402fe615	2.748418
143	0x404ad426	3.1691985
144	0x3ff408d1	1.906519
145	0x4033b256	2.8077598
146	0x3ff755dc	1.9323077
147	0x4044206b	3.0644786
148	0x3ffec863	1.9904903
149	0x401fc57c	2.4964285
150	0x3f7ddf71	0.9916907
151	0x3f670e6a	0.9025637
152	0xbc63a824	-0.013895068
153	0x3ef4e2e3	0.4782935
154	0x3f78783d	0.9705847
155	0x3ffe8018	1.9882841
156	0xbd24104b	-0.0400546
157	0x3e7037cf	0.2345879
158	0x3ec39d0d	0.38205758
159	0x4008932b	2.1339824
160	0x3fb5a562	1.4191096
161	0x4069eb90	3.6550026
162	0x3e8983c3	0.2685834
163	0x3fdafd6b	1.7108587
164	0x38d9e471	0.00010389917
165	0xbe312438	-0.17298973
166	0x3e91a7c9	0.28448322
167	0x3fe0400a	1.7519543
168	0x3ed18ac5	0.40926185
169	0x400f13ca	2.2355828
170	0x3ecd7e21	0.4013529
171	0x4005e94b	2.092364
172	0x3c3be98f	0.011469259
173	0xbc07ca4a	-0.008287976
174	0x3ee18049	0.44043186
175	0x3fb09ffe	1.3798826
176	0x3f17951c	0.592119
177	0x40153053	2.3310745
178	0x3f7a3128	0.97731256
179	0x40286cde	2.6316447
180	0x4007ee5c	2.1239233
181	0x40bd5a11	5.9172444
182	0x3ec0d1bb	0.37660012
183	0x3fccd6c2	1.6003039
184	0x3d2000cb	0.039063256
185	0x3f6f58c1	0.934948
186	0x3e254550	0.16139722
187	0x40002b7e	2.0026546
188	0x3f1b42e5	0.6064895
189	0x3f251620	0.64486885
190	0x3e422632	0.18959883
191	0x400fd812	2.247563
192	0x3e9e56ac	0.309255
193	0x3ff43436	1.9078434
194	0xbca49567	-0.020090772
195	0x3fe0716f	1.7534617
196	0x3cd64910	0.026157886
197	0x3fae9259	1.3638412
198	0x3f10a639	0.56503636
199	0x3fd53467	1.6656617
200	0x3c97a483	0.018511062
201	0x3efef440	0.49795723
202	0x3f0eef55	0.5583394
203	0x3fce1326	1.6099594
204	0x3d0f3e91	0.034971777
205	0x3f8cf009	1.1010753
206	0x3f342efd	0.703842
207	0x3f51cebc	0.81956077
208	0x3f0b7852	0.5448047
209	0x3f4def1d	0.8044298
210	0x3f5679e4	0.8377974
211	0x4020d0c3	2.5127418
212	0xbcaa0256	-0.020753067
213	0x3f2910b7	0.6604113
214	0x3e4626bd	0.19350715
215	0x3fb33a96	1.4002254
216	0x3ee87146	0.4539892
217	0x401aa70c	2.4164457
218	0x3f2b63d0	0.66949177
219	0x3fefb583	1.8727268
220	0x3bf1496a	0.007363488
221	0x3f44dba0	0.7689762
222	0x3e827d96	0.2548644
223	0x3fa9ea13	1.3274559
224	0xbb1507af	-0.0022740175
225	0x3f96f524	1.1793561
226	0xbdf7710d	-0.120821096
227	0x3fb0a7c5	1.3801199
228	0x3a59f431	0.00083142804
229	0xbc62d273	-0.01384412
230	0x3f1690d8	0.58814764
231	0x3faebc34	1.3651185
232	0x3e31b190	0.17352891
233	0x3ee8e823	0.45489606
234	0x3d8eaacc	0.06966171
235	0x3fcbe89b	1.593036
236	0xbd2fe866	-0.04294624
237	0x3effc941	0.49958232
238	0x3f0ea6c9	0.55723244
239	0x3f895461	1.0728875
240	0xbc5baf2d	-0.013408464
241	0x3ea6b2e6	0.32558364
242	0x3f5df7d8	0.86706305
243	0x402ee1ad	2.7325242
244	0x3c1ea1ba	0.009682113
245	0x3cdf172d	0.02723273
246	0x3f0be963	0.54652995
247	0x402ad918	2.6695004
248	0x3c2183dc	0.009858098
249	0x3ef5ab57	0.47982284
250	0x3dd97992	0.10618891
251	0x4019a90d	2.400943
252	0xbc892b7e	-0.016744372
253	0x3e33f528	0.17573988
254	0x3dec0d3e	0.11525963
255	0x3f74baeb	0.95597714

layer1.bias f4 [128]
0	0x40ba884f	5.829139
1	0x40bb0ee1	5.8455663
2	0x40bc163b	5.8777137
3	0x40bab46e	5.834525
4	0x40bc0610	5.87574
5	0x409bb93a	4.8663607
6	0x40bb9f0d	5.8631654
7	0x40bbf675	5.873835
8	0x40baa54b	5.8326774
9	0x40b3e545	5.621737
10	0xbce07a14	-0.027401961
11	0x3bcce536	0.00625291
12	0x40b63cf6	5.6949415
13	0x40bcc419	5.8989377
14	0x40bcee61	5.904099
15	0x40bc603a	5.8867464
16	0x40bd37eb	5.913076
17	0x40bb5d57	5.855144
18	0x40ba27c0	5.8173523
19	0x40bc9466	5.893115
20	0x3c9f04bc	0.019411437
21	0x40bbc754	5.868082
22	0x40bc78e6	5.889758
23	0x40bafabc	5.843107
24	0x40bb35a3	5.8502975
25	0x40bbb359	5.865643
26	0x40bbb0ad	5.865317
27	0xbcb09741	-0.021556498
28	0x40bc0f05	5.8768334
29	0x40bb989c	5.862379
30	0x40bb8c43	5.860872
31	0x40bc1a1a	5.878186
32	0x40bc3c8d	5.8823915
33	0x40bc4f10	5.884651
34	0x40bbf573	5.873712
35	0x40bbd1e1	5.86937
36	0x40bb5efd	5.8553452
37	0x40bd3047	5.912143
38	0x40b6ac66	5.7085447
39	0x3c003eb9	0.007827454
40	0x40bb5e0f	5.855232
41	0x40a002ed	5.000357
42	0xbcbed153	-0.023293173
43	0x3c267a8d	0.010161054
44	0x40bbc49b	5.8677497
45	0xbc44c49e	-0.012009768
46	0x3c9dcfef	0.01926419
47	0x40bbdc96	5.870677
48	0x3c6c3e0d	0.014419091
49	0x3af3f735	0.0018613102
50	0x40bb70b3	5.857507
51	0xbba0f9ed	-0.004912606
52	0x40bb2d99	5.849316
53	0x40b84899	5.758862
54	0x40bd8871	5.9229054
55	0x40bc2088	5.878971
56	0x40bbf1ee	5.8732824
57	0x40bca561	5.895188
58	0x40b89291	5.7678914
59	0x40bbe964	5.87224
60	0x40bbb859	5.8662534
61	0x40bbf380	5.873474
62	0xbd3058fd	-0.043053616
63	0x40bcc188	5.8986244
64	0x40bd62bc	5.9183025
65	0x40bc4414	5.8833103
66	0x40bc5a29	5.886006
67	0x40bbc5a6	5.867877
68	0x40bc52ba	5.8850985
69	0x40bb89de	5.8605795
70	0xbc98835a	-0.01861732
71	0x40bb817d	5.8595567
72	0xbcb97c6a	-0.022642333
73	0x40bd374e	5.913001
74	0xbc3e44d3	-0.011613089
75	0xbc179b15	-0.009253283
76	0x40bbd2e5	5.869494
77	0x40bdc626	5.930438
78	0x40bc0409	5.8754926
79	0x40bb3633	5.850366
80	0x40bc7b0a	5.8900194
81	0x40bb241e	5.848159
82	0x40bbe8d5	5.872172
83	0xbd1f6c98	-0.038921922
84	0x40bca877	5.8955646
85	0xbd027a7f	-0.031855103
86	0x40bc96e9	5.8934216
87	0x40b75b67	5.7299075
88	0x40bb1a5a	5.8469667
89	0x40bb766b	5.8582053
90	0x40bc6272	5.8870173
91	0xbb95c9b5	-0.0045711645
92	0x40b22a82	5.567689
93	0x40ba0ac8	5.813816
94	0x40bc2250	5.8791885
95	0x40ba5f33	5.824121
96	0x40bd3af8	5.9134483
97	0xbb9972f1	-0.0046828915
98	0x3bac6399	0.0052608964
99	0x40bb61ec	5.8557034
100	0x40bb4c12	5.853036
101	0x40bcacb5	5.8960824
102	0x40bc79b8	5.8898582
103	0x40bacbea	5.837392
104	0x40bbe567	5.871753
105	0x40bbe800	5.8720703
106	0x40bbda72	5.8704157
107	0x40bad993	5.8390594
108	0x40bbbe85	5.867007
109	0x40bbb71a	5.8661013
110	0x40bb640f	5.855964
111	0x40bbbbbc	5.866667
112	0x3c7fb9df	0.01560828
113	0x40bbcb36	5.868556
114	0x40bc5691	5.885567
115	0x40bb3016	5.84962
116	0x40bcad27	5.8961368
117	0x40bcc7b6	5.899379
118	0x408b2fd0	4.3495865
119	0x40bc36ed	5.881705
120	0x3cad4719	0.021152066
121	0x3c152194	0.009102244
122	0x3b80bac4	0.003928514
123	0x40bcf0e7	5.904407
124	0x40bdbb6f	5.92913
125	0x40bbcecb	5.8689933
126	0x40bc383c	5.8818645
127	0x40bc4e7a	5.8845797

layer2.weight f4 [128, 128]
0	0x40b98f64	5.7987537
1	0x40b9957a	5.7994967
2	0x40b9413b	5.7892127
3	0x40baa042	5.8320627
4	0x40ba5a85	5.8235497
5	0x40a1ad4d	5.052405
6	0x40bab23a	5.834256
7	0x40bb026d	5.844046
8	0x40bb1ce7	5.847278
9	0x40b53b4b	5.663488
10	0x3d05b254	0.03264077
11	0xbd379408	-0.044818908
12	0x40bc8266	5.890918
13	0x40bbc0eb	5.8672996
14	0x40b90efb	5.7830787
15	0x40bb2ef2	5.8494806
16	0x40bb7df8	5.859127
17	0x40b98df7	5.7985797
18	0x40b942d7	5.789409
19	0x40ba1c73	5.815973
20	0x3c45b907	0.01206804
21	0x40b9cd76	5.8063307
22	0x40b85928	5.7608833
23	0x40bb23ce	5.8481207
24	0x40b982e9	5.7972302
25	0x40b93858	5.788128
26	0x40b833c0	5.756317
27	0xbd31b3d9	-0.043384407
28	0x40ba1822	5.815446
29	0x40b98458	5.7974052
30	0x40bb3762	5.8505106
31	0x40b8f98a	5.7804613
32	0x40bbada6	5.8649473
33	0x40bb04a4	5.8443165
34	0x40b8a406	5.7700224
35	0x40b94251	5.7893453
36	0x40ba45c3	5.821016
37	0x40ba3e99	5.8201413
38	0x40be3794	5.9442844
39	0xbcc7ef28	-0.02440603
40	0x40b91110	5.783333
41	0x40a27c31	5.07766
42	0xc00c30dc	-2.1904821
43	0xbb4d6742	-0.0031342064
44	0x40bb2dd2	5.8493433
45	0x3b7a05c0	0.00381504
46	0x3d34cdb5	0.04414149
47	0x40b9bec0	5.804535
48	0xbc1c78cd	-0.0095502855
49	0xbc95e564	-0.018297859
50	0x40b8eec7	5.7791476
51	0x3e35a390	0.17738175
52	0x40b98d18	5.7984734
53	0x40be636d	5.949637
54	0x40bb4628	5.852314
55	0x40b8d8ab	5.7764487
56	0x40bba22d	5.863547
57	0x40ba7456	5.826701
58	0x40bc5d17	5.8863635
59	0x40b8a9f9	5.7707486
60	0x40b9a7a3	5.8017135
61	0x40bb5a31	5.8547597
62	0xc057419f	-3.3633802
63	0x40bc0e00	5.876709
64	0x40b8f270	5.7795944
65	0x40b98afd	5.7982163
66	0x40ba15f9	5.815182
67	0x40b9a0ae	5.800864
68	0x40bb0323	5.844133
69	0x40ba937f	5.830505
70	0xba4b3124	-0.0007751158
71	0x40ba55a7	5.8229556
72	0xbcbb42d2	-0.02285901
73	0x40b9296e	5.7863073
74	0xbccee038	-0.0252534
75	0xbd4cf450	-0.050037682
76	0x40ba8865	5.8291497
77	0x40ba667a	5.8250093
78	0x40ba3468	5.8188972
79	0x40b9ac17	5.802257
80	0x40ba741d	5.826674
81	0x40bb1a98	5.8469963
82	0x40bac86f	5.836967
83	0xc04fa600	-3.2445068
84	0x40b8b337	5.771877
85	0x3ccc5e91	0.024947437
86	0x40b93fd4	5.7890415
87	0x40bb0c00	5.845215
88	0x40bba500	5.8638916
89	0x40ba41a9	5.820515
90	0x40ba26be	5.8172293
91	0xbd3808b1	-0.044930164
92	0x40b45cc7	5.6363254
93	0x40b9f8b4	5.8116093
94	0x40bb180a	5.8466845
95	0x40b86545	5.762362
96	0x40bb07cc	5.844702
97	0x3d34d154	0.044144943
98	0x3d5d79ea	0.054071344
99	0x40ba9924	5.831194
100	0x40ba1506	5.8150663
101	0x40ba31ff	5.818603
102	0x40b9d81e	5.8076315
103	0x40b97f70	5.7968063
104	0x40b99890	5.7998734
105	0x40b9e5f3	5.80932
106	0x40ba943b	5.8305945
107	0x40bb8861	5.860398
108	0x40b86264	5.7620106
109	0x40bb06bd	5.8445725
110	0x40b8cb8b	5.7748466
111	0x40b9063f	5.7820125
112	0xbfc76919	-1.5578948
113	0x40bb463a	5.8523226
114	0x40bc3a5f	5.8821254
115	0x40ba0575	5.813166
116	0x40bad781	5.8388066
117	0x40bb368a	5.8504076
118	0x408cd871	4.401421
119	0x40b90550	5.7818985
120	0xbd286915	-0.04111584
121	0x3d11023a	0.035402514
122	0x3d282735	0.041053016
123	0x40bb5ba3	5.854936
124	0x40b88263	5.7659163
125	0x40bb1f2f	5.8475566
126	0x40b8b8a7	5.7725406
127	0x40b99a08	5.8000526
128	0x408fd5fb	4.4948707
129	0x4090eeee	4.529166
130	0x408e73a5	4.451617
131	0x408dfa6c	4.436819
132	0x408e2408	4.4418983
133	0x40964ef2	4.697137
134	0x408f287c	4.473692
135	0x408dc103	4.429811
136	0x408d9438	4.424343
137	0x40a28ad5	5.0794473
138	0x3c825d12	0.01591352
139	0x3c64743d	0.013943729
140	0x40893fc5	4.2890344
141	0x408cd6c3	4.401216
142	0x408fbbde	4.491683
143	0x408ea13e	4.457183
144	0x408eec45	4.4663415
145	0x408e7f9d	4.453078
146	0x408a7f39	4.32803
147	0x408d5ee8	4.417835
148	0xbd2ff139	-0.042954657
149	0x408d3db5	4.4137826
150	0x408ebf1e	4.4608297
151	0x408da6d2	4.426614
152	0x408e9414	4.455576
153	0x408d4906	4.415164
154	0x40902db3	4.5055785
155	0xbca1d23b	-0.019753566
156	0x408f26b2	4.4734735
157	0x408ecb90	4.462349
158	0x4090574e	4.5106573
159	0x408d5b83	4.417421
160	0x408f41b2	4.4767694
161	0x408ec254	4.4612217
162	0x408eba0a	4.46021
163	0x408fb5c7	4.4909396
164	0x408d8d80	4.423523
165	0x408d5b73	4.417413
166	0x40893ee9	4.2889295
167	0xbc5edfe1	-0.013603182
168	0x408e200a	4.441411
169	0x408120c4	4.0352497
170	0xc0d0923d	-6.5178514
171	0x3c96c02b	0.01840218
172	0x408f0248	4.4690285
173	0x3d457035	0.048202712
174	0xbd5e7579	-0.05431125
175	0x408f3a32	4.475854
176	0xbd01c1b5	-0.031678874
177	0x3cd71d7e	0.02625918
178	0x408ef96a	4.467946
179	0xbd4a7be9	-0.049434576
180	0x408e02df	4.4378505
181	0x408e595a	4.448407
182	0x408ec06b	4.4609885
183	0x408e0602	4.4382334
184	0x408f56d5	4.4793496
185	0x408dc6f9	4.4305387
186	0x408c41c5	4.3830285
187	0x408fc175	4.4923654
188	0x408dc2af	4.430015
189	0x408c8365	4.3910394
190	0xc0dcf864	-6.905321
191	0x408cafee	4.396476
192	0x408f8928	4.4854927
193	0x408f38db	4.4756904
194	0x408d31df	4.412338
195	0x408e5e8e	4.4490423
196	0x408e1334	4.439844
197	0x408f0919	4.4698606
198	0x3c93c019	0.018035935
199	0x408fd434	4.4946537
200	0xbd2379d5	-0.03991111
201	0x408f0336	4.469142
202	0xbd4be694	-0.049780443
203	0xbc81c482	-0.015840773
204	0x408fe9b4	4.497278
205	0x408dfaf9	4.4368863
206	0x408e50a6	4.447345
207	0x408f2596	4.473338
208	0x408ee388	4.465275
209	0x408f337c	4.4750347
210	0x408c79bc	4.38986
211	0xc0dcdece	-6.902198
212	0x408d1d33	4.4098144
213	0xbd62922e	-0.05531519
214	0x408e2314	4.441782
215	0x40802ac8	4.0052223
216	0x408dec4a	4.435094
217	0x408e5604	4.448
218	0x408fb17d	4.490416
219	0xbc5f7ce1	-0.013640613
220	0x40968801	4.704102
221	0x408c3015	4.3808694
222	0x408f729c	4.4827404
223	0x409549ec	4.6652737
224	0x408f5c2e	4.4800024
225	0xbc198e10	-0.009372249
226	0xbd3b49d9	-0.045724723
227	0x408e800f	4.453132
228	0x408d593e	4.417144
229	0x408e8297	4.453441
230	0x408d8206	4.422122
231	0x408cc2d7	4.398784
232	0x408f1e4a	4.4724474
233	0x408f4b9a	4.4779787
234	0x40902b84	4.505312
235	0x408f9669	4.4871106
236	0x408d0ae4	4.4075794
237	0x408fd4e6	4.4947386
238	0x408d54ad	4.4165864
239	0x408fdde8	4.495838
240	0xc099ab5c	-4.802168
241	0x40902900	4.505005
242	0x408f6537	4.4811053
243	0x408f0c50	4.470253
244	0x408f7ba0	4.483841
245	0x408e5d95	4.4489236
246	0x406adf56	3.6698813
247	0x408e44fd	4.4459214
248	0x3c4727a3	0.012155446
249	0x3cb66100	0.02226305
250	0xbc8482dd	-0.016175682
251	0x408d0492	4.406808
252	0x408fc6b6	4.4930067
253	0x408c902a	4.392598
254	0x408f5ac9	4.479832
255	0x408f4a34	4.477808

layer2.bias f4 [128]
0	0x40a6ab34	5.208399
1	0x4088cac3	4.274751
2	0x406c6efc	3.694274
3	0x40a568db	5.1690497
4	0x407fc58e	3.9964328
5	0x3c759341	0.014988721
6	0xbd3117ae	-0.043235473
7	0xbd3b1c13	-0.04568107
8	0x3d36fccf	0.04467469
9	0xbb658a75	-0.0035025154
10	0x40a973fc	5.2954082
11	0x3cc93c6b	0.024564942
12	0x40928ef3	4.57995
13	0xbcf88896	-0.030338567
14	0x40a0874f	5.016517
15	0x4087dfde	4.2460775
16	0x40a72333	5.223047
17	0x409e1a4c	4.94071
18	0x4086b091	4.2090535
19	0x40a71a50	5.221962
20	0x40a131f9	5.03735
21	0x40a14e2f	5.040794
22	0x40a26733	5.0750976
23	0xbc22c78e	-0.009935273
24	0x40aa0a02	5.3137217
25	0xbc98ee84	-0.01866842
26	0x40a3f9b9	5.1242337
27	0x40a2c930	5.087059
28	0xbb998b13	-0.0046857684
29	0x3cbbd01e	0.022926386
30	0x39865969	0.00025625087
31	0x408550eb	4.1661277
32	0x40a545e1	5.16478
33	0x40636118	3.5528011
34	0x40a510e3	5.1583114
35	0x40a8e905	5.278445
36	0xbd584e76	-0.0528092
37	0x40a52feb	5.1620994
38	0x3d156c50	0.036480248
39	0x3d1610b5	0.036637027
40	0x40a4e5f1	5.153069
41	0x3d30332b	0.043017548
42	0x408bb3a9	4.365681
43	0x409b3831	4.8506093
44	0x409ac3a8	4.836384
45	0xbb0c7654	-0.0021432834
46	0x40a5f23f	5.185821
47	0x4097671b	4.731336
48	0xbcf3728a	-0.029717702
49	0x40a529eb	5.161367
50	0x4093c703	4.6180434
51	0xbd23ebb6	-0.040019713
52	0x40a515ad	5.158896
53	0xbbd57ad8	-0.0065148883
54	0x4098f2a4	4.779619
55	0xbcaab968	-0.020840362
56	0x40a3c9b5	5.1183724
57	0x40a7aff9	5.240231
58	0x409b9c67	4.862842
59	0xbd057b6a	-0.0325884
60	0x40808272	4.0159235
61	0x40a656eb	5.19811
62	0x408a6230	4.324486
63	0x4098e020	4.777359
64	0x3cb835dd	0.022486622
65	0x408e454f	4.4459605
66	0x40944c10	4.634285
67	0xbc269959	-0.010168397
68	0x409132d1	4.537453
69	0x40a6bb95	5.210398
70	0xbd3d408a	-0.046204127
71	0xbd3ec364	-0.046573058
72	0x3cc98f22	0.024604384
73	0x40a598a4	5.174883
74	0x3d21371a	0.03935919
75	0x40a884f9	5.266232
76	0xbae8e200	-0.0017767549
77	0x406fb57c	3.745452
78	0x3cfae066	0.03062458
79	0x4086d0b4	4.2129765
80	0x408b1d58	4.347332
81	0xbceedc8d	-0.029157901
82	0xbd3fad38	-0.046796054
83	0x3d1d649d	0.03842603
84	0x40a17710	5.045784
85	0x40a56f9e	5.169875
86	0x3cce6614	0.025195159
87	0x408d903e	4.4238577
88	0x40a79e7f	5.2380977
89	0x40865206	4.1975126
90	0x3ca86a22	0.02055842
91	0x3d2d77f9	0.042350743
92	0xbceadc03	-0.028669363
93	0x4095dde9	4.6833386
94	0x40879fd5	4.2382607
95	0x409dad47	4.927402
96	0x408bf0a7	4.3731265
97	0xbd486dc7	-0.048932817
98	0x3cd6bfd0	0.02621451
99	0x40a03b61	5.0072484
100	0xbcde5074	-0.027137972
101	0x40923e3a	4.570096
102	0x4086c368	4.2113533
103	0x40a438f7	5.1319537
104	0xbc839c15	-0.016065637
105	0x408845a6	4.258502
106	0x409c8132	4.890771
107	0xbc8733fc	-0.01650428
108	0x3cfec060	0.03109759
109	0x40aa4ece	5.3221197
110	0xbcf2499f	-0.02957612
111	0x409d5122	4.916154
112	0x4092a2ab	4.582357
113	0x40a8459d	5.2584977
114	0xbbcb6ba0	-0.0062078983
115	0x3d3661dd	0.044526923
116	0xbd31958b	-0.043355506
117	0x399aa64e	0.00029497076
118	0x409c4150	4.8829727
119	0x3cc5923b	0.02411758
120	0x40a7eca5	5.2476373
121	0xbd34aba0	-0.044108987
122	0xbd1d0acc	-0.038340375
123	0x3bfa50d2	0.007639029
124	0x3ce8e8bd	0.02843129
125	0x40a65caa	5.1988115
126	0x40861959	4.190594
127	0x40a3df0e	5.1209784

layer3.weight f4 [290, 128]
0	0x3e6e32c8	0.23261559
1	0x3e177790	0.14791703
2	0x3e6688ec	0.22513169
3	0x3e6b49ef	0.22977422
4	0x3e754b99	0.2395462
5	0x3b13b210	0.0022536553
6	0xbd548908	-0.051888496
7	0x3c975509	0.018473165
8	0x3c9c190b	0.01905491
9	0xbd2ee71b	-0.042700868
10	0x3e63ff12	0.2226527
11	0xbd4ca01e	-0.049957387
12	0x3e34dffc	0.17663568
13	0x3b13f293	0.0022575005
14	0x3e30d5d9	0.17269076
15	0x3e80beb2	0.2514549
16	0x3e5f28e9	0.2179295
17	0x3e394b73	0.18095188
18	0x3e73d7b0	0.23812747
19	0x3e5f876a	0.21829
20	0x3e2db6bf	0.16964243
21	0x3e2b010d	0.1669962
22	0x3e89ad88	0.26890206
23	0xbce5349a	-0.027979184
24	0x3e565571	0.20931031
25	0x3d18d95b	0.03731666
26	0x3e75c0cc	0.23999327
27	0x3e54084c	0.2070629
28	0x3d328c57	0.04359087
29	0x3ca2de94	0.019881524
30	0xbdd26e6a	-0.10274966
31	0x3e551d0f	0.20811866
32	0x3e41f7a3	0.18942122
33	0x3e08c97a	0.13358107
34	0x3e4fa866	0.20279083
35	0x3e41e5df	0.18935345
36	0x3d1d3b6a	0.03838674
37	0x3e4bae5f	0.19890736
38	0xbd835fa1	-0.06414724
39	0x3e6d0baa	0.2314898
40	0x3e35ffe7	0.177734
41	0x3c55ca0f	0.013048663
42	0x3e2bb469	0.1676804
43	0x3e22c16d	0.15894099
44	0x3e2c24d7	0.16810928
45	0xbd40c081	-0.047058586
46	0x3e5c9846	0.21542463
47	0x3e2ffe69	0.17186894
48	0xbc782a35	-0.015146782
49	0x3e5236a1	0.20528652
50	0x3e3c1f35	0.1837128
51	0x3c28f861	0.010313124
52	0x3e3cb725	0.18429239
53	0x3d317370	0.04332298
54	0x3e36487f	0.17801093
55	0xbda395e9	-0.079875775
56	0x3e3f1c9c	0.18663257
57	0x3e774300	0.24146652
58	0x3e781b7d	0.24229236
59	0xbcb52597	-0.02211265
60	0x3e2c2c12	0.16813686
61	0x3e789ddd	0.2427897
62	0x3e13a13d	0.14416976
63	0x3e5deb6b	0.21671836
64	0xbd174040	-0.036926508
65	0x3e37ba0c	0.17942065
66	0x3e1cd9e5	0.15317495
67	0x3c00c2a0	0.007858902
68	0x3e25ef1f	0.16204499
69	0x3e83bc73	0.25729713
70	0x3c94bf41	0.018157603
71	0xbd496b8a	-0.049174823
72	0xbc599587	-0.013280279
73	0x3e8337ff	0.2562866
74	0xbcedfc1d	-0.029050881
75	0x3e788ae9	0.2427174
76	0x3d436814	0.04770668
77	0x3e0f1119	0.13971366
78	0x3ce2cae0	0.027684629
79	0x3e4d3823	0.20040946
80	0x3e677dcf	0.22606586
81	0xbd140303	-0.036135685
82	0xbd4223cf	-0.04739743
83	0x3d3da97c	0.04630421
84	0x3e62fdfc	0.221672
85	0x3e548e98	0.2075752
86	0xbd3928b1	-0.045204822
87	0x3e2a91cc	0.1665718
88	0x3e3d4d0a	0.1848642
89	0x3e3d77a8	0.18502676
90	0x3d5383c0	0.05163932
91	0xbca5fa82	-0.020261053
92	0xbc4ee85e	-0.012628643
93	0x3e1de245	0.15418346
94	0x3e372afc	0.17887491
95	0x3e978d76	0.29600114
96	0x3e150f45	0.14556606
97	0x3cd6e50a	0.026232261
98	0x3cf98358	0.030458137
99	0x3e8dd518	0.2770164
100	0xbcaadb1e	-0.020856436
101	0x3e491333	0.1963623
102	0x3e656742	0.22402671
103	0x3e4aab72	0.19791964
104	0xbce1389e	-0.027492817
105	0x3e60d79c	0.21957248
106	0x3e2ec681	0.1706791
107	0xbd122373	-0.03567834
108	0x3c1e14b8	0.009648494
109	0x3e5bded7	0.21471725
110	0xbd03f402	-0.032215126
111	0x3e68086a	0.2265946
112	0x3e247821	0.1606145
113	0x3e67d3b7	0.22639357
114	0xbce6dd9f	-0.028181849
115	0xbd0ed0f4	-0.034867242
116	0xbcc22bd6	-0.023702543
117	0xbbe909a7	-0.0071117464
118	0x3e609d96	0.21935114
119	0xbc6b698a	-0.014368424
120	0x3e795bad	0.24351378
121	0xbd4a7782	-0.049430378
122	0x3d112b3c	0.035441622
123	0x3c81043f	0.015749095
124	0xbcc3b8c9	-0.023891823
125	0x3e4c4089	0.19946493
126	0x3e728983	0.23685269
127	0x3e33a176	0.17542061
128	0x3e839dd4	0.2570635
129	0x3e66c54a	0.22536197
130	0x3e6ce7e8	0.2313534
131	0x3e58b62a	0.2116324
132	0x3e307d9c	0.17235416
133	0x3b0118b3	0.001969856
134	0x3c628dd6	0.013827762
135	0xbce8ba5a	-0.028409172
136	0x3ccc1a2e	0.024914827
137	0xbbac4c37	-0.005258109
138	0x3e2ed39d	0.17072912
139	0x3c431e1e	0.011909036
140	0x3e37dc27	0.17955075
141	0xbc44052d	-0.011964125
142	0x3e4b28f4	0.19839841
143	0x3e60aaf0	0.21940207
144	0x3e3d1247	0.18464004
145	0x3e1132da	0.14179555
146	0x3e5bf5e8	0.21480525
147	0x3e86ef07	0.26354238
148	0x3e2f4862	0.17117456
149	0x3e2999d5	0.16562589
150	0x3e84608b	0.25854906
151	0xbd1a69da	-0.037698604
152	0x3e537a91	0.20652224
153	0xbc3a4980	-0.011370063
154	0x3e5be534	0.21474153
155	0x3e4cb182	0.19989589
156	0x3d047cfe	0.032345764
157	0xbc51807b	-0.01278698
158	0xbccfaba2	-0.025350396
159	0x3e7effc8	0.2490226
160	0x3e1ba24e	0.15198633
161	0x3e801871	0.25018647
162	0x3e3d72e3	0.18500857
163	0x3e2b9c44	0.1675883
164	0x3d22a016	0.03970345
165	0x3e6e6501	0.23280717
166	0x3cdc95a2	0.02692682
167	0x3dce5909	0.10075576
168	0x3e45c2cb	0.19312589
169	0x3b0cdc90	0.002149377
170	0x3e6e77aa	0.23287836
171	0x3e5952b4	0.21222955
172	0x3e37aa1c	0.17935985
173	0x3d0f7f93	0.035033774
174	0x3e888fa9	0.26672104
175	0x3e706847	0.23477279
176	0xbce9fd23	-0.028563088
177	0x3e6e552d	0.2327468
178	0x3e72f8d5	0.23727734
179	0xbd5427a8	-0.05179563
180	0x3e35102f	0.17681955
181	0x3d337437	0.043812003
182	0x3e453f43	0.19262414
183	0xbceb9cd1	-0.0287613
184	0x3e38743b	0.18013088
185	0x3e2e3714	0.17013198
186	0x3e47b8ae	0.19504043
187	0x3cd0aca1	0.02547294
188	0x3e5d16e2	0.2159076
189	0x3e5c3562	0.21504739
190	0x3e5b0d8f	0.21391891
191	0x3e7d7856	0.24752936
192	0xbbc82d41	-0.0061089103
193	0x3e3f2d81	0.18669702
194	0x3e739e54	0.23790866
195	0xbd296555	-0.041356403
196	0x3e4f4aac	0.20243329
197	0x3e39e9d0	0.18155599
198	0xbd089fc0	-0.033355474
199	0x3c5df4a3	0.0135470955
200	0xba98319f	-0.0011611468
201	0x3e264a02	0.16239169
202	0x3d35cf63	0.044387233
203	0x3e2ae1c1	0.16687681
204	0x3d544358	0.051822037
205	0x3e20f8c8	0.15719903
206	0xbd14c871	-0.03632397
207	0x3e34d3cd	0.1765892
208	0x3e36f84b	0.17868154
209	0xbcf5356c	-0.0299327
210	0x3cba98e7	0.022777988
211	0xbc42e99a	-0.011896515
212	0x3e4a585f	0.19760273
213	0x3e5468d3	0.20743112
214	0xbd4d79cc	-0.050164983
215	0x3e2ce67f	0.16884802
216	0x3e20342f	0.15644906
217	0x3e1fa951	0.15591933
218	0x3d20e26f	0.039278444
219	0xbce412f0	-0.027841061
220	0x3d34df97	0.044158544
221	0x3e66381a	0.22482339
222	0x3e4b618b	0.19861428
223	0x3e2289b7	0.15872847
224	0x3e22f1e7	0.15912591
225	0x3c2c6252	0.010521488
226	0x3caa743a	0.020807374
227	0x3e39aae8	0.18131602
228	0x3bc8d6ab	0.006129106
229	0x3e45032e	0.19239494
230	0x3e7a0dd9	0.24419345
231	0x3e67f716	0.2265285
232	0x3d467464	0.048450842
233	0x3e7eac9b	0.24870531
234	0x3e75e6b6	0.2401379
235	0x3c5318c4	0.012884323
236	0x3cedb873	0.029018616
237	0x3e418e0c	0.18901843
238	0xbcccc64f	-0.024996905
239	0x3e80dd6c	0.2516893
240	0x3e7a5992	0.24448231
241	0x3e3036ec	0.17208451
242	0xbcd73bb3	-0.026273584
243	0xbc1f514b	-0.009723972
244	0xbcb791e8	-0.02240844
245	0xbd1f5677	-0.03890082
246	0x3e652818	0.22378576
247	0xbd2b4679	-0.041815255
248	0x3e2a70a3	0.1664453
249	0x3d3287be	0.043586485
250	0x3ce53588	0.027979627
251	0xbcd6fcd2	-0.026243601
252	0xbd4b5eaf	-0.049650844
253	0x3e810d99	0.25205687
254	0x3e2c0e98	0.16802442
255	0x3e1e5973	0.1546381

layer3.bias f4 [290]
0	0x404d6011	3.2089884
1	0x3e101a5a	0.14072552
2	0x3de705a8	0.11280376
3	0x3e4d9c48	0.20079148
4	0x3de07b2f	0.109609954
5	0x3e3826a7	0.17983495
6	0x3d9a8cc2	0.07546379
7	0x3e4462d9	0.19178332
8	0x3de84669	0.11341555
9	0x3dd8d12d	0.10586772
10	0x3d9d0f3f	0.076689236
11	0x3e471361	0.19440986
12	0x3e7a4de8	0.24443781
13	0x3dfb66ab	0.12275442
14	0x3de1141c	0.10990164
15	0x3e06241b	0.1309971
16	0x3e22b3d2	0.15888909
17	0x3e63980a	0.22225967
18	0x3dd227e0	0.10261512
19	0x3e778580	0.2417202
20	0x3f66e8df	0.90199083
21	0x3e31e72d	0.17373343
22	0x3d93e330	0.07221067
23	0x3d318c45	0.043346662
24	0x3dabe311	0.08392919
25	0x3dcbc4a0	0.099496126
26	0x3d16161d	0.036642183
27	0x3cb4eda4	0.022085972
28	0x3d5490a4	0.051895753
29	0x3d91b966	0.0711544
30	0x3dcb8451	0.09937347
31	0x3e548cbb	0.2075681
32	0x3e49c5e3	0.19704394
33	0x3e3d5928	0.18491042
34	0x3e21d6df	0.15804623
35	0x3e06c8b3	0.13162498
36	0x3dac36aa	0.08408864
37	0x3d2f95bf	0.04286742
38	0x3bd33550	0.0064455643
39	0x3dc0b016	0.09408586
40	0x3e5e5bdb	0.21714728
41	0x3d9ed7d4	0.0775601
42	0x3e4d57d7	0.2005304
43	0x3dccf1d0	0.100070596
44	0x3e11cbd6	0.14237913
45	0x3dd619e7	0.10454159
46	0x3e43d2d5	0.19123395
47	0x3d9f4311	0.07776464
48	0x3e324f76	0.17413124
49	0x3d4d1d82	0.05007697
50	0x3e275014	0.16339141
51	0x3e198c33	0.14994888
52	0x3e5f07ae	0.21780273
53	0x3e4926a2	0.19643643
54	0x3e225e46	0.15856275
55	0x3e6acb3c	0.2292909
56	0x3dea9184	0.11453536
57	0x3e2d19e1	0.16904403
58	0x3e1fade7	0.15593682
59	0x3e4a397d	0.19748493
60	0x3d9895c4	0.074504405
61	0x3d382b34	0.044963077
62	0x3e477e6d	0.19481821
63	0x3ded5661	0.11588741
64	0x3da72d29	0.081629105
65	0x3d3e8f8f	0.046523627
66	0x3b6301e6	0.0034638583
67	0x3c0cc6e2	0.008592339
68	0x3d145db5	0.03622218
69	0x3c6791aa	0.01413385
70	0x3da8c31e	0.08240341
71	0x3db73f66	0.08947639
72	0x3d5997f4	0.05312343
73	0x3d6283be	0.05530142
74	0x3dd0b56f	0.10190856
75	0x3e24f172	0.16107729
76	0x3e2ac854	0.16677982
77	0x3e1d743c	0.15376371
78	0x3dc5c568	0.09656793
79	0x3dfbfb04	0.12303737
80	0x3db3ae07	0.087734275
81	0x3e105d33	0.14098053
82	0x3d8c5559	0.06852216
83	0x3e2ea3f2	0.17054728
84	0x3e3413c6	0.17585668
85	0x3dfea1b5	0.12433187
86	0x3def0852	0.11671509
87	0x3e0d9a2c	0.13828343
88	0x3ddce43b	0.10785719
89	0x3e2f107c	0.17096132
90	0x3e54122e	0.2071006
91	0x3e461016	0.19342074
92	0x3e2d7b86	0.16941652
93	0x3da44ede	0.08022855
94	0x3b86024a	0.0040896283
95	0xbd3d3be4	-0.046199694
96	0x3daa2fc7	0.08309894
97	0xbd13b044	-0.036056772
98	0x3cafc149	0.02145447
99	0x3d93945f	0.07206034
100	0x3d4433ae	0.047900848
101	0x3ca2bfe2	0.019866887
102	0x3d9bcc19	0.07607288
103	0x3d14cd78	0.036328763
104	0x3e438a14	0.19095641
105	0x3df7f8cd	0.12108002
106	0x3dcc30bf	0.09970235
107	0xbcbe83d4	-0.02325622
108	0x3d30caa5	0.043162007
109	0x3e5d818e	0.21631452
110	0x3c82f150	0.015984207
111	0x3d64e8c4	0.055886045
112	0x3cc11ced	0.023573363
113	0x3d132824	0.035926953
114	0x3d87876f	0.06617629
115	0x3c1cc268	0.009567834
116	0x3d612fe5	0.054977316
117	0x3ddf6932	0.10908736
118	0x3d28c092	0.041199274
119	0x3b96d3ff	0.0046029086
120	0x3cd8709c	0.026420884
121	0x3c1714ae	0.009221239
122	0x3d31d3d2	0.0434149
123	0x3d8f2097	0.06988638
124	0x3d6eb5a4	0.058278695
125	0xbc0f4760	-0.0087450445
126	0x3db77721	0.08958269
127	0x3c88491b	0.016636422
128	0x3db2fd98	0.087397754
129	0xbc5bc209	-0.013412961
130	0x3e39fd91	0.18163134
131	0xbd24992e	-0.040185146
132	0x3e0461d3	0.12927942
133	0x3d5a3351	0.053271595
134	0x3d6938d4	0.05693896
135	0x3d724729	0.059149895
136	0x3e0f2ef5	0.13982756
137	0x3e1b8b46	0.15189847
138	0x3db5f6eb	0.088849865
139	0x3e006e83	0.12542157
140	0x3d4c77d7	0.049918976
141	0x3cbf3d13	0.023344552
142	0x3b34cc08	0.0027587432
143	0x3dff5e9f	0.124692194
144	0xbbca2e3b	-0.006170062
145	0x3e46975f	0.19393681
146	0x3cd53bee	0.026029553
147	0x3cdf11c3	0.02723015
148	0x3d0b7566	0.034047507
149	0x3d946dfd	0.07247541
150	0xbd68a4d2	-0.05679781
151	0x3c92bcb2	0.017912243
152	0xbc7fc002	-0.015609743
153	0x3db4355f	0.08799242
154	0x3cc107da	0.023563314
155	0xbc1192de	-0.0088851135
156	0x3b4643a8	0.0030252729
157	0x3d36a4d1	0.044590775
158	0x3daaabde	0.08333562
159	0xb84c5b36	-4.8722337e-05
160	0x3dc8737b	0.09787651
161	0xbd4fb9c2	-0.05071426
162	0x3d58d7d9	0.052940223
163	0x3e500ae6	0.20316657
164	0x3d91debd	0.07122562
165	0xbab4da30	-0.0013797935
166	0x3d37eb5a	0.044902183
167	0xbd1693f6	-0.0367622
168	0x3d495625	0.04915442
169	0xbbb72b2f	-0.0055898647
170	0x3ce5091c	0.027958445
171	0xbc6898c1	-0.014196576
172	0x3c267525	0.010159765
173	0x3b20d558	0.0024541225
174	0x3d454e6d	0.048170496
175	0x3d85e993	0.06538691
176	0x3c3f89aa	0.0116905365
177	0x3d83aba3	0.064292215
178	0xbd06c649	-0.032903943
179	0xbcec4f1c	-0.028846316
180	0x3d931e5e	0.071835265
181	0x3cefdc77	0.02927993
182	0xbd30017f	-0.042970177
183	0xbc0b5593	-0.008504289
184	0x3cacef5e	0.021110233
185	0xbcb6d144	-0.022316583
186	0x3da366b7	0.07978576
187	0x3ce9a328	0.028520182
188	0xbcca2528	-0.02467592
189	0x3c9f7179	0.019463288
190	0xbd3c2736	-0.045935832
191	0x39d1360a	0.0003990385
192	0x3d00b8b8	0.03142616
193	0x3dfb92f5	0.12283889
194	0x3caa38b9	0.020779
195	0x3b905637	0.004404809
196	0x3d301458	0.04298815
197	0xbc7439cd	-0.014906359
198	0xbd1b54c9	-0.037922654
199	0x3e0db807	0.13839732
200	0xbbff4ac6	-0.007790896
201	0x3db107a1	0.08644033
202	0x3daba20d	0.08380518
203	0x3dae6585	0.08515457
204	0x3d92b519	0.07163448
205	0x3d5213ee	0.051288538
206	0x3dc186e5	0.09449557
207	0x3d1ff707	0.039053943
208	0x38849aeb	6.323106e-05
209	0x3d1d8984	0.038461223
210	0xbbc5e553	-0.0060393005
211	0xbc8ee65e	-0.017443832
212	0x3de3ee2b	0.11129411
213	0x3d286d28	0.041119725
214	0x3db03f49	0.08605821
215	0xbcf66a48	-0.030079976
216	0x3d8153cf	0.06314813
217	0xbba4b7cf	-0.0050267945
218	0xbc5ca6c3	-0.0134674935
219	0x3c637836	0.013883641
220	0x3d237224	0.039903775
221	0xbd349add	-0.044093
222	0xbd2599bd	-0.04042982
223	0x3de1e7c5	0.11030535
224	0x3dd7f804	0.10545352
225	0x3da15ab1	0.07878626
226	0x3e0af4dd	0.1356997
227	0x3d9afd7e	0.07567881
228	0xb90c2501	-0.00013365225
229	0x3e0af963	0.13571696
230	0x3e154171	0.14575745
231	0x3d22b974	0.039727643
232	0x3e0fd29f	0.1404519
233	0x3de293be	0.11063336
234	0x3e38c5ee	0.18044254
235	0x3dd2c887	0.10292154
236	0x3dd47ae8	0.10375005
237	0x3e073df0	0.13207221
238	0x3db8f8cc	0.09031829
239	0x3de588d4	0.112077385
240	0x3d9c4124	0.07629612
241	0x3d88d6f4	0.06681624
242	0x3e0be7ce	0.13662645
243	0x3e042884	0.1290608
244	0x3d9258b0	0.07145822
245	0x3e173def	0.1476972
246	0x3e237a61	0.15964653
247	0x3dc7b19d	0.09750674
248	0x3e0ade82	0.13561442
249	0x3e237298	0.15961683
250	0x3dc69d9e	0.09698032
251	0x3e2e4958	0.17020166
252	0x3e281fa2	0.16418317
253	0x3deec496	0.116585895
254	0x3e00f41d	0.12593122
255	0x3d880511	0.06641591
