catanatron_experimental/catanatron_experimental/my_DQN1_700_steps.pth (torch, 532839 bytes, 6 tensors)

layer1.weight f4 [128, 614]
0.26236904 0.32141802 0.2821532 0.29241598 0.2960876 0.28579846 0.24570358 0.09451961
0.15071529 0.09526907 0.17842364 0.07531136 0.19875643 0.16067329 0.1914639 0.1260907
-0.057023752 0.044124722 0.15483686 0.13320929 0.052864887 0.22153343 0.09358614 0.044625275
0.0822291 0.07884528 -0.038886826 0.12687142 -0.03485767 0.20523272 0.018495787 0.088263065
0.164657 0.12500761 0.19533402 0.14905325 0.085261144 0.14558284 0.11018553 0.09816137
0.13863939 0.19083442 0.052227724 0.10082331 0.09997434 0.15054879 0.11953448 0.05867016
0.09557591 0.112616606 0.17548941 0.15252456 0.16717634 0.022304192 0.21158326 0.07990758
0.2539551 0.18567534 0.10695322 0.22585277 0.25965434 0.23583746 0.18699126 0.15322188
0.056695156 0.20798996 0.13264129 0.10364265 0.15525264 0.10105908 0.11533774 0.18330033
0.034462295 0.14463462 0.024047727 0.15449892 0.15480189 0.20054911 0.03490914 0.1534529
0.12989946 0.15857711 0.11694298 0.18418083 -0.030283019 0.10377885 0.1379713 0.13712445
0.11981297 0.16542393 -0.027797915 0.18980668 0.018072335 0.20022719 0.067916594 0.16731027
0.028155183 0.14737226 -0.024653438 0.20568623 0.1336381 0.21917099 0.13760005 0.18716729
0.12889838 0.1048881 0.16675645 0.13574614 0.18225728 0.08970493 0.1900805 0.17672092
0.12738718 0.10332774 0.10942179 0.19217357 0.09120649 0.13152051 -0.008679963 0.07950738
0.027231084 0.18145694 0.05372351 0.14372525 0.1468908 0.12266952 0.06293848 0.1370363
0.13526222 0.17167428 0.009233688 0.1618676 0.31866178 0.092340454 0.1151873 0.102819666
0.2053736 0.16928637 0.19464283 0.07858399 0.24345468 0.068362825 0.045818586 0.16600928
-0.010174658 0.07738445 0.2682979 0.15332195 0.16964002 0.04432973 0.011952183 0.08996914
-0.016485805 -0.014026184 0.038020037 0.067090355 -0.047441013 0.010619823 0.10010298 -0.004117814
0.025698103 0.17511518 0.12240316 0.07167647 0.00012318925 -0.026975136 0.050288502 0.10363017
0.01484166 -0.023040019 0.036112342 0.021113424 0.013593036 -0.009810366 0.010046127 0.1068105
-0.02620552 0.16515355 0.19750427 0.08389223 0.038104024 0.1895202 0.19978818 0.11632123
0.042563014 0.078004904 -0.020864407 0.111878924 -0.00898531 0.008746135 0.045249857 0.13207047
0.011921225 0.051366225 -0.031829692 0.089975886 -0.0033400818 0.034310006 0.05266862 0.10359465
0.021923082 0.07308067 0.004764104 0.027312692 0.041460216 0.13772468 -0.08653684 0.11594612
0.08323171 0.044330418 0.026181402 0.117389016 -0.054479215 0.2041001 0.06904129 0.17643508
-0.048740517 0.08438562 0.04479298 0.14578669 0.008724022 0.035234075 0.0032128585 0.009321285
-0.002692547 0.023661278 0.032102138 0.05170275 0.0009858158 -0.016424667 -0.00016830329 0.08418937
-0.017444832 0.09633047 -0.034085095 0.06876749 -0.050881993 0.109499745 -0.00038546085 0.04924934
-0.015901878 0.069920085 0.09678597 0.011102418 0.011470016 0.03230272 -0.020021973 0.08806852
0.011676419 -0.011762813 -0.13001426 0.18669632 -0.01982658 0.05243216 0.033395037 0.08116126
00000000: 3c55 863e e790 a43e 6276 903e 8cb7 953e
00000010: cb98 973e 2d54 923e b899 7b3e 7f93 c13d
00000020: 1c55 1a3e 6e1c c33d b0b4 363e d83c 9a3d
00000030: ce86 4b3e 8a87 243e 1d0f 443e ec1d 013e
00000040: bd91 69bd 20bc 343d 8e8d 1e3e 0468 083e
00000050: da88 583d a9d9 623e 17aa bf3d fec8 363d
00000060: bb67 a83d a279 a13d cb47 1fbd 95ea 013e
00000070: ebc6 0ebd 8728 523e 7a84 973c 44c3 b43d
00000080: d89b 283e ff01 003e a405 483e 6aa1 183e
00000090: 659d ae3d ab13 153e f3a8 e13d d408 c93d
000000a0: 7cf7 0d3e 196a 433e bdec 553d 747c ce3d
000000b0: 59bf cc3d 7629 1a3e 7ece f43d 1f50 703d
000000c0: 4dbd c33d 89a3 e63d 7fb3 333e 662f 1c3e
000000d0: 4630 2b3e 48b7 b63c 48a9 583e 96a6 a33d
000000e0: 6706 823e ad21 3e3e 4a0a db3d f345 673e
000000f0: 6af1 843e 607f 713e a37a 3f3e 32e6 1c3e
00000100: 2e39 683d 52fb 543e 1ed3 073e 9942 d43d
00000110: 8cfa 1e3e 10f8 ce3d 3136 ec3d 15b3 3b3e
00000120: 5628 0d3d 191b 143e bdff c43c f734 1e3e
00000130: 6384 1e3e bf5c 4d3e e3fc 0e3d c222 1d3e
00000140: 5d04 053e 0a62 223e cd7f ef3d e699 3c3e
00000150: 1814 f8bc 018a d43d 5948 0d3e 5a6a 0c3e
00000160: 8160 f53d e464 293e 74b8 e3bc af5c 423e
00000170: 6f0c 943c 5b08 4d3e db17 8b3d 6253 2b3e
00000180: b3a5 e63c c1e8 163e 02f6 c9bc 699f 523e
00000190: 6dd8 083e 5c6e 603e 07e7 0c3e c8a8 3f3e
000001a0: f0fd 033e 92cf d63d 34c2 2a3e 0901 0b3e
000001b0: a7a1 3a3e 38b7 b73d 76a4 423e 54f6 343e
000001c0: c971 023e 7f9d d33d 8818 e03d 26c9 443e
000001d0: 78ca ba3d 50ad 063e 6736 0ebc c4d4 a23d
000001e0: b913 df3c d9cf 393e 2f0d 5c3d b62c 133e
000001f0: 8b6a 163e 283a fb3d e4e5 803d 3e53 0c3e
00000200: 2e82 0a3e 62cb 2f3e e548 173c 9fc0 253e
00000210: a327 a33e fe1c bd3d 52e7 eb3d 1e93 d23d
00000220: 754d 523e 6859 2d3e 7350 473e a5f0 a03d
00000230: 2f4c 793e cf01 8c3d 45ac 3b3d 56fe 293e
00000240: 9cb3 26bc bd7b 9e3d 585e 893e 6e00 1d3e
00000250: 1db6 2d3e 1793 353d 17d3 433c be41 b83d
00000260: 3d0d 87bc 14ce 65bc e6ba 1b3d ab66 893d
00000270: 8251 42bd c4fe 2d3c cb02 cd3d baee 86bb
00000280: d484 d23c 6551 333e 82ae fa3d 1dcb 923d
00000290: 5d2c 0139 f6fa dcbc 51fb 4d3d 0e3c d43d
000002a0: 6f2a 733c 6cbe bcbc 89ea 133d 0ff6 ac3c
000002b0: 53b5 5e3c a8bb 20bc 8398 243c 77bf da3d
000002c0: f5ac d6bc 031e 293e 8f3e 4a3e b1cf ab3d
000002d0: f712 1c3d 9511 423e 4695 4c3e d339 ee3d
000002e0: 8e56 2e3d 09c1 9f3d d5eb aabc c720 e53d
000002f0: 1f37 13bc f34b 0f3c ea57 393d 7b3d 073e
00000300: 3e51 433c 6465 523d da5f 02bd 4745 b83d
00000310: 46e5 5abb a688 0c3d 0dbb 573d 6f29 d43d
00000320: 0998 b33c 51ab 953d 331c 9c3b debe df3c
00000330: 30d2 293d b307 0d3e 3a3a b1bd 2975 ed3d
00000340: 6375 aa3d d093 353d 617a d63c a769 f03d
00000350: 9925 5fbd 9eff 503e 8565 8d3d 66ab 343e
00000360: 23a4 47bd 5ed2 ac3d d878 373d 1b49 153e
00000370: 33ef 0e3c 9b51 103d d28e 523b 4eb8 183c
00000380: 7175 30bb 4cd5 c13c 887d 033d 43c6 533d
00000390: 7d36 813a 068d 86bc 927a 30b9 7a6b ac3d
000003a0: 77e8 8ebc e948 c53d d09c 0bbd f8d5 8c3d
000003b0: a369 50bd 6741 e03d ae17 cab9 adb9 493d
000003c0: a844 82bc 4332 8f3d b937 c63d ebe6 353c
000003d0: bcec 3b3c db4f 043d 1f05 a4bc 455d b43d
000003e0: 734e 3f3c d0b8 40bc 7522 05be 522d 3f3e
000003f0: 5a6b a2bc 1bc3 563d 3cc9 083d e037 a63d

layer1.bias f4 [128]
0.25540134 0.2759983 0.30708742 0.25426772 0.30601755 0.029321749 0.2929084 0.30431953
0.25507033 0.16521044 -0.029890152 0.0074093402 0.09792649 0.33406505 0.34038162 0.31839296
0.35037717 0.28707466 0.23358984 0.326921 0.026371717 0.29740244 0.32333475 0.26499858
0.27889645 0.29321578 0.29424194 -0.02553827 0.31209773 0.2892095 0.28892183 0.30876696
0.31644946 0.31897238 0.30554745 0.30003572 0.2822924 0.35084558 0.109160244 0.009284164
0.2775571 0.027794285 -0.024766767 0.012034457 0.2977553 -0.014218595 0.022826834 0.30144018
0.017101673 0.0022063423 0.28577748 -0.005818777 0.27864617 0.18657963 0.36368018 0.30855638
0.3030006 0.33078113 0.18107457 0.30067512 0.29212692 0.3046812 -0.031170234 0.33364838
0.35602373 0.3144679 0.31768116 0.29404432 0.3201903 0.28708333 -0.022050591 0.28491583
-0.026102362 0.3506233 -0.013760888 -0.010958843 0.29858238 0.37138823 0.30593532 0.27497944
0.32276413 0.27638203 0.30033442 -0.020127153 0.3300329 -0.035489228 0.32869288 0.11668124
0.27505022 0.28582817 0.32509688 -0.005412849 0.05015059 0.23453926 0.3096776 0.26823875
0.35078713 -0.0055469214 0.0064952024 0.28214872 0.27857792 0.3314717 0.3242996 0.25615475
0.30078107 0.30386433 0.301361 0.2756046 0.29762167 0.2941966 0.28432176 0.29497862
0.017906973 0.29827672 0.31776103 0.2764023 0.331255 0.3363092 -0.01926487 0.3139115
0.025066432 0.012816944 0.004658512 0.34055945 0.36996764 0.2979692 0.3147029 0.31552216
00000000: f7c3 823e a64f 8d3e 903a 9d3e 612f 823e
00000010: 55ae 9c3e 2a34 f03c 17f8 953e c5cf 9b3e
00000020: 9498 823e ed2c 293e 31dc f4bc 0dca f23b
00000030: af8d c83d 930a ab3e 8046 ae3e 6704 a33e
00000040: a364 b33e 73fb 923e 2d32 6f3e 3062 a73e
00000050: 8009 d83c 2245 983e 228c a53e e5ad 873e
00000060: 84cb 8e3e 6120 963e e1a6 963e a235 d1bc
00000070: 46cb 9f3e 4513 943e 90ed 933e b416 9e3e
00000080: aa05 a23e 5950 a33e b770 9c3e 489e 993e
00000090: a188 903e 08a2 b33e 688f df3d 9b1c 183c
000000a0: f71b 8e3e d7b0 e33c ade3 cabc 2c2c 453c
000000b0: 6273 983e 1cf5 68bc 57ff ba3c 5e56 9a3e
000000c0: cf18 8c3c 4898 103b 6d51 923e 70ab bebb
000000d0: b6aa 8e3e bb0e 3f3e 4a34 ba3e 1afb 9d3e
000000e0: e522 9b3e 255c a93e 9d6b 393e 17f2 993e
000000f0: a991 953e 2dff 9b3e b858 ffbc f6d3 aa3e
00000100: be48 b63e f001 a13e 1ba7 a23e fa8c 963e
00000110: fcef a33e 96fc 923e 71a3 b4bc 7de0 913e
00000120: 9fd4 d5bc e684 b33e 5975 61bc b88c 33bc
00000130: cadf 983e 9926 be3e 8ea3 9c3e 1bca 8c3e
00000140: 5741 a53e f281 8d3e 6fc5 993e b3e1 a4bc
00000150: 13fa a83e 275d 11bd 6f4a a83e 93f6 ee3d
00000160: 62d3 8c3e 1258 923e 1973 a63e 455e b1bb
00000170: b46a 4d3d 0f2b 703e 108e 9e3e 9756 893e
00000180: 5f9a b33e f3c2 b5bb b5d5 d43b cc75 903e
00000190: c4a1 8e3e a9b6 a93e 990a a63e b726 833e
000001a0: faff 993e 1b94 9b3e fd4b 9a3e 0c1c 8d3e
000001b0: de61 983e f0a0 963e 9f92 913e 7007 973e
000001c0: a5b1 923c bab7 983e 93b1 a23e 9a84 8d3e
000001d0: 419a a93e b830 ac3e 5cd1 9dbc 02b9 a03e
000001e0: 1e58 cd3c 29fe 513c 6ea6 983b cf5d ae3e
000001f0: 666c bd3e 6b8f 983e bd20 a13e 1f8c a13e

layer2.weight f4 [128, 128]
0.26614588 0.26942277 0.26388124 0.30869368 0.30205107 -0.1902805 0.31535816 0.32347807
0.3130336 0.078636095 0.040621538 -0.05306677 0.33447897 0.35730916 0.25990692 0.338982
0.35020095 0.27197397 0.24632573 0.2943491 0.017595435 0.2825923 0.23166044 0.321785
0.27210048 0.2608339 0.22450694 -0.05139319 0.2904756 0.27139452 0.33673966 0.25308344
0.35178366 0.32821664 0.23995185 0.26462305 0.2999099 0.30504936 0.4011707 -0.028909178
0.24792728 -0.16211212 -0.21597028 -0.0037135289 0.33241367 0.004526468 0.052276447 0.28097376
-0.011315246 -0.021667236 0.2517512 0.21005754 0.26762253 0.4211496 0.3434829 0.24576819
0.34798136 0.30711812 0.34725282 0.24160326 0.27335 0.3385058 -0.57359403 0.36624277
0.26045218 0.274343 0.29474434 0.27354822 0.32755965 0.31358135 -0.00091870705 0.29821813
-0.027026165 0.2644727 -0.029913658 -0.05929118 0.30593416 0.31369328 0.2946766 0.27612025
0.3078232 0.32932225 0.31932464 -0.5653711 0.24512784 0.03513958 0.264664 0.27848178
0.3459155 0.29288203 0.2938082 -0.05319657 0.008765585 0.27635622 0.3377673 0.22528392
0.3330732 0.05228048 0.064170375 0.31188822 0.28753346 0.30245218 0.28340542 0.2621102
0.2760729 0.28973612 0.31507906 0.33637527 0.23347591 0.32717586 0.2463111 0.25337967
-0.19021988 0.3408384 0.3694736 0.28975773 0.32454598 0.3406467 0.022300597 0.25592804
-0.048695203 0.042307854 0.048620954 0.34591383 0.24197 0.33483103 0.24343638 0.27407277
0.2018333 0.24368829 0.16036469 0.13771775 0.14616185 0.8029202 0.17974651 0.12666735
0.12002765 0.8842792 0.018913476 0.016544197 -0.035729226 0.09988064 0.20513391 0.1688809
0.17908926 0.159225 0.011688921 0.11976516 -0.053779826 0.11584449 0.16613513 0.13511577
0.16072108 0.11048532 0.22150165 -0.023397002 0.1795543 0.16947678 0.2277933 0.12041372
0.18798763 0.17455535 0.17127892 0.20745604 0.12557569 0.12197987 -0.03670454 -0.01613554
0.14445637 0.17448404 0.0182507 0.021792423 0.17836623 0.057068393 -0.06442039 0.18668897
-0.037546717 0.031108884 0.17878723 -0.05858453 0.14048974 0.13619797 0.17335655 0.14529456
0.19065621 0.13478217 0.07174354 0.20597734 0.13028641 0.08804465 0.009684018 0.097927876
0.20225987 0.18751718 0.11043913 0.15425077 0.1448553 0.18009414 0.02135293 0.20712242
-0.047277067 0.18142614 -0.05899719 -0.018774843 0.20646036 0.14102069 0.15506126 0.1798809
0.17206046 0.18592033 0.0898803 -0.016276501 0.1102887 -0.051758483 0.14311646 -0.3444773
0.13726786 0.149235 0.20603643 -0.016180458 0.4420477 0.073733784 0.19828992 0.40554836
0.19285092 -0.011101603 -0.05418888 0.15945481 0.113265246 0.16398214 0.121658884 0.098048724
0.1831897 0.18818964 0.2245857 0.1891734 0.1097082 0.20443544 0.11774996 0.2078923
0.050831087 0.22393976 0.19168217 0.1803578 0.19687924 0.1570182 -0.14436556 0.15417103
0.014396043 0.026105087 -0.019146964 0.10537241 0.20812139 0.08908835 0.19280596 0.18912269
00000000: 4644 883e c8f1 893e 711b 873e 190d 9e3e
00000010: 70a6 9a3e e4d8 42be a076 a13e eb9e a53e
00000020: f145 a03e f60b a13d c562 263d 8b5c 59bd
00000030: d440 ab3e 3af1 b63e 8512 853e 0c8f ad3e
00000040: 8a4d b33e 2c40 8b3e d03c 7c3e edb4 963e
00000050: 4d24 903c f0af 903e 6538 6d3e 01c1 a43e
00000060: c150 8b3e 058c 853e 26e5 653e aa81 52bd
00000070: 38b9 943e 39f4 8a3e 2469 ac3e 2794 813e
00000080: fd1c b43e 030c a83e f0b5 753e ac7c 873e
00000090: ca8d 993e 6e2f 9c3e 3f66 cd3e f1d2 ecbc
000000a0: a6e0 7d3e b800 26be 5027 5dbe ad5e 73bb
000000b0: 2032 aa3e c452 943b d41f 563d cbdb 8f3e
000000c0: 9563 39bc 7d7f b1bc 89e5 803e 5319 573e
000000d0: d205 893e eca0 d73e fedc af3e a8aa 7b3e
000000e0: 9d2a b23e 963e 9d3e 1fcb b13e d866 773e
000000f0: 88f4 8b3e a250 ad3e 0fd7 12bf 2c84 bb3e
00000100: fd59 853e b076 8c3e bbe8 963e 830e 8c3e
00000110: e6b5 a73e bc8d a03e 63d5 70ba 0cb0 983e
00000120: fa65 ddbc f768 873e 7d0d f5bc 4fdb 72bd
00000130: 67a3 9c3e 689c a03e dadf 963e a25f 8d3e
00000140: 019b 9d3e ed9c a83e 857e a33e 29bc 10bf
00000150: cb02 7b3e 85ee 0f3d 0a82 873e 2a95 8e3e
00000160: d61b b13e a2f4 953e 076e 963e a6e4 59bd
00000170: 879d 0f3c 907e 8d3e d6ef ac3e d4b0 663e
00000180: 9288 aa3e 0e24 563d c26b 833d d0af 9f3e
00000190: 9637 933e 03db 9a3e 841a 913e 4f33 863e
000001a0: 6d59 8d3e 4b58 943e 0b52 a13e 6139 ac3e
000001b0: 4f14 6f3e 9883 a73e fa38 7c3e fbba 813e
000001c0: 00c9 42be 5f82 ae3e a52b bd3e 205b 943e
000001d0: e42a a63e 3f69 ae3e beaf b63c 0009 833e
000001e0: 9f74 47bd 004b 2d3d c426 473d 9e1b b13e
000001f0: fcc6 773e f96e ab3e 6347 793e 4453 8c3e
00000200: 63ad 4e3e 6c89 793e a436 243e e205 0d3e
00000210: 74ab 153e 2e8c 4d3f 780f 383e 16b5 013e
00000220: 0ed1 f53d 1f60 623f 6ff0 9a3c b287 873c
00000230: cf58 12bd 398e cc3d a00e 523e 1def 2c3e
00000240: 2d63 373e e10b 233e e382 3f3c 7047 f53d
00000250: 3c48 5cbd e03f ed3d 541f 2a3e ca5b 0a3e
00000260: 1194 243e 2146 e23d 54d1 623e 12ab bfbc
00000270: 15dd 373e 528b 2d3e a642 693e 789b f63d
00000280: d47f 403e a3be 323e be63 2f3e 5b6f 543e
00000290: ea96 003e 95d0 f93d 8057 16bd ae2e 84bc
000002a0: 5fec 133e f2ab 323e 7e82 953c 0686 b23c
000002b0: a3a5 363e 8cc0 693d d6ee 83bd 652b 3f3e
000002c0: 96ca 19bd 0fd8 fe3c 0014 373e 55f6 6fbd
000002d0: 8bdc 0f3e 7b77 0b3e 6184 313e 19c8 143e
000002e0: 623b 433e 5604 0a3e 47ee 923d b9eb 523e
000002f0: cd69 053e c150 b43d b7a9 1e3c 698e c83d
00000300: 361d 4f3e 8104 403e e92d e23d eaf3 1d3e
00000310: f354 143e 996a 383e 57ec ae3c e617 543e
00000320: 99a5 41bd c6c7 393e 0aa7 71bd b3cd 99bc
00000330: 586a 533e ba67 103e 61c8 1e3e b332 383e
00000340: 9e30 303e e661 3e3e 2a13 b83d 4c56 85bc
00000350: 0bdf e13d b400 54bd 1f8d 123e 545f b0be
00000360: f28f 0c3e 0fd1 183e 37fb 523e e18c 84bc
00000370: 1354 e23e bd01 973d 830c 4b3e 09a4 cf3e
00000380: b67a 453e 7fe3 35bc 29f5 5dbd 1f48 233e
00000390: 9cf7 e73d efea 273e 4b28 f93d c5cd c83d
000003a0: 1596 3b3e c9b4 403e cbf9 653e acb6 413e
000003b0: b1ae e03d 8657 513e e426 f13d b8e1 543e
000003c0: 4234 503d 7750 653e 5548 443e b7af 383e
000003d0: b69a 493e 61c9 203e 91d4 13be 03df 1d3e
000003e0: 61dd 6b3c 56da d53c 18da 9cbc 7dcd d73d
000003f0: c61d 553e f473 b63d ed6e 453e 61a9 413e

layer2.bias f4 [128]
0.20437776 0.1100595 0.25611013 0.27040568 0.2519403 0.020757506 -0.05121943 -0.054127187
0.05289852 -0.0041559488 0.29109785 0.029104764 0.24568509 -0.035997916 0.18563198 0.32601702
0.21290898 0.23894833 0.26565915 0.22274338 0.095855206 0.22935879 0.3120906 -0.011767625
0.30186945 -0.022111911 0.29134837 0.2914673 -0.005550374 0.027170908 0.00030321482 0.314528
0.21140543 0.18315564 0.16761726 0.24653295 -0.06257511 0.18630928 0.04319591 0.04756006
0.26085037 0.050965182 0.19456768 0.11623762 0.16102701 -0.0025397232 0.20303495 0.24648364
-0.0352224 0.16980714 0.32352835 -0.04739978 0.25683507 -0.0077166203 0.12861623 -0.023497485
0.2062205 0.21649352 0.25906354 -0.038557302 0.28587613 0.22579393 0.18193151 0.3238248
0.026623413 0.23284699 0.17019801 -0.012043135 0.20795393 0.313557 -0.054757137 -0.055182826
0.029153306 0.20906872 0.047826473 0.270568 -0.0021085711 0.20827056 0.0363344 0.26064086
0.23689082 -0.03456303 -0.055440128 0.045530852 0.26830494 0.27176788 0.029847095 0.2622929
0.22587138 0.2777383 0.024348194 0.050187245 -0.034013424 0.26156855 0.2799853 0.13430433
0.13055424 -0.057966977 0.031054642 0.2688599 -0.03218901 0.27490887 0.29757366 0.15528004
-0.01902469 0.3001541 0.17219907 -0.019533135 0.036890883 0.26450717 -0.035045426 0.34861675
0.1956689 0.24560905 -0.0073578977 0.05272612 -0.051359467 0.00034943063 0.3007334 0.028554164
0.25653392 -0.052238528 -0.045428064 0.009063464 0.034091137 0.2243611 0.24200444 0.2607298
00000000: 6748 513e e066 e13d de20 833e 9d72 8a3e
00000010: 52fe 803e a50b aa3c 77cb 51bd 78b4 5dbd
00000020: 1eac 583d a02e 88bb c70a 953e 1d6d ee3c
00000030: df94 7b3e 8d72 13bd 4f16 3e3e b4eb a63e
00000040: d004 5a3e dfae 743e 7a04 883e d716 643e
00000050: bc4f c43d 08dd 6a3e 57ca 9f3e ffcc 40bc
00000060: a28e 9a3e 0a24 b5bc 9d2b 953e 343b 953e
00000070: e9df b5bb 8695 de3c cef8 9e39 d009 a13e
00000080: aa7a 583e 278d 3b3e dca3 2b3e 2273 7c3e
00000090: 6127 80bd dcc7 3e3e 32ee 303d 56ce 423d
000000a0: 2e8e 853e dec0 503d c03c 473e fd0d ee3d
000000b0: 44e4 243e 7c71 26bb 65e8 4f3e 3566 7c3e
000000c0: 5d45 10bd ece1 2d3e 82a5 a53e 4626 42bd
000000d0: e37f 833e b4db fcbb f9b3 033e cc7d c0bc
000000e0: 772b 533e 7ab0 5d3e faa3 843e 43ee 1dbd
000000f0: 5b5e 923e 8636 673e 414c 3a3e 5dcc a53e
00000100: 5819 da3c 716f 6e3e 6348 2e3e 9250 45bc
00000110: e0f1 543e 8b8a a03e 0549 60bd 6307 62bd
00000120: ead2 ee3c 1c16 563e b1e5 433d e487 8a3e
00000130: f42f 0abb e144 553e 61d3 143d b872 853e
00000140: 8293 723e f791 0dbd 3015 63bd 8f7e 3a3d
00000150: 445f 893e 2925 8b3e e581 f43c 414b 863e
00000160: d44a 673e b733 8e3e dd75 c73c 2491 4d3d
00000170: a951 0bbd 50ec 853e 3c5a 8f3e 1387 093e
00000180: 03b0 053e c86e 6dbd 4e66 fe3c 01a8 893e
00000190: a0d8 03bd dbc0 8c3e 935b 983e bb01 1f3e
000001a0: abd9 9bbc ccad 993e f454 303e f403 a0bc
000001b0: e51a 173d 7c6d 873e cb8b 0fbd e57d b23e
000001c0: 6e5d 483e f080 7b3e 851a f1bb 58f7 573d
000001d0: 4e5e 52bd c933 b739 baf9 993e 6cea e93c
000001e0: 6a58 833e 11f8 55bd c712 3abd ec7e 143c
000001f0: 26a3 0b3d ebbe 653e 03d0 773e 607e 853e

layer3.weight f4 [290, 128]
0.096486755 -0.016907524 0.07940911 0.09308262 0.10301756 -0.0005502188 -0.061452933 0.021877605
0.022575699 -0.050595723 0.0845309 -0.05919941 0.030409945 0.0026727265 0.023337675 0.11774638
0.07852931 0.035312675 0.10074096 0.07837982 0.009070083 0.017424103 0.13924673 -0.033198465
0.06816072 0.044199605 0.10520652 0.066615574 0.05163406 0.023548225 -0.12165839 0.066624045
0.043671932 -0.038854335 0.059197843 0.04266782 0.0454837 0.05609781 -0.07597065 0.27028716
0.029944476 0.015456174 0.00842947 0.0057823667 0.010485501 -0.05574305 0.073308885 0.024216674
-0.017971113 0.062193103 0.03908859 0.012214176 0.037964758 0.05132152 0.018930597 -0.09548171
0.040350106 0.10631245 0.10778976 -0.026187114 0.020334948 0.10844387 -0.011026641 0.07769216
-0.04373142 0.02258246 -0.0003242927 0.009319105 0.012773067 0.12538138 0.021498932 -0.058264837
-0.015744034 0.12343309 -0.031279888 0.10816546 0.05649085 -0.02383233 0.032844998 0.05680348
0.087535515 -0.042782437 -0.056134023 0.054872617 0.08356118 0.06607551 -0.053531878 0.0170095
0.03895195 0.032117143 0.061150365 -0.02399676 -0.014959049 0.0015429396 0.03184976 0.16465005
-0.011885658 0.031076198 0.036138587 0.14890936 -0.024700394 0.053856526 0.08469107 0.052772403
-0.032614823 0.07978249 0.021500982 -0.042237435 0.011433097 0.07278642 -0.038142554 0.08954101
0.010756853 0.087151125 -0.033441663 -0.041337993 -0.028071428 -0.008439956 0.080256894 -0.017044673
0.10912149 -0.058579363 0.041977044 0.018672979 -0.02250418 0.05438612 0.099767596 0.026939293
0.12122597 0.0951071 0.10206988 0.06771764 0.02828423 0.002335477 0.016405037 -0.03371445
0.029526716 -0.006228872 0.018741058 0.014102366 0.030346487 -0.0141659295 0.054157835 0.08217428
0.035486933 -0.014773717 0.07705013 0.12956434 0.023688003 0.015296717 0.12369506 -0.04465794
0.06160639 -0.01346904 0.071916364 0.05354116 0.038287707 -0.015140004 -0.030024508 0.11918519
-0.0021507735 0.1341626 0.036570407 0.016344476 0.04702602 0.092836566 0.031935625 0.13397379
0.047153473 0.002547171 0.10152061 0.072479255 0.036040388 0.04152841 0.1336107 0.09632578
-0.033893865 0.093199685 0.098231114 -0.061340176 0.027257394 0.05189205 0.05145375 -0.034169745
0.031382486 0.01823577 0.049793575 0.030164562 0.07496153 0.07125734 0.077315316 0.11255895
-0.0072364057 0.04800673 0.10442359 -0.048979506 0.059455037 0.032391686 -0.039490275 0.016068237
-0.001375239 0.009160603 0.052563146 0.0143649 0.061372235 0.020558197 -0.043008376 0.03371062
0.033751618 -0.035491146 0.026985409 -0.014087918 0.051879033 0.06309237 -0.059436668 0.02065611
0.0034213574 0.012880448 0.046523735 -0.033032715 0.052296348 0.08802721 0.057298843 0.0056879176
0.013654902 0.012464451 0.024642412 0.032156255 0.007261262 0.04683572 0.11321519 0.08619427
0.05737378 0.11828108 0.10383142 0.015256617 0.034406334 0.041136462 -0.02962052 0.11692533
0.10961484 0.020939164 -0.031126378 -0.011517906 -0.026532203 -0.046077453 0.084181264 -0.049521785
0.013805098 0.051628944 0.033198997 -0.031089969 -0.062154796 0.11647712 0.022114266 0.0016700967
00000000: d99a c53d a681 8abc 3ea1 a23d 1aa2 be3d
00000010: dffa d23d 8f3c 10ba 12b6 7bbd aa38 b33c
00000020: acf0 b83c 763d 4fbd 891e ad3d 157b 72bd
00000030: 471e f93c e928 2f3b a72e bf3c 0425 f13d
00000040: fad3 a03d 06a4 103d 4751 ce3d 9985 a03d
00000050: af9a 143c febc 8e3c b296 0e3e 1dfb 07bd
00000060: d997 8b3d a50a 353d 8476 d73d bf6d 883d
00000070: 3c7e 533d 35e8 c03c 0928 f9bd 3072 883d
00000080: 57e1 323d b925 1fbd 7079 723d 74c4 2e3d
00000090: 1e4d 3a3d d1c6 653d 8096 9bbd 1463 8a3e
000000a0: 1e4e f53c e43b 7d3c c21b 0a3c 027a bd3b
000000b0: 61cb 2b3c d352 64bd f822 963d 0c62 c63c
000000c0: 2838 93bc 32be 7e3d 5b1b 203d f81d 483c
000000d0: ef80 1b3d 8436 523d 5714 9b3c ea8b c3bd
000000e0: 2746 253d 57ba d93d e1c0 dc3d 5c86 d6bc
000000f0: 7a95 a63c d217 de3d 16a9 34bc 111d 9f3d
00000100: b81f 33bd dafe b83c d405 aab9 29af 183c
00000110: 2046 513c fa63 003e 871e b03c 1ca7 6ebd
00000120: a2f9 80bc 7dca fc3d 571f 00bd da85 dd3d
00000130: f362 673d 053c c3bc 7a88 063d c4aa 683d
00000140: d245 b33d a33c 2fbd caec 65bd 1cc2 603d
00000150: 2022 ab3d 9952 873d 3e44 5bbd 8257 8b3c
00000160: 148c 1f3d 448d 033d ce78 7a3d da94 c4bc
00000170: cd16 75bc 763c ca3a e574 023d 069a 283e
00000180: 10bc 42bc 8393 fe3c 0e06 143d b27b 183e
00000190: 7b58 cabc a998 5c3d 8372 ad3d e027 583d
000001a0: 1f97 05bd 0165 a33d d422 b03c 2901 2dbd
000001b0: e251 3b3c 0c11 953d 5e3b 1cbd 4761 b73d
000001c0: 833d 303c 4a7c b23d 20fa 08bd 0752 29bd
000001d0: 0df6 e5bc be47 0abc ba5d a43d 45a1 8bbc
000001e0: 167b df3d eaf0 6fbd 1ff0 2b3d 13f8 983c
000001f0: b05a b8bc fbc3 5e3d f452 cc3d cbaf dc3c
00000200: 5245 f83d 83c7 c23d 030a d13d 8caf 8a3d
00000210: 54b4 e73c cd0e 193b db63 863c 2a18 0abd
00000220: 03e2 f13c 911b ccbb d986 993c 9c0d 673c
00000230: 3299 f83c 3718 68bc 9bd4 5d3d fd4a a83d
00000240: bf5a 113d 760d 72bc 75cc 9d3d 84ac 043e
00000250: 580d c23c 159f 7a3c d653 fd3d 3eeb 36bd
00000260: fb56 7c3d 40ad 5cbc e348 933d fa4d 5b3d
00000270: 92d3 1c3d c80d 78bc f5f5 f5bc 5d17 f43d
00000280: fef3 0cbb ec61 093e daca 153d dae4 853c
00000290: 5b9e 403d 1921 be3d eece 023d 6d30 093e
000002a0: 0024 413d 70ee 263b 0aea cf3d 0170 943d
000002b0: 169f 133d b219 2a3d 3ed1 083e 7346 c53d
000002c0: 4bd4 0abd 7adf be3d 652d c93d d63f 7bbd
000002d0: e64a df3c c28c 543d 2bc1 523d 93f5 0bbd
000002e0: ec8a 003d 2e63 953c 59f4 4b3d ac1b f73c
000002f0: 6e85 993d 5eef 913d 7e57 9e3d 4f85 e63d
00000300: 5f1f edbb b4a2 443d 09dc d53d bc9e 48bd
00000310: 2087 733d 25ad 043d 8ec0 21bd 89a1 833c
00000320: 5d41 b4ba 5b16 163c 744c 573d c25a 6b3c
00000330: 7461 7b3d aa69 a83c 8d29 30bd 2614 0a3d
00000340: 233f 0a3d 2a5f 11bd 8110 dd3c 03d1 66bc
00000350: 1c7f 543d 9336 813d dd73 73bd 0137 a93c
00000360: da38 603b 8408 533c ac8f 3e3d 504d 07bd
00000370: b234 563d 9c47 b43d 31b2 6a3d b661 ba3b
00000380: cfb8 5f3c b237 4c3c e2de c93c 47b6 033d
00000390: e1ef ed3b d0d6 3f3d 5edd e73d 9f86 b03d
000003a0: c500 6b3d 5a3d f23d 91a5 d43d e4f6 793c
000003b0: a8ed 0c3d b57e 283d bca6 f2bc 8c76 ef3d
000003c0: bf7d e03d 9c88 ab3c bffc febc 99b5 3cbc
000003d0: 105a d9bc b6bb 3cbd 3a67 ac3d 5bd7 4abd
000003e0: c72e 623c df78 533d acfb 073d 64b0 febc
000003f0: 0796 7ebd 8e8b ee3d fa28 b53c 25e7 da3a

layer3.bias f4 [290]
0.2720772 0.03977023 0.028765656 0.041638166 0.0023095924 0.054497648 -0.011114654 0.08530526
0.032374498 -0.0013565402 0.046441074 0.06807677 0.07181798 -0.008782148 0.012842577 0.01743882
0.004031794 0.047121685 0.0135877635 0.08458111 0.033150315 0.099050194 0.042941004 0.051929522
0.06990955 0.020763401 -0.0006400139 0.0021314053 0.009100569 0.0067067333 0.010259562 0.11291581
0.06343146 0.10233363 0.091940045 0.095792614 0.03494456 0.010316135 -0.02354381 0.074265726
0.09505566 0.026450414 0.07691134 0.01945881 0.052029826 0.024423406 0.088701695 0.029805072
0.0939459 0.0014679335 0.0019402622 -0.0023987289 0.10437574 0.10695271 0.009530771 0.10900009
0.058752462 0.060091566 0.103585176 0.06148146 -0.0012175029 0.05016277 0.070266575 0.07308183
0.062042497 0.01522726 -0.03007137 0.0100822775 0.044013068 0.016769942 0.016446033 0.0031631181
0.0032175174 0.00092206046 0.09440183 0.049167745 0.076107234 0.0601919 0.04981448 0.07885226
0.0068827407 0.037297156 0.053214952 0.043022245 0.04227534 0.0049205334 0.050819024 0.07528461
0.06883727 0.104944356 0.06596236 0.056960452 0.047174733 0.036625203 -0.053662285 -0.03137494
0.04635332 -0.04268774 0.027047366 0.008685278 0.023699868 0.0031971221 0.058993522 0.04314167
0.07009295 0.02526312 0.019224497 -0.02755644 0.02987428 0.07545744 0.010891493 0.06634158
-0.0043200217 0.01595654 0.05609303 0.008150808 0.065894626 0.056960374 0.031273372 -0.059935797
0.031308487 0.0112523725 0.061537314 0.08285754 -0.019951059 0.023389693 0.04183021 0.019694641
-0.06006183 -0.015907275 0.08790115 -0.031964142 0.0054689944 0.0028085208 0.06757364 0.031953562
-0.0108942855 0.0466372 0.022335729 0.09415786 0.10145123 0.033360578 0.0032874404 0.07804991
-0.007311669 0.06172543 0.030830054 0.032299623 -0.018866355 0.085809715 -0.058690585 0.021204498
0.014044958 0.023742596 0.02791078 -0.009469938 -0.0048848623 0.052800618 0.03956241 -5.7738584e-05
0.046765685 -0.060064413 0.08970414 0.08463395 0.092056535 -0.052134275 0.099923484 -0.02003264
0.05823972 -0.004483819 0.057516277 0.0031310508 0.012032934 0.0029068114 0.057028737 0.017077904
0.01385025 0.07613173 -0.038938403 -0.034212496 0.068065144 0.03470031 -0.050909914 -0.01007475
-0.005087473 -0.026425036 -0.010518666 0.033845596 -0.029241351 0.022823064 -0.05444564 0.0577167
-0.02610387 0.057053763 0.02460888 0.0052191974 0.050930887 -0.049968153 -0.044926796 -0.018240582
-0.00924213 0.03917186 0.031327497 0.10106812 0.07013343 0.06072442 0.1045585 0.047049798
-6.773125e-05 0.04557308 -0.0060723796 -0.020681476 0.113362126 0.048699792 0.05414661 -0.035675243
0.07540655 -0.013119076 -0.015972715 0.016472092 0.04726276 -0.052219883 -0.04788445 0.097434096
0.064311914 0.07325116 0.025743797 0.088670075 -0.0030006836 0.0698316 0.07265386 -0.016642675
0.040909436 0.075423524 0.11215987 0.07578267 0.055441663 0.042186067 0.024399891 0.017769985
-0.0058391267 0.021159198 0.1015675 0.09846144 0.017570147 0.087163664 0.07595121 0.0026397824
0.05967863 0.060617886 0.027516838 0.067086294 0.06195275 0.07048284 0.08962655 0.0049034473
00000000: b44d 8b3e 1ce6 223d f4a5 eb3c c88c 2a3d
00000010: 885c 173b ed38 5f3d 3d1a 36bc 86b4 ae3d
00000020: 1f9b 043d f0cd b1ba ff38 3e3d d56b 8b3d
00000030: 4e15 933d 00e3 0fbc ac69 523c dbdb 8e3c
00000040: 241d 843b ab02 413d 369f 5e3c dc38 ad3d
00000050: a0c8 073d d4da ca3d e8e2 2f3d 0db4 543d
00000060: bd2c 8f3d 0218 aa3c 9bc6 27ba 0caf 0b3b
00000070: 8e1a 153c 28c4 db3b b917 283c 6740 e73d
00000080: 5ae8 813d 4b94 d13d 104b bc3d eb2e c43d
00000090: 0722 0f3d 0205 293c f3de c0bc a118 983d
000000a0: 8bac c23d 8aae d83c b183 9d3d 1568 9f3c
000000b0: 3a1d 553d 9813 c83c 3ca9 b53d c429 f43c
000000c0: b566 c03d ad67 c03a 6550 fe3a fe33 1dbb
000000d0: f3c2 d53d 060a db3d f326 1c3c 703b df3d
000000e0: 6ca6 703d 9322 763d 7724 d43d fcd3 7b3d
000000f0: 9e94 9fba 7a77 4d3d ece7 8f3d edab 953d
00000100: 4620 7e3d c27b 793c 3c58 f6bc 2330 253c
00000110: 0c47 343d 1e61 893c d5b9 863c 514c 4f3b
00000120: fcdc 523b 6eb6 713a bf55 c13d 1e64 493d
00000130: 1cde 9b3d c88b 763d 450a 4c3d 4b7d a13d
00000140: 9d88 e13b e7c4 183d ecf7 593d 1838 303d
00000150: e828 2d3d 6d3c a13b 9c27 503d d12e 9a3d
00000160: 8efa 8c3d 11ed d63d 4617 873d 5d4f 693d
00000170: 4b3a 413d 4f04 163d fccc 5bbd 0283 00bd
00000180: fbdc 3d3d 57d9 2ebd 7092 dd3c b24c 0e3c
00000190: 3a26 c23c cf86 513b 31a3 713d 52b5 303d
000001a0: e48c 8f3d 9af4 ce3c b17c 9d3c 0bbe e1bc
000001b0: e8ba f43c 6e89 9a3d 3c72 323c 18de 873d
000001c0: f88e 8dbb 4ab7 823c cec1 653d f78a 053c
000001d0: c3f3 863d 484f 693d 8218 003d 3d7f 75bd
000001e0: 543d 003d df5b 383c 8d0e 7c3d 37b1 a93d
000001f0: 6770 a3bc be9b bf3c 2756 2b3d a856 a13c
00000200: 6503 76bd f94f 82bc 8505 b43d d5ec 02bd
00000210: 4035 b33b 290f 383b 0c64 8a3d bde1 023d
00000220: f27d 32bc a606 3f3d 6bf9 b63c d6d5 c03d
00000230: aac5 cf3d 1aa5 083d 1972 573b a2d8 9f3d
00000240: ba96 efbb ced3 7c3d 4f8f fc3c 9c4c 043d
00000250: 9d8d 9abc 01bd af3d 8a65 70bd 0eb5 ad3c
00000260: d31c 663c d57f c23c 26a5 e43c cd27 1bbc
00000270: 3211 a0bb 7645 583d 320c 223d 552c 72b8
00000280: 608d 3f3d 1a06 76bd ceb6 b73d 9054 ad3d
00000290: 2388 bc3d c08a 55bd afa4 cc3d 7e1b a4bc
000002a0: c68c 6e3d 00ed 92bb 3096 6b3d 5132 4d3b
000002b0: c925 453c 3480 3e3b f796 693d f6e6 8b3c
000002c0: 29ec 623c f4ea 9b3d e07d 1fbd 6722 0cbd
000002d0: bd65 8b3d ea21 0e3d ea86 50bd 9010 25bc
000002e0: d1b4 a6bb 5179 d8bc 7c56 2cbc aea1 0a3d
000002f0: 8f8b efbc 6ff7 ba3c 6402 5fbd 5968 6c3d
00000300: c8d7 d5bc 35b1 693d 9098 c93c cd05 ab3b
00000310: e89c 503d 68ab 4cbd 2905 38bd 466d 95bc
00000320: 4e6c 17bc ac72 203d 4351 003d cdfc ce3d
00000330: 1ea2 8f3d 2bba 783d c422 d63d 4ab7 403d
00000340: f00a 8eb8 d7aa 3a3d d0fa c6bb 336c a9bc
00000350: 672a e83d 6f79 473d d6c8 5d3d 3420 12bd
00000360: c06e 9a3d 65f1 56bc 36d9 82bc 7bf0 863c
00000370: 9996 413d 84e4 55bd 7c22 44bd 878b c73d
00000380: f7b5 833d b404 963d a8e4 d23c a898 b53d
00000390: 1ea7 44bb df03 8f3d 8ccb 943d 3856 88bc
000003a0: a790 273d a677 9a3d 13b4 e53d f233 9b3d
000003b0: cc16 633d 4ccb 2c3d 48e2 c73c 5c92 913c
000003c0: 2556 bfbb 0e56 ad3c 9f02 d03d 27a6 c93d
000003d0: 45ef 8f3c dd82 b23d 4f8c 9b3d 3300 2d3b
000003e0: 9471 743d 764a 783d fe6a e13c 8a64 893d
000003f0: 2bc2 7d3d 4f59 903d 208e b73d 19ad a03b
