catanatron_experimental/my_DQN_wyniki2/my_DQN2_1000_steps.pth (torch, 268925 bytes, 8 tensors)

layer1.weight f4 [64, 614]
000000 0b 52 20 3b 92 db 86 3a 3f d8 82 bb 4b c0 3a 3b
       0.0024462964 0.0010288826 -0.0039930637 0.0028495963
000010 f0 94 77 bb 9a f4 5c b9 c7 bc 32 bb 49 5d 34 39
       -0.0037777983 -0.00021071956 -0.0027273165 0.00017200889
000020 de 3e cd ba 46 f3 2c bb 77 af e1 3a 4b 6a ce 3a
       -0.0015658995 -0.002639012 0.001721843 0.001574823
000030 07 84 71 3b ba 96 14 3b ba 97 f3 3a 89 af a9 ba
       0.0036852376 0.0022672848 0.0018584647 -0.001294599
000040 2f f6 7e ba 1a 51 59 3b ca e7 7c bb a8 d8 71 39
       -0.0009726015 0.0033159913 -0.0038590305 0.00023064262
000050 e6 35 0e bb 47 53 60 ba 4b 91 d3 b5 64 0c 9f 3a
       -0.0021699606 -0.0008557331 -1.5763011e-06 0.001213443
000060 16 5c 57 3b 56 d7 57 3b 13 fa 4b 3b 04 31 83 3a
       0.0032861284 0.0032934747 0.0031124398 0.0010009115
000070 5f 42 94 b9 ee cb 02 bb a3 71 a0 3a 15 82 29 3b
       -0.0002827821 -0.0019957977 0.0012240898 0.0025864888
000080 5f 54 d0 b9 1e 7a 0f 3a 14 84 84 3a 67 28 54 3b
       -0.00039735713 0.0005473214 0.0010110163 0.0032372714
000090 1c 7f 75 bb cb 9b c5 3a 20 03 09 b9 5d f4 05 bb
       -0.0037459796 0.0015076337 -0.00013066502 -0.0020439841
0000a0 83 82 b2 ba 44 48 3c 3b 5a 5c 96 39 24 e2 22 bb
       -0.0013619218 0.0028729597 0.00028679037 -0.0024854029
0000b0 77 0a 18 ba ff c9 3a 3b b6 ff e4 3a bc 81 8d ba
       -0.0005799899 0.0028501747 0.0017471227 -0.001079611
0000c0 87 03 1d 39 cd af fe b9 eb 22 58 3b bb 34 cc b9
       0.00014974001 -0.00048577637 0.0032979797 -0.000389492
0000d0 5d 8c 96 3a 47 e0 ee 3a 28 04 67 ba b5 5f b1 39
       0.0011485923 0.0018224799 -0.000881257 0.00033831378
0000e0 a9 65 88 3a 87 68 ab ba 8b e4 35 3b 51 94 9a ba
       0.0010406274 -0.0013077416 0.002775463 -0.0011793469
0000f0 52 88 e7 3a f0 53 51 3a 5b a6 b9 37 73 b9 02 bb
       0.0017664528 0.0007985225 2.2131184e-05 -0.0019946962
000100 53 ab e8 ba a6 f3 69 bb a7 2e 26 3b 45 35 ee 3a
       -0.0017751254 -0.0035698204 0.0025357397 0.0018173835
000110 a8 f1 db ba 62 0a 2e 3a 96 fb 0a 3b ac af 36 3b
       -0.0016780393 0.00066391204 0.0021207086 0.0027875705
000120 c3 16 6f bb 3c a7 6e 3b 14 e8 6d ba 55 ea 17 3b
       -0.0036482073 0.0036415597 -0.0009075415 0.0023180444
000130 ed 63 1e bb d1 7d 14 bb 5b c6 4c bb 7d 8c 70 bb
       -0.0024168447 -0.0022658 -0.0031246159 -0.0036704831
000140 a1 ae cd 39 ff 23 fa 3a 19 0f 96 3a 53 12 1e bb
       0.00039230756 0.0019084214 0.0011448591 -0.0024119809
000150 b2 eb 4c bb 99 e8 5f 39 f2 b8 85 ba 8f a2 5f bb
       -0.0031268415 0.00021353587 -0.0010202213 -0.0034123992
000160 9e c3 07 ba 07 2c 2f bb d1 3c 02 bb ee 74 37 ba
       -0.00051789905 -0.0026729123 -0.0019872675 -0.000699832
000170 9b ab 65 3a af 7c 55 ba cd 16 8f ba 5d 0d a2 3a
       0.0008761228 -0.00081438845 -0.0010916829 0.0012363602
000180 a7 ef 4a 3b c0 9c 45 39 bc 16 5c bb f5 05 0c 3b
       0.0030965598 0.00018845778 -0.0033582887 0.0021365855
000190 04 cd b3 3a f4 d2 20 bb c3 34 49 bb 59 b2 0b bb
       0.0013717716 -0.00245398 -0.0030701614 -0.002131602
0001a0 4e ba 10 3b a7 6b d4 ba 82 29 66 3b e2 76 f6 3a
       0.0022083702 -0.0016206399 0.0035119955 0.001880374
0001b0 7a 71 5d 39 b4 bc a1 3a 09 8e 27 bb 3f 88 fc 3a
       0.00021118476 0.0012339563 -0.0025566837 0.0019266679
0001c0 64 29 f4 3a 3e c9 58 bb fa 4f 1c bb f7 63 21 bb
       0.0018628058 -0.0033078934 -0.002385138 -0.0024626234
0001d0 12 64 29 bb 18 de a5 ba b6 d5 c7 ba c0 9a 47 3b
       -0.0025847 -0.001265469 -0.0015246186 0.0030457228
0001e0 ac 79 b8 3a 27 5e 8e 39 61 cf 3e bb 26 28 4f 3b
       0.0014074347 0.000271545 -0.0029115307 0.0031609624
0001f0 11 72 1e b8 d5 30 04 b9 61 46 82 3a 3b 1e c3 ba
       -3.7776368e-05 -0.00012606692 0.0009939187 -0.0014886329
000200 b1 e6 ab 3a e4 1a 7d ba 3f ae 51 39 73 a1 1a 3b
       0.0013115016 -0.0009655191 0.00019996705 0.0023594766
000210 2b eb 64 3b 6d f7 91 b8 f5 0e 6c 3b 3c 8f 12 b9
       0.003493021 -6.9602254e-05 0.0036019657 -0.00013977004
000220 44 77 1f 3b 1a e7 ae b9 ea 76 f7 3a 29 b9 0d bb
       0.0024332562 -0.0003336005 0.0018880044 -0.0021625257
000230 82 de 39 bb a9 78 f7 b8 a1 d5 3f b7 33 44 00 3a
       -0.0028361385 -0.000118003525 -1.14342265e-05 0.0004892975
000240 f0 13 4c 3b b3 75 e4 ba 61 c2 90 ba a3 c4 41 3b
       0.0031139813 -0.0017430097 -0.0011044258 0.0029566668
000250 61 b7 81 b9 84 26 fd b8 6d c4 94 ba bc 40 19 3b
       -0.00024741425 -0.00012071154 -0.0011350043 0.0023384532
000260 c6 d3 67 3b e4 08 b3 b6 a5 8d 31 3b 88 f1 a2 3a
       0.003537403 -5.3356507e-06 0.0027092483 0.0012431601
000270 73 f0 bb ba a0 49 64 bb 10 4e 0d 3b 30 da 53 3a
       -0.0014338627 -0.0034833923 0.0021561421 0.00080815237
000280 f4 02 47 bb 2c 67 c8 3a 45 bf 0f bb e0 70 a5 b9
       -0.003036675 0.0015289537 -0.0021934074 -0.0003155535
000290 5d c6 23 bb 4b 2d 3f bb 40 9d e3 ba 71 55 bb 39
       -0.002499006 -0.0029171284 -0.001736559 0.00035731078
0002a0 d5 d2 97 b9 e3 aa 64 3a 3a cf 39 bb 74 25 69 3b
       -0.00028958046 0.0008722974 -0.0028352276 0.0035575302
0002b0 c7 b6 36 bb 23 4a 65 3b c5 52 fd b9 69 08 06 bb
       -0.002787994 0.0034986816 -0.00048317589 -0.002045179
0002c0 21 77 02 bb 26 8e 10 bb f9 38 ee 39 0a 99 9c 3a
       -0.0019907432 -0.0022057383 0.00045437345 0.0011947465
0002d0 ff cf 2e 3a 1b 26 26 3b 7d a5 06 bb fc 1d 56 bb
       0.0006668567 0.0025352302 -0.0020545416 -0.003267168
0002e0 b6 09 00 3b a4 d7 20 bb a4 a3 c5 3a 98 7b f5 ba
       0.0019537038 -0.0024542594 0.0015078676 -0.001872885
0002f0 d7 a2 41 3b ba 70 27 bb 6b f5 65 bb 28 8e a2 3a
       0.0029546523 -0.0025549368 -0.0035088907 0.0012401985
000300 56 3d 0a bb f0 ac f3 3a 58 21 3d 3b 87 8f 58 3b
       -0.0021093688 0.0018590968 0.0028858986 0.0033044533
000310 7b 3c ce ba 28 32 02 bb ae d1 6a bb e4 53 4c ba
       -0.0015734577 -0.0019866321 -0.0035830545 -0.0007794483
000320 d7 86 30 3b b3 48 0b 3b 40 69 1a bb ce ce 4f 3a
       0.002693584 0.002125305 -0.002356127 0.00079272396
000330 e9 49 aa 39 76 35 d6 b9 2b bd 42 bb 42 34 29 3b
       0.00032479994 -0.00040857092 -0.0029714804 0.0025818502
000340 cd bb f5 3a 51 1c 54 3b 3e fb 2e 3b d1 4e 1e 3b
       0.0018747986 0.003236551 0.0026700045 0.0024155865
000350 67 c7 bf 3a fa 90 64 bb 51 e4 05 bb 78 e3 56 b9
       0.001463157 -0.0034876452 -0.0020430277 -0.00020493369
000360 65 a3 22 3b 28 d5 05 ba 0e 26 fa ba a9 02 0e 3b
       0.002481663 -0.000510531 -0.0019084828 0.0021669066
000370 f3 1c 63 3b 3e a7 ac b9 cf 0e 35 bb f1 9d 80 b9
       0.0034654706 -0.00032931002 -0.0027627235 -0.00024531738
000380 7b 78 25 b9 8c 93 0f bb 00 f7 84 3a 12 bc 9a ba
       -0.00015780509 -0.0021908013 0.0010144413 -0.0011805317
000390 11 de 1b bb 87 07 d9 ba a0 89 f0 3a 3e fe e3 ba
       -0.0023783485 -0.001655803 0.0018351562 -0.0017394496
0003a0 73 47 c8 ba 8c 2b 5f ba e7 7b c3 ba 38 e5 70 3b
       -0.0015280083 -0.0008513264 -0.0014914245 0.0036757719
0003b0 61 6d 73 38 6d 10 8e ba d2 fb 17 b9 0d c1 2c bb
       5.803758e-05 -0.0010838635 -0.00014494293 -0.0026360184
0003c0 47 04 4f 3b f5 0a 50 3b 6d 58 bc 3a cb 7b 91 3a
       0.0031588243 0.0031744812 0.0014369615 0.0011099515
0003d0 fa 93 dd 3a 11 29 cd ba b6 4a 8c 3a 51 c0 a6 ba
       0.0016905062 -0.0015652498 0.0010703418 -0.001272211
0003e0 dc 92 5b 3b 36 b9 28 bb 9a 07 5f 3b 61 c9 01 3a
       0.0033504283 -0.002574516 0.003403163 0.0004950967
0003f0 bd 4d 47 bb 22 9f 0a 3b 58 39 24 3b 0a 79 e2 3a
       -0.0030411326 0.002115198 0.0025058594 0.0017278504

layer1.bias f4 [64]
000000 4d 93 1b 3b 42 1c 39 39 90 28 0d b9 31 c2 a2 42
       0.002373892 0.00017653502 -0.00013461919 81.37928
000010 9b b8 87 bb e5 bd a2 42 20 00 8d bb 9c bf a2 42
       -0.0041418797 81.37089 -0.0043029934 81.37424
000020 04 7c 81 bb 24 c2 a2 42 46 bd a2 42 bc c1 a2 42
       -0.0039515514 81.37918 81.369675 81.37839
000030 98 35 8f bb e7 4f 2f bc 41 bb a2 42 d9 b1 a2 42
       -0.0043704025 -0.010700203 81.36573 81.34736
000040 72 c0 a2 42 07 be a2 42 48 c2 a2 42 3f 74 58 3b
       81.37587 81.37115 81.379456 0.0033028272
000050 11 b4 a2 42 f3 be a2 42 62 bd a2 42 5f 6f ce ba
       81.35169 81.37295 81.36989 -0.0015749744
000060 eb 93 d3 b8 1a c0 a2 42 91 01 98 c0 b5 c2 a2 42
       -0.00010088816 81.3752 -4.750191 81.38029
000070 fd e7 48 3a 1f 92 4c 3b 8a a0 4b bb 25 d5 2b bb
       0.00076639635 0.0031215025 -0.003107103 -0.0026219573
000080 5d bf a2 42 1d dd 19 bb 79 3e 21 3b 70 c1 a2 42
       81.37376 -0.002347774 0.0024603887 81.37781
000090 59 bd a2 42 c2 bf a2 42 e5 bf a2 42 a8 b3 0f 3a
       81.36982 81.37453 81.374794 0.0005481788
0000a0 66 36 98 c0 1a 2e 3f ba cb bf a2 42 47 29 98 c0
       -4.7566404 -0.00072929414 81.374596 -4.7550387
0000b0 ce 3b ad b9 db fd 06 bb 56 ef 38 bb 36 de b2 ba
       -0.0003304169 -0.0020598087 -0.0028218827 -0.0013646546
0000c0 a3 be a2 42 0a 8f bf 3a fa 78 0e ba ce ba 80 bb
       81.37234 0.0014614773 -0.0005434897 -0.003928519
0000d0 05 bd a2 42 91 be a2 42 7c be a2 42 a8 bb a2 42
       81.36918 81.3722 81.37204 81.366516
0000e0 ab a6 42 3a 55 3a dd ba f7 b5 48 bb 82 be a2 42
       0.0007425348 -0.0016878346 -0.0030626038 81.372086
0000f0 67 c0 a2 42 e9 bf a2 42 8a bf a2 42 78 bc a2 42
       81.375786 81.374825 81.3741 81.3681

layer2.weight f4 [64, 64]
000000 72 d7 ec ba 85 b1 9b b9 11 30 73 3a 9a 83 d8 3b
       -0.0018069579 -0.00029696166 0.0009276877 0.006607485
000010 4a 4b a2 bb 83 1c 00 3a 30 5e 1a bc 58 9a 18 3c
       -0.004952823 0.0004887061 -0.00942187 0.009314142
000020 3c 1f 5f bb ff fc da 39 69 18 10 bc 2a 96 c8 3b
       -0.0034045717 0.00041768697 -0.008794882 0.0061214166
000030 57 2b d0 bb 04 7b f8 3b 64 06 05 39 d8 ea 83 3b
       -0.0063528228 0.007583024 0.00012686249 0.0040257983
000040 34 22 dd 3b 8f ca d3 3b 72 f1 45 3a f8 71 39 3a
       0.006748462 0.006463356 0.0007550932 0.00070741726
000050 8e d5 1e bc 58 cc 9d bb 08 d7 ca 3b 64 bf a7 3b
       -0.00969447 -0.0048156194 0.0061901845 0.005119251
000060 a9 7e f4 3b 5e c6 9f bb 0b 56 c4 3b ba d2 40 bc
       0.007461388 -0.004875942 0.0059917024 -0.011768991
000070 9d 67 31 bc be 56 f4 3a d1 1e 01 bc 25 f2 38 bc
       -0.010827926 0.0018641574 -0.007880882 -0.0112882005
000080 46 39 f3 bb 51 cc 93 3b bf 4c d3 bb 42 83 5e bb
       -0.007422599 0.0045104404 -0.006448358 -0.0033952747
000090 ad 41 ea 3b a5 13 cc bb 4a 43 e7 bb 3d 23 bc bb
       0.0071489424 -0.0062279277 -0.007057582 -0.0057415054
0000a0 83 a2 0e 3c b2 fa fa 3b a6 62 2c 3c 24 12 66 3b
       0.008705738 0.0076592797 0.0105215665 0.0035106027
0000b0 2e cb 5b bb 96 e8 52 3c 3d 90 21 3c dd d7 26 3b
       -0.0033537853 0.012872836 0.009861049 0.0025458254
0000c0 4b dd 46 bc 6c 2f f5 3b c5 98 f6 ba 42 f9 f1 3b
       -0.012137721 0.00748246 -0.0018813839 0.00738445
0000d0 6d 78 d1 3a 32 b6 3b bb 6b 13 60 bc 14 5a 0c 3a
       0.0015981324 -0.0028642532 -0.013676505 0.0005353999
0000e0 85 b1 98 bb 78 2c 29 bc 3a dd 20 3c b7 69 08 3c
       -0.004659834 -0.010325544 0.0098183695 0.008325986
0000f0 ac db 24 bc 74 9d 09 bc 39 0c 6b 3b 27 f1 21 bc
       -0.0100621395 -0.008399356 0.003586544 -0.009884155
000100 77 ac 0c 3b 92 b8 84 3b 42 c7 28 bb 24 26 fc bb
       0.0021465102 0.004050323 -0.0025753533 -0.0076949764
000110 11 30 83 ba 20 8e c1 bb ad 66 b6 ba de 1e d8 bb
       -0.0010008832 -0.005906835 -0.0013916098 -0.0065954765
000120 01 30 02 bc d1 54 9a 3a 26 3c 04 3c c6 f5 2e 3c
       -0.007946015 0.0011774545 0.008070981 0.010678714
000130 61 a2 0d bb 32 1b 11 3c e8 33 77 bb be 20 0d 3c
       -0.0021611678 0.0088565815 -0.0037720148 0.008613763
000140 81 c3 ab bb e8 34 b4 3b b2 fb 94 bb 04 81 19 3c
       -0.0052418117 0.005499471 -0.004546606 0.009369139
000150 27 a7 c4 b8 97 e2 34 bc c1 33 b1 3b 07 08 c3 3b
       -9.377143e-05 -0.011040351 0.005407781 0.0059518847
000160 0e 6d 5c b9 2a 62 83 bb d5 ed 96 bb 08 9b 67 bb
       -0.00021021461 -0.004009505 -0.0046059885 -0.0035340209
000170 0b b8 cb 3b 23 24 16 bc 65 ea 67 bb e7 33 bc bb
       0.006217008 -0.009163889 -0.0035387513 -0.005743492
000180 32 15 7b bb f2 fa 95 bb 93 e1 ad 3b 75 d5 d8 bb
       -0.0038312194 -0.004577034 0.0053064316 -0.006617243
000190 19 53 20 bc 5c fd 38 bc 52 1a 3f bc 35 b0 f3 ba
       -0.009785437 -0.011290874 -0.01166399 -0.0018591942
0001a0 e4 e7 02 bc af d5 0c bc b7 1a 1e 3c 6d 04 1c 3c
       -0.007989857 -0.008595868 0.009649924 0.00952254
0001b0 7c 5b 29 bb ee 6b 2b bc 52 3d b2 bb 12 e9 eb 3a
       -0.0025841882 -0.010462744 -0.005439439 0.0017998538
0001c0 95 5d b9 3b b0 23 6e ba 1f a6 94 bb 04 28 27 3c
       0.005656908 -0.00090842973 -0.0045364047 0.010202412
0001d0 5a 1c 23 3c 74 8b 6c 3b 24 c5 5c bb e6 de 86 bb
       0.00995549 0.0036093863 -0.003368684 -0.004115927
0001e0 0a a8 94 3b 63 f0 08 3a db 3a 44 bb 37 e2 ec 3b
       0.0045366334 0.00052238087 -0.0029942307 0.0072291153
0001f0 21 a2 d7 bb a3 ff 2b 3c 10 c0 cc 3a d7 68 19 3c
       -0.0065806066 0.01049796 0.0015621204 0.009363375
000200 8b a1 c3 3a e1 c7 03 3c 01 b2 11 3c 56 cf a2 42
       0.0014925463 0.00804326 0.008892537 81.40495
000210 93 f8 dd bc 0b cf a2 42 80 68 90 bb 9f d0 a2 42
       -0.027096068 81.40438 -0.0044069886 81.40746
000220 7f 9f c6 3b 2f d3 a2 42 16 da a2 42 66 d0 a2 42
       0.006061494 81.41247 81.42595 81.40703
000230 34 7a 8a bb a0 c9 d1 be 60 d5 a2 42 d3 d6 a2 42
       -0.0042259935 -0.4097414 81.41675 81.41958
000240 0f db a2 42 af d3 a2 42 85 d0 a2 42 30 f9 a2 3b
       81.42785 81.413445 81.407265 0.004973553
000250 84 ee a2 42 57 d3 a2 42 a1 d8 a2 42 51 8f ef bb
       81.46585 81.41277 81.4231 -0.007310786
000260 c5 ab 12 3c 4b da a2 42 b8 f4 17 c2 ee d0 a2 42
       0.008952086 81.42635 -37.988983 81.408066
000270 bd e5 35 3c 5a 58 93 bb 8e bd 41 bb e2 45 2d bb
       0.011102137 -0.0044966163 -0.0029562446 -0.0026439358
000280 0b de a2 42 03 7a 86 bb 02 d8 f2 3b ce d1 a2 42
       81.43368 -0.0041039004 0.007411004 81.409775
000290 36 da a2 42 1b dd a2 42 40 da a2 42 60 35 cf ba
       81.42619 81.43185 81.42627 -0.0015808754
0002a0 0e bb 18 c2 f6 a8 9b 3b 87 d1 a2 42 9b d3 18 c2
       -38.18267 0.0047503663 81.40923 -38.206646
0002b0 b1 57 f5 ba 2b 08 3c 3c e0 7f 6e ba ce a2 fa b9
       -0.0018718151 0.011476557 -0.00090980344 -0.00047805015
0002c0 8f d8 a2 42 c5 7f e4 bb 50 2f 34 bc 24 85 d8 3b
       81.422966 -0.006973239 -0.010997608 0.0066076685
0002d0 78 dc a2 42 4d d8 a2 42 59 ce a2 42 09 dd a2 42
       81.4306 81.42246 81.40302 81.43171
0002e0 ba 4c 1a bc dd 46 0d b8 af d9 61 bc e3 d4 a2 42
       -0.009417707 -3.3683016e-05 -0.01378481 81.415794
0002f0 e6 d5 a2 42 9f dd a2 42 66 d7 a2 42 86 da a2 42
       81.41777 81.43285 81.4207 81.4268
000300 34 78 0b 3c 67 8e 36 bc 45 6c 0d bc f9 4d 98 bb
       0.008512545 -0.01114235 -0.0086317705 -0.004647967
000310 67 84 d1 3d f1 28 83 3c 93 09 43 3b c4 7a 13 bc
       0.10230332 0.016010733 0.0029760345 -0.009001438
000320 8e 0e 00 bb 2f 2f 76 3b 1d 58 f8 3b e2 1d 0f bc
       -0.0019539925 0.0037564745 0.0075788633 -0.008735152
000330 de 55 73 3b 0f e9 91 bb 2b a8 aa 3b cc c7 1a 3d
       0.0037130038 -0.0044528316 0.0052080355 0.037788197
000340 ae f3 02 3c 02 fe 20 bc 39 00 fb 3b 96 15 09 bc
       0.007992668 -0.009826185 0.0076599387 -0.008366963
000350 26 2f 0a bd 82 2e fd bc b0 4c 5e 39 a8 e7 85 3b
       -0.03373637 -0.030905966 0.00021200138 0.0040864535
000360 86 b1 1c bc a3 61 22 bc 40 43 cd bc 69 56 17 3c
       -0.009563809 -0.009910974 -0.025056481 0.00923691
000370 9c 76 b7 3b 88 c1 f8 3b 32 1f 9d 3b 9b 33 00 bc
       0.005598856 0.00759143 0.0047949785 -0.007824804
000380 4a 17 f3 bc e8 7d 29 3b 11 d1 81 3b e6 25 dc 3b
       -0.029674191 0.00258624 0.0039616902 0.006718385
000390 d7 58 61 bc f8 b5 80 3b ee f9 8f bb 29 0b c0 bb
       -0.013754091 0.0039279424 -0.0043938076 -0.0058607054
0003a0 4e 5a 27 bc 5d 48 a3 3a 62 b6 07 bb a9 99 84 3d
       -0.010214401 0.0012457479 -0.0020708074 0.06474621
0003b0 e4 77 2b bc 87 fe 25 3d 6c 7e 47 bb 6a 8b 37 bc
       -0.010465596 0.04052594 -0.0030440344 -0.0112026725
0003c0 dc f4 96 bb 8d 2f 77 bb a4 18 95 bb 6d 9b a6 3b
       -0.004606826 -0.0037717551 -0.0045500565 0.005084446
0003d0 ea 96 ba bc 7d 19 e6 3b 1d 99 8d bb 71 24 ad 3c
       -0.02277704 0.0070220814 -0.004321231 0.02113554
0003e0 7e a7 06 bc b7 20 14 3c d1 83 02 bc 03 b0 03 bc
       -0.008218644 0.009041003 -0.007965998 -0.00803757
0003f0 13 20 2a ba f1 49 dd 3b cd ed 13 bc 75 47 56 bc
       -0.0006489765 0.0067531993 -0.009028864 -0.01307856

layer2.bias f4 [64]
000000 0e 51 f5 bb d1 7e 07 3c a1 bd a4 42 f0 a9 63 ba
       -0.007486469 0.0082699815 82.37037 -0.00086846855
000010 fa bb a4 42 d2 bd a4 42 30 72 48 bc 05 4b 28 bc
       82.36714 82.37074 -0.012234256 -0.010271792
000020 8c c2 a4 42 e2 44 90 bb bc bf a4 42 00 45 11 bc
       82.379974 -0.0044027427 82.37448 -0.008866549
000030 d3 bc a4 42 60 6d 2f 3c 1a c0 a4 42 79 b8 a4 42
       82.3688 0.010707229 82.3752 82.3603
000040 f3 bb a4 42 cf c2 a4 42 d3 57 1a bb 8a bf a4 42
       82.36709 82.380486 -0.0023550882 82.3741
000050 0b ca c8 3b ab b9 a4 42 29 d1 29 3b 5f ae 00 bc
       0.006127601 82.36263 0.0025912023 -0.007854073
000060 32 e5 47 bc ca a5 29 bc 99 4f ec bb 2f b9 a4 42
       -0.0122006405 -0.010354469 -0.007211637 82.36169
000070 20 40 36 bc 8f c3 a4 42 42 c3 a4 42 38 ef 03 3c
       -0.011123687 82.38195 82.38136 0.00805264
000080 0d 6e bb 3b 9d 9c 26 bc 59 be a4 42 43 b8 a4 42
       0.005719906 -0.010169175 82.37177 82.359886
000090 db be a4 42 d2 2b c3 3b e8 c1 05 ba 2b 96 8e ba
       82.372765 0.0059561515 -0.00051024416 -0.0010878494
0000a0 d4 b7 a4 42 75 bb a4 42 bb bf a4 42 b1 47 23 ba
       82.35904 82.36613 82.37447 -0.00062286394
0000b0 77 4e 91 39 eb f3 14 bc 10 66 34 bc 73 bd a4 42
       0.00027715016 -0.009091358 -0.011010662 82.37002
0000c0 6b 0a 28 bc 91 7f 30 bc 79 bd a4 42 0f d7 a1 39
       -0.01025639 -0.010772602 82.37006 0.00030868544
0000d0 3f bd a4 42 00 be a4 42 bd b9 a4 42 d9 bd a4 42
       82.36962 82.37109 82.36277 82.3708
0000e0 9f c2 a4 42 39 ba a4 42 16 58 96 bb fc bf a4 42
       82.38012 82.363716 -0.0045881374 82.37497
0000f0 81 ba a4 42 22 c0 a4 42 3b c2 a4 42 cb c0 a4 42
       82.364265 82.37526 82.37936 82.37655

layer3.weight f4 [64, 64]
000000 4d ff b9 3b 66 51 3f bc f3 8d 51 bc ce 32 2b bc
       0.005676186 -0.011677122 -0.012790191 -0.0104491245
000010 ac db ea 39 31 2c 4d bc 3b aa 3f 3b e8 fd 83 bb
       0.00044795626 -0.012522743 0.0029245752 -0.0040280707
000020 e5 c0 0b bb f5 2c 3d bb 32 5f 17 b8 6c 6b 11 bc
       -0.002132469 -0.0028865908 -3.6089863e-05 -0.008875709
000030 90 a0 3a bc 52 97 4c 3b 54 6a 18 3a 43 22 74 bb
       -0.01139082 0.0031218124 0.0005814184 -0.0037251867
000040 c6 76 c8 3a d1 63 d9 3b 4b 6d ff 3b 93 56 39 bc
       0.0015294186 0.0066342135 0.007795011 -0.011312145
000050 b4 62 c8 bb de ff 98 3c 7c cf c7 bb ab 95 4b 3c
       -0.006115282 0.018676694 -0.006097732 0.01242582
000060 b4 e5 11 bc df b4 8e bb 65 8a 2a bc 0d 04 2f 3c
       -0.008904863 -0.0043550576 -0.010408972 0.010682118
000070 6d 2b 75 39 b1 57 14 bc 32 37 65 3b 2d 11 10 3c
       0.00023381198 -0.00905411 0.0034975526 0.0087931575
000080 07 ab 2e 3b 82 eb 2d bc bd 2a 22 bc c6 6d 69 3b
       0.0026652233 -0.0106152315 -0.009897885 0.0035618409
000090 c7 a0 86 3b 5a e2 87 bb 45 d3 12 3c 0e d9 2d 3c
       0.0041085216 -0.0041468563 0.008961503 0.010610832
0000a0 35 96 12 3c 21 7b ba 3b 02 7c d9 3b e1 a5 ed bb
       0.008946945 0.0056909476 0.0066370973 -0.0072524403
0000b0 84 a8 05 3c 6f 58 76 3b 80 b4 14 bb 83 40 19 3c
       0.008157853 0.0037589332 -0.0022690594 0.00935376
0000c0 82 ec fa ba 24 b7 e2 3b 05 82 a0 3b c7 fb 14 bc
       -0.0019143971 0.0069188047 0.004898312 -0.0090932315
0000d0 d5 8b 5b 3b 42 15 b9 bb 0f 27 c8 3b 43 0b 0e bc
       0.0033500094 -0.005648286 0.006108172 -0.008669677
0000e0 6b 57 3a bc 6f 95 17 3c 06 e8 99 bb 52 92 2f bc
       -0.011373381 0.009251936 -0.004696849 -0.010716038
0000f0 a2 90 d0 bb 3f ab 01 bc 82 42 f0 3b 9a 6f 0c bc
       -0.006364898 -0.007914363 0.007332147 -0.00857153
000100 94 f5 03 bc 97 38 0c bb f1 ad a2 42 3f 60 95 3d
       -0.008054156 -0.0021396035 81.33973 0.07293748
000110 a9 ae a2 42 33 a7 a2 42 e1 70 18 bc 75 7e 0e 3c
       81.34113 81.32656 -0.009304256 0.008697142
000120 ab a6 a2 42 f8 4b d3 bc 79 a6 a2 42 21 79 05 bc
       81.32552 -0.02579306 81.32514 -0.008146555
000130 b3 ae a2 42 c9 51 aa ba 19 ac a2 42 45 af a2 42
       81.34121 -0.0012994345 81.33613 81.34232
000140 e6 a8 a2 42 79 a7 a2 42 da 0e 49 3c 59 a9 a2 42
       81.32988 81.327095 0.012271607 81.33076
000150 68 18 81 3b 51 ae a2 42 2a a0 fe 3b 8c 13 bd bb
       0.003939677 81.34046 0.007770558 -0.0057701524
000160 b3 30 1d 3b 1e 7b 0a bc 57 bb 29 3c 76 ae a2 42
       0.0023985326 -0.008452205 0.010359607 81.340744
000170 34 93 b6 ba 50 ab a2 42 5a ac a2 42 25 01 28 3c
       -0.0013929368 81.334595 81.336624 0.010254179
000180 e0 91 18 bc 4e fc cb 3b 2d a6 a2 42 15 ad a2 42
       -0.009312123 0.0062251454 81.32456 81.33805
000190 a3 a9 a2 42 b7 90 1b 3c b2 67 16 3d a9 15 2d 3d
       81.33132 0.009494952 0.036719985 0.042256985
0001a0 72 ae a2 42 80 af a2 42 40 ae a2 42 fe 67 13 bc
       81.34071 81.34277 81.34033 -0.008996962
0001b0 61 45 35 bb 4e 42 b5 3b 53 f6 39 39 e4 ac a2 42
       -0.0027659761 0.005531586 0.00017734738 81.33768
0001c0 ae a4 ce bb a1 52 f5 3b 1b b0 a2 42 82 d7 09 3c
       -0.0063062524 0.007486657 81.343956 0.0084131975
0001d0 7b a7 a2 42 23 ae a2 42 de af a2 42 16 b1 a2 42
       81.32711 81.34011 81.34349 81.34587
0001e0 20 a4 a2 42 6f a9 a2 42 c0 0e b3 bb 7d a5 a2 42
       81.32056 81.330925 -0.005464405 81.32322
0001f0 bb aa a2 42 1d af a2 42 24 a6 a2 42 1e ac a2 42
       81.33346 81.34202 81.32449 81.33617
000200 f2 c7 0e bc b7 02 d7 3b c9 24 a2 39 3c 0b d4 bb
       -0.008714663 0.006561603 0.00030926455 -0.006471066
000210 18 9b b3 ba 3d d8 7d 3b e8 d8 1e bb a7 e6 1e 3c
       -0.0013702838 0.0038733624 -0.0024238173 0.0096985465
000220 1f 22 07 3c df df 10 bc 08 25 80 bb 41 07 11 bc
       0.008247881 -0.0088424375 -0.0039106645 -0.008851827
000230 49 4d 57 bb 3f 8f d3 bb cd f6 a8 bb ca 0c 0f 3c
       -0.0032852462 -0.0064562852 -0.005156374 0.0087310765
000240 44 09 e1 3a 9c de e4 bb d3 55 15 ba 29 20 a6 3b
       0.0017168899 -0.006984545 -0.0005696688 0.0050697518
000250 7d 45 be ba 0e f4 27 bc 7f 8a b1 3b d4 06 4b bc
       -0.0014516559 -0.010251058 0.0054181213 -0.012391765
000260 9c e8 f8 bb 88 48 c5 bb d3 95 8c 3b b2 6e 1c 3c
       -0.0075960886 -0.0060206093 0.0042903214 0.009547876
000270 77 c9 f3 3b 84 98 82 b9 eb 32 2e 3a 74 8e b3 b6
       0.007439788 -0.00024909165 0.00066451606 -5.3511994e-06
000280 92 3d 30 ba 9c 42 27 3a 37 1e 0d 3c 64 2a 73 3b
       -0.0006723042 0.000638047 0.008613161 0.0037104124
000290 d1 26 80 39 0b fb b5 bb 8e ef 13 3c 3f 88 18 bc
       0.00024442983 -0.0055536083 0.009029282 -0.009309827
0002a0 06 4a 2b bc 01 c6 22 bc db 4b 32 bc 6a 99 12 3c
       -0.01045466 -0.009934903 -0.010882343 0.00894771
0002b0 01 19 83 bb 15 d7 31 bc 50 2b 21 bc 0d 40 38 bb
       -0.0040007834 -0.010854502 -0.009836987 -0.002811435
0002c0 d7 19 97 3b cc 63 2c bc 92 ae ec 3b f6 11 ca 3a
       0.0046112346 -0.01052184 0.007222959 0.001541673
0002d0 3c 38 f1 bb a9 64 09 3c 6b 72 4b bc 41 c1 72 3b
       -0.00736144 0.008385816 -0.012417416 0.0037041458
0002e0 f6 af 49 3b ca 01 a5 3a b4 84 11 3c d8 dd b4 3b
       0.0030775047 0.0012589034 0.008881737 0.00551961
0002f0 db fb ab 3b 14 7d 0c 3b 40 d6 e1 bb 9e 6a 48 bc
       0.0052485294 0.0021436857 -0.0068919957 -0.012232451
000300 bb b4 b5 bb 55 f8 2b bc 5d 9b a2 42 41 07 84 3d
       -0.0055452264 -0.010496219 81.303444 0.06446696
000310 08 9c a2 42 54 97 a2 42 ab 0b e3 bb fb 6d 02 3b
       81.30475 81.29556 -0.006928881 0.001990198
000320 88 98 a2 42 fb 62 92 3d cf a2 a2 42 87 5f a8 bb
       81.29791 0.07147785 81.317986 -0.005138341
000330 0d 9d a2 42 cc 01 8e b8 7a 9a a2 42 bf 9a a2 42
       81.30674 -6.771422e-05 81.30171 81.30224
000340 f8 98 a2 42 f0 9e a2 42 ae 40 a7 ba ad 9b a2 42
       81.29877 81.310425 -0.0012760365 81.304054
000350 e9 68 da 3b 21 97 a2 42 f0 f6 df bb ad 04 24 3c
       0.0066653383 81.29517 -0.006834857 0.01001088
000360 db 7a 6b ba d2 50 f0 3b ff ea 3b 3b 39 9a a2 42
       -0.00089828455 0.0073338533 0.0028674004 81.301216
000370 78 3f 54 3b 12 9a a2 42 4a 9d a2 42 21 5d f9 3a
       0.0032386463 81.30092 81.307205 0.0019024947
000380 6a ef 89 bb 3e d6 ae 3b 4c 9e a2 42 7a 9a a2 42
       -0.0042094486 0.0053355983 81.30917 81.30171
000390 e3 94 a2 42 17 74 27 3c 9a 98 ee 3d cd 0f 56 3d
       81.290794 0.010220549 0.116502 0.052261163
0003a0 09 94 a2 42 5e 99 a2 42 c4 9d a2 42 23 65 a1 bb
       81.28913 81.299545 81.308136 -0.0049253865
0003b0 51 a2 21 bc f3 9d 9e 3b 88 a5 17 3c 22 9d a2 42
       -0.009865359 0.0048406064 0.009255774 81.3069
0003c0 23 76 39 bc 41 3c 00 3b 47 9c a2 42 f5 96 2b bb
       -0.01131967 0.0019567164 81.30523 -0.0026182507
0003d0 ae 9a a2 42 a5 93 a2 42 e6 9b a2 42 29 95 a2 42
       81.30211 81.28837 81.30449 81.29133
0003e0 2b 97 a2 42 b4 95 a2 42 40 97 da bb 55 9d a2 42
       81.29525 81.29239 -0.0066708624 81.30729
0003f0 a1 99 a2 42 9a 98 a2 42 f8 9b a2 42 64 9d a2 42
       81.30006 81.29805 81.30463 81.3074

layer3.bias f4 [64]
000000 7d 2d 1f ba ac 27 9f 42 e5 d4 a6 bb 60 3b 9f 42
       -0.0006072147 79.577484 -0.005091297 79.61597
000010 f3 ec 9e 42 ec ad fa bb 89 72 3b ba d8 ef 9e 42
       79.46279 -0.0076501276 -0.0007150551 79.468445
000020 21 08 9f 42 99 c5 9e 42 28 08 a0 bb 78 be 09 bc
       79.51588 79.38593 -0.004883785 -0.008407228
000030 bd e3 9e 42 fb 4c 9f 42 bc a1 35 bb d5 f9 fc 3b
       79.4448 79.65035 -0.002771481 0.007720212
000040 72 0e 2e bc 7f 33 9f 42 e5 58 9f 42 2d 3f 9f 42
       -0.010623561 79.60058 79.67362 79.62339
000050 ed 3a 04 bc dd 9a 3a 3b 55 fc aa 3a b8 bd a1 3b
       -0.00807069 0.0028473653 0.0013045172 0.0049359463
000060 33 08 c1 3b b4 f6 9e 42 4c 0c cb b9 44 8e 80 3a
       0.00589087 79.48184 -0.0003872834 0.0009808023
000070 ea 2d 69 3b df 63 be 3b bc 45 9f 42 03 fa 5f 39
       0.0035580345 0.0058102454 79.6362 0.00021360074
000080 ed 99 3b bc f5 31 9f 42 f3 f2 41 3b 42 98 9e 42
       -0.011450273 79.59757 0.0029594272 79.29738
000090 01 ed 89 3b 83 70 2d 3c fe 75 43 3b c8 cc 03 bc
       0.0042091613 0.010585907 0.0029824967 -0.008044429
0000a0 d1 9d db 3a f0 f5 9e 42 de 45 9f 42 0d 20 9f 42
       0.0016755407 79.48035 79.63646 79.5626
0000b0 32 16 26 bb fb 51 d0 3a 8a 8a a7 b8 35 4c 9f 42
       -0.002534282 0.0015893573 -7.9889855e-05 79.64884
0000c0 72 d8 1f 39 26 37 9f 42 c0 67 30 bc f2 b4 1e 3c
       0.00015244054 79.60771 -0.010766923 0.009686695
0000d0 51 8c 82 bb c0 fb 24 bc f1 64 2e bc b2 31 26 bc
       -0.003984012 -0.0100697875 -0.0106441835 -0.010143684
0000e0 73 36 37 3c d8 df 01 bc 8e 4c 9f 42 01 8a 1d bc
       0.011182415 -0.007926904 79.64952 -0.009615422
0000f0 47 06 0d 3b 32 2e bd 3b 0a 26 9f 42 96 7d f5 ba
       0.0021518634 0.005773329 79.574295 -0.0018729444

layer4.weight f4 [290, 64]
000000 60 8f 17 bb d6 06 98 42 31 15 83 bb 28 05 98 42
       -0.002312623 76.01335 -0.004000329 76.01007
000010 07 01 98 42 8b ad 95 bb 53 38 40 bc 65 03 98 42
       76.00201 -0.004567807 -0.011732179 76.00663
000020 2a 02 98 42 86 00 98 42 6d 30 05 3a 10 e9 da 3b
       76.00423 76.00102 0.00050807634 0.0066806152
000030 38 01 98 42 ad 09 98 42 b4 0e 55 36 c4 b0 80 3d
       76.00238 76.0189 3.1748032e-06 0.06283715
000040 78 2f 5a b9 72 03 98 42 8a 08 98 42 62 06 98 42
       -0.00020807784 76.00673 76.01668 76.01247
000050 f7 d7 36 bb 8f ff 23 3c 2b 81 35 3c c1 71 13 3c
       -0.0027899721 0.01000966 0.011078159 0.008999289
000060 23 4b b7 39 48 02 98 42 b6 ae ae 3b 19 50 4d ba
       0.0003496046 76.004456 0.0053308858 -0.0007832065
000070 4f a4 aa 3b 34 27 1e bc 24 06 98 42 86 13 5f bb
       0.0052075754 -0.009652901 76.01199 -0.0034038736
000080 2f 02 19 3c 12 06 98 42 f8 05 31 3c d6 fe 97 42
       0.0093388995 76.011856 0.010804646 75.99773
000090 f6 52 17 3c c6 76 2f 3c 62 33 84 bc 81 1f cb bb
       0.009236088 0.01070947 -0.016137782 -0.006198824
0000a0 ee d4 2f 3c 65 01 98 42 b4 09 98 42 1b 05 98 42
       0.010731919 76.00272 76.01895 76.00997
0000b0 0c aa 92 bb 37 1a 0b bd 5a 67 2f bc 29 07 98 42
       -0.0044758376 -0.033960547 -0.010705793 76.013985
0000c0 c1 3e a0 bb 7b 05 98 42 d2 f5 0f ba 72 38 11 3d
       -0.0048902933 76.010704 -0.0005491647 0.03545422
0000d0 50 ee cd bb 25 1b 57 3b 2f 7a 21 3b e2 1f ae bc
       -0.0062845126 0.0032822576 0.0024639477 -0.021255437
0000e0 71 40 1c bb 6c 7d a1 bb 66 09 98 42 db 2d 8d bb
       -0.002384212 -0.0049282815 76.01836 -0.004308445
0000f0 9d b3 8a bb 61 46 02 3b db 03 98 42 83 39 c5 3b
       -0.0042328374 0.0019878375 76.00753 0.006018819
000100 9f 96 a5 3b 5c bf 55 3e 1b 29 e9 ba 8b 99 5b 3e
       0.005053356 0.20873779 -0.001778874 0.2144529
000110 47 2b 44 3e 83 8a 5a bb c9 b3 73 3b f8 5e 53 3e
       0.19157134 -0.003334672 0.0037186018 0.20641696
000120 68 94 62 3e d9 f3 48 3e e3 98 8f 3c 7c f2 10 bc
       0.22126925 0.1962427 0.017528957 -0.008846875
000130 e1 37 51 3e 71 55 61 3e 49 d6 7c 3b 63 bc 6d 3d
       0.20431472 0.2200525 0.0038579872 0.058040988
000140 b9 4a b5 38 64 25 43 3e c1 d7 63 3e 74 27 5a 3e
       8.644671e-05 0.19057232 0.22250272 0.21304113
000150 cb 07 36 bb 1d 85 fa 3b f4 35 a2 3b 40 b9 f1 3a
       -0.002777564 0.007645263 0.0049502794 0.001844205
000160 39 e6 eb ba 95 2e 50 3e 3a 02 38 ba 83 7b dc 3b
       -0.0017997689 0.2033027 -0.0007019375 0.006728591
000170 3e 56 15 3c ed c4 c5 3b d5 34 51 3e 0c 5e f0 bb
       0.0091148 0.0060354383 0.2043031 -0.00733543
000180 bf 5a 79 3a e1 95 5d 3e 6d 57 c7 3b 40 b2 4d 3e
       0.00095121184 0.21639206 0.00608342 0.20087528
000190 8a 4d 20 3c 1d a8 b1 bb 97 05 3a 3c cb 9a 18 bb
       0.009784112 -0.005421652 0.011353872 -0.0023285623
0001a0 13 c3 1c 3c 0e da 5d 3e a8 fe 5a 3e fa 30 59 3e
       0.009567994 0.21665213 0.21386206 0.2121009
0001b0 e7 68 1f 3c 4f 20 7f 3c 62 8a 2d 3a ba 2c 5d 3e
       0.0097296005 0.015571668 0.0006620047 0.21599093
0001c0 3b e4 09 bc 58 dc 4b 3e 9c 54 5e bb 76 c1 4a 3d
       -0.008416231 0.19908273 -0.0033924943 0.049500905
0001d0 d2 da 2e 3a d7 e9 d3 3b 06 a8 94 bb b2 79 b9 3c
       0.000667018 0.006467085 -0.0045366315 0.022641037
0001e0 28 4d 82 bb 49 54 b7 ba 09 46 5b 3e 28 c7 32 3b
       -0.003976483 -0.0013986911 0.21413435 0.002727935
0001f0 91 c6 81 3b 30 7c ef 3b 6e ab 57 3e d0 cc 35 3a
       0.0039604385 0.0073085055 0.21061489 0.00069351215
000200 15 06 05 3c 82 97 79 3e 6b 66 07 ba 32 09 7e 3e
       0.008119126 0.24374202 -0.0005165103 0.24808195
000210 0e 34 85 3e fa 01 b1 bb 82 25 05 3c 8a 58 80 3e
       0.26016277 -0.005401847 0.008126618 0.2506755
000220 36 b8 7e 3e 4b fc 85 3e 99 bd 31 3b 6a a7 52 3b
       0.24874958 0.26169047 0.0027121066 0.0032143244
000230 91 8f 86 3e 21 d8 81 3e df eb 01 3b 14 0f 6f 3a
       0.26281407 0.25360206 0.0019824428 0.0009119373
000240 25 06 05 3c 98 1b 81 3e 96 75 82 3e 59 7f 7b 3e
       0.008119141 0.25216365 0.25480336 0.24560298
000250 4f 99 1f bb 4f dd 97 ba 4d 06 07 3c e6 b4 5c bb
       -0.0024352854 -0.0011586341 0.008241248 -0.003367716
000260 6d ae 04 b9 a8 69 82 3e c0 fb ee bb d3 7b d6 3b
       -0.0001265348 0.25471234 -0.0072931945 0.0065455227
000270 95 89 07 bc f8 86 4e b9 bf 96 83 3e 62 d0 aa bb
       -0.008272548 -0.0001969597 0.25700948 -0.0052128294
000280 5f b6 d1 bb b6 85 83 3e 55 7e f0 3b ba f6 93 3e
       -0.006399914 0.2568795 0.0073392787 0.28899175
000290 86 13 a5 bb 4b 40 c6 3a cc 0a df ba e2 c9 e3 3b
       -0.0050377278 0.0015125362 -0.0017016768 0.0069515565
0002a0 85 e3 20 3c 28 c7 7e 3e db fe 81 3e bb 59 82 3e
       0.00981987 0.2488066 0.25389752 0.25459084
0002b0 58 d4 0c 3c 38 49 47 3c 32 4c e9 bb ec cb 87 3e
       0.008595549 0.012163453 -0.007119679 0.26522768
0002c0 3a 9d 60 ba 28 a3 82 3e 4f b3 9c bb 37 98 10 3c
       -0.00085683505 0.25515103 -0.0047821174 0.008825353
0002d0 40 09 2c 3c 9d 37 a4 39 72 71 d1 bb 8d 0f 31 3b
       0.010500252 0.00031321953 -0.0063916976 0.0027017326
0002e0 3e cb c4 3a 3a c2 d6 3b fd db 85 3e c1 a3 97 bb
       0.0015014184 0.0065539153 0.261444 -0.0046276753
0002f0 98 15 0e 3c c9 9e 27 3c 30 77 7c 3e a5 99 14 3c
       0.008672141 0.010230728 0.24654841 0.009069835
000300 33 89 ac bb 5a a5 63 3e d9 26 d6 3b 2d a9 67 3e
       -0.005265379 0.22231045 0.0065353927 0.22623129
000310 d7 9a 61 3e 11 a6 17 3b 30 66 9b 3b 00 06 62 3e
       0.22031723 0.0023139755 0.0047424063 0.22072601
000320 07 87 58 3e 73 78 63 3e e3 26 65 3c 27 2b c4 bb
       0.21145259 0.22213916 0.013986322 -0.0059865895
000330 35 2d 5a 3e b9 25 67 3e 06 c6 16 3c 24 45 b2 3b
       0.21306308 0.22572984 0.009202486 0.005440371
000340 d5 01 a4 bb aa 11 5e 3e 25 6f 58 3e e4 20 5d 3e
       -0.005005101 0.21686426 0.21136148 0.21594578
000350 00 f0 8c ba c7 2d 9c b8 05 2c 0b bb eb bb 3b 3a
       -0.0010752678 -7.447186e-05 -0.0021235954 0.0007161486
000360 b4 61 7f bb e6 bb 58 3e 44 46 33 3c 1a c6 0d 3c
       -0.0038968148 0.21165428 0.010942046 0.008653188
000370 03 b5 09 3c 5b dd e1 bb 47 1e 5a 3e 6a 89 35 39
       0.008404973 -0.0068928427 0.21300612 0.00017312696
000380 c8 ad 3d 3c 60 c0 61 3e 25 d9 88 3b f4 d8 69 3e
       0.011577077 0.22046041 0.0041762763 0.22836667
000390 60 a2 dc bb e7 6e 40 39 1d 97 3e 3b 59 98 35 3c
       -0.006733224 0.00018351861 0.002908177 0.011083686
0003a0 83 bc 2d 3c f6 0d 5d 3e 37 3e 6b 3e af 16 56 3e
       0.010604027 0.21587357 0.22972952 0.2090709
0003b0 16 c4 df 3b f4 28 c6 3b 30 17 a3 3a 58 5a 5b 3e
       0.006828795 0.0060473625 0.0012442823 0.21421182
0003c0 0f 23 16 3c 68 fc 66 3e 21 b7 8e b9 f1 fa bb 3a
       0.009163632 0.22557223 -0.00027220792 0.0014341754
0003d0 1a 19 a5 3b 42 c9 1b bc 90 12 13 3c 2a e3 b0 3b
       0.0050383927 -0.009508433 0.008976594 0.005398174
0003e0 9d 26 1c 3c 5c 1d 29 bc aa be 57 3e b9 97 3a 3c
       0.0095306905 -0.010321941 0.21068826 0.011388713
0003f0 3c 95 b3 3b 5d a9 2d bc 6f 50 67 3e 32 72 d8 bb
       0.0054804366 -0.010599461 0.22589277 -0.00660541

layer4.bias f4 [290]
000000 31 37 8d 42 73 03 17 3e 9c 69 61 3e 50 1f 32 3e
       70.607796 0.1474741 0.22012943 0.17394757
000010 f1 4f 25 3f 03 fb 0f 3e e1 67 69 3e 7a a8 4c 3e
       0.64575106 0.14060597 0.22793533 0.19986144
000020 42 35 80 42 88 91 77 42 4c 5d 57 3e d7 7f 74 3e
       64.10402 61.89212 0.21031684 0.23876892
000030 c5 59 0e 3e 6d 8f ec 3e 90 01 ff 3d 02 43 6e 3e
       0.13901432 0.46203175 0.1245147 0.23267749
000040 d6 d5 f3 3d 20 1f a3 3e 8b f7 77 3f bb a4 9e 3e
       0.1190602 0.31859684 0.96862096 0.30985054
000050 07 2b 77 42 c4 91 b0 3d 90 1e de 3b 27 01 6f 3c
       61.79202 0.086215526 0.0067785457 0.014587677
000060 82 5d 98 3b 9d a2 12 3c 30 2a 94 3d f4 c7 df 3b
       0.004649819 0.008949903 0.07234609 0.006829256
000070 de 1c f7 3d 3d 80 ac 40 31 68 b9 3d e1 e6 d6 3d
       0.12066053 5.390654 0.09053076 0.104932554
000080 66 d4 f7 3d e6 1f b6 bb ab 29 1c bc fc 84 32 bb
       0.12101059 -0.005558002 -0.009531419 -0.002723991
000090 9a a6 52 bb ac 49 84 3c bf 07 b0 3c 56 0e 82 3d
       -0.003214276 0.01614841 0.021488069 0.063503906
0000a0 75 b8 95 3d 27 29 44 3d d5 db 7b 3d b1 65 82 3d
       0.07310573 0.04789081 0.061488945 0.06367052
0000b0 d7 31 90 3e 30 62 0a 3c d6 98 02 bc 58 e1 19 bc
       0.28163025 0.008446261 -0.007971009 -0.009392105
0000c0 fc 1f 9f bb 55 9c ec 3f f1 2a cd 3e 6e 33 75 bb
       -0.0048561078 1.8485209 0.40071824 -0.0037414688
0000d0 26 8d d5 41 1a 68 36 3f 41 7d cf 3e 7b 14 13 3c
       26.69392 0.71252596 0.4052525 0.008977051
0000e0 d4 85 2e ba 8d d6 1e bc 34 b2 15 3c d6 23 b9 3e
       -0.0006657515 -0.009694708 0.009136725 0.36160153
0000f0 af 26 6f bb 82 68 06 3c d4 e0 50 3b 5d 69 3a 3c
       -0.0036491563 0.008203628 0.003187229 0.01137766
000100 e2 c6 9b ba 1b 53 04 bc 41 d6 83 3c 96 aa f5 3c
       -0.0011884833 -0.0080764545 0.016093375 0.029988568
000110 2f 3e 16 3d 58 c5 50 3d 81 17 00 bc d9 db 4e 3d
       0.036680397 0.05096945 -0.007818104 0.05050263
000120 29 88 5d 3d 05 6f b7 3b 7d 0b f4 bb 87 94 0c bc
       0.05408493 0.0055979514 -0.0074476586 -0.008580334
000130 7d e6 5d bb 44 54 33 bc f3 ac 20 bc fc 9e 37 bb
       -0.0033859306 -0.010945383 -0.009806859 -0.0028018346
000140 5f 7a b9 3c a3 ac 00 3d 74 16 31 3c 86 03 d9 3e
       0.022641359 0.03141464 0.010808576 0.423855
000150 b2 df eb 41 8f 97 3e 3f 1f 46 ca bb 38 7f 71 bb
       29.484226 0.7445001 -0.00617291 -0.003684951
000160 3e b9 ef bb 3e 0d 78 3f 63 a1 d2 3a b0 d8 51 3c
       -0.0073157838 0.96895206 0.0016069826 0.01280801
000170 46 36 1e 3c c9 b5 fd 3a 72 68 1c bc 0e ae 0f 3b
       0.0096564945 0.0019356544 -0.009546386 0.0021923813
000180 d2 7a 30 bc c3 6c 85 bb 1c ad a3 bb 06 bc 68 39
       -0.01077147 -0.0040718033 -0.0049950015 0.00022195288
000190 10 ea 11 3c 23 83 8a bb 69 33 93 3b a2 fb 89 3d
       0.0089059025 -0.0042270585 0.0044922126 0.06737448
0001a0 23 4e 7f 3a 5b bc 9f 40 74 f1 ae 3e ab f9 79 3b
       0.00097391213 4.9917426 0.3416859 0.0038143198
0001b0 75 49 ac 3a eb 4e e2 3d c0 39 39 bc fc bd cb 41
       0.001314445 0.11050209 -0.011305273 25.467766
0001c0 1b 7c 21 bc 10 81 27 bc 98 10 00 bb 05 ab db 3a
       -0.009856249 -0.010223642 -0.001954114 0.0016759342
0001d0 61 9b ce 3b 4b 6c 0e bc 68 9e d4 ba 94 52 d0 3b
       0.0063051437 -0.008692811 -0.0016221525 0.0063575003
0001e0 05 04 a2 ba 24 33 a5 3c 68 25 74 ba a5 97 52 3d
       -0.0012360817 0.020165987 -0.00093134353 0.05141415
0001f0 ab 90 a6 3b 0a 45 6c 3d 80 cd 30 bc 8c 78 75 b7
       0.0050831637 0.05768303 -0.0107911825 -1.4631205e-05
000200 82 4e 0a bc aa 43 45 bb 91 38 bb 3b 95 00 16 bc
       -0.008441569 -0.0030100145 0.0057135304 -0.009155412
000210 5c 89 2a 3c 45 64 87 3b be 79 76 3b 41 ec 13 3c
       0.010408726 0.004131826 0.0037609185 0.009028495
000220 08 0d 34 3c 35 5e bd 3b da 4c 15 bb a8 58 0e bc
       0.010989435 0.0057790526 -0.0022781403 -0.0086881295
000230 8f 31 ee 41 10 a9 35 bc b9 f5 25 bc 44 7b 85 3f
       29.774199 -0.011087671 -0.010129386 1.0428243
000240 f9 25 b1 3b 31 86 a3 3b 76 e8 04 3b df 32 e6 b9
       0.005406138 0.004990362 0.002028016 -0.0004390692
000250 a1 d0 02 bc b5 74 e4 bb 7d 86 f3 bb fe 3d 66 bb
       -0.007984311 -0.0069719204 -0.0074318037 -0.0035132165
000260 7a dd df 3b 30 7b e9 3b 04 04 e5 3b 40 2c 05 3c
       0.006831822 0.007125281 0.006989004 0.008128226
000270 71 ab 58 bb ba fc fe 3b dc 98 3f 3b c5 84 32 3d
       -0.0033061171 0.007781592 0.0029235398 0.04358365
000280 74 8a 14 bc 19 a6 17 bc 1c d6 fc 3b 6c a8 ea 3b
       -0.009066213 -0.009255909 0.0077159535 0.0071611907
000290 2d 7f bc bb a7 2e 66 3f b6 8c a7 bb 21 27 2a bc
       -0.005752465 0.89914936 -0.0051132096 -0.010385306
0002a0 44 6f cd 3b 81 cb ec ba 9b df f0 3b 7d d0 28 bc
       0.0062693674 -0.001806602 0.0073508746 -0.010303614
0002b0 b0 7b 9b 3b 2a 4e 45 3b 78 e5 01 3c d1 c2 15 bc
       0.0047449693 0.0030106404 0.007928245 -0.009140686
0002c0 fc e8 c6 b9 c8 70 a2 bb 25 1e 3a bc 38 ba 8f bb
       -0.0003793909 -0.004957292 -0.011359726 -0.0043862127
0002d0 ff 8d 16 bc 65 ff 20 bc bb fa 82 3b 71 8e 30 3c
       -0.009189128 -0.009826516 0.0039971746 0.010776148
0002e0 db d8 4f bb 09 d0 3e 3b ab de 1f bc bd 02 20 3c
       -0.003171495 0.0029115698 -0.009757678 0.009766278
0002f0 af d5 d8 bb 36 e8 05 3c 19 90 44 bb ac 1e d6 bb
       -0.00661727 0.008173039 -0.0029993115 -0.006534418
000300 3d 55 e3 3b b7 8d 37 bb 5d 3e 27 3f da b4 a6 bb
       0.0069376514 -0.0028008053 0.65329534 -0.005087477
000310 2c 65 eb 3b 38 7c 32 3c 38 b9 56 bb 84 31 01 bc
       0.0071836915 0.010893874 -0.0032764208 -0.007885341
000320 ad e6 3c bb 9a 51 46 3e c0 9c a6 3c 7a f7 0d 3c
       -0.0028824017 0.19367066 0.020338416 0.00866496
000330 da 63 ce 3b 7b c0 22 3c b2 48 16 bc 1d 73 93 bb
       0.0062985243 0.009933586 -0.009172605 -0.0044998066
000340 b8 c8 87 bb 13 78 20 bc bb ca e0 ba 49 82 87 3c
       -0.0041438006 -0.009794253 -0.0017150262 0.016541617
000350 67 61 f3 3b f6 da 96 3b 38 a3 b7 ba dd 2e b9 3b
       0.0074273827 0.004603739 -0.0014010435 0.0056513385
000360 bb ad ad bb 48 4b 1d bc 9a 4e e2 bb 81 ac 0b 3c
       -0.0053002513 -0.009600468 -0.0069063427 0.008525015
000370 6c 9f af bb 78 66 0f 3c e0 70 d5 3b 03 8a 69 3c
       -0.0053595807 0.008752458 0.0065137 0.014254096
000380 a1 47 f8 3b 64 59 53 3e 05 ad 32 bb 6c 26 79 3d
       0.007576898 0.20639569 -0.0027263772 0.060827658
000390 fe b9 ab bb a1 6a ae 3d 2d 0d c2 3d 03 e2 a4 3d
       -0.005240678 0.085164316 0.09475169 0.08050921
0003a0 10 60 63 3d cd 4b 9a 3b ae 9e 7a bb 3d 32 5c 3c
       0.055511534 0.004708743 -0.0038241553 0.013439712
0003b0 70 fe e6 3e 49 c0 3f 3e 91 c1 09 3e 26 74 76 3d
       0.45115995 0.18725695 0.13452746 0.06016936
0003c0 cb c9 cd 3d 17 e1 41 3d 02 09 40 3e 6d 67 f8 3d
       0.100482546 0.047333803 0.18753436 0.12129102
0003d0 b0 ff 60 3e 50 17 3e 3c 99 85 cd 3d 3e 44 41 3f
       0.21972537 0.011602238 0.10035247 0.75494754
0003e0 da 20 ad 3d 97 88 0a 3e 8a 5f c1 3d 59 98 a3 3e
       0.084535316 0.13528667 0.09442051 0.3195217
0003f0 d5 02 07 3f 06 da 69 3d 7e d8 2f 3e 3f 59 ef 3d
       0.52738696 0.05709269 0.17172429 0.11686944
