catanatron_experimental/my_DQN_wyniki2/my_DQN2_400_steps.pth (torch, 268915 bytes, 8 tensors)

layer1.weight f4 [64, 614]
00000000: 6cb6 2d3c 0c1e 923b dac4 8dbc 0b57 4a3c
00000010: 5124 86bc 4168 6fba 61a7 41bc bb6d 433a
00000020: 5063 debb d965 3bbc bd88 f43b 39a6 df3b
00000030: 46db 823c 2aff 203c 74f7 033c 12da b7bb
00000040: 1824 8abb 0478 6b3c a305 89bc 0109 833a
00000050: e814 1abc ae0d 73bb 6a39 e5b6 ac51 ac3b
00000060: 2b55 693c 99da 693c 7400 5d3c f625 8e3b
00000070: 86a3 a0ba 63b7 0dbc 3cd9 ad3b 5ba9 373c
00000080: a0b7 e1ba eb74 1b3b f494 8f3b 62dd 653c
00000090: be02 85bc ab1b d63b 5671 14ba ce21 11bc
000000a0: d067 c1bb 1701 4c3c 92e9 a23a 0979 30bc
000000b0: 90bb 24bb 9761 4a3c 1f1f f83b 4951 99bb
000000c0: bb20 2a3a 1afe 09bb 552d 6a3c c83f ddba
000000d0: 7a1d a33b c16c 013c 4f4c 7abb 1a2f c03a
000000e0: bac9 933b 2ab7 b9bb ee11 453c 457b a7bb
000000f0: 19dc fa3b efcf 623b 9724 c938 2ea3 0dbc
00000100: 9b18 fcbb 4e7c 7dbc 380d 343c 0410 013c
00000110: 554d eebb 7390 3c3b 4d96 163c 14ef 453c
00000120: 4e8a 81bc d44d 813c 26e6 80bb f997 243c
00000130: 419c 2bbc 3de4 20bc f9de 5dbc 0155 82bc
00000140: d7db de3a 2c86 073c 0e96 a23b 6044 2bbc
00000150: 0f08 5ebc 4d99 723a ffe0 90bb e54c 72bc
00000160: 2e1b 13bb e0ca 3dbc da1a 0dbc e1c5 46bb
00000170: fad9 783b 9651 67bb 1409 9bbb 4f94 af3b
00000180: b3e0 5b3c bb1c 563a df75 6ebc 2eb8 173c
00000190: 57d0 c23b 4e42 2ebc 6102 5abc 315d 17bc
000001a0: 49cf 1c3c 1d27 e6bb b260 793c 9189 053c
000001b0: b1f0 6f3a 963d af3b 5e8a 35bc 3fd1 083c
000001c0: c946 043c 51e3 6abc 6e5e 29bc 35de 2ebc
000001d0: 3989 37bc c0b6 b3bb 2184 d8bb 5844 583c
000001e0: cce1 c73b 9d40 9a3a 2dbd 4ebc fc72 603c
000001f0: 77ab 2bb9 ac3c 0fba 5325 8d3b 3c68 d3bb
00000200: 5641 ba3b a921 89bb 3031 633a 6f89 273c
00000210: c008 783c d626 9eb9 16c4 7f3c 4ccb 1eba
00000220: 34c5 2c3c 8b7f bdba 1314 063c 788d 19bc
00000230: a161 49bc 0515 06ba bcd9 4fb8 04fc 0a3b
00000240: 5f1c 5d3c cb88 f7bb 06d8 9cbb daf1 513c
00000250: ea88 8cba 0b28 09ba 9530 a1bb de0c 263c
00000260: 242e 7b3c 62fa c1b7 2760 403c 9289 b03b
00000270: a5a1 cbbb cc58 77bc 3319 193c e587 653b
00000280: 27a0 57bc 7321 d93b fbbf 1bbc 8e41 b3ba
00000290: 5f72 31bc 1723 4fbc 029d f6bb 2cf9 ca3a
000002a0: 6b7e a4ba c2c2 773b 0551 49bc 709d 7c3c
000002b0: cef6 45bc 3a70 783c 4f40 09bb ac37 11bc
000002c0: a45a 0dbc 719f 1cbc 0612 013b 0fae a93b
000002d0: 4866 3d3b 0d04 343c 0be3 11bc 0fff 67bc
000002e0: e0bd 0a3c 5b47 2ebc 2a24 d63b cc00 05bc
000002f0: 3fcd 513c 336a 35bc f228 79bc c01e b03b
00000300: 41c7 15bc c102 043c 02ec 4c3c 2ea4 6a3c
00000310: d674 dfbb 330f 0dbc 7c6b 7ebc 7061 5dbb
00000320: f445 3f3c 36ea 163c cd4c 27bc ba26 613b
00000330: 797f b83a 4e18 e8ba 18ff 52bc fe55 373c
00000340: 1b24 053c 1fd0 653c 8f95 3d3c 8685 2b3c
00000350: 4eca cf3b 85a6 77bc 4c10 11bc 73d3 68ba
00000360: 9435 303c c4ff 10bb 4487 07bc 44dd 193c
00000370: 4311 763c 3d14 bbba f62d 44bc 5e5b 8bba
00000380: b949 33ba 8790 1bbc d70e 903b 29a6 a7bb
00000390: 86e0 28bc 7f27 ebbb 7853 023c aa06 f7bb
000003a0: 26ff d8bb 10cb 71bb b8cd d3bb 2185 823c
000003b0: dce0 8339 39ec 99bb 5aab 24ba 2030 3bbc
000003c0: 4a4c 603c 9267 613c a812 cc3b e3a0 9d3b
000003d0: c915 f03b 8e4b debb 3202 983b 88a9 b4bb
000003e0: c2e5 6d3c 28d2 36bc 77a4 713c 989c 0c3b
000003f0: 12f1 57bc b231 163c d8f0 313c b560 f53b
0.010602575 0.0044591483 -0.01730578 0.012349854 -0.016374739 -0.00091326615 -0.011819691 0.0007455011
-0.0067867413 -0.011437857 0.0074625895 0.006825235 0.015973698 0.009826461 0.008054603 -0.005610713
-0.0042157285 0.014371876 -0.01672632 0.000999719 -0.0094043985 -0.003708701 -6.8314157e-06 0.0052587595
0.014241497 0.014273309 0.013488878 0.0043380214 -0.0012255765 -0.00864968 0.0053054374 0.011209811
-0.0017220862 0.0023720812 0.0043817703 0.014029833 -0.01623666 0.00653406 -0.00056626403 -0.008858157
-0.005902268 0.012451432 0.0012429229 -0.0107710445 -0.002513621 0.012352369 0.0075720693 -0.0046788794
0.00064898626 -0.0021055997 0.014293035 -0.001687997 0.004977879 0.007899464 -0.0038192456 0.0014662475
0.0045101317 -0.005667587 0.012028201 -0.0051111304 0.007655632 0.0034608801 9.591242e-05 -0.008644862
-0.007693363 -0.015471531 0.01098948 0.007877354 -0.0072724023 0.0028772622 0.009191108 0.012080926
-0.01581302 0.015784182 -0.003933686 0.010045999 -0.010474266 -0.009820041 -0.01354193 -0.015909674
0.0017002773 0.008271735 0.0049617356 -0.010453314 -0.013551726 0.0009254411 -0.004421353 -0.014788841
-0.002244662 -0.011584014 -0.008612359 -0.0030330347 0.003797172 -0.0035296432 -0.004731307 0.005358256
0.013420272 0.00081677333 -0.01455447 0.00926022 0.005945246 -0.010635925 -0.013306231 -0.009238527
0.009570905 -0.0070237056 0.015220808 0.008150474 0.0009152992 0.005347918 -0.011080353 0.008350669
0.008073517 -0.014336423 -0.010337455 -0.0106730955 -0.01120215 -0.005484432 -0.006607548 0.013199888
0.006099915 0.0011768524 -0.012618345 0.013699289 -0.00016371706 -0.0005464058 0.004307428 -0.0064516347
0.005684058 -0.004184921 0.00086666923 0.010225638 0.015138805 -0.00030165043 0.015610715 -0.0006057515
0.010545064 -0.0014457566 0.008183497 -0.009372108 -0.012291343 -0.00051148265 -4.9555427e-05 0.0021207342
0.013495534 -0.007554149 -0.004786494 0.01281401 -0.0010721956 -0.0005232102 -0.0049191215 0.010134904
0.015330825 -2.3123986e-05 0.0117416745 0.0053874934 -0.006214338 -0.015096854 0.009344387 0.0035023626
-0.013160742 0.006626302 -0.009506221 -0.0013676153 -0.010830491 -0.012642643 -0.007526041 0.0015485636
-0.0012549883 0.0037805294 -0.012287383 0.015418395 -0.012082769 0.015163476 -0.0020942872 -0.008863371
-0.008627567 -0.009559498 0.001969458 0.00517822 0.0028900076 0.010987294 -0.008904229 -0.014159932
0.008468121 -0.01063713 0.006535073 -0.008117866 0.012805282 -0.011072683 -0.015207516 0.0053747594
-0.009141744 0.008057297 0.0125074405 0.01432137 -0.006819348 -0.008609581 -0.015528556 -0.003378
0.011674393 0.009211114 -0.010211182 0.0034355358 0.0014076076 -0.0017707439 -0.012878202 0.011189936
0.008126284 0.014026671 0.011571302 0.010468846 0.0063412553 -0.015115385 -0.008853983 -0.0008881606
0.0107549615 -0.0022125104 -0.008271996 0.009391133 0.015018764 -0.0014272999 -0.011973849 -0.0010632088
-0.00068392936 -0.009494907 0.0043963003 -0.0051162434 -0.010307437 -0.007176339 0.007954471 -0.007538636
-0.006622213 -0.0036894716 -0.0064637326 0.015932621 0.000251538 -0.0046973494 -0.0006281637 -0.011425048
0.013690064 0.013757603 0.00622781 0.004810439 0.0073268157 -0.006783909 0.0046389336 -0.0055133738
0.014520111 -0.011158504 0.014748684 0.0021455642 -0.013180034 0.009167122 0.010860644 0.007488335

layer1.bias f4 [64]
00000000: 5e8e 283c 7d91 483a 7af0 18ba 93d8 d441
00000010: 2b0f 93bc 058e d441 91c4 98bc afab d441
00000020: c4e5 373c bad7 d441 5583 d441 aed0 d441
00000030: 812a 9bbc 61bd 35bd 6d60 d441 7fbd d341
00000040: 5fba d441 6490 d441 2cda d441 4e86 6a3c
00000050: fbe3 d341 5ba0 d441 3885 d441 b3ab dfbb
00000060: 383c e5b9 4cb4 d441 f1e2 84bf 6ce1 d441
00000070: 24ae 593b 8aa5 5d3c c39f 5cbc 202e 3abc
00000080: 87a7 d441 98b5 26bc e7b5 2e3c 69cb d441
00000090: ae84 d441 5cae d441 b8b0 d441 63b3 1b3b
000000a0: 9fbe 82bf f423 4fbb edae d441 5baa 7bbf
000000b0: 73b3 bbba 7243 12bc a361 48bc d9cb c1bb
000000c0: ef9a d441 248d cf3b ba5d 1abb 067a 8bbc
000000d0: f97e d441 b799 d441 3d98 d441 7667 d441
000000e0: b8e6 523b 79b4 efbb 0777 59bc b498 d441
000000f0: 8db9 d441 f8b0 d441 8baa d441 8475 d441
0.010287849 0.0007651074 -0.00058341736 26.60575 -0.017951569 26.569345 -0.018648418 26.58383
0.011224214 26.605335 26.564127 26.601894 -0.018941166 -0.04437006 26.547083 26.467527
26.591002 26.570503 26.60653 0.014314247 26.486319 26.578299 26.565048 -0.006825888
-0.0004372315 26.588036 -1.0381757 26.61007 0.0033215368 0.013528237 -0.013465825 -0.011363536
26.5818 -0.010175131 0.010663486 26.599321 26.564785 26.585136 26.586288 0.0023758046
-1.0214423 -0.0031607123 26.585413 -0.98306817 -0.0014320448 -0.008927213 -0.01223031 -0.005914193
26.575651 0.006333964 -0.00235544 -0.017025959 26.561998 26.575056 26.574335 26.550518
0.0032180976 -0.007315215 -0.013273007 26.574562 26.590601 26.58641 26.583273 26.55738

layer2.weight f4 [64, 64]
00000000: 2f50 00bc 4aaf a8ba 2bc0 833b 2397 ea3c
00000010: e0d6 afbc dad1 0a3b dc40 27bd 5859 253d
00000020: d1bd 71bc 0544 ed3a c720 1cbd 4d54 d93c
00000030: 978a e1bc cca0 063d 2a1f 103a 34f1 8e3c
00000040: 199a ef3c 1077 e53c 5178 563b c6ec 483b
00000050: 9e16 2cbd 03f9 aabc 1cc6 db3c 90c0 b53c
00000060: b075 043d 6b1c adbc 08ba d43c 62ec 50bd
00000070: 8c37 40bd bb5f 043c 49e4 0bbd a264 48bd
00000080: 11c5 03bd ca22 a03c 9bef e4bc 7f16 71bc
00000090: afcf fd3c 0c1c ddbc fb90 fabc d9d8 cbbc
000000a0: d58a 1a3d 71f8 073d 1dc9 3a3d b147 793c
000000b0: 4b23 6ebc bb83 643d c90d 2f3d d1c2 343c
000000c0: 7077 57bd ead6 043d e89b 05bc 681a 033d
000000d0: 3ff7 e23b 5662 4bbc 09c8 72bd 6f12 183b
000000e0: 5b72 a5bc a64d 37bd 5c4d 2e3d 04ce 133d
000000f0: 6ca1 32bd 4819 15bd 0cab 7e3c fc75 2fbd
00000100: c169 183c a3cc 8f3c 34e1 36bc 719b 08bd
00000110: eb24 8ebb cdb6 d1bc 989f c5bb e028 eabc
00000120: da0c 0dbd be36 a73b aa48 0f3d 8f8f 3d3d
00000130: bc74 19bc 4038 1d3d d5ef 85bc ffe7 183d
00000140: cb1a babc b241 c33c 506c a1bc 3a52 263d
00000150: eb11 d5b9 c7fe 43bd 2300 c03c 2d50 d33c
00000160: 29d4 6eba b65b 8ebc db86 a3bc 75f0 7abc
00000170: 1eb9 dc3c cdac 22bd c446 7bbc faea cbbc
00000180: 8c06 88bc 4580 a2bc cb64 bc3c aff0 eabc
00000190: 95b7 2dbd 9370 48bd 800e 4fbd 7f04 04bc
000001a0: fbd5 0dbd 8196 18bd 6a4d 2b3d ee0a 293d
000001b0: 0380 37bc e3ba 39bd 541c c1bc f39a ff3b
000001c0: 0dd7 c83c 7b06 81bb ce0f a1bc 651a 353d
000001d0: 9eb7 303d 4126 803c 6634 6fbc aa21 92bc
000001e0: e311 a13c ee5c 143b 949c 54bc 1f56 003d
000001f0: 7aa0 e9bc aa5c 3a3d 0fd8 dd3b 2638 263d
00000200: 80f6 d33b f4ca 0e3d 9edb 1d3d 653a d241
00000210: b881 f0bd 4735 d241 a976 9cbc 6750 d241
00000220: c429 08bb 727c d241 55f3 d241 b14c d241
00000230: 8109 96bc c4e1 e3bf 2fa2 d241 2ebb d241
00000240: 0404 d341 0f85 d241 b54e d241 cd91 b03c
00000250: 5252 d441 1a7f d241 3cda d241 b1cb 01bd
00000260: 35ea 1e3d edf6 d241 428d a1c1 b855 d241
00000270: 3913 453d 2ca5 9fbc 2fea 51bc 3bbe 3bbc
00000280: 6137 d341 9db3 91bc 3191 033d c864 d241
00000290: 8af5 d241 5e27 d341 26f6 d241 3c81 e0bb
000002a0: a17e a7c1 d1a5 a83c 5460 d241 e160 aac1
000002b0: 0eed 04bc 6dbb 4b3d 7b38 81bb adc9 07bb
000002c0: 06d9 d241 c993 f7bc 933b 43bd d098 ea3c
000002d0: 481c d341 93d4 d241 6e29 d241 0226 d341
000002e0: 042e 27bd 6011 19b9 f9b5 74bd bc99 d241
000002f0: 44ab d241 0f30 d341 32c5 d241 d7fa d241
00000300: eb1d 173d daca 45bd fb39 19bd 5d06 a5bc
00000310: 2404 e33e 1e1d 8e3d de51 533c 71ca 1fbd
00000320: 03c3 0abc cb62 853c eb8d 063d c710 1bbd
00000330: 54d4 833c 4317 9ebc 7ce4 b83c d0b2 273e
00000340: dde2 0d3d 9970 2ebd 62fb 073d 6d85 14bd
00000350: d5b7 15be 6d2c 09be f5db 703a f113 913c
00000360: 6ec8 29bd e7ee 2fbd 0a68 debd e9f7 233d
00000370: b3c7 c63c efc6 063d 8c3e aa3c 60ea 0abd
00000380: f1b2 03be e7a4 373c 02a5 8c3c 7186 ee3c
00000390: 062b 74bd e574 8b3c afff 9bbc d713 d0bc
000003a0: 9851 35bd c3e7 b03b bf0c 13bc d8ab 8f3e
000003b0: ffc7 39bd 93d9 333e b725 58bc 5dde 46bd
000003c0: 738e a3bc 7aed 85bc 9d8b a1bc f681 b43c
000003d0: 112a cabd 8c4f f93c af6a 99bc 779a bb3d
000003e0: 3ce5 11bd 3b7e 203d 8468 0dbd dcb0 0ebd
000003f0: a652 38bb 87c5 ef3c 1347 20bd a22b 68bd
-0.007831617 -0.0012869623 0.004020711 0.02863652 -0.021464765 0.002118221 -0.04083334 0.040368408
-0.014754728 0.0018101936 -0.038117196 0.026529456 -0.027531905 0.03286819 0.0005497808 0.017448999
0.029248284 0.028010875 0.0032725523 0.0030658706 -0.042013757 -0.020870691 0.026827864 0.022186548
0.032338798 -0.021131715 0.025967613 -0.051006682 -0.046927974 0.008079465 -0.034153257 -0.048924096
-0.03217036 0.019547839 -0.027946284 -0.014714836 0.03098282 -0.026990913 -0.03058671 -0.024883674
0.037730057 0.033195917 0.045601953 0.0152148465 -0.014534782 0.05578969 0.042737756 0.011032776
-0.05260414 0.03243152 -0.008154847 0.032007605 0.0069264467 -0.012413582 -0.0592728 0.0023204347
-0.02019613 -0.044751786 0.042554244 0.036085144 -0.043610975 -0.036401063 0.01554371 -0.042837128
0.009302557 0.017553633 -0.011162091 -0.033351365 -0.004337897 -0.025599862 -0.006030988 -0.028583944
-0.034436084 0.0051029613 0.034981407 0.046279486 -0.009366211 0.038383722 -0.016349712 0.037330624
-0.022717854 0.023835037 -0.019704968 0.04060576 -0.00040639876 -0.047850396 0.023437565 0.025795067
-0.0009110594 -0.017377716 -0.019961765 -0.0153161185 0.02694374 -0.039715577 -0.015336696 -0.024892319
-0.016604684 -0.019836554 0.02299728 -0.02867922 -0.042411406 -0.048935484 -0.050550938 -0.008057713
-0.034627896 -0.037252907 0.041821875 0.04127019 -0.011199954 -0.045344245 -0.023573078 0.007800454
0.024516607 -0.00393754 -0.019660857 0.044214625 0.04314386 0.01564324 -0.014599895 -0.017838318
0.01966185 0.0022638398 -0.012976784 0.03133213 -0.028518904 0.045498528 0.006770141 0.04058089
0.006468594 0.03486152 0.03853952 26.278513 -0.11743492 26.276014 -0.01909955 26.289259
-0.0020776847 26.310764 26.368814 26.287447 -0.018315079 -1.7803273 26.329191 26.341396
26.37696 26.31497 26.288431 0.021553898 26.540195 26.312061 26.35656 -0.031688396
0.038797576 26.37057 -20.193974 26.291855 0.048114035 -0.01948794 -0.012812181 -0.011458929
26.40204 -0.017785842 0.032120887 26.29921 26.369892 26.394222 26.37019 -0.0068513434
-20.93683 0.02058688 26.297035 -21.297304 -0.008113159 0.04973929 -0.0039435006 -0.0020719573
26.355968 -0.030221837 -0.047664236 0.02863732 26.38881 26.353796 26.27023 26.393559
-0.04081537 -0.0001459769 -0.059743855 26.325066 26.333626 26.398466 26.346287 26.37248
0.036893766 -0.048289157 -0.03740881 -0.020144636 0.44339097 0.069391474 0.012897937 -0.039011423
-0.008469346 0.01628246 0.032850187 -0.037857797 0.016092457 -0.019298201 0.022569887 0.16376805
0.03464018 -0.04258785 0.03319872 -0.036260057 -0.14620908 -0.13395853 0.00091880496 0.017709704
-0.04145091 -0.042952444 -0.108596876 0.040031347 0.024265146 0.03290456 0.020781778 -0.033914924
-0.1286123 0.011208749 0.017168526 0.029116841 -0.059611343 0.017023513 -0.019042818 -0.025400085
-0.044267267 0.005398722 -0.008975207 0.28060794 -0.045356747 0.17563467 -0.013192586 -0.048551906
-0.019965386 -0.01634859 -0.019719893 0.022034626 -0.09871305 0.030433439 -0.018727629 0.09160321
-0.035619006 0.039182883 -0.034523502 -0.034836635 -0.0028125434 0.029268993 -0.03913028 -0.056682236

layer2.bias f4 [64]
00000000: 69e9 04bd 1ed0 123d f957 f341 daaa 76bb
00000010: a839 f341 5e5b f341 642d 59bd cc59 36bd
00000020: 62b2 f341 ee50 9cbc ec7e f341 8b65 1dbd
00000030: 1249 f341 4d12 3e3d a485 f341 51f9 f241
00000040: 2039 f341 14b7 f341 003a 27bc 377b f341
00000050: 278d d93c aa0f f341 15fe 373c d06c 0bbd
00000060: dd94 58bd a2cf 37bd 3d05 00bd d706 f341
00000070: 9b75 45bd e4c4 f341 3bbf f341 fdf5 0e3d
00000080: ea13 cb3c 3b83 34bd 3765 f341 a7f5 f241
00000090: 9c6e f341 f576 d33c c6ea 10bb 6a7d 9abb
000000a0: 92ed f241 0b30 f341 cc7e f341 06e7 30bb
000000b0: cb6f 9d3a eb63 21bd 4e77 43bd 9154 f341
000000c0: e812 36bd fc3d 3fbd 3655 f341 ef59 af3a
000000d0: d450 f341 d25e f341 ae10 f341 315c f341
000000e0: adb3 f341 6d19 f341 f4e4 a2bc 8783 f341
000000f0: 7d1e f341 4a86 f341 6fac f341 4092 f341
-0.03244916 0.035843007 30.417955 -0.0037638457 30.403152 30.419613 -0.053021803 -0.04451923
30.462101 -0.019081559 30.436974 -0.038426917 30.410679 0.04640417 30.440254 30.371737
30.402893 30.464394 -0.010206699 30.435163 0.026556564 30.382648 0.0112300115 -0.03403932
-0.052876342 -0.04487575 -0.031254996 30.37834 -0.04820786 30.471138 30.468374 0.03490256
0.02478977 -0.044070464 30.424421 30.369947 30.429008 0.02581356 -0.0022112592 -0.0047146576
30.366001 30.398458 30.436913 -0.002699317 0.0012011466 -0.03940193 -0.0477212 30.416292
-0.044451624 -0.046689972 30.416607 0.0013378243 30.414467 30.421299 30.383144 30.420015
30.462732 30.387415 -0.019884564 30.439222 30.389887 30.44057 30.459196 30.446411

layer3.weight f4 [64, 64]
00000000: 4585 c93c 444a 4fbd 680e 63bd 557c 39bd
00000010: 5476 fe3a fe4e 5ebd a9aa 4f3c 0d06 8fbc
00000020: 026d 17bc 58f8 4cbc 6601 24b9 278f 1dbd
00000030: 8b34 4abd 3fab 5d3c 8b25 253b e142 84bc
00000040: 5232 d93b 818c eb3c 6064 0a3d 96cf 48bd
00000050: a51c d9bc e2c6 a53d 607d d8bc 0094 5c3d
00000060: a213 1ebd c09e 9abc 90c4 38bd 2c9f 3d3d
00000070: b3d4 843a 05bb 20bd 965b 783c ed18 1c3d
00000080: dd3d 3d3c 6b6f 3cbd e1b3 2fbd 1dec 7c3c
00000090: e4dd 913c b73c 93bc fd14 1f3d aa5b 3c3d
000000a0: d9d2 1e3d e00b ca3c 7ea6 eb3c 18c2 00bd
000000b0: 14cf 103d 1b79 853c 5a1f 21bc a10c 263d
000000c0: e3f0 07bc 41a3 f53c 51eb ad3c 6b6c 21bd
000000d0: 1cde 6d3c 088a c8bc 1edc d83c 9be6 19bd
000000e0: 0ae5 49bd 0b3c 243d 5bc1 a6bc af3a 3ebd
000000f0: ccf9 e1bc a27b 0cbd e12c 023d 2e29 18bd
00000100: f3fc 0ebd 09ef 17bc e914 d041 09d9 a13e
00000110: 3e21 d041 3ca0 cf41 9b2c 25bd ac63 1a3d
00000120: e796 cf41 c1ee e4bd 7093 cf41 5e9b 10bd
00000130: e621 d041 e587 b8bb fcf4 cf41 c32b d041
00000140: acbd cf41 e8a4 cf41 f9d8 593d 6fc5 cf41
00000150: 7cdd 8b3c 5e1b d041 acf5 093d 53dd ccbc
00000160: 6251 2a3c 810a 16bd b4e6 373d d21d d041
00000170: 17d0 c5bb 57e7 cf41 66f9 cf41 b808 363d
00000180: 3250 25bd db02 dd3c 568e cf41 f805 d041
00000190: 52ca cf41 978b 283d d4f5 223e a78a 3b3e
000001a0: 981d d041 cc2f d041 381a d041 1ab6 1fbd
000001b0: 2968 44bc e464 c43c 837b 493a 9802 d041
000001c0: 36e5 dfbc 46ea 043d 4b3a d041 7558 153d
000001d0: 07a5 cf41 4118 d041 2136 d041 314b d041
000001e0: ff6a cf41 f2c6 cf41 c700 c2bc 9382 cf41
000001f0: 37dd cf41 2529 d041 c98d cf41 53f5 cf41
00000200: 79b3 1abd 07f5 e83c 7dad af3a 66bd e5bc
00000210: e799 c2bb 7e89 893c 3a1a 2cbc 0929 2c3d
00000220: 006b 123d fcf7 1cbd e6da 8abc a622 1dbd
00000230: 4045 69bc 3037 e5bc 2414 b7bc 37fe 1a3d
00000240: 3fd4 f33b 18fb f7bc c5cd 21bb aafd b33c
00000250: 8c27 cebb 58fa 35bd cf5c c03c c1f9 5bbd
00000260: 16dc 06bd 9ec1 d5bc 9951 983c 6280 293d
00000270: 0912 043d 2a7f 8dba cbbb 3c3b 178c c2b7
00000280: d9f5 3ebb 9937 353b 41e5 183d 23bd 833c
00000290: ccdc 8a3a 662a c5bc f748 203d d245 25bd
000002a0: c295 39bd ca5a 30bd 312c 41bd 4fd6 1e3d
000002b0: b20b 8ebc 9dae 40bd 4da1 2ebd 0ba3 47bc
000002c0: 6db6 a33c 5fca 3abd a139 003d 45f1 da3b
000002d0: 2bb2 02bd 77db 143d f26d 5cbd 0e85 833c
000002e0: 7287 5a3c 56ca b23b 8caa 1d3d b9f9 c33c
000002f0: 8258 ba3c 6f37 183c 46b2 f4bc 2e25 59bd
00000300: eede c4bc a754 3abd e5bf ce41 4810 8f3e
00000310: 94cb ce41 007a ce41 74fe f5bc a250 0d3c
00000320: ee8e ce41 589b 9e3e ae40 cf41 5070 b6bc
00000330: 25dd ce41 57dc 99b9 97b0 ce41 4bb5 ce41
00000340: 7296 ce41 a9fd ce41 7835 b5bb 5fc5 ce41
00000350: f1a4 ec3c 9376 ce41 f9a8 f2bc e6b6 313d
00000360: 3a23 7fbb a834 023d b79b 4b3c 21ac ce41
00000370: b0f6 653c 9ba9 ce41 41e1 ce41 1c1b 073c
00000380: 7772 95bc 1b6d bd3c 85f2 ce41 95b0 ce41
00000390: ee4f ce41 e46d 353d e145 013f ceef 673e
000003a0: 4041 ce41 689d ce41 66e9 ce41 77df aebc
000003b0: 3c21 2fbd bcda ab3c 734d 243d 99de ce41
000003c0: 3bf1 48bd 91f3 0a3c c9cf ce41 02ea 39bc
000003d0: 28b4 ce41 983a ce41 49c9 ce41 a154 ce41
000003e0: 4677 ce41 e85d ce41 bed6 ecbc 01e2 ce41
000003f0: e1a1 ce41 1290 ce41 76ca ce41 05e3 ce41
0.02459968 -0.050607935 -0.05543366 -0.045284588 0.0019413927 -0.05427455 0.012674966 -0.01745894
-0.009242298 -0.012510382 -0.0001564078 -0.0384666 -0.049366515 0.013529598 0.002519938 -0.016145172
0.006628313 0.02875352 0.03378713 -0.049026094 -0.026502917 0.080945745 -0.026426971 0.05385208
-0.038592942 -0.018874526 -0.04510933 0.046294376 0.001013419 -0.039240856 0.015158555 0.03810971
0.011550394 -0.046004694 -0.042896155 0.015437153 0.017806001 -0.017973287 0.038838375 0.045985855
0.0387753 0.024663866 0.028765913 -0.031435102 0.035353735 0.0162931 -0.009834135 0.040539388
-0.008297178 0.029985072 0.021230372 -0.039410036 0.014518287 -0.02447988 0.026472148 -0.03757344
-0.049290694 0.040096324 -0.020355871 -0.046442684 -0.027584933 -0.034297593 0.03178108 -0.037148647
-0.0349092 -0.009273299 26.01021 0.31610897 26.016232 25.95324 -0.040325742 0.03769271
25.948683 -0.11178351 25.946991 -0.03530442 26.016552 -0.0056314343 25.994621 26.021368
25.967613 25.95552 0.053185437 25.971403 0.017073385 26.013363 0.033681557 -0.02500788
0.01039538 -0.03663111 0.04489775 26.01456 -0.006036769 25.987959 25.996777 0.04444191
-0.040359683 0.0269789 25.9445 26.002914 25.97379 0.04114875 0.15914088 0.1831461
26.01445 26.023338 26.012802 -0.038992025 -0.011987724 0.02397389 0.0007685946 26.001266
-0.027330976 0.032449983 26.028463 0.036461312 25.95558 26.011843 26.02643 26.036715
25.927244 25.972141 -0.023682011 25.938757 25.983015 26.02009 25.944231 25.994787
-0.037768815 0.02843715 0.0013403144 -0.028044414 -0.0059387567 0.016789194 -0.0105043 0.04203132
0.035746574 -0.038322434 -0.016950082 -0.03836312 -0.014237702 -0.027980417 -0.022348471 0.037840094
0.007441073 -0.030271098 -0.0024689299 0.021971542 -0.0062913354 -0.0444282 0.023481755 -0.05370498
-0.032924734 -0.0260933 0.018593596 0.0413822 0.032243762 -0.0010795344 0.0028798457 -2.3191837e-05
-0.0029138236 0.0027651547 0.03732801 0.016081398 0.0010594367 -0.024068069 0.039132085 -0.04034979
-0.045308836 -0.043055333 -0.047161285 0.0387786 -0.017339561 -0.047041524 -0.042634297 -0.012184869
0.019984448 -0.045603152 0.03130496 0.0066815936 -0.031908195 0.03634211 -0.05381579 0.016054656
0.013337957 0.005456249 0.038492724 0.023922788 0.022747282 0.00929056 -0.029870164 -0.053013973
-0.024032082 -0.045490887 25.843699 0.2794211 25.849403 25.80957 -0.03002856 0.008625181
25.81979 0.30977893 25.906582 -0.022270352 25.85798 -0.000293466 25.836226 25.838522
25.82346 25.873857 -0.0055300556 25.846373 0.028887244 25.807898 -0.029621588 0.043387316
-0.0038930909 0.0317885 0.012427262 25.834047 0.014035866 25.832815 25.859987 0.0082462095
-0.018243058 0.023123315 25.868418 25.836222 25.789028 0.044294253 0.5049725 0.22650072
25.78186 25.826859 25.863964 -0.02134679 -0.042756304 0.020978324 0.040112924 25.85869
-0.04905818 0.008480922 25.851458 -0.011347296 25.837967 25.77861 25.848284 25.791323
25.808239 25.795853 -0.02891099 25.860353 25.829042 25.820347 25.848858 25.86085

layer3.bias f4 [64]
00000000: 5175 2cbb 422d d741 a0bf b4bc 6164 d841
00000010: a32f d341 94cf 07bd c918 4bbb 6548 d341
00000020: 7401 d541 d362 d041 f564 adbc 353d 15bd
00000030: 717f d241 d69a d941 abca 44bc 890f 093d
00000040: cb94 3cbd c5e7 d741 9e5e da41 aeb9 d841
00000050: 5e47 0fbd 5b2e 4a3c aa40 b93b b03e af3c
00000060: 5026 d13c 53e7 d341 a9ff dbba b84a 8b3b
00000070: aaa6 7c3c 8148 ce3c bf16 d941 52ac 723a
00000080: 9c43 4bbd 06d2 d741 0624 523c 8c37 cd41
00000090: d96f 953c d3eb 3b3d 53c7 533c 52d0 0ebd
000000a0: bbf1 ed3b dfc4 d341 4b2a d941 0686 d641
000000b0: faf2 33bc 00b5 e13b 8e86 b5b9 858d d941
000000c0: 5530 2d3a 1224 d841 f923 3fbd 80f3 2b3d
000000d0: d171 8dbc dbc3 32bd 53f1 3cbd 7c10 34bd
000000e0: d681 463d 2cb5 0cbd 0c8b d941 92b1 2abd
000000f0: 42cb 183c aef9 cc3c abef d641 e701 05bc
-0.0026315043 26.897099 -0.02206403 27.049013 26.39826 -0.033156946 -0.0030990115 26.410349
26.62571 26.048254 -0.021166304 -0.036435325 26.312227 27.200603 -0.01201121 0.03346208
-0.046040338 26.988169 27.2962 27.090664 -0.03498017 0.012340154 0.0056534605 0.021392196
0.025530964 26.487951 -0.0016784567 0.0042508505 0.015420595 0.025181057 27.136106 0.0009257245
-0.049625024 26.97755 0.0128259715 25.652122 0.01824181 0.045879196 0.012925941 -0.03486664
0.0072614825 26.471128 27.14565 26.815441 -0.010983223 0.006888032 -0.0003462326 27.194101
0.00066066283 27.017612 -0.046665166 0.041980267 -0.017266186 -0.043643814 -0.046128582 -0.043961033
0.048463665 -0.034352466 27.192894 -0.04167325 0.009325804 0.0250214 26.867025 -0.008118129

layer4.weight f4 [290, 64]
00000000: 7f35 24bc d147 4241 8307 8ebc c00f 4241
00000010: 3186 4141 992c a2bc d544 50bd c0d4 4141
00000020: f1ab 4141 c475 4141 0f4c 103b 9d2e ed3c
00000030: e48c 4141 c7a6 4241 d4d9 6637 606f 8b3e
00000040: 4467 6cba 66d6 4141 2181 4241 2539 4241
00000050: f61a 46bc 4ab1 313d f3a7 443d aec0 1f3d
00000060: 5e98 c63a 8faf 4141 e341 bd3c e675 5ebb
00000070: 52e0 b83c dc5a 2bbd 8330 4241 3fb1 71bc
00000080: 64c9 253d 252e 4241 3dcf 3f3d 363e 4141
00000090: 2df4 233d 8f1c 3e3d 603f 8fbd 6114 dcbc
000000a0: 7f83 3e3d 4f92 4141 e9a7 4241 e20d 4241
000000b0: 56e8 9ebc a3b7 16be b80b 3ebd c852 4241
000000c0: 26a1 adbc b41a 4241 37fb 1bbb f057 1d3e
000000d0: 8c20 dfbc 4c0f 693c 17f6 2e3c 73a7 bcbd
000000e0: 3f4d 29bc 92f9 aebc 789d 4241 38f6 98bc
000000f0: fb47 96bc 5025 0d3c f5e4 4141 62b1 d53c
00000100: 0f6a b33c 9357 fd3e 6aa1 fcbb bf24 053f
00000110: acab d53e 0bc9 6cbc 6a06 843c 5264 f83e
00000120: 713a 0c3f 5ac0 df3e 5396 9b3d 230c 1dbd
00000130: 68b2 f23e 1f4b 0b3f 0bfc 883c 73ce 803e
00000140: dc6d c439 5c6f d43e 5f00 0e3f 5073 033f
00000150: 4338 45bc dbb9 073d f1bf af3c 21f8 023c
00000160: de97 ffbb f229 f03e bb5f 47bb f5e3 ee3c
00000170: 36ce 213d 2a48 d63c 19dc f33e d23b 02bd
00000180: d219 873b 9b0f 073f 88fb d73c a1a2 e93e
00000190: 73b1 2d3d 6e7c c0bc 1b8c 493d d559 25bc
000001a0: 53db 293d 9be8 063f 446e 043f 8794 023f
000001b0: 5db5 2c3d d43a 8a3d 8507 3c3b 57cc 063f
000001c0: 4966 15bd 94c4 e73e 76e4 70bc d3ae 5b3e
000001d0: 1972 3d3b cb98 e53c df11 a1bc 01f5 c83d
000001e0: bb2c 8dbc 54a2 c6bb d5ac 043f b2b2 413c
000001f0: 8799 8c3c 54c1 013d f8e0 003f a0f8 443b
00000200: d81e 103d b33a 873f 84b5 12bb 31a4 893f
00000210: 0750 903f f9ca bfbc 2b40 103d a011 8b3f
00000220: a502 8a3f 742a 913f 6193 403c 8d3d 643c
00000230: 20cb 913f bcac 8c3f 51c2 0c3c 2686 813b
00000240: e71e 103d dfe0 8b3f f558 8d3f fb3f 883f
00000250: b8ea 2cbc bf89 a4bb a94c 123d ad22 6fbc
00000260: dec1 0fba e94b 8d3f aa7b 01bd f463 e83c
00000270: dddb 12bd 27c5 5fba 3695 8e3f 8910 b9bc
00000280: f039 e3bc 9782 8e3f 584d 023d bb50 a03f
00000290: 62dd b2bc 9acd d63b e6a7 f1bb a8cd f63c
000002a0: 2154 2e3d b70a 8a3f 16d7 8c3f 7b3a 8d3f
000002b0: 0a95 183d 2bec 573d 98c7 fcbc 3f24 933f
000002c0: 615e 73bb cc8a 8d3f 57ca a9bc 5baa 1c3d
000002d0: 3367 3a3d edee b13a bdef e2bc 78d9 3f3c
000002e0: ff38 d53b b0af e83c 3707 913f 874b a4bc
000002f0: d5f1 193d c69c 353d e5c7 883f 5502 213d
00000300: 51f3 babc 3561 0f3f 9008 e83c 27d8 133f
00000310: f679 0c3f 054e 243c b55d a83c eabf 0d3f
00000320: 34f6 023f 1f65 0e3f cf49 783d 948b d4bc
00000330: 1d9f 043f 7b3f 133f d15b 233d d724 c13c
00000340: c7b3 b1bc fc04 093f 7e40 033f af45 083f
00000350: 13b3 98bb a138 a9b9 03cb 16bc 8b68 4b3b
00000360: 1f5e 8abc 60fe 023f 573d 423d 879b 193d
00000370: e932 153d e5b9 f4bc d225 053f bdb0 443a
00000380: f382 4d3d 4043 0d3f 0444 943c 1523 153f
00000390: 6f0e efbc 1080 503a 1b80 4e3c a7c0 443d
000003a0: 213d 3c3d 76ad 073f 74b7 173f 9dc7 003f
000003b0: 7871 f23c 5bb4 d63c 0eb2 b03b f16c 063f
000003c0: a5ab 223d dee8 123f 33a1 9aba 10ad cb3b
000003d0: 59e3 b23c 83c9 28bd 8e59 1f3d 10aa bf3c
000003e0: b230 293d 763d 37bd a17b 023f f42a 4a3d
000003f0: 8093 c23c a428 3cbd cd78 133f 0f84 eabc
-0.01002252 12.142533 -0.017337566 12.128845 12.095262 -0.019796656 -0.050846893 12.114441
12.104478 12.091251 0.002201799 0.028952891 12.096897 12.165717 1.3759785e-05 0.2723341
-0.00090180733 12.114843 12.156526 12.138951 -0.012091389 0.043381967 0.04801173 0.039002113
0.001515161 12.105361 0.023102706 -0.0033944785 0.022567902 -0.041834697 12.136844 -0.014751731
0.040475264 12.136266 0.046828497 12.077688 0.040027786 0.046413954 -0.0699451 -0.026865186
0.046512123 12.09822 12.165994 12.128389 -0.019397896 -0.1471849 -0.046397895 12.14521
-0.021195006 12.131519 -0.0023800859 0.15365577 -0.0272372 0.014224838 0.01067879 -0.09211626
-0.010333358 -0.021359239 12.1634445 -0.018672094 -0.01834487 0.008614853 12.118398 0.02608556
0.021901159 0.49480876 -0.0077096717 0.52009195 0.41732538 -0.014452229 0.01611634 0.48514038
0.54776675 0.4370144 0.075970314 -0.038341653 0.47401738 0.544115 0.016721746 0.25157508
0.00037465885 0.4149121 0.55469316 0.5134783 -0.01203734 0.03313623 0.02145383 0.007993729
-0.0078000864 0.46907002 -0.003042205 0.029161433 0.0395033 0.026157457 0.4762886 -0.03179533
0.004122951 0.5275819 0.026365057 0.45631889 0.042405557 -0.023496833 0.04920588 -0.010092218
0.04146893 0.5269868 0.5173075 0.51007885 0.04216515 0.06749502 0.0028691005 0.5265555
-0.0364745 0.45267165 -0.014702907 0.21453409 0.0028907119 0.028026959 -0.019661842 0.09812356
-0.017233243 -0.0060618315 0.5182622 0.011822389 0.017163051 0.031678513 0.50343275 0.0030055419
0.035185665 1.0564789 -0.0022386024 1.0753232 1.1274422 -0.023412215 0.035217445 1.0864754
1.0782057 1.1341081 0.011753888 0.0139306905 1.1390114 1.0990214 0.0085912505 0.0039527593
0.03518572 1.0928 1.1042773 1.0644525 -0.010554008 -0.0050213034 0.03571764 -0.01459567
-0.00054839056 1.1038791 -0.031612076 0.028367974 -0.03585421 -0.0008536153 1.1139286 -0.022590892
-0.027737588 1.1133603 0.031812042 1.2524637 -0.02183408 0.0065552713 -0.0073747514 0.030127361
0.0425607 1.078452 1.1003139 1.1033472 0.03725151 0.05271546 -0.030856892 1.1495436
-0.0037135112 1.1057982 -0.020726366 0.0382484 0.045508575 0.0013575234 -0.027702207 0.011709563
0.0065070386 0.028404087 1.1330327 -0.020055545 0.037584145 0.044338964 1.0686003 0.039308865
-0.0228211 0.560077 0.028324395 0.577517 0.548736 0.010028367 0.020552495 0.5537096
0.51156926 0.5562305 0.060617264 -0.025945462 0.5180529 0.5751874 0.039882485 0.023577137
-0.02169217 0.5352323 0.5127028 0.5323133 -0.004660019 -0.00032276384 -0.009203675 0.0031037654
-0.016890584 0.51169395 0.04742178 0.037501838 0.036425505 -0.029873798 0.52010834 0.00075031427
0.05017371 0.5518074 0.018098839 0.58256656 -0.029181687 0.0007953653 0.012603785 0.04803529
0.045956735 0.52999055 0.592643 0.50304586 0.029595122 0.026209047 0.0053923195 0.5250998
0.039714474 0.5738658 -0.0011797309 0.006215699 0.021836923 -0.0412078 0.038903765 0.023396522
0.041306205 -0.044736348 0.5096989 0.04935737 0.023751974 -0.045937195 0.576062 -0.028627424

layer4.bias f4 [290]
00000000: 9f60 2241 ef0e c73e 503d 743f 6b1f fc3e
00000010: b27a 1c40 a21f c73e d5dd c13e d786 153f
00000020: 7a27 3241 8381 1241 7656 693f 3721 573f
00000030: 7d34 ba3e 0c3d e43f e9ef e53e f48d ef3e
00000040: dda1 e63e 2129 673f 3b51 8340 0498 953f
00000050: 8e8e 5841 e551 bf3e 77aa f03c 997e 813d
00000060: 9517 a53c 48e0 1e3d a788 a03e b475 f23c
00000070: 60e3 053f e7fb 0440 5ee2 c83e 1bd7 e83e
00000080: a646 063f 8952 c5bc 1634 29bd 7e6a 41bc
00000090: ad3c 64bc 0257 8f3d 08bb be3d 07e8 8c3e
000000a0: 6438 a23e 6b89 543e b372 883e 9247 8d3e
000000b0: 6cb8 ac3e 5eef 153d 837f 0dbd 28ba 26bd
000000c0: c866 acbc d5c4 813f 8b9d 003f 1fd9 84bc
000000d0: 8db8 3341 4679 eb3e 7594 983e a55b 1f3d
000000e0: 3315 3dbb b217 2cbd a331 223d 857b e73e
000000f0: f492 81bc 82a0 113d df51 623c 90f8 493d
00000100: e3c6 a8bb 0761 0fbd b0da 8e3d a41a 053e
00000110: f7c8 223e b133 623e 88cc 0abd b120 603e
00000120: 1c09 703e 71bf c63c 5636 04bd 3a50 18bd
00000130: 4c6e 70bc 9f4c 42bd 7719 2ebd a7f3 46bc
00000140: bcf5 c83d fb6a 0b3e d4e0 3f3d 8fee 793e
00000150: b12b 2f41 3b99 833f 9e29 dbbc abd8 82bc
00000160: 6fe2 01bd a044 87bc 0837 e43b e55e 633d
00000170: 166b 2b3d 9c76 093c 7779 29bd 4fad 1b3c
00000180: d038 3fbd e38d 90bc 9456 b1bc c72a 7c3a
00000190: 5b18 1e3d 3b13 96bc 277d 9f3c c47f 953e
000001a0: 9153 8a3b a854 fb3f 4326 17bd a56f 873c
000001b0: 84ad ba3b a66c 883e e8b0 48bd 22ab 3241
000001c0: 28f8 2ebd 217c 35bd 2fc5 0abc 2e00 ee3b
000001d0: 29db df3c f74f 1abd b95e e6bb a8b5 e13c
000001e0: 408a afbb 4fff b23d 9844 84bb 8e2c 643e
000001f0: 6576 b43c d9fe 7f3e e992 3fbd 1fff 84b8
00000200: f3d9 15bd 5ebc 55bc c4d9 ca3c 5d86 22bd
00000210: 73c3 383d 2bb3 923c 1e8b 853c 6645 203d
00000220: 3016 433d c02c cd3c 11c4 21bc a13a 1abd
00000230: 3c8a 2b41 81d2 44bd 21d0 33bd 488b 2e3d
00000240: 6cf1 bf3c c62b b13c 6dff 0f3c bc6a f9ba
00000250: 89bc 0dbd b487 f7bc 40ee 03bd 9d76 79bc
00000260: 318d f23c b8fa fc3c d723 f83c 8447 103d
00000270: b4c2 6abc 9f27 0a3d cb97 4f3c 456a 413e
00000280: e6f1 20bd 0c4e 24bd f1fb 083d a43e fe3c
00000290: ca3c ccbc b42a e53e ef88 b5bc 355a 38bd
000002a0: 8297 de3c 9b49 00bc 1a82 023d 14eb 36bd
000002b0: e474 a83c b6c7 553c 53bb 0c3d 9743 22bd
000002c0: 1384 d7ba 2aff afbc cda6 49bd 83ba 9bbc
000002d0: 3f1f 23bd 1472 2ebd 94ea 8d3c 424e 3f3d
000002e0: 8d31 61bc e6bd 4e3c 3637 2dbd fa5e 2d3d
000002f0: f5f0 eabc 8e14 113d f2f8 54bc c5ff e7bc
00000300: 964e f63c dce0 46bc 07fe a13e 3a9d b4bc
00000310: b10b ff3c ee60 413d ffa5 68bc 2cf8 0bbd
00000320: 4aad 4cbc 28a1 503e 9df8 05bd 23d1 193d
00000330: 4e9f df3c dc54 303d 50d4 22bd 2ac2 9fbc
00000340: bf20 93bc 59e0 2dbd 0190 f3bb e8d3 923d
00000350: 7bda 033d 7072 a33c 47f8 c6bb 49a5 c83c
00000360: 502d bcbc 016e 2abd 3f33 f5bc d356 173d
00000370: 0149 bebc 925f 1b3d e144 e73c db0a 7d3d
00000380: fd84 063d 5e73 463d 2b96 41bc 83fd 863e
00000390: 6510 babc cd6d 503e 202e ed3d 62c1 e7b9
000003a0: bf3a 2d3d 072d a73c 7ac7 87bc 770d 453b
000003b0: b976 d23c 6eb9 0e3e 4339 2a3d 2b15 d73c
000003c0: 73c2 0e3e f33c 2f3e ab02 4a3e d089 103e
000003d0: 3846 ca3d 6ef5 4d3d c759 523e 725e 9b3e
000003e0: 30da b63d 196c 3a3e 5b94 a43d 90c2 953e
000003f0: d899 813f 9ba5 d03d 1411 dc3c c993 243d
10.148589 0.3887858 0.95406055 0.4924272 2.4449887 0.3889132 0.37864557 0.58408874
11.134638 9.156619 0.91147554 0.84035057 0.3636817 1.783113 0.449096 0.4678799
0.45045367 0.9029713 4.103666 1.1687016 13.534803 0.37367168 0.029378159 0.06322975
0.020152846 0.03878811 0.31354257 0.02959714 0.5230007 2.077875 0.39235204 0.45476612
0.5245155 -0.024087207 -0.04130944 -0.011805175 -0.013930482 0.06999017 0.09313017 0.27520773
0.31683648 0.20755546 0.2665001 0.27593666 0.33734453 0.03660523 -0.034545433 -0.040704876
-0.021045104 1.0138193 0.5024039 -0.016216813 11.232556 0.45990962 0.29800764 0.03890576
-0.0028851747 -0.042014785 0.03959812 0.45211425 -0.015817143 0.035553463 0.013813465 0.049309313
-0.0051506623 -0.03500464 0.06975305 0.12998444 0.15896975 0.22090031 -0.033886462 0.21887471
0.23440975 0.024261208 -0.03227838 -0.037185885 -0.014674734 -0.047436353 -0.042504754 -0.012143052
0.09812495 0.13615029 0.046845272 0.24407409 10.948167 1.0281137 -0.026753243 -0.015972456
-0.031710085 -0.016512215 0.006964568 0.05551042 0.041850172 0.008390095 -0.041375604 0.009501769
-0.04668504 -0.017645782 -0.021647729 0.00096194114 0.038597446 -0.018319717 0.019468857 0.2919904
0.0042213877 1.963521 -0.036901724 0.016532728 0.005696954 0.26645392 -0.048996836 11.16678
-0.04271713 -0.04430783 -0.008469864 0.007263205 0.027326183 -0.037673917 -0.007030335 0.02755244
-0.005357057 0.087401025 -0.0040364973 0.22282621 0.022029111 0.2499956 -0.046770964 -6.3417705e-05
-0.036584806 -0.0130453985 0.024762042 -0.03967892 0.04510827 0.0179077 0.016301688 0.039128684
0.04762858 0.025045753 -0.009873406 -0.03765357 10.721249 -0.048052315 -0.04389966 0.042613298
0.023430549 0.021627318 0.008788926 -0.0019029002 -0.03460363 -0.030216075 -0.032209635 -0.0152260335
0.029608341 0.03088127 0.030290527 0.035224453 -0.014328647 0.033729192 0.012670468 0.18888195
-0.039293192 -0.040113494 0.033443395 0.031035729 -0.02493133 0.44759142 -0.022160022 -0.045007903
0.027171854 -0.007830049 0.031862356 -0.04465778 0.02056355 0.013048103 0.034358334 -0.03961524
-0.001644256 -0.021483976 -0.04923134 -0.019009834 -0.03982472 -0.042589262 0.01732377 0.04670549
-0.013744724 0.0126185175 -0.04228898 0.042326905 -0.02867935 0.035419993 -0.012998806 -0.028320203
0.03006677 -0.012138572 0.3163912 -0.022047628 0.031133505 0.04721158 -0.014199733 -0.034172222
-0.012492487 0.20373976 -0.0327078 0.037552964 0.027297642 0.04304968 -0.03975326 -0.019501764
-0.01795995 -0.042450283 -0.007432938 0.07169324 0.03219078 0.019952029 -0.0060720774 0.024492877
-0.022970825 -0.041608814 -0.029931663 0.036948036 -0.02322817 0.03793294 0.028231086 0.06177793
0.03284167 0.048449866 -0.011815588 0.2636529 -0.022712896 0.20354386 0.11581063 -0.00044203835
0.042292353 0.020407213 -0.01657461 0.003006784 0.025691377 0.13937923 0.041558515 0.02625521
0.13941364 0.17113094 0.1972758 0.14115071 0.098766744 0.050282888 0.2054206 0.30345494
0.08928335 0.18205298 0.08036109 0.29250002 1.0125074 0.10187837 0.026863612 0.04018
