catanatron_experimental/my_DQN_wyniki2/my_DQN2_850_steps.pth (torch, 268915 bytes, 8 tensors)

layer1.weight f4 [64, 614]
000000 e6 f8 5d 3b e3 b5 ba 3a 8c 25 b5 bb f4 4a 81 3b
       0.003387028 0.001424488 -0.0055281576 0.0039457027
000010 df 67 ab bb 85 f8 98 b9 3d 76 77 bb aa b7 79 39
       -0.0052308883 -0.0002917686 -0.0037759684 0.0002381491
000020 dc 1a 0e bb 4d 76 6f bb 41 3e 1c 3b 59 e8 0e 3b
       -0.002168349 -0.0036539019 0.0023840817 0.002180597
000030 0b 36 a7 3b 77 ba 4d 3b 25 a2 28 3b ac ee ea ba
       0.005102878 0.003139166 0.0025731411 -0.0017923913
000040 3b 82 b0 ba 09 76 96 3b f6 17 af bb a6 70 a7 39
       -0.0013466546 0.0045917076 -0.0053434325 0.00031936652
000050 3c e1 44 bb 34 4e 9b ba 94 79 12 b6 98 33 dc 3a
       -0.0030041477 -0.0011848868 -2.1826463e-06 0.0016800044
000060 45 18 95 3b 4f 6e 95 3b a5 37 8d 3b 64 a2 b5 3a
       0.0045500123 0.004560269 0.004309612 0.00138576
000070 a1 45 cd b9 3b 14 35 bb 70 25 de 3a e6 af 6a 3b
       -0.00039152525 -0.0027630467 0.0016948413 0.003581041
000080 ad 38 10 ba 17 a6 46 3a 3f 7a b7 3a 30 e2 92 3b
       -0.00055016094 0.000757785 0.0013998224 0.00448253
000090 50 f7 a9 bb fb ce 08 3b 77 b1 3d b9 96 73 39 bb
       -0.0051869527 0.0020875323 -0.00018090555 -0.0028297654
0000a0 76 25 f7 ba a1 5b 82 3b bb 2b d0 39 b4 80 61 bb
       -0.0018855769 0.003978208 0.00039705433 -0.0034408988
0000b0 b4 82 52 ba b4 51 81 3b a6 8b 1e 3b 27 ea c3 ba
       -0.00080303405 0.0039465073 0.0024192124 -0.0014947102
0000c0 75 62 59 39 30 52 30 ba 13 a3 95 3b b4 60 0d ba
       0.00020731411 -0.0006726114 0.004566559 -0.0005393133
0000d0 e8 6d d0 3a 74 60 25 3b d7 ee 9f ba 6f 93 f5 39
       0.0015901895 0.0025234492 -0.0012201917 0.00046839888
0000e0 60 d8 bc 3a a8 4f ed ba a2 d5 7b 3b 79 02 d6 ba
       0.0014407746 -0.0018105404 0.0038426896 -0.0016327641
0000f0 46 49 20 3b a3 ec 90 3a d3 86 00 38 3c fa 34 bb
       0.0024457737 0.0011056851 3.0643143e-05 -0.0027614972
000100 08 14 21 bb 81 f9 a1 bb 08 13 66 3b 9f e9 24 3b
       -0.002457859 -0.0049430733 0.0035106558 0.0025163663
000110 1f 43 18 bb 45 f5 70 3a cd 6a 40 3b 81 ed 7c 3b
       -0.0023233367 0.00091918214 0.0029360533 0.0038593712
000120 51 86 a5 bb d0 38 a5 3b fa b3 a4 ba 8e 55 52 3b
       -0.005051412 0.005042173 -0.0012565844 0.0032094452
000130 56 4a 5b bb 20 98 4d bb a4 c6 8d bb 06 8a a6 bb
       -0.0033461056 -0.003137119 -0.0043266583 -0.0050823716
000140 8f 67 0e 3a 11 2d 2d 3b 3f c1 cf 3a 5b d9 5a bb
       0.00054323016 0.0026424567 0.0015850439 -0.0033393714
000150 c8 e0 8d bb 7e 04 9b 39 c2 20 b9 ba 1a d4 9a bb
       -0.0043297745 0.0002956725 -0.0014124142 -0.0047249915
000160 57 f9 3b ba dc 85 72 bb 00 4e 34 bb 62 fd 7d ba
       -0.00071706384 -0.0037006056 -0.0027512312 -0.0009688941
000170 19 03 9f 3a 41 cd 93 ba 08 1b c6 ba 27 5c e0 3a
       0.001213166 -0.001127638 -0.0015114257 0.0017117307
000180 26 7d 8c 3b a7 cf 88 39 87 5c 98 bb 99 df 41 3b
       0.00428738 0.00026094654 -0.004649702 0.0029582737
000190 a3 ef f8 3a d2 ab 5e bb cc 4d 8b bb 8e 69 41 bb
       0.0018992316 -0.0033976925 -0.0042512175 -0.0029512378
0001a0 9f 61 48 3b c0 10 13 bb 3d 59 9f 3b eb a2 2a 3b
       0.0030575765 -0.0022440404 0.004862933 0.0026037048
0001b0 65 50 99 39 3a ed df 3a 8a fb 67 bb b1 d5 2e 3b
       0.00029242333 0.0017084249 -0.0035397732 0.0026677663
0001c0 1b 08 29 3b 2e 17 96 bb 41 6d 58 bb 39 73 5f bb
       0.0025792185 -0.0045804 -0.0033024105 -0.0034095778
0001d0 76 86 6a bb 09 a3 e5 ba 71 5a 0a bb 87 31 8a 3b
       -0.0035785711 -0.0017519902 -0.0021111036 0.00421733
0001e0 68 6a ff 3a 8a 18 c5 39 f6 16 84 bb a4 6a 8f 3b
       0.0019486668 0.0003759305 -0.0040310575 0.004376726
0001f0 ea 5d 5b b8 ba 08 37 b9 29 5b b4 3a 6d 15 07 bb
       -5.2301133e-05 -0.00017455491 0.0013760078 -0.0020612136
000200 1c ff ed 3a 67 3b af ba 28 2b 91 39 c5 14 56 3b
       0.0018157694 -0.0013369144 0.0002768871 0.0032666188
000210 57 7d 9e 3b 17 16 ca b8 70 6d a3 3b f2 e8 4a b9
       0.004836719 -9.636225e-05 0.004987411 -0.00019351
000220 95 c7 5c 3b b3 25 f2 b9 33 53 2b 3b 2b 36 44 bb
       0.0033688296 -0.00046185925 0.002614212 -0.0029939513
000230 e3 ad 80 bb 64 54 2b b9 17 cf 84 b7 26 98 31 3a
       -0.003926979 -0.00016339269 -1.583206e-05 0.0006774686
000240 bf 49 8d 3b 88 2b 1e bb 9c 6c c8 ba d6 27 86 3b
       0.0043117697 -0.0024134833 -0.0015291157 0.0040941043
000250 88 96 b3 b9 77 43 2f b9 78 f9 cd ba 7f 2e 54 3b
       -0.00034253695 -0.00016714433 -0.0015714606 0.0032376347
000260 e6 7c a0 3b bd df f7 b6 11 d2 75 3b 28 96 e1 3a
       0.0048977016 -7.38722e-06 0.0037509243 0.0017210888
000270 8a 1e 02 bb d7 0c 9e bb 4b a3 43 3b 09 ac 92 3a
       -0.0019854628 -0.004823308 0.002985197 0.0011190186
000280 32 c8 89 bb 5f bf 0a 3b e4 06 47 bb a2 0d e5 b9
       -0.0042047733 0.0021171195 -0.0030369097 -0.0004368844
000290 1f c0 62 bb e7 58 84 bb ca 94 1d bb b6 b2 01 3a
       -0.0034599376 -0.0040389183 -0.0024044984 0.00049475895
0002a0 83 34 d2 b9 92 50 9e 3a 41 a3 80 bb bc 69 a1 3b
       -0.00040093446 0.0012078455 -0.0039257114 0.0049259346
0002b0 4a f7 7c bb 7a bf 9e 3b 25 62 2f ba 89 8f 39 bb
       -0.0038599544 0.004844603 -0.0006690345 -0.0028314313
0002c0 30 9e 34 bb 85 25 48 bb 31 ec 24 3a be d1 d8 3a
       -0.0027560107 -0.0030539942 0.0006291299 0.0016542
0002d0 72 05 72 3a 2a 07 66 3b 7c 6a 3a bb d1 3a 94 bb
       0.0009232379 0.0035099485 -0.0028444817 -0.004523613
0002e0 ba 47 31 3b 46 b2 5e bb 6d d4 08 3b d9 f4 29 bb
       0.002705081 -0.003398077 0.0020878569 -0.0025933294
0002f0 9a 10 86 3b cb d2 67 bb 9a 35 9f bb 3a 0d e1 3a
       0.0040913345 -0.0035373445 -0.0048586847 0.001717008
000300 cd 63 3f bb fd b0 28 3b f8 f1 82 3b e6 ee 95 3b
       -0.0029203773 0.002574026 0.00399613 0.004575598
000310 e9 c8 0e bb 59 3f 34 bb a1 92 a2 bb 83 76 8d ba
       -0.0021787232 -0.0027503578 -0.004961327 -0.0010792766
000320 cd 69 74 3b 65 d5 40 3b 66 c6 55 bb 04 dd 8f 3a
       0.0037294507 0.0029424068 -0.0032619475 0.0010975902
000330 da c3 eb 39 c4 4a 14 ba b3 d2 86 bb 71 44 6a 3b
       0.00044968614 -0.0005656893 -0.004114473 0.003574636
000340 c9 21 2a 3b d2 d9 92 3b cb 41 72 3b 1f 2d 5b 3b
       0.002596008 0.0044815326 0.0036965485 0.0033443642
000350 1a c5 04 3b 88 3e 9e bb 39 5d 39 bb 10 c4 94 b9
       0.0020259083 -0.0048292316 -0.0028284325 -0.00028374838
000360 6f 2a 61 3b 17 48 39 ba 80 2e 2d bb f7 9a 44 3b
       0.0034357568 -0.0007067932 -0.0026425421 0.0029999593
000370 70 3b 9d 3b 9d 0d ef b9 28 af 7a bb 8c 13 b2 b9
       0.0047983453 -0.00045595775 -0.0038251374 -0.0003396537
000380 07 18 65 b9 b1 c9 46 bb f6 16 b8 3a e9 39 d6 ba
       -0.00021848093 -0.003033262 0.0014044929 -0.0016344163
000390 5e ce 57 bb aa 42 16 bb 08 88 26 3b 57 d8 1d bb
       -0.00329294 -0.0022927918 0.002541067 -0.0024085247
0003a0 5c a9 0a bb e1 81 9a ba d3 55 07 bb af c7 a6 3b
       -0.0021158075 -0.0011787975 -0.002065052 0.005089722
0003b0 33 85 a8 38 d7 ad c4 ba 22 6e 52 b9 64 31 6f bb
       8.0356745e-05 -0.0015005422 -0.00020068188 -0.0036497945
0003c0 05 52 8f 3b 4b 06 90 3b df 66 02 3b 62 6a c9 3a
       0.004373791 0.0043952814 0.0019897742 0.0015366788
0003d0 48 68 19 3b bd 0b 0e bb 9e 3f c2 3a 89 dd e6 ba
       0.0023408104 -0.0021674477 0.0014819985 -0.001761363
0003e0 2a 02 98 3b ba 9a 69 bb 0b 69 9a 3b 48 af 33 3a
       0.00463893 -0.0035645203 0.004712229 0.0006854427
0003f0 18 fc 89 bb ff ea 3f 3b 18 61 63 3b 4a c9 1c 3b
       -0.00421096 0.0029284356 0.0034695324 0.0023923689

layer1.bias f4 [64]
000000 17 66 57 3b c1 26 80 39 db 6f 43 b9 5f d3 94 42
       0.0032867247 0.00024442936 -0.00018638319 74.412834
000010 fc e9 bb bb a5 cd 94 42 67 38 c3 bb ee cf 94 42
       -0.00573468 74.40165 -0.0059576514 74.40611
000020 e9 44 b3 bb 4e d3 94 42 d0 cc 94 42 c3 d2 94 42
       -0.005470861 74.412704 74.400024 74.411644
000030 25 46 c6 bb ed b7 72 bc 20 ca 94 42 94 bd 94 42
       -0.0060508423 -0.014814359 74.394775 74.37027
000040 0b d1 94 42 d3 cd 94 42 7f d3 94 42 da db 95 3b
       74.40829 74.402 74.41308 0.0045733275
000050 8a c0 94 42 0d cf 94 42 f6 cc 94 42 d5 eb 0e bb
       74.37605 74.404396 74.400314 -0.0021808047
000060 64 7b 12 b9 95 d0 94 42 ad 2a 87 c0 10 d4 94 42
       -0.00013969612 74.40739 -4.2239594 74.414185
000070 c1 18 8b 3a 14 a2 8d 3b f9 f8 8c bb 77 e6 6d bb
       0.0010612236 0.0043222997 -0.004302141 -0.0036300698
000080 9a cf 94 42 7d 04 55 bb ad 3f 5f 3b 5d d2 94 42
       74.40547 -0.0032503896 0.0034065053 74.410866
000090 ea cc 94 42 21 d0 94 42 50 d0 94 42 a3 f6 46 3a
       74.40022 74.4065 74.40686 0.00075898523
0000a0 ee 93 87 c0 77 59 84 ba 2d d0 94 42 13 51 87 c0
       -4.236808 -0.0010097463 74.40659 -4.2286468
0000b0 d5 d9 ef b9 ad e5 3a bb 81 07 80 bb 96 a4 f7 ba
       -0.0004574793 -0.0028518245 -0.0039071445 -0.0018893655
0000c0 a2 ce 94 42 87 9d 04 3b 16 3e 45 ba 3d 3b b2 bb
       74.40358 0.0020235495 -0.0007524205 -0.0054391907
0000d0 7a cc 94 42 8a ce 94 42 6d ce 94 42 a8 ca 94 42
       74.39937 74.4034 74.403175 74.39581
0000e0 3b c3 86 3a 97 29 19 bb 0c f6 8a bb 76 ce 94 42
       0.0010281572 -0.0023370737 -0.004240757 74.403244
0000f0 fc d0 94 42 54 d0 94 42 d7 cf 94 42 be cb 94 42
       74.40817 74.40689 74.40594 74.397934

layer2.weight f4 [64, 64]
000000 b5 f7 23 bb 3d 90 d7 b9 50 5b a8 3a 92 e6 15 3c
       -0.002501947 -0.00041115461 0.0012844596 0.0091492105
000010 48 b1 e0 bb 97 61 31 3a f5 b6 55 bc cd 4a 53 3c
       -0.006857071 0.0006766556 -0.013044109 0.012896252
000020 5f 79 9a bb 7c 9b 17 3a b2 83 47 bc fb df 0a 3c
       -0.0047141756 0.0005783362 -0.012177395 0.008476253
000030 85 1c 10 bc 4a 06 2c 3c f3 2b 38 39 b2 a7 b6 3b
       -0.008795862 0.010499546 0.0001756398 0.00557419
000040 9d 18 19 3c 38 a1 12 3c 6b 0a 89 3a 61 62 80 3a
       0.009344247 0.00894957 0.0010455375 0.0009794944
000050 aa e7 5b bc 74 78 da bb e9 6b 0c 3c 29 40 e8 3b
       -0.013421932 -0.006667191 0.00857065 0.0070877266
000060 c9 43 29 3c 1d 35 dd bb cc eb 07 3c cd 80 85 bc
       0.010331103 -0.0067507164 0.008295964 -0.016296769
000070 37 9e 75 bc d9 27 29 3b c0 c4 32 bc 76 09 80 bc
       -0.014991335 0.0025811105 -0.010911167 -0.015629511
000080 9a 61 28 bc 53 a1 cc 3b 1f 4a 12 bc 9b 0d 9a bb
       -0.010277176 0.0062448173 -0.008928805 -0.004701329
000090 50 2f 22 3c 8b 49 0d bc 0a 1a 20 bc df 41 02 bc
       0.0098989755 -0.008623491 -0.009771833 -0.007950275
0000a0 3e 78 45 3c fa c1 2d 3c 3f ad 6e 3c 41 49 9f 3b
       0.012052594 0.01060533 0.014567672 0.0048610275
0000b0 c1 28 98 bb c8 04 92 3c 18 b0 5f 3c 48 fe 66 3b
       -0.00464353 0.017824546 0.013652824 0.0035246778
0000c0 12 ae 89 bc 88 bf 29 3c 40 ba 2a bb ee 86 27 3c
       -0.016806636 0.010360606 -0.0026050955 0.010225041
0000d0 e7 05 11 3b 04 f6 81 bb 15 22 9b bc ae 54 42 3a
       0.0022128762 -0.003966095 -0.01893715 0.0007413131
0000e0 84 6a d3 bb ae 39 6a bc f3 b9 5e 3c dd dd 3c 3c
       -0.0064519066 -0.0142959785 0.013594138 0.011527506
0000f0 d6 41 64 bc cd 86 3e bc 00 bb a2 3b 59 35 60 bc
       -0.013931712 -0.011628819 0.00496614 -0.013684594
000100 ae c5 42 3b d3 c1 b7 3b e8 ad 69 bb a7 91 2e bc
       0.0029719877 0.0056078224 -0.0035656635 -0.010654843
000110 0b a1 b5 ba 5c 02 06 bc ee 88 fc ba 3e a0 15 bc
       -0.0013857199 -0.008179273 -0.0019266882 -0.009132443
000120 65 3c 34 bc e5 a9 d5 3a 29 18 37 3c 28 3a 72 3c
       -0.011000727 0.0016301243 0.011175194 0.014784373
000130 eb 16 44 bb 80 e5 48 3c 10 25 ab bb 22 65 43 3c
       -0.0029920887 0.012261748 -0.005222924 0.011925967
000140 ac cd ed bb ae 7f f9 3b a3 45 ce bb 75 86 54 3c
       -0.007257184 0.0076140976 -0.0062949224 0.01297151
000150 a9 23 08 b9 39 72 7a bc 7d 57 f5 3b 29 06 07 3c
       -0.00012983255 -0.015286022 0.007487236 0.008241215
000160 23 99 98 b9 7f e7 b5 bb 44 f4 d0 bb 13 56 a0 bb
       -0.00029105795 -0.005551278 -0.006376775 -0.0048930733
000170 6c 09 0d 3c 3e de 4f bc a5 8c a0 bb 78 4d 02 bc
       0.008608203 -0.012687264 -0.0048995786 -0.00795304
000180 5a d4 ad bb 77 a5 cf bb 48 bd f0 3b b5 1f 16 bc
       -0.0053048553 -0.0063368636 0.007346783 -0.009162833
000190 60 fa 5d bc 43 11 80 bc 95 4b 84 bc 45 b3 28 bb
       -0.013548464 -0.015633231 -0.016149322 -0.0025741619
0001a0 8f 3b 35 bc 32 fe 42 bc fb e4 5a 3c e3 03 58 3c
       -0.011061563 -0.011901425 0.013360257 0.01318452
0001b0 9d 7a 6a bb 5f 54 6d bc 88 c5 f6 bb 4f 53 23 3b
       -0.003577865 -0.014485448 -0.007530872 0.0024921482
0001c0 31 54 00 3c 64 dd a4 ba b0 cf cd bb b5 6d 67 3c
       0.007832573 -0.0012578187 -0.006280862 0.014125277
0001d0 1a d2 61 3c 4c c3 a3 3b 1f d7 98 bb 85 ba ba bb
       0.013783002 0.0049976464 -0.0046643163 -0.0056985044
0001e0 53 d2 cd 3b 8d 97 3d 3a 1b d9 87 bb 21 ff 23 3c
       0.006281176 0.00072323607 -0.004145754 0.010009558
0001f0 2a 49 15 bc 28 22 6e 3c 3c c2 0d 3b 60 65 54 3c
       -0.009111682 0.014534511 0.0021630665 0.012963623
000200 b5 6f 07 3b 89 76 36 3c ab b5 49 3c e6 e4 94 42
       0.0020665948 0.011136659 0.012311379 74.44707
000210 cb ad 19 bd 81 e4 94 42 46 f2 c7 bb 9c e6 94 42
       -0.037519258 74.4463 -0.0061018793 74.45041
000220 30 83 09 3c 07 ea 94 42 3c f3 94 42 51 e6 94 42
       0.008393094 74.457085 74.47507 74.44984
000230 f3 b7 bf bb 1c 3e 11 bf f4 ec 94 42 e2 ee 94 42
       -0.005850786 -0.56735396 74.4628 74.46657
000240 87 f4 94 42 b2 ea 94 42 7a e6 94 42 e0 a0 e1 3b
       74.47759 74.45839 74.45015 0.006885633
000250 79 0e 95 42 3d ea 94 42 4a f1 94 42 17 da 25 bc
       74.52827 74.4575 74.47127 -0.010122797
000260 93 10 4b 3c 82 f3 94 42 bd 41 0f c2 06 e7 94 42
       0.012394088 74.4756 -35.814198 74.45122
000270 4b d7 7b 3c 46 00 cc bb f7 22 86 bb a9 e7 6f bb
       0.015371154 -0.0062256185 -0.0040935236 -0.0036606586
000280 82 f8 94 42 e3 2d ba bb 23 1f 28 3c 30 e8 94 42
       74.48537 -0.0056817397 0.01026133 74.45349
000290 66 f3 94 42 43 f7 94 42 73 f3 94 42 b8 73 0f bb
       74.47539 74.48293 74.47549 -0.0021889042
0002a0 b2 8c 10 c2 4c 84 d7 3b d2 e7 94 42 23 b1 10 c2
       -36.137398 0.0065770503 74.452774 -36.172985
0002b0 b5 db 29 bb 0a 2f 82 3c 74 1d a5 ba 06 85 2d ba
       -0.002591831 0.01589157 -0.0012597279 -0.00066192483
0002c0 32 f1 94 42 8c 32 1e bc ea 77 79 bc a5 e7 15 3c
       74.471085 -0.009655606 -0.015226344 0.009149467
0002d0 68 f6 94 42 da f0 94 42 95 e3 94 42 29 f7 94 42
       74.48126 74.47041 74.444496 74.482735
0002e0 9b 9e 55 bc 6b 99 43 b8 e7 5a 9c bc 4d ec 94 42
       -0.013038303 -4.6634505e-05 -0.019086314 74.461525
0002f0 a6 ed 94 42 f2 f7 94 42 a6 ef 94 42 d0 f3 94 42
       74.46416 74.48427 74.46806 74.4762
000300 77 17 41 3c aa bf 7c bc b7 cc 43 bc 93 e1 d2 bb
       0.01178538 -0.015426556 -0.011950663 -0.006435582
000310 31 0e 11 3e 06 97 b5 3c 3b 07 87 3b 10 30 4c bc
       0.1416557 0.02216674 0.004120735 -0.012462631
000320 65 4e 31 bb 8e 71 aa 3b 40 ee 2b 3c f3 24 46 bc
       -0.0027054783 0.005201525 0.010493815 -0.01209377
000330 24 75 a8 3b 24 02 ca bb 04 46 ec 3b 44 4a 56 3d
       0.0051409174 -0.006164806 0.007210495 0.05231692
000340 21 4c 35 3c 05 e7 5e bc cc c5 2d 3c fc ca 3d bc
       0.011065514 -0.013604884 0.0106062405 -0.01158404
000350 34 50 3f bd 02 49 2f bd e7 e7 99 39 e0 61 b9 3b
       -0.046707347 -0.042794235 0.00029355215 0.0056574196
000360 08 f3 58 bc 03 d0 60 bc de 1d 0e bd a5 85 51 3c
       -0.013241537 -0.013721469 -0.034696452 0.012788211
000370 b8 ff fd 3b d7 36 2c 3c b9 88 d9 3b 55 81 31 bc
       0.0077514313 0.010511122 0.006638613 -0.010834058
000380 61 4a 28 bd 23 aa 6a 3b d8 b9 b3 3b 11 67 18 3c
       -0.04108656 0.0035806976 0.005484801 0.009301917
000390 ea 02 9c bc 95 34 b2 3b 05 59 c7 bb ae f4 04 bc
       -0.019044358 0.005438397 -0.00608361 -0.008114977
0003a0 9f b3 67 bc bd 0f e2 3a e2 e6 3b bb ae 97 b7 3d
       -0.014141946 0.0017247122 -0.0028671552 0.089644775
0003b0 e3 64 6d bc 21 d0 65 3d df 1d 8a bb dc 1c 7e bc
       -0.014489385 0.05610669 -0.0042149867 -0.01550981
0003c0 f1 fd d0 bb 11 22 ab bb 88 6d ce bb 42 aa e6 3b
       -0.0063779284 -0.005222567 -0.0062996782 0.0070393393
0003d0 2b 2e 01 bd 48 4e 1f 3c 39 0a c4 bb c6 b9 ef 3c
       -0.03153817 0.009723254 -0.005982664 0.029263388
0003e0 4b 6d 3a bc 8d 16 4d 3c a0 af 34 bc fa 54 36 bc
       -0.011378597 0.012517584 -0.0110282 -0.011128658
0003f0 14 8a 6b ba 93 34 19 3c d7 cf 4c bc 25 57 94 bc
       -0.0008985114 0.009350914 -0.012500725 -0.01810796

layer2.bias f4 [64]
000000 11 d7 29 bc 6e 99 3b 3c 2d 7f 97 42 a1 9d 9d ba
       -0.010366217 0.011450155 75.74839 -0.0012025126
000010 b3 7c 97 42 76 7f 97 42 04 c7 8a bc 46 02 69 bc
       75.74355 75.74895 -0.016940601 -0.014221733
000020 8e 86 97 42 cc c1 c7 bb 56 82 97 42 67 1e 49 bc
       75.7628 -0.0060961004 75.75456 -0.012275315
000030 f8 7d 97 42 0c e1 72 3c e2 82 97 42 71 77 97 42
       75.74603 0.014824163 75.75563 75.733284
000040 a9 7c 97 42 f1 86 97 42 15 ae 55 bb 0b 82 97 42
       75.74348 75.76356 -0.0032604982 75.75399
000050 fa 03 0b 3c 3c 79 97 42 1a 1d 6b 3b 24 2a 32 bc
       0.008484835 75.736786 0.00358755 -0.010874305
000060 2e 65 8a bc 39 e1 6a bc 03 9a 23 bc 83 78 97 42
       -0.01689395 -0.014335924 -0.00998545 75.735374
000070 d0 53 7c bc 12 88 97 42 9e 87 97 42 d9 ad 36 3c
       -0.015400842 75.76576 75.76488 0.011149847
000080 d4 c3 01 3c ea ab 66 bc 41 80 97 42 21 77 97 42
       0.007920224 -0.014079073 75.750496 75.73267
000090 04 81 97 42 c5 1e 07 3c 43 2d 39 ba f2 66 c5 ba
       75.75198 0.008247082 -0.00070639345 -0.0015060587
0000a0 7a 76 97 42 eb 7b 97 42 54 82 97 42 c7 0e 62 ba
       75.7314 75.74203 75.75455 -0.0008623418
0000b0 6d 2b c9 39 ea 3a 4e bc d4 c3 79 bc e8 7e 97 42
       0.00038370062 -0.012587288 -0.015244443 75.74786
0000c0 7a a8 68 bc a1 5f 74 bc f1 7e 97 42 78 11 e0 39
       -0.014200324 -0.014915378 75.74793 0.00042737625
0000d0 9a 7e 97 42 bc 7f 97 42 57 79 97 42 81 7f 97 42
       75.74727 75.74948 75.73699 75.74903
0000e0 aa 86 97 42 11 7a 97 42 da 25 d0 bb b6 82 97 42
       75.763016 75.73841 -0.0063521685 75.755295
0000f0 7d 7a 97 42 ef 82 97 42 14 86 97 42 ec 83 97 42
       75.739235 75.75573 75.76187 75.75766

layer3.weight f4 [64, 64]
000000 b3 c4 00 3c 41 72 84 bc cc 14 91 bc 79 05 6d bc
       0.007859397 -0.016167762 -0.017710112 -0.014466637
000010 85 99 22 3a ed 0d 8e bc a0 b0 84 3b 83 c2 b6 bb
       0.0006202686 -0.017340625 0.0040493757 -0.005577387
000020 17 7e 41 bb df f9 82 bb 00 92 51 b8 a4 53 49 bc
       -0.0029524618 -0.003997072 -4.9965456e-05 -0.012288008
000030 e1 34 81 bc b8 a5 8d 3b 1b 09 53 3a 1c 03 a9 bb
       -0.015772285 0.0043227337 0.0008050368 -0.0051578414
000040 31 ca 0a 3b 19 83 16 3c ea d3 30 3c 51 4f 80 bc
       0.0021177644 0.00918653 0.010792712 -0.015662821
000050 46 bc 0a bc bb d5 d3 3c 1d 56 0a bc 5c f1 8c 3c
       -0.008467739 0.02585875 -0.008443383 0.017204933
000060 79 fd 49 bc ef 91 c5 bb e8 1c 6c bc 14 4e 72 3c
       -0.012328499 -0.0060293595 -0.014411189 0.014789123
000070 b9 bc a9 39 93 63 4d bc 4b b2 9e 3b 92 79 47 3c
       0.000323748 -0.012535947 0.0048430315 0.012174981
000080 dc d1 71 3b e9 ca 70 bc 8b 84 60 bc 7a 9c a1 3b
       0.0036898768 -0.014696815 -0.013703476 0.0049319835
000090 ed 63 ba 3b 2c 24 bc bb 6d 47 4b 3c 95 b1 70 3c
       0.0056881816 -0.0057416167 0.012407166 0.014690776
0000a0 9e f2 4a 3c d8 1a 01 3c b2 93 16 3c 13 86 24 bc
       0.012386946 0.007879935 0.009190487 -0.010041731
0000b0 df 09 39 3c f4 8d aa 3b 81 e3 4d bb 31 2e 54 3c
       0.011293857 0.0052049104 -0.003141612 0.012950466
0000c0 22 b8 2d bb 8a f4 1c 3c 8c 3c de 3b c2 45 4e bc
       -0.0026507457 0.009579787 0.00678212 -0.012589874
0000d0 5a fd 97 3b e3 21 00 bc e3 92 0a 3c c3 a6 44 bc
       0.004638356 -0.007820579 0.008457872 -0.01200265
0000e0 ff 01 81 bc 38 de 51 3c 6b 13 d5 bb 98 14 73 bc
       -0.015748022 0.012809329 -0.006502559 -0.014836453
0000f0 fa 62 10 bc d8 85 33 bc 9d 56 26 3c 33 72 42 bc
       -0.00881266 -0.010957204 0.010152486 -0.0118680475
000100 cb b6 36 bc c0 26 42 bb 5f b8 94 42 40 d0 ce 3d
       -0.01115198 -0.0029625148 74.3601 0.10098314
000110 54 b9 94 42 62 af 94 42 14 12 53 bc c1 45 45 3c
       74.36197 74.342545 -0.012882728 0.012040556
000120 ac ae 94 42 94 49 12 bd 69 ae 94 42 68 c8 38 bc
       74.341156 -0.0357147 74.340645 -0.011278249
000130 62 b9 94 42 ba ce eb ba ea b5 94 42 25 ba 94 42
       74.362076 -0.0017990686 74.3553 74.36356
000140 a6 b1 94 42 bf af 94 42 b9 33 8b 3c 3f b2 94 42
       74.34697 74.343254 0.016992437 74.34814
000150 f1 bb b2 3b e0 b8 94 42 86 47 30 3c 93 e8 02 bc
       0.0054545333 74.361084 0.01075924 -0.00799002
000160 f1 a0 59 3b 38 b9 3f bc f8 fe 6a 3c 11 b9 94 42
       0.00332075 -0.011701874 0.014343016 74.36146
000170 49 c6 fc ba de b4 94 42 41 b6 94 42 96 9b 68 3c
       -0.0019285168 74.35326 74.355965 0.014197251
000180 37 3f 53 bc 34 39 0d 3c 04 ae 94 42 3a b7 94 42
       -0.01289349 0.008619595 74.339874 74.357864
000190 a1 b2 94 42 7c 62 57 3c 5e 3b 50 3d 7e a5 6f 3d
       74.348885 0.013146039 0.050837867 0.058507435
0001a0 0b b9 94 42 73 ba 94 42 c9 b8 94 42 fd 15 4c bc
       74.36141 74.36416 74.36091 -0.012456414
0001b0 55 fa 7a bb 1c f6 fa 3b 74 be 80 39 f8 b6 94 42
       -0.0038296182 0.007658733 0.0002455596 74.35736
0001c0 6b 10 0f bc 2c d8 29 3c 42 bb 94 42 0c d7 3e 3c
       -0.008731942 0.010366481 74.36574 0.011647951
0001d0 c2 af 94 42 a1 b8 94 42 f1 ba 94 42 90 bc 94 42
       74.34328 74.3606 74.36512 74.368286
0001e0 49 ab 94 42 5d b2 94 42 dc e7 f7 bb 1a ad 94 42
       74.33454 74.348366 -0.0075654816 74.33809
0001f0 18 b4 94 42 ef b9 94 42 f8 ad 94 42 f0 b5 94 42
       74.351746 74.36315 74.33978 74.35535
000200 a5 ac 45 bc e0 d9 14 3c 5b 7c e0 39 ff cd 12 bc
       -0.012065087 0.009085149 0.0004281726 -0.008960246
000210 71 aa f8 ba b6 be af 3b 4e ec 5b bb 58 ff 5b 3c
       -0.0018971694 0.0053633107 -0.0033557597 0.013427578
000220 39 18 3b 3c c0 94 48 bc 4d 6d b1 bb 5b ca 48 bc
       0.011419349 -0.012242496 -0.005414641 -0.012255277
000230 ef 0d 95 bb 28 78 12 bc 90 ef e9 bb 04 0d 46 3c
       -0.00454878 -0.00893978 -0.007139154 0.012088064
000240 f1 cb 1b 3b 99 74 1e bc e2 c1 4e ba e2 fe e5 3b
       0.0023772682 -0.009671354 -0.0007887167 0.00701891
000250 df b8 03 bb 5f 89 68 bc c7 cd f5 3b 60 8d 8c bc
       -0.0020099205 -0.014192908 0.007501337 -0.017157257
000260 c0 51 2c bc 35 95 08 bc 9e a6 c2 3b 19 98 58 3c
       -0.010517538 -0.008336355 0.0059402725 0.013219857
000270 f2 c4 28 3c 19 cc b4 b9 e2 2c 71 3a e7 98 f8 b6
       0.010300862 -0.0003448434 0.00092001085 -7.408776e-06
000280 8a 03 74 ba ae 92 67 3a ae 61 43 3c 6f 57 a8 3b
       -0.00093083887 0.00088338077 0.011925144 0.005137376
000290 c0 6f b1 39 a2 f4 fb bb 45 d2 4c 3c 09 32 53 bc
       0.0003384333 -0.0076890746 0.012501304 -0.012890347
0002a0 8a 25 6d bc 04 5a 61 bc b0 d9 76 bc 13 f7 4a 3c
       -0.014474282 -0.013754372 -0.015066549 0.012388009
0002b0 a0 80 b5 bb ca 37 76 bc 51 25 5f bc bc 19 7f bb
       -0.005539015 -0.01502795 -0.013619737 -0.003892525
0002c0 ea 30 d1 3b dc ae 6e bc 84 db 23 3c 36 e4 0b 3b
       0.006384005 -0.014568057 0.010001067 0.002134574
0002d0 60 01 27 bc 48 38 3e 3c b0 d8 8c bc 97 0f a8 3b
       -0.010193199 0.011610098 -0.017193168 0.0051288116
0002e0 94 a1 8b 3b e7 75 e4 3a c0 76 49 3c af 6b fa 3b
       0.004261205 0.0017430157 0.012296379 0.0076422314
0002f0 d7 1c ee 3b ae 84 42 3b 93 58 1c bc c3 c1 8a bc
       0.0072666216 0.0029681134 -0.009542602 -0.016938096
000300 c2 93 fb bb e2 17 6e bc 99 9f 94 42 aa cf b6 3d
       -0.007677526 -0.014532061 74.311714 0.089263275
000310 7e a0 94 42 39 9a 94 42 67 2f 1d bc 9a 91 34 3b
       74.31346 74.301216 -0.009593821 0.0027552606
000320 d3 9b 94 42 7a ab ca 3d 87 a9 94 42 c9 1e e9 bb
       74.304344 0.09895988 74.33111 -0.0071142656
000330 da a1 94 42 c7 99 c4 b8 6b 9e 94 42 c7 9e 94 42
       74.31612 -9.3746516e-05 74.30941 74.31011
000340 68 9c 94 42 5e a4 94 42 ff 8f e7 ba 04 a0 94 42
       74.30548 74.32103 -0.0017666816 74.31253
000350 04 36 17 3c f4 99 94 42 67 0e 1b bc 5d 17 63 3c
       0.009229187 74.30069 -0.009463883 0.013860551
000360 4a 07 a3 ba 90 60 26 3c bf 1a 82 3b 14 9e 94 42
       -0.0012438085 0.010154858 0.0039704735 74.30875
000370 29 f2 92 3b e1 9d 94 42 2b a2 94 42 f9 a1 2c 3b
       0.004484434 74.30836 74.316734 0.002634166
000380 18 f8 be bb 29 0e f2 3b 83 a3 94 42 6b 9e 94 42
       -0.005827915 0.007386942 74.31936 74.30941
000390 f7 96 94 42 78 d7 67 3c a5 2e 25 3e 30 31 94 3d
       74.29485 0.014150493 0.16131075 0.07235944
0003a0 d4 95 94 42 f1 9c 94 42 ce a2 94 42 d3 74 df bb
       74.29263 74.306526 74.31798 -0.0068193465
0003b0 f6 c8 5f bc ac 9a db 3b db f4 51 3c f6 a1 94 42
       -0.013658753 0.006701788 0.012814726 74.31633
0003c0 48 65 80 bc 3c 8d 31 3b d2 a0 94 42 c6 8f 6d bb
       -0.015673295 0.002709224 74.3141 -0.0036249026
0003d0 b0 9e 94 42 4f 95 94 42 51 a0 94 42 54 97 94 42
       74.30994 74.29162 74.31312 74.29556
0003e0 02 9a 94 42 0d 98 94 42 c5 55 17 bc 3a a2 94 42
       74.3008 74.296974 -0.009236758 74.31685
0003f0 4a 9d 94 42 eb 9b 94 42 69 a0 94 42 4e a2 94 42
       74.307205 74.30453 74.3133 74.317

layer3.bias f4 [64]
000000 6c 61 5c ba f0 7d 92 42 26 fa e6 bb ce 98 92 42
       -0.0008406851 73.24597 -0.007048863 73.29845
000010 65 2c 92 42 bb 8c 2d bc f3 c6 81 ba 74 30 92 42
       73.08671 -0.010592635 -0.000990121 73.094635
000020 50 52 92 42 19 f3 91 42 b3 90 dd bb 6d b4 3e bc
       73.16077 72.9748 -0.0067616343 -0.011639697
000030 e1 1e 92 42 e5 b0 92 42 97 79 7b bb 78 24 2f 3c
       73.06031 73.3455 -0.0038372034 0.010689847
000040 d9 fa 70 bc 39 8e 92 42 1a c1 92 42 24 9e 92 42
       -0.014708244 73.27778 73.37715 73.30887
000050 7f 16 37 bc ea 30 81 3b 3e ba ec 3a a0 ee df 3b
       -0.011174797 0.0039425986 0.0018060876 0.0068338662
000060 49 a6 05 3c 43 3a 92 42 34 91 0c ba 01 fe b1 3a
       0.008157321 73.11379 -0.0005362213 0.0013579727
000070 ad 6f a1 3b 8e cd 03 3c e7 a6 92 42 88 10 9b 39
       0.004926643 0.0080446135 73.32598 0.0002957622
000080 5b e2 81 bc 21 8c 92 42 ad 47 86 3b bc b2 91 42
       -0.015855005 73.27369 0.0040979 72.84909
000090 c3 f4 be 3b 20 22 70 3c c4 51 87 3b 6e 7d 36 bc
       0.0058275177 0.0146565735 0.0041296203 -0.011138303
0000a0 ab 09 18 3b 1f 39 92 42 3e a7 92 42 1e 73 92 42
       0.0023199122 73.111565 73.326645 73.22484
0000b0 08 f1 65 bb 09 37 10 3b af f6 e7 b8 df af 92 42
       -0.0035086293 0.002200546 -0.00011060887 73.3435
0000c0 20 4e 5d 39 41 93 92 42 6b 3e 74 bc 84 ba 5b 3c
       0.00021105306 73.287605 -0.01490746 0.013411168
0000d0 50 bb b4 bb ad 6d 64 bc 88 71 71 bc 43 17 66 bc
       -0.0055154935 -0.013942164 -0.014736541 -0.014043632
0000e0 32 a7 7d 3c 29 ce 33 bc 30 b0 92 42 9d 1c 5a bc
       0.015481757 -0.010974445 73.34412 -0.013312486
0000f0 d7 40 43 3b b8 fa 02 3c 77 7b 92 42 3d f6 29 bb
       0.0029793286 0.007994346 73.24114 -0.0025934123

layer4.weight f4 [290, 64]
000000 b6 d5 51 bb 0e e6 85 42 40 7b b5 bb d0 e3 85 42
       -0.003201825 66.949326 -0.005538374 66.94495
000010 4f de 85 42 c9 3a cf bb 64 14 85 bc 76 e1 85 42
       66.9342 -0.0063241464 -0.016245075 66.94035
000020 d3 df 85 42 a2 dd 85 42 44 65 38 3a d4 8d 17 3c
       66.93716 66.93288 0.0007034133 0.009250123
000030 90 de 85 42 d6 e9 85 42 a0 81 93 36 71 2d b2 3d
       66.93469 66.95671 4.3960317e-06 0.087000735
000040 a9 0e 97 b9 88 e1 85 42 53 e8 85 42 72 e5 85 42
       -0.00028811887 66.94049 66.95376 66.948135
000050 07 25 7d bb 32 10 63 3c bb 4c 7b 3c 8b 23 4c 3c
       -0.0038626806 0.013858842 0.015338118 0.012459646
000060 b2 c3 fd 39 fb df 85 42 01 d7 f1 3b af 26 8e ba
       0.00048401725 66.93746 0.007380367 -0.0010845269
000070 b0 40 ec 3b 44 f6 5a bc 20 e5 85 42 49 71 9a bb
       0.00720986 -0.013364378 66.94751 -0.0047132117
000080 ea d8 53 3c 09 e5 85 42 0d 19 75 3c 62 db 85 42
       0.012930134 66.947334 0.014959586 66.92848
000090 cc 80 51 3c 28 ee 72 3c 35 0c b7 bc a5 9e 0c bc
       0.012787055 0.014827289 -0.022344688 -0.008582746
0000a0 8b 71 73 3c cc de 85 42 e0 e9 85 42 bf e3 85 42
       0.014858614 66.93515 66.95679 66.94482
0000b0 2c 0e cb bb 25 95 40 bd a5 d8 72 bc 7d e6 85 42
       -0.006196758 -0.047017235 -0.01482216 66.95017
0000c0 ae dd dd bb 3f e4 85 42 43 53 47 ba 50 0d 49 3d
       -0.006770811 66.94579 -0.00076036545 0.04908496
0000d0 44 93 0e bc ee ea 94 3b c7 91 5f 3b c5 12 f1 bc
       -0.008702103 0.0045446074 0.003411399 -0.029427895
0000e0 95 57 58 bb 39 96 df bb 77 e9 85 42 1e 77 c3 bb
       -0.0033011187 -0.006823328 66.955986 -0.0059651276
0000f0 4e 07 c0 bb 28 5b 34 3b 14 e2 85 42 cb 8a 08 3c
       -0.005860246 0.0027520154 66.94156 0.008333872
000100 35 41 e5 3b 8b fa 93 3e 4d 6c 21 bb bf 06 98 3e
       0.0069962987 0.28902087 -0.0024631203 0.29692647
000110 66 ce 87 3e 09 4d 97 bb c8 b5 a8 3b bd 56 92 3e
       0.26524657 -0.0046173376 0.005148623 0.285818
000120 59 dc 9c 3e fb 20 8b 3e 2a d1 c6 3c 17 ae 48 bc
       0.30636862 0.271736 0.02426966 -0.0122485375
000130 07 d9 90 3e 93 00 9c 3e cf 0b af 3b 9d 95 a4 3d
       0.2829058 0.30469188 0.005341984 0.08036349
000140 b5 01 fb 38 5a 1a 87 3e 89 bd 9d 3e 2b 09 97 3e
       0.000119689306 0.26387292 0.30808666 0.29499182
000150 31 06 7c bb 6c 70 2d 3c f4 93 e0 3b 07 5b 27 3b
       -0.0038455839 0.0105858855 0.006853575 0.0025536434
000160 57 51 23 bb bf 1e 90 3e 30 c3 7e ba 4e a3 18 3c
       -0.0024920308 0.28148457 -0.0009718416 0.009316279
000170 72 c2 4e 3c 86 eb 08 3c e2 d6 90 3e c0 69 26 bc
       0.012619602 0.008356934 0.28288943 -0.010157049
000180 55 a0 ac 3a 99 69 99 3e d0 02 0a 3c 0c 6a 8e 3e
       0.0013170341 0.29963377 0.008423522 0.27815282
000190 87 f2 5d 3c ad f6 f5 bb 13 c9 80 3c 6b 4b 53 bb
       0.013546593 -0.0075062127 0.01572088 -0.0032240998
0001a0 df 0a 59 3c b5 98 99 3e 9f 9c 97 3e 9b 5f 96 3e
       0.013247221 0.2999932 0.2961168 0.29369816
0001b0 b0 b3 5c 3c fe 9e b0 3c a3 45 70 3a 05 20 99 3e
       0.013470575 0.021560188 0.000916565 0.2990724
0001c0 a1 e8 3e bc d5 22 8d 3e 61 ed 99 bb d0 5c 8c 3d
       -0.011652143 0.27565637 -0.004697487 0.0685364
0001d0 8a 14 72 3a e0 b6 12 3c 4e d2 cd bb c1 67 00 3d
       0.0009234628 0.008954734 -0.006281174 0.031348947
0001e0 79 64 b4 bb 4e d0 fd ba 86 cd 97 3e 9e 84 77 3b
       -0.0055051413 -0.0019364448 0.2964899 0.0037768255
0001f0 68 ab b3 3b cc cc 25 3c a9 4f 95 3e f0 b4 7b 3a
       0.0054830797 0.010119628 0.29162338 0.0009601852
000200 87 2b 38 3c ba ca ac 3e 6d 77 3b ba 79 e0 af 3e
       0.0112408465 0.33748418 -0.000715128 0.34350947
000210 36 6a b8 3e 9b 13 f5 bb 60 56 38 3c 1f b4 b1 3e
       0.36018533 -0.007479144 0.011251062 0.34707734
000220 f1 57 b0 3e a5 7e b9 3e 76 14 76 3b a9 d7 91 3b
       0.34442094 0.36229435 0.0037548817 0.0044507575
000230 ee 4b ba 3e 90 c3 b3 3e b4 de 33 3b fa 80 a5 3a
       0.36386055 0.3511014 0.0027445974 0.0012626939
000240 9c 2b 38 3c 51 c0 b2 3e 0e 9c b4 3e f7 1d ae 3e
       0.011240866 0.3491235 0.3527531 0.34007236
000250 b6 f6 5c bb 3e 43 d2 ba 70 f1 3a 3c b2 cb 98 bb
       -0.0033716387 -0.0016041768 0.011410102 -0.0046629542
000260 ff b3 37 b9 a9 8b b4 3e 8c 73 25 bc b3 7b 14 3c
       -0.00017519294 0.35262802 -0.010098349 0.009062695
000270 71 a8 3b bc 06 fc 8e b9 70 31 b6 3e 91 7d ec bb
       -0.011453734 -0.00027272123 0.35584593 -0.007217117
000280 c8 30 11 bc 7a 19 b6 3e 2f 80 26 3c 3b dc cc 3e
       -0.008861728 0.35566312 0.010162397 0.40011773
000290 22 8e e4 bb 20 41 09 3b 41 6b 1a bb e1 b3 1d 3c
       -0.0069749514 0.0020943359 -0.0023562463 0.009625406
0002a0 9c c2 5e 3c 21 62 b0 3e cd f8 b3 3e c1 75 b4 3e
       0.013596203 0.34449866 0.35150757 0.3524609
0002b0 5b fc 42 3c f5 f8 89 3c ec 84 21 bc e8 04 bc 3e
       0.011900987 0.016842345 -0.009858351 0.36722493
0002c0 4b 81 9b ba e5 da b4 3e 6f f5 d8 bb 39 33 48 3c
       -0.0011864094 0.35323253 -0.006621055 0.012219244
0002d0 ac 2f 6e 3c ad 5e e3 39 11 01 11 bc 1d 26 75 3b
       0.014537733 0.00043367353 -0.008850352 0.003740675
0002e0 39 3d 08 3b db ac 14 3c 9d 51 b9 3e 5a f2 d1 bb
       0.0020788445 0.009074415 0.36195078 -0.0064070644
0002f0 ee b4 44 3c d6 12 68 3c de c9 ae 3e 80 be 4d 3c
       0.012006028 0.014164647 0.34138387 0.012557626
000300 63 e3 ee bb 70 9a 9d 3e d6 40 14 3c c1 5f a0 3e
       -0.00729029 0.3078189 0.009048661 0.31323054
000310 44 30 9c 3e 98 f5 51 3b 2e 27 d7 3b 2c 79 9c 3e
       0.30505574 0.0032037254 0.00656595 0.30561197
000320 f7 e8 95 3e 27 7b 9d 3e ee a6 9e 3c 51 ce 07 bc
       0.292793 0.3075802 0.019366708 -0.008288936
000330 1c 0d 97 3e ce 05 a0 3e 62 bd 50 3c 5b d0 f6 3b
       0.2950219 0.3125443 0.012740465 0.007532162
000340 65 13 e3 bb 1f bf 99 3e 49 d8 95 3e af 17 99 3e
       -0.0069298022 0.30028626 0.29266575 0.29900882
000350 4b 22 c3 ba 8b 3d d8 b8 c1 ad 40 bb ff f9 81 3a
       -0.001488754 -0.00010311146 -0.002940044 0.0009916424
000360 d1 cb b0 bb df 0d 96 3e d3 34 78 3c eb 47 44 3c
       -0.0053953906 0.29307458 0.015149313 0.011980037
000370 5b a7 3e 3c 66 5d 1c bc e1 02 97 3e 15 58 7b 39
       0.01163658 -0.009543752 0.29494384 0.00023970038
000380 96 51 83 3c bb 49 9c 3e 6e 77 bd 3b 17 e7 a1 3e
       0.016030114 0.30525002 0.0057820594 0.3162162
000390 a9 be 18 bc b6 3a 85 39 71 f0 83 3b a5 6c 7b 3c
       -0.009322801 0.0002541148 0.0040264656 0.015345727
0003a0 6a 8a 70 3c 5e 0a 99 3e 7b dd a2 3e dc 35 94 3e
       0.014681438 0.29890722 0.318096 0.2894734
0003b0 45 eb 1a 3c ef 30 09 3c e0 ca e1 3a 72 db 97 3e
       0.009455507 0.008373483 0.0017226599 0.2965961
0003c0 c6 dc 4f 3c 8b e9 9f 3e 18 95 c5 b9 d8 25 02 3b
       0.012686914 0.31232867 -0.00037685852 0.0019858982
0003d0 c0 95 e4 3b 59 b1 57 bc 56 9f 4b 3c 98 e9 f4 3b
       0.0069758594 -0.013164842 0.012428125 0.0074741356
0003e0 8f 33 58 3c d0 24 6a bc 16 5d 95 3e bc 2e 81 3c
       0.013195886 -0.014291003 0.2917258 0.015769355
0003f0 51 a2 f8 3b 24 70 70 bc 09 23 a0 3e 6b da 15 bc
       0.007587709 -0.014675174 0.3127673 -0.009146313

layer4.bias f4 [290]
000000 58 1c 70 42 0d 12 51 3e 81 0e 9c 3e eb 9b 76 3e
       60.02768 0.20417042 0.30479816 0.24082915
000010 3f ff 5b 3f c7 70 fe 3d 5a 98 a1 3e ba b1 8d 3e
       0.8593635 0.12423854 0.31561548 0.27674657
000020 70 79 62 42 71 a4 5b 42 1d 19 95 3e 9d 44 a9 3e
       56.61859 54.910587 0.29120722 0.3306016
000030 bc 34 2b 3e 66 6f 1b 3f e4 ed 12 3e fb dd 86 3e
       0.16719335 0.60716856 0.1434856 0.26341233
000040 9d cd 28 3e a9 32 b9 3e cf 14 a8 3f 12 a4 db 3e
       0.16484685 0.36171463 1.313135 0.42898613
000050 40 9e 60 42 0b 79 f4 3d 09 c8 19 3c 4b 77 a5 3c
       56.15454 0.119371496 0.009386071 0.020198485
000060 69 f7 d2 3b da 03 4b 3c b5 23 cd 3d f1 ed 1a 3c
       0.006438185 0.012391055 0.10016576 0.009456144
000070 32 15 2b 3e 1f 19 a3 40 94 5b 00 3e 72 c6 14 3e
       0.16707304 5.0968165 0.12534934 0.14528826
000080 8e 93 2b 3e 6d 27 fc bb d2 37 58 bc e1 28 77 bb
       0.16755506 -0.0076951296 -0.013196902 -0.0037713575
000090 19 d7 91 bb 9b 2a b7 3c 72 b8 f3 3c 16 0e b4 3d
       -0.0044506905 0.022359183 0.029751036 0.08791749
0000a0 d2 49 cf 3d f1 cc 87 3d 1d 5e ae 3d 34 86 b4 3d
       0.10121502 0.06630886 0.085140444 0.0881466
0000b0 07 6b 70 3e c0 96 3f 3c 86 cc 34 bc 47 0a 55 bc
       0.23478328 0.011693656 -0.01103509 -0.013002939
0000c0 bd 4e dc bb 77 e9 f3 3f 10 16 e4 3e 56 c2 a9 bb
       -0.0067232535 1.9055623 0.44548082 -0.0051806374
0000d0 54 b9 bc 41 01 88 dd 3e 87 0a 90 3e ff a1 4b 3c
       23.590492 0.43267825 0.28133032 0.01242876
0000e0 a1 9e 71 ba 0e e9 5b bc 37 41 4f 3c 52 13 b3 3e
       -0.0009217058 -0.013422264 0.012649826 0.34975678
0000f0 61 91 a5 bb 7c 15 3a 3c 97 9b 90 3b 7c 0e 81 3c
       -0.005052731 0.011357661 0.004413079 0.015753977
000100 09 ae d7 ba 77 37 37 bc c2 8a b6 3c bd 15 2a 3d
       -0.0016455065 -0.011182657 0.022282962 0.041524637
000110 26 02 50 3d 30 88 90 3d b5 5a 31 bc 47 36 8f 3d
       0.0507833 0.07057226 -0.010824849 0.069927745
000120 1e 60 99 3d 24 f5 fd 3b 2c f3 28 bc d9 a4 42 bc
       0.07489036 0.0077501703 -0.010311883 -0.011880123
000130 4b a1 99 bb 3f 48 78 bc 92 77 5e bc 3e 38 7e bb
       -0.004688417 -0.015153944 -0.0135783125 -0.0038790847
000140 3b 68 00 3d c3 27 32 3d 85 2f 75 3c 3c da f6 3e
       0.031349402 0.04349495 0.014964943 0.48213375
000150 dc 3e d2 41 d6 36 3b 3f af 07 0c bc b4 32 a7 bb
       26.280693 0.7313055 -0.008546754 -0.00510248
000160 3a f7 25 bc d7 19 d3 3e 7c d3 11 3b 89 48 91 3c
       -0.010129744 0.41230652 0.0022251299 0.017734783
000170 21 0b 5b 3c d2 a6 2f 3b 5f 8f 58 bc cd ee 46 3b
       0.013369353 0.0026802314 -0.013217776 0.0030354739
000180 05 59 74 bc 8a b7 b8 bb c3 9c e2 bb c0 1f a1 39
       -0.014913802 -0.005637114 -0.00691566 0.0003073197
000190 87 03 4a 3c 4b c4 bf bb f5 cc cb 3b fc 08 bf 3d
       0.012329943 -0.0058522574 0.006219501 0.093278855
0001a0 45 be b0 3a e9 6a 97 40 4e 22 41 bc b4 0f ad 3b
       0.0013484439 4.7318006 -0.011787964 0.005281413
0001b0 da 89 ee 3a f3 ab 1c 3e 46 3b 80 bc 4d 5f b5 41
       0.0018199042 0.15299968 -0.015653264 22.671534
0001c0 68 94 5f bc 81 e9 67 bc 31 51 31 bb b9 12 18 3b
       -0.013646223 -0.014154793 -0.002705645 0.002320452
0001d0 09 0a 0f 3c 52 2c 45 bc e1 33 13 bb 72 37 10 3c
       0.00873042 -0.012034493 -0.0022461342 0.008802282
0001e0 4b 4f e0 ba 53 b9 e4 3c 51 05 a9 ba bf cc 91 3d
       -0.0017113475 0.0279204 -0.0012895261 0.0711913
0001f0 4c 9b e6 3b bd 92 a3 3d 0c cc 74 bc b7 f2 a9 b7
       0.007037556 0.079869725 -0.014941227 -2.0259393e-05
000200 8c 7b 3f bc d6 91 88 bb 9f 9e 01 3c 3c ad 4f bc
       -0.011687171 -0.0041677756 0.007911353 -0.01267558
000210 7d 1b 6c 3c 6c 74 bb 3b e3 a4 aa 3b b1 cd 4c 3c
       0.014410851 0.0057206657 0.0052076443 0.0125002125
000220 66 48 79 3c 68 1b 03 3c 82 b5 4e bb e7 10 45 bc
       0.015215015 0.00800214 -0.0031541293 -0.012027956
000230 1d 00 d4 41 b1 83 7b bc e4 c3 65 bc 30 fe d7 3e
       26.500055 -0.015351222 -0.014023755 0.42186117
000240 b5 44 f5 3b 47 66 e2 3b 23 03 38 3b a7 5f 1f ba
       0.007484997 0.006909165 0.0028078042 -0.0006079622
000250 d9 1a 35 bc d6 2a 1e bc 5d 96 28 bc 41 67 9f bb
       -0.011053764 -0.009653768 -0.010289756 -0.0048646037
000260 d1 fc 1a 3c e7 a5 21 3c a6 8e 1e 3c 95 5f 38 3c
       0.00945969 0.009866214 0.009677565 0.011253257
000270 61 02 96 bb b4 86 30 3c 6c a4 84 3b 99 28 77 3d
       -0.0045779203 0.010774303 0.004047921 0.06034145
000280 8c a9 4d bc a5 f5 51 bc b3 0b 2f 3c 2c 76 22 3c
       -0.01255263 -0.012814914 0.010683942 0.00991587
000290 d4 81 02 bc 66 55 36 3f b7 f9 e7 bb d2 93 6b bc
       -0.007965524 0.7122406 -0.007079329 -0.014378505
0002a0 12 3c 0e 3c 77 ef 23 bb c7 c3 26 3c a5 ba 69 bc
       0.008681314 -0.0025014558 0.010178513 -0.014265691
0002b0 27 45 d7 3b 1e 99 88 3b e5 d5 33 3c 1e 58 4f bc
       0.006569523 0.0041686436 0.010976289 -0.012655286
0002c0 2e b6 09 ba d6 e4 e0 bb 28 da 80 bc d3 ff c6 bb
       -0.0005253282 -0.006863217 -0.015729025 -0.006072977
0002d0 2a 70 50 bc ef e8 5e bc 0a 56 b5 3b 64 74 74 3c
       -0.0127220545 -0.01360534 0.0055339383 0.014920328
0002e0 e9 e3 8f bb 6c 17 84 3b c0 56 5d bc 0a 89 5d 3c
       -0.0043911827 0.0040311124 -0.013509452 0.013521442
0002f0 e0 1f 16 bc a7 62 39 3c b7 13 88 bb 48 3b 14 bc
       -0.009162873 0.011315024 -0.004152741 -0.009047337
000300 a2 62 1d 3c 15 20 7e bb c8 8c 67 3f 9b cd e6 bb
       0.009606035 -0.0038776447 0.9044919 -0.007043553
000310 59 f8 22 3c ba 1c 77 3c 91 a6 94 bb 79 de 32 bc
       0.009946906 0.015082533 -0.004536458 -0.010917299
000320 d4 c9 82 bb 5d b2 5a 3e 16 ac e6 3c a3 8b 44 3c
       -0.003991345 0.21357103 0.028158229 0.011996183
000330 ee e3 0e 3c 6c 52 61 3c a3 10 50 bc 6f 25 cc bb
       0.008721335 0.013752561 -0.012699279 -0.0062300484
000340 72 00 bc bb 84 2e 5e bc bc a0 1b bb 45 9e bb 3c
       -0.005737358 -0.013560895 -0.0023746928 0.022902617
000350 04 7d 28 3c 3f da d0 3b 2c 3e fe ba b1 33 00 3c
       0.010283712 0.006373673 -0.0019397191 0.007824824
000360 22 76 f0 bb c0 c5 59 bc bc ab 1c bc 4e 61 41 3c
       -0.0073383013 -0.013291776 -0.009562429 0.011802984
000370 e0 26 f3 bb 92 8a 46 3c 3c c5 13 3c 4d b0 a1 3c
       -0.0074204057 0.012117999 0.009019192 0.019737387
000380 e8 e2 2b 3c e3 94 7d 3c 63 60 77 bb 4e 7c ac 3d
       0.01049111 0.015477392 -0.003774666 0.08422147
000390 53 c0 ed bb 54 79 f1 3d b5 59 06 3e 81 4a e4 3d
       -0.007255593 0.1179072 0.13120158 0.11147023
0003a0 2d 6a 9d 3d 50 9d d5 3b 29 82 ad bb bf 6f 98 3c
       0.07686267 0.0065189973 -0.0052950573 0.018607972
0003b0 ee ea 1f 3f 2b 89 36 3e b7 b8 3e 3e 08 a1 aa 3d
       0.6246785 0.17825763 0.1862515 0.083314955
0003c0 6c 7d 89 3d 64 3b 86 3d 8a ef 21 3e cc f8 2b 3e
       0.067133754 0.065542966 0.15814033 0.16794127
0003d0 80 2f 1a 3e 6e 99 83 3c ca 69 86 3d b0 f2 0d 3f
       0.15057182 0.016064372 0.065631464 0.55448437
0003e0 d5 b4 ef 3d 6a a3 0f 3e 86 1a ae 3d b6 7f e2 3e
       0.11704413 0.14027181 0.08501153 0.4423806
0003f0 33 9a a5 3e d5 e7 a1 3d 73 7b 27 3e 6c c5 c0 3d
       0.32344207 0.079055466 0.16355686 0.09412655
