catanatron_experimental/my_DQN_wyniki2/my_DQN2_550_steps.pth (torch, 268915 bytes, 8 tensors)

layer1.weight f4 [64, 614]
000000 68 03 f0 3b 66 e0 49 3b 2b df 43 bc 34 ca 0b 3c
       0.007324625 0.0030803918 -0.011955063 0.008532096
000010 b3 53 39 bc f0 66 25 ba e0 cc 05 bc 3f 05 07 3a
       -0.011311459 -0.00063095894 -0.008166522 0.0005150623
000020 f8 a5 99 bb 6e 79 01 bc ae f0 a8 3b 12 85 9a 3b
       -0.0046889745 -0.007902486 0.0051556444 0.0047155702
000030 6e c9 34 3c 8f 72 de 3b d6 58 b6 3b be 03 7e bb
       0.011034353 0.006788559 0.0055647893 -0.0038759555
000040 05 dc 3e bb 7a af 22 3c 09 50 3d bc 85 09 35 3a
       -0.002912284 0.009929532 -0.011554726 0.00069060206
000050 38 e1 d4 bb cf eb 27 bb 1e 60 9e b6 c0 16 6e 3b
       -0.0064965747 -0.002562273 -4.7199565e-06 0.0036329478
000060 5b 35 21 3c 5c 92 21 3c 4b af 18 3c 57 64 44 3b
       0.009839381 0.009861555 0.009319137 0.0029967034
000070 8b f4 5d ba b3 cc c3 bb 2e 33 70 3b 6d c0 fd 3b
       -0.00084669207 -0.00597533 0.00366516 0.007743886
000080 3a f2 9b ba f2 c9 d6 3a 79 62 46 3b 71 d1 1e 3c
       -0.0011897751 0.0016387089 0.0030271097 0.009693489
000090 60 c6 37 bc f8 eb 93 3b fc 19 cd b9 52 85 c8 bb
       -0.01121673 0.0045142137 -0.00039120007 -0.0061194086
0000a0 2d a1 85 bb 6d f1 0c 3c dc 14 61 3a b8 d5 f3 bb
       -0.0040780515 0.008602482 0.0008586177 -0.0074412487
0000b0 c7 9d e3 ba 60 d1 0b 3c dd 6c ab 3b 87 d5 53 bb
       -0.0017365747 0.008533806 0.0052314834 -0.0032323317
0000c0 7d 0e eb 39 81 a7 be ba 69 cb 21 3c dc db 98 ba
       0.00044833487 -0.001454577 0.009875157 -0.0011662203
0000d0 3f 5c 61 3b 78 d1 b2 3b b9 ec 2c bb 13 c7 84 3a
       0.0034387258 0.0054570995 -0.0026386215 0.001013013
0000e0 68 32 4c 3b d4 4d 80 bb 4f 26 08 3c 18 67 67 bb
       0.0031157974 -0.003915528 0.008309915 -0.0035309251
0000f0 71 50 ad 3b 17 b2 1c 3b d1 f9 8a 38 fb b0 c3 bb
       0.0052891304 0.002390986 6.626885e-05 -0.0059720255
000100 f7 2b ae bb a7 22 2f bc b9 c5 f8 3b f4 51 b2 3b
       -0.0053152996 -0.010689414 0.0075919298 0.0054418985
000110 56 a2 a4 bb 26 49 02 3b 21 0e d0 3b ca bf 08 3c
       -0.0050242348 0.0019880026 0.0063493405 0.008346507
000120 1c fa 32 bc f1 a6 32 3c 62 18 32 bb 2a 6d e3 3b
       -0.0109238885 0.01090406 -0.0027175178 0.0069405036
000130 99 1a ed bb 88 4d de bb 89 4a 19 bc d0 10 34 bc
       -0.0072358367 -0.006784145 -0.0093561495 -0.010990337
000140 3e f9 99 3a f1 40 bb 3b 06 a2 60 3b 3a a1 ec bb
       0.0011747254 0.0057145287 0.003427626 -0.007221368
000150 ec 66 19 bc 47 9c 27 3a 19 2d 48 bb 11 68 27 bc
       -0.009362917 0.00063938316 -0.0030544458 -0.010217682
000160 fa 3f cb ba b4 20 03 bc 07 f6 c2 bb d5 54 09 bb
       -0.0015506737 -0.0080034025 -0.005949739 -0.0020955105
000170 82 ed 2b 3b 18 d0 1f bb 8c 33 56 bb 93 96 72 3b
       0.0026234095 -0.0024385508 -0.0032684533 0.0037016019
000180 15 e8 17 3c af ec 13 3a 80 be 24 bc 6f 9f d1 3b
       0.009271641 0.00056428736 -0.010055184 0.00639718
000190 0b 99 86 3b 57 c3 f0 bb 57 a0 16 bc 46 20 d1 bb
       0.0041075996 -0.007347505 -0.009193501 -0.006382021
0001a0 b2 a9 d8 3b e3 03 9f bb 45 4a 2c 3c 3a 7e b8 3b
       0.006612026 -0.0048527583 0.010515754 0.0056302818
0001b0 c0 c5 25 3a 90 1d 72 3b 4f d4 fa bb 9d 07 bd 3b
       0.00063237175 0.003694389 -0.0076547037 0.00576873
0001c0 12 c6 b6 3b ed 48 22 bc 29 02 ea bb 40 99 f1 bb
       0.005577811 -0.009905082 -0.007141371 -0.007373005
0001d0 29 94 fd bb d8 4d 78 bb 85 97 95 bb fd 6a 15 3c
       -0.0077386093 -0.0037888195 -0.0045651817 0.009119746
0001e0 d8 19 8a 3b 06 1d 55 3a 1a d6 0e bc 8b 12 1b 3c
       0.0042145066 0.000812963 -0.008718038 0.00946487
0001f0 99 2f ed b8 e0 e6 c5 b9 62 04 43 3b df 0f 92 bb
       -0.000113099064 -0.00037746783 0.002975725 -0.0044574584
000200 f3 ad 80 3b c6 76 3d bb d1 f5 1c 3a cd 7a e7 3b
       0.0039269864 -0.0028909906 0.0005987557 0.0070641995
000210 75 5d 2b 3c d7 81 5a b9 7a b2 30 3c 8c 65 db b9
       0.010459294 -0.00020838469 0.01078474 -0.00041846593
000220 6e b8 ee 3b 68 ed 82 ba 0f 3d b9 3b e1 27 d4 bb
       0.0072851693 -0.0009988965 0.0056530307 -0.0064744805
000230 54 23 0b bc 5d 3e b9 b9 63 99 0f b8 80 06 c0 3a
       -0.00849231 -0.00035332414 -3.423671e-05 0.0014650375
000240 ef c2 18 3c 5b 05 ab bb 93 b5 58 bb ae 0c 11 3c
       0.00932382 -0.0052191443 -0.003306721 0.008853121
000250 e0 2d 42 ba 98 7f bd b9 7f b6 5e bb 7d 6a e5 3b
       -0.00074073486 -0.00036143954 -0.0033983288 0.00700122
000260 5b 89 2d 3c f3 05 86 b7 84 e9 04 3c ce ec 73 3b
       0.01059183 -1.5976815e-05 0.008112315 0.0037220004
000270 9d ae 8c bb 4e e4 2a bc c5 88 d3 3b c5 96 1e 3b
       -0.0042932765 -0.010430409 0.006455513 0.0024198752
000280 5c f8 14 bc 58 05 96 3b a5 32 d7 bb 60 ab 77 ba
       -0.009092417 0.0045782737 -0.0065673166 -0.0009447839
000290 17 2c f5 bb 09 1c 0f bc 03 63 aa bb ac 38 8c 3a
       -0.0074820626 -0.008734711 -0.0051997914 0.0010698042
0002a0 97 49 63 ba 40 2d 2b 3b 08 18 0b bc 17 88 2e 3c
       -0.00086703285 0.00261195 -0.008489616 0.010652564
0002b0 27 c5 08 bc b0 a4 2b 3c 24 a1 bd ba 15 a3 c8 bb
       -0.008347786 0.010476276 -0.0014467579 -0.0061229565
0002c0 80 4d c3 bb ad 68 d8 bb b6 54 b2 3a 21 70 6a 3b
       -0.0059601665 -0.006604275 0.0013605568 0.00357724
0002d0 38 dc 02 3b 01 b9 f8 3b 73 8e c9 bb c9 46 20 bc
       0.0019967686 0.0075904136 -0.0061510145 -0.0097825015
0002e0 99 b0 bf 3b 45 ca f0 bb bc f1 93 3b b9 c3 b7 bb
       0.0058499095 -0.007348331 0.004514901 -0.0056080488
0002f0 57 f3 10 3c fd a7 fa bb e3 23 2c bc c1 57 73 3b
       0.008847079 -0.0076494203 -0.010506603 0.0037131163
000300 c1 f0 ce bb bb 68 b6 3b dc 95 0d 3c 62 1d 22 3c
       -0.006315321 0.005566684 0.008641686 0.009894701
000310 f3 62 9a bb 0b e6 c2 bb 43 c7 2f bc 8a f3 18 bb
       -0.0047115027 -0.0059478334 -0.01072866 -0.002333852
000320 60 23 04 3c cb 81 d0 3b 7d 26 e7 bb b7 8e 1b 3b
       0.008065075 0.006363129 -0.0070541487 0.0023736188
000330 4d eb 7e 3a 12 58 a0 ba 15 c7 11 bc 90 4d fd 3b
       0.00097243936 -0.0012233278 -0.0088975625 0.0077301934
000340 e0 f3 b7 3b 5f c8 1e 3c 64 fc 02 3c 32 fb ec 3b
       0.005613789 0.009691327 0.007994745 0.0072320933
000350 cb 8e 8f 3b d2 19 2b bc 7d 6d c8 bb 51 da 20 ba
       0.004381036 -0.010443168 -0.0061165676 -0.00061360473
000360 9a 77 f3 3b fc 56 c8 ba 77 42 bb bb 13 95 d4 3b
       0.007430029 -0.0015284712 -0.0057147103 0.0064874976
000370 cb 02 2a 3c a8 40 81 ba 6a 89 07 bc 50 8a 40 ba
       0.010376642 -0.0009861188 -0.008272508 -0.0007344829
000380 ae b6 f7 b9 74 f0 d6 bb 1c 0d 47 3b b8 a2 67 bb
       -0.00047247618 -0.006559426 0.0030372804 -0.003534479
000390 ba 55 e9 bb f1 77 a2 bb b1 0e b4 3b c3 ab aa bb
       -0.007120815 -0.004958146 0.0054949154 -0.005208464
0003a0 65 ed 95 bb 5a 0f 27 bb 21 56 92 bb fc 52 34 3c
       -0.004575419 -0.0025491328 -0.004465834 0.011006113
0003b0 0f 39 36 39 8c a9 54 bb a2 87 e3 b9 0f 54 01 bc
       0.00017378129 -0.003244969 -0.00043397868 -0.007893576
0003c0 ce f7 1a 3c 87 bb 1b 3c b8 fd 8c 3b 5e c8 59 3b
       0.009458495 0.009505159 0.0043027066 0.0033231
0003d0 86 df a5 3b 8e 95 99 bb 74 07 52 3b 6b 9e 79 bb
       0.0050620465 -0.0046870178 0.00320479 -0.003808881
0003e0 b8 5b 24 3c ec 97 fc bb 90 f4 26 3c de 48 c2 3a
       0.010031633 -0.00770854 0.010190144 0.0014822742
0003f0 d7 30 15 bc 74 83 cf 3b 91 d8 f5 3b de 87 a9 3b
       -0.009105883 0.006332809 0.0075026234 0.0051736673

layer1.bias f4 [64]
000000 8d e5 e8 3b c0 93 0a 3a 0e 51 d3 b9 bd d1 34 42
       0.0071074427 0.00052862987 -0.00040305447 45.204823
000010 4c 2f 4b bc f5 b7 34 42 f7 14 53 bc 3f c2 34 42
       -0.012401413 45.179646 -0.012883416 45.189693
000020 17 14 fe 3b 71 d1 34 42 3e b4 34 42 ff ce 34 42
       0.0077538597 45.204533 45.176018 45.202145
000030 2a 62 56 bc 99 1a fb bc 20 a8 34 42 b0 6f 34 42
       -0.013084928 -0.030652331 45.164185 45.10907
000040 48 c7 34 42 c9 b8 34 42 4e d2 34 42 c9 08 22 3c
       45.19461 45.180454 45.205376 0.00988979
000050 02 7d 34 42 4c be 34 42 e5 b4 34 42 db 88 9a bb
       45.122078 45.185837 45.176655 -0.0047160215
000060 12 62 9e b9 31 c5 34 42 20 08 ff bf d1 d4 34 42
       -0.00030209176 45.19257 -1.9924355 45.20783
000070 a0 66 16 3b d7 22 19 3c 3d 6b 18 bc 96 a0 00 bc
       0.0022949353 0.009346685 -0.009302911 -0.007850787
000080 cb c0 34 42 47 54 e6 bb f3 61 f1 3b 35 cd 34 42
       45.188274 -0.0070290896 0.007366413 45.200397
000090 b6 b4 34 42 26 c3 34 42 f9 c3 34 42 12 21 d7 3a
       45.176476 45.190575 45.19138 0.0016413054
0000a0 f2 e3 ff bf a1 1c 0f bb 58 c3 34 42 0c 9f 00 c0
       -1.9991438 -0.0021837133 45.190765 -2.0097075
0000b0 6a af 81 ba 57 14 ca bb 8c 72 0a bc f6 e5 85 bb
       -0.0009894196 -0.0061669755 -0.008450162 -0.0040862514
0000c0 6c bc 34 42 d1 64 8f 3b dd 44 d5 ba b2 b4 40 bc
       45.184006 0.004376032 -0.0016271133 -0.011761831
0000d0 b7 b2 34 42 00 bc 34 42 7e bb 34 42 85 aa 34 42
       45.174526 45.183594 45.183098 45.166523
0000e0 35 b6 11 3b e4 9b a5 bb d9 40 16 bc a6 bb 34 42
       0.0022233848 -0.005053984 -0.009170734 45.18325
0000f0 03 c7 34 42 0f c4 34 42 da c1 34 42 6d af 34 42
       45.194347 45.191463 45.18931 45.171314

layer2.weight f4 [64, 64]
000000 30 4a b1 bb e8 12 69 ba 18 0b 36 3b 61 14 a2 3c
       -0.005410455 -0.0008891062 0.0027777608 0.019785108
000010 77 f3 72 bc 36 cc bf 3a e6 15 e7 bc 4b 75 e4 3c
       -0.014828554 0.0014633003 -0.028208684 0.02788796
000020 2e 06 27 bc b7 ec a3 3a a5 b9 d7 bc d6 28 96 3c
       -0.010194344 0.001250646 -0.02633364 0.018330019
000030 ab d3 9b bc 34 01 ba 3c f7 23 c7 39 38 7d 45 3c
       -0.01902183 0.022705652 0.00037983034 0.01205378
000040 93 89 a5 3c 0d 8b 9e 3c e6 2a 14 3b 17 d3 0a 3b
       0.020207202 0.019353414 0.0022608577 0.0021182948
000050 cc c3 ed bc 2b 39 6c bc dc d5 97 3c fb 1e 7b 3c
       -0.029024027 -0.014417927 0.018534593 0.015327211
000060 07 06 b7 3c 19 30 6f bc bb f9 92 3c 78 56 10 bd
       0.022341741 -0.01459887 0.017941346 -0.035238713
000070 01 cd 04 bd 17 e8 b6 3b 07 49 c1 bc 9e 74 0a bd
       -0.03242207 0.0055818665 -0.023594392 -0.03380262
000080 fd 11 b6 bc 29 41 5d 3c b3 2c 9e bc e8 91 26 bc
       -0.022225374 0.013504305 -0.019308424 -0.010166623
000090 7e 5c af 3c b6 c2 98 bc 5c 1c ad bc 41 d5 8c bc
       0.021406408 -0.018647533 -0.021131687 -0.017191531
0000a0 75 83 d5 3c 3a e0 bb 3c 64 0c 01 3d 0e 39 2c 3c
       0.02606366 0.022934068 0.031505957 0.01051165
0000b0 70 85 24 bc 95 e1 1d 3d de da f1 3c 78 c1 f9 3b
       -0.01004158 0.03854521 0.02952331 0.00762194
0000c0 f0 db 14 bd 9c 8a b7 3c 3d 97 b8 bb fd 21 b5 3c
       -0.03634256 0.022404961 -0.0056332634 0.022110933
0000d0 77 cd 9c 3b 4d 82 0c bc 37 bc 27 bd 46 1e d2 3a
       0.0047852355 -0.008575988 -0.04095098 0.0016030751
0000e0 75 97 64 bc 15 42 fd bc 84 d2 f0 3c 5d 38 cc 3c
       -0.013952126 -0.0309153 0.029397257 0.02492922
0000f0 5e cd f6 bc f1 00 ce bc a8 f2 2f 3c 45 6c f2 bc
       -0.030127224 -0.025146933 0.010739006 -0.029592643
000100 b0 98 d2 3b 6d b0 46 3c a9 ac fc bb 67 be bc bc
       0.006426893 0.012127024 -0.0077110124 -0.02304001
000110 e9 62 44 bb cf e3 90 bc a4 88 88 bb 59 c8 a1 bc
       -0.0029966182 -0.017686753 -0.0041666795 -0.019748854
000120 d2 e2 c2 bc d3 07 67 3b ab f7 c5 3c 51 f8 02 3d
       -0.023789797 0.0035252466 0.024165949 0.031975094
000130 0a 06 d4 bb 57 38 d9 3c 88 0a 39 bc 72 45 d3 3c
       -0.0064704465 0.026516123 -0.011294015 0.02578995
000140 21 93 80 bc fa e6 86 3c a2 08 5f bc 24 ca e5 3c
       -0.015695157 0.01646756 -0.013612898 0.02805049
000150 93 36 93 b9 f8 68 07 bd 1a a6 84 3c 38 ff 91 3c
       -0.00028078686 -0.03305909 0.016192485 0.017821893
000160 07 00 25 ba 0e ae 44 bc ff ee 61 bc 8f 5e 2d bc
       -0.00062942546 -0.0120043885 -0.013789891 -0.010581627
000170 18 7d 98 3c 4e c1 e0 bc 6e 9a 2d bc f0 e1 8c bc
       0.018614337 -0.027435925 -0.010595901 -0.01719758
000180 e5 f3 3b bc 13 84 60 bc c8 2a 82 3c 25 52 a2 bc
       -0.011471723 -0.013703364 0.01588954 -0.01981456
000190 ff 04 f0 bc ea 7c 0a bd ea 0d 0f bd 2e 6b b6 bb
       -0.029299257 -0.033810534 -0.03492538 -0.005566976
0001a0 a7 f6 c3 bc ee d5 d2 bc b6 ad ec 3c 42 8f e9 3c
       -0.023921324 -0.025736775 0.028891426 0.028510693
0001b0 76 87 fd bb 6a 50 00 bd 4a 6d 85 bc 65 96 b0 3b
       -0.0077370955 -0.03132669 -0.016287465 0.005389022
0001c0 05 c4 8a 3c d5 44 32 bb 6e 89 5e bc 09 3a fa 3c
       0.016939173 -0.0027201672 -0.0135825705 0.030545251
0001d0 0f 2d f4 3c 88 10 31 3c e7 42 25 bc 6f e5 49 bc
       0.029806642 0.010807164 -0.010086752 -0.012322768
0001e0 4e 8c 5e 3c 69 fe cc 3a 57 e5 12 bc 59 52 b1 3c
       0.013583256 0.0015639785 -0.008965812 0.021645712
0001f0 34 6a a1 bc f6 c0 00 3d bf 45 99 3b e3 a5 e5 3c
       -0.019703962 0.031434022 0.004677504 0.028033203
000200 5d 72 92 3b ab 47 c5 3c b1 19 da 3c 2e 1f 35 42
       0.0044691996 0.024082026 0.026623579 45.28045
000210 88 2a a6 bd 71 1d 35 42 42 31 58 bc bf 26 35 42
       -0.08113581 45.27875 -0.013195338 45.287838
000220 9b 24 bc ba da 35 35 42 7f 5e 35 42 73 25 35 42
       -0.0014354171 45.30259 45.34228 45.28657
000230 10 4c 4f bc cb 70 9d bf c1 42 35 42 47 4b 35 42
       -0.012652412 -1.2300047 45.31519 45.323513
000240 3a 64 35 42 cb 38 35 42 25 26 35 42 4a f8 73 3c
       45.347878 45.30546 45.28725 0.01489074
000250 cb d6 35 42 c2 36 35 42 eb 55 35 42 04 54 b3 bc
       45.45976 45.303474 45.333904 -0.021890648
000260 58 90 db 3c b8 5f 35 42 cf 68 df c1 95 28 35 42
       0.026802227 45.343475 -27.926176 45.28963
000270 38 27 08 3d 38 93 5c bc 61 07 11 bc ea b6 01 bc
       0.033240527 -0.013462834 -0.008851857 -0.007917145
000280 cf 75 35 42 93 4c 49 bc 0a c9 b5 3c b5 2d 35 42
       45.365047 -0.012286323 0.02219059 45.294636
000290 3e 5f 35 42 4b 70 35 42 78 5f 35 42 64 1c 9b bb
       45.34301 45.35966 45.34323 -0.004733609
0002a0 15 38 e4 c1 0c 06 69 3c 1e 2c 35 42 c1 f7 e5 c1
       -28.527384 0.014222633 45.293083 -28.745974
0002b0 cd a8 b7 bb a9 c0 0c 3d 95 89 32 bb 09 9f bb ba
       -0.0056048394 0.034363423 -0.002724265 -0.0014314364
0002c0 86 55 35 42 ea 0c ab bc c4 e2 06 bd 8b 15 a2 3c
       45.33352 -0.020880181 -0.032931104 0.019785663
0002d0 86 6c 35 42 fb 53 35 42 5c 19 35 42 d7 6f 35 42
       45.35598 45.332012 45.274765 45.35922
0002e0 b3 fb e6 bc 11 7e d3 b8 58 10 29 bd e1 3f 35 42
       -0.028196191 -0.00010084746 -0.041275352 45.31238
0002f0 d7 45 35 42 51 73 35 42 b0 4e 35 42 12 61 35 42
       45.318203 45.362614 45.326843 45.344795
000300 12 c9 d0 3c a8 a6 08 bd a3 b5 d3 bc f3 03 64 bc
       0.025486503 -0.03336206 -0.025843447 -0.013916957
000310 72 d6 9c 3e 37 58 44 3d 62 00 12 3c d4 c6 dc bc
       0.3063236 0.04793569 0.008911224 -0.026950277
000320 b5 b7 bf bb 5a 49 38 3c e3 e6 b9 3c 48 3e d6 bc
       -0.005850757 0.011247957 0.022693103 -0.026152745
000330 71 27 36 3c 45 6c 5a bc aa 78 7f 3c 4f b4 e7 3d
       0.011117802 -0.0133314775 0.015592733 0.11313688
000340 53 08 c4 3c de 02 f1 bc 53 e4 bb 3c 24 35 cd bc
       0.02392975 -0.029420312 0.022936022 -0.025049753
000350 7c db ce bd a7 85 bd bd 3a 69 26 3a 74 72 48 3c
       -0.10100457 -0.09254008 0.00063480774 0.012234319
000360 8c 94 ea bc ff 14 f3 bc 3c a9 99 bd 4b 8d e2 3c
       -0.028635286 -0.029673098 -0.07502982 0.027655264
000370 1a 56 89 3c 5e 36 ba 3c a8 37 6b 3c 1e ee bf bc
       0.01676469 0.022731002 0.014356531 -0.023428973
000380 80 f8 b5 bd 46 ba fd 3b 67 54 42 3c 03 ca a4 3c
       -0.08885288 0.007743153 0.011860943 0.020115858
000390 17 af 28 bd 99 ad 40 3c 7c 8b 57 bc 43 c1 8f bc
       -0.041182604 0.011760139 -0.013155814 -0.017548209
0003a0 17 86 fa bc 11 6f 74 3b ed 2b cb bb 85 82 46 3e
       -0.030581517 0.0037297646 -0.0062003047 0.19385727
0003b0 88 59 00 bd 1d 7e f8 3d 9b 55 15 bc d2 65 09 bd
       -0.031335384 0.12133429 -0.009114648 -0.03354437
0003c0 a5 f9 61 bc 3e 07 39 bc ad 33 5f bc 92 67 79 3c
       -0.01379243 -0.011293231 -0.01362316 0.015222447
0003d0 a0 ab 8b bd 77 3e ac 3c 47 f8 53 bc 08 9e 81 3d
       -0.06819844 0.02102588 -0.012937612 0.0632897
0003e0 7e 91 c9 bc 22 c1 dd 3c 87 60 c3 bc 22 23 c5 bc
       -0.024605509 0.027069632 -0.023849739 -0.024064604
0003f0 8c ac fe ba be a7 a5 3c 64 73 dd bc 4c 65 20 bd
       -0.0019430085 0.020221587 -0.027032562 -0.039159104

layer2.bias f4 [64]
000000 d5 a3 b7 bc ba d7 ca 3c 40 67 40 42 8a 6c 2a bb
       -0.022416988 0.02476107 48.10083 -0.0026004636
000010 be 5c 40 42 7b 68 40 42 ab 0d 16 bd 1b f2 fb bc
       48.09057 48.10203 -0.03663413 -0.030755093
000020 a2 86 40 42 cf fc 57 bc b8 74 40 42 33 76 d9 bc
       48.131477 -0.013182833 48.113983 -0.02654562
000030 25 62 40 42 56 51 03 3d 06 77 40 42 60 46 40 42
       48.095844 0.03205999 48.116234 48.068726
000040 93 5c 40 42 45 88 40 42 5d 0c e7 bb 74 73 40 42
       48.090405 48.133076 -0.0070510344 48.112747
000050 02 50 96 3c 07 4e 40 42 27 36 fe 3b 6e a2 c0 bc
       0.018348698 48.0762 0.0077579203 -0.023514953
000060 32 a3 15 bd 28 f5 fd bc 21 e3 b0 bc f2 4a 40 42
       -0.03653259 -0.031000689 -0.021592679 48.07319
000070 81 6b 08 bd 0f 8d 40 42 23 8b 40 42 eb 83 c5 3c
       -0.03330565 48.137753 48.135876 0.024110755
000080 65 4b 8c 3c 52 69 f9 bc d9 6b 40 42 12 45 40 42
       0.017125795 -0.030445728 48.10532 48.06745
000090 18 6f 40 42 11 1a 92 3c 68 3a c8 ba c1 70 55 bb
       48.10849 0.017834695 -0.0015276195 -0.0032568427
0000a0 49 42 40 42 6e 59 40 42 ad 74 40 42 0e 6e f4 ba
       48.06473 48.087334 48.11394 -0.0018648522
0000b0 63 84 59 3a 19 fd de bc d5 0b 07 bd 22 66 40 42
       0.000829762 -0.027220296 -0.03297027 48.09974
0000c0 6c 90 fb bc c8 1d 04 bd 47 66 40 42 21 45 72 3a
       -0.030708514 -0.032254964 48.09988 0.00092418684
0000d0 d0 64 40 42 a1 69 40 42 79 4e 40 42 aa 68 40 42
       48.09845 48.103153 48.076633 48.10221
0000e0 15 87 40 42 8f 51 40 42 84 0e 61 bc 4e 76 40 42
       48.131916 48.079647 -0.013736371 48.115532
0000f0 59 53 40 42 3e 77 40 42 99 84 40 42 72 7b 40 42
       48.081394 48.116447 48.12949 48.120552

layer3.weight f4 [64, 64]
000000 8f 3b 8b 3c ee 36 0f bd 98 dd 1c bd e4 24 00 bd
       0.016996173 -0.034964494 -0.038297266 -0.03128518
000010 ab ce af 3a ee 97 19 bd 15 79 0f 3c 68 9a 45 bc
       0.0013413032 -0.037498407 0.008756896 -0.012060739
000020 16 36 d1 bb 80 9e 0d bc 8f 9a e2 b8 d0 af d9 bc
       -0.0063846214 -0.008643746 -0.000108053086 -0.026573092
000030 bf b2 0b bd cc 26 19 3c 87 2e e4 3a bd c0 36 bc
       -0.034106012 0.009347629 0.0017408886 -0.011154351
000040 1f 11 96 3b 99 bd a2 3c e1 34 bf 3c d7 be 0a bd
       0.0045796777 0.019865798 0.023340644 -0.033873405
000050 fa 01 96 bc e7 0a 65 3d cd 92 95 bc fa 62 18 3d
       -0.01831149 0.0559186 -0.018258477 0.037203766
000060 40 67 da bc 3e 9f 55 bc 08 4c ff bc f3 02 03 3d
       -0.026660562 -0.013038455 -0.031164184 0.031985234
000070 98 87 37 3a dc 14 de bc 7c 96 2b 3c b1 ae d7 3c
       0.0007001101 -0.027109556 0.01047289 0.026328417
000080 b2 c0 02 3c 2c 32 02 bd a1 c2 f2 bc a5 be 2e 3c
       0.007980512 -0.03178613 -0.029633822 0.01066557
000090 4d 87 49 3c 8e 6e 4b bc 97 cb db 3c 6f 24 02 3d
       0.012300325 -0.012416495 0.026830478 0.031773027
0000a0 03 70 db 3c 16 97 8b 3c 89 cf a2 3c cd e6 b1 bc
       0.02678681 0.017039817 0.019874351 -0.0217165
0000b0 b6 14 c8 3c c8 67 38 3c d1 9e de bb 29 6a e5 3c
       0.024423938 0.011255212 -0.0067938347 0.028004723
0000c0 b4 d5 bb bb 72 b6 a9 3c fb 4b 70 3c c5 08 df bc
       -0.0057322625 0.02071688 0.014666553 -0.027225861
0000d0 85 56 24 3c 94 8e 8a bc f2 d4 95 3c dd a1 d4 bc
       0.0100303935 -0.01691369 0.018290017 -0.025956089
0000e0 ae 7c 0b bd ad ec e2 3c a2 64 66 bc d4 6c 03 bd
       -0.03405445 0.027700746 -0.014062079 -0.03208621
0000f0 21 1f 9c bc ab 1b c2 bc a4 d9 b3 3c 41 3e d2 bc
       -0.019057812 -0.023694834 0.021954365 -0.02566445
000100 a8 8d c5 bc 87 ec d1 bb 3c 58 34 42 1f 9e 5f 3e
       -0.024115399 -0.00640637 45.086166 0.21837662
000110 90 5c 34 42 cf 2f 34 42 2e 38 e4 bc 01 4d d5 3c
       45.090393 45.046688 -0.02785882 0.026037695
000120 9c 2c 34 42 1d 2c 9e bd 6b 2b 34 42 56 ce c7 bc
       45.043564 -0.07723258 45.0424 -0.02439038
000130 c9 5c 34 42 17 f7 7e bb 2f 4d 34 42 39 60 34 42
       45.09061 -0.0038904601 45.075375 45.093967
000140 fd 39 34 42 6e 31 34 42 f9 83 16 3d b1 3c 34 42
       45.05663 45.04827 0.036746953 45.05927
000150 6b 3f 41 3c 81 5a 34 42 da 9b be 3c 96 8b 8d bc
       0.011794905 45.088383 0.023267675 -0.017278474
000160 aa 51 eb 3b 70 4d cf bc 6c 15 fe 3c 5f 5b 34 42
       0.007181366 -0.02530548 0.031016074 45.08923
000170 48 aa 88 bb 7d 48 34 42 b9 4e 34 42 64 82 fb 3c
       -0.0041706897 45.07079 45.076878 0.030701824
000180 cb 68 e4 bc fa b0 98 3c a3 29 34 42 19 53 34 42
       -0.027882 0.018639077 45.04066 45.08115
000190 67 3e 34 42 b3 e1 e8 3c b8 25 e1 3d 08 93 01 3e
       45.06094 0.028427934 0.109935224 0.12653744
0001a0 49 5b 34 42 9d 61 34 42 19 5a 34 42 ab aa dc bc
       45.089146 45.095325 45.087986 -0.02693685
0001b0 6a b1 07 bc 2d af 87 3c ec 34 0b 3a ee 51 34 42
       -0.008282045 0.016563023 0.0005310315 45.08001
0001c0 97 b0 9a bc 03 a5 b7 3c 3f 65 34 42 05 58 ce 3c
       -0.018883033 0.02241755 45.098873 0.025188455
0001d0 79 31 34 42 67 59 34 42 cf 63 34 42 1e 6b 34 42
       45.048313 45.087307 45.09747 45.104607
0001e0 58 1d 34 42 37 3d 34 42 58 0a 86 bc 8a 25 34 42
       45.028656 45.05978 -0.016362354 45.03666
0001f0 fd 44 34 42 4b 5f 34 42 72 29 34 42 4c 4d 34 42
       45.06737 45.09306 45.040474 45.075485
000200 24 bc d5 bc e4 f1 a0 3c b5 b9 72 3a 90 bb 9e bc
       -0.026090689 0.019646592 0.000925924 -0.019376546
000210 9f 73 86 bb 4f 06 3e 3c de c8 ed bb aa dd ed 3c
       -0.0041031386 0.011598184 -0.0072566113 0.029036362
000220 48 4b ca 3c 03 e1 d8 bc b9 d8 3f bc fd 1a d9 bc
       0.0246941 -0.026474481 -0.011709386 -0.026502127
000230 2d 2a 21 bc 91 5e 9e bc d9 f2 7c bc 64 24 d6 3c
       -0.009836716 -0.019332202 -0.015438759 0.0261404
000240 7b 73 a8 3b 0c 54 ab bc a1 8e df ba 25 b0 78 3c
       0.0051407195 -0.0209141 -0.0017056057 0.015178715
000250 69 6f 8e bb 97 6e fb bc 2a e7 84 3c 3c f9 17 bd
       -0.004346777 -0.030692382 0.016223509 -0.037102923
000260 da 53 ba bc cc ae 93 bc 0c 77 52 3c 0c 31 ea 3c
       -0.022745062 -0.018027686 0.012845766 0.02858784
000270 22 7e b6 3c 97 7f 43 ba 4e 67 02 3b 1f 6a 86 b7
       0.022276942 -0.0007457672 0.0019898 -1.6023461e-05
000280 41 ec 03 bb 47 62 fa 3a b0 41 d3 3c d4 06 36 3c
       -0.0020129832 0.0019102775 0.025788158 0.011110026
000290 59 db 3f 3a 52 37 88 bc 05 76 dd 3c a3 5a e4 bc
       0.0007318757 -0.016627941 0.027033815 -0.02787525
0002a0 98 36 00 bd 86 ab f3 bc 2f 78 05 bd cd 74 db 3c
       -0.031302065 -0.029744875 -0.03258532 0.026789093
0002b0 52 40 44 bc 9c 20 05 bd b0 45 f1 bc 4c ee 09 bc
       -0.011978226 -0.0325018 -0.029452175 -0.008418631
0002c0 9b 31 62 3c 44 0d 01 bd 2c 2b b1 3c 06 44 97 3b
       0.013805772 -0.03150679 0.021627031 0.0046162633
0002d0 ea 90 b4 bc bd ab cd 3c da 48 18 bd f9 b7 35 3c
       -0.022041757 0.025106305 -0.03717885 0.011091226
0002e0 85 fb 16 3c 15 06 77 3b bf d5 d9 3c 7d 65 87 3c
       0.00921524 0.0037692834 0.02659118 0.016527886
0002f0 11 be 80 3c 46 52 d2 3b c4 0d a9 bc f3 07 16 bd
       0.01571563 0.006418499 -0.020636447 -0.036628675
000300 13 03 88 bc 61 bb 00 bd c3 e8 33 42 ba a8 45 3e
       -0.016603028 -0.0314287 44.977306 0.19302645
000310 cc ec 33 42 94 d0 33 42 d6 f5 a9 bc c7 3f c3 3b
       44.981247 44.95369 -0.020747107 0.0059585306
000320 ca d7 33 42 27 23 5b 3e 75 15 34 42 21 11 7c bc
       44.96073 0.21400128 45.020954 -0.015384943
000330 e6 f2 33 42 d0 93 54 b9 78 e3 33 42 13 e5 33 42
       44.987206 -0.0002027296 44.972137 44.973705
000340 6a da 33 42 3e fe 33 42 57 5f 7a bb a7 ea 33 42
       44.963295 44.998283 -0.00382038 44.979153
000350 04 7f a3 3c 60 cf 33 42 fa a6 a7 bc 86 89 f5 3c
       0.019958027 44.952515 -0.020465363 0.029972803
000360 ab 44 30 bb 55 e4 b3 3c 76 aa 0c 3c eb e1 33 42
       -0.0026896398 0.021959463 0.008585563 44.970623
000370 be e2 1e 3c 07 e1 33 42 57 f4 33 42 b4 ab ba 3b
       0.009697614 44.969753 44.988613 0.005696738
000380 e0 7b 4e bc dc e0 82 3c 5f fa 33 42 77 e3 33 42
       -0.012602776 0.015976362 44.994503 44.972134
000390 ed c1 33 42 13 ad fa 3c 04 9c b2 3e 5c 3c 20 3e
       44.93938 0.030600106 0.34884655 0.15648025
0003a0 cd bc 33 42 cf dc 33 42 31 f7 33 42 fe 9a 71 bc
       44.934376 44.965633 44.991398 -0.014746426
0003b0 01 f6 f1 bc e1 70 6d 3c 07 05 e3 3c 66 f3 33 42
       -0.02953625 0.014492244 0.027712358 44.987694
0003c0 2f d6 0a bd d2 fa bf 3b 44 ee 33 42 33 71 00 bc
       -0.033895668 0.0058587575 44.98268 -0.007839489
0003d0 ad e4 33 42 78 ba 33 42 00 ec 33 42 90 c3 33 42
       44.973316 44.9321 44.98047 44.94098
0003e0 a0 cf 33 42 cd c6 33 42 5b a1 a3 bc 99 f4 33 42
       44.95276 44.94414 -0.019974401 44.988865
0003f0 60 de 33 42 32 d8 33 42 68 ec 33 42 f2 f4 33 42
       44.967163 44.96113 44.980865 44.989204

layer3.bias f4 [64]
000000 d3 48 ee ba 63 87 31 42 0f bd 79 bc 81 f7 31 42
       -0.0018179662 44.382214 -0.015242829 44.491703
000010 d6 29 30 42 44 a7 bb bc cf 4e 0c bb de 39 30 42
       44.040855 -0.022906907 -0.0021409278 44.05651
000020 3d cd 30 42 8f 31 2f 42 a1 93 6f bc 78 32 ce bc
       44.200428 43.798397 -0.0146226 -0.02517055
000030 18 ee 2f 42 11 5f 32 42 24 f5 07 bc b8 5d bd 3c
       43.982513 44.59284 -0.008298192 0.023115978
000040 2c 4c 02 bd 6a cb 31 42 9a a2 32 42 93 0f 32 42
       -0.031810924 44.448647 44.65879 44.51521
000050 d9 f5 c5 bc 8a ae 0b 3c e9 f6 7f 3b 1b 1f 72 3c
       -0.02416508 0.0085255 0.0039057082 0.014777924
000060 5a 7f 90 3c 51 66 30 42 48 fd 97 ba 4b 73 40 3b
       0.017638851 44.09992 -0.001159587 0.0029365595
000070 7d 8e 2e 3c 09 86 8e 3c 05 34 32 42 46 a9 27 3a
       0.010654089 0.017397897 44.5508 0.0006395768
000080 c9 6c 0c bd 48 c3 31 42 6a 2f 11 3c 5e 1a 2e 42
       -0.034283433 44.440704 0.008861402 43.52575
000090 43 78 4e 3c a1 d6 01 3d b5 51 12 3c 2f 4f c5 bc
       0.012601915 0.031698827 0.008930613 -0.02408561
0000a0 d5 63 a4 3b 80 60 30 42 b0 36 32 42 8a 57 31 42
       0.0050167837 44.09424 44.553406 44.335487
0000b0 56 a1 f8 bb 72 f0 9b 3b 0f cf 7a b9 a9 5a 32 42
       -0.007587592 0.004758888 -0.00023918993 44.588535
0000c0 6f 4b ef 39 eb e0 31 42 a8 0b 04 bd 13 93 ed 3c
       0.00045641835 44.469646 -0.03223768 0.029000795
0000d0 49 6d 43 bc 1a fd f6 bc 8b 8c 02 bd 40 ca f8 bc
       -0.011927911 -0.030149985 -0.031872313 -0.030369878
0000e0 a0 25 09 3d 93 6a c2 bc 3e 5b 32 42 80 d6 eb bc
       0.033483148 -0.02373246 44.589104 -0.028788805
0000f0 1d 1e d3 3b 6e 9f 8d 3c 4c 7b 31 42 3b c5 b7 bb
       0.006442799 0.017287936 44.370407 -0.0056082285

layer4.weight f4 [290, 64]
000000 81 e3 e2 bb f5 b0 e8 41 97 3a 44 bc 8e 9d e8 41
       -0.0069240932 29.086405 -0.0119768595 29.076931
000010 a5 6d e8 41 04 11 60 bc e2 e2 0f bd 1b 89 e8 41
       29.053537 -0.013675932 -0.03512848 29.066946
000020 ea 7a e8 41 e7 67 e8 41 62 62 c7 3a f5 dd a3 3c
       29.060017 29.050734 0.0015211815 0.020003298
000030 f3 6f e8 41 db d1 e8 41 28 7e 1f 37 f7 a5 40 3e
       29.054663 29.102468 9.506512e-06 0.1881331
000040 7a 54 23 ba ae 89 e8 41 c2 c4 e8 41 bf ab e8 41
       -0.00062305445 29.067226 29.096073 29.08386
000050 3c de 08 bc e1 81 f5 3c 45 dd 07 3d 51 b9 dc 3c
       -0.008353766 0.029969158 0.033170003 0.026943834
000060 42 35 89 3a 2f 7c e8 41 6e c3 82 3c cf b2 19 bb
       0.0010468143 29.060637 0.015962329 -0.0023452525
000070 e4 72 7f 3c 47 c0 ec bc ed a8 e8 41 75 fd 26 bc
       0.015591357 -0.028900279 29.082483 -0.010192265
000080 52 0e e5 3c 1e a8 e8 41 c4 83 04 3d 4d 54 e8 41
       0.02796093 29.082088 0.032352224 29.041162
000090 0f 88 e2 3c 51 58 03 3d a7 ea 45 bd 7e 0b 98 bc
       0.027652768 0.032066647 -0.048319485 -0.018560167
0000a0 64 9e 03 3d e0 71 e8 41 39 d2 e8 41 e3 9c e8 41
       0.032133475 29.055603 29.102648 29.076605
0000b0 c3 8d 5b bc 15 3c d0 bd db 4c 03 bd b1 b4 e8 41
       -0.013400498 -0.1016771 -0.032055717 29.088228
0000c0 39 e6 6f bc 4b a1 e8 41 41 85 d7 ba 67 63 d9 3d
       -0.014642292 29.078756 -0.0016442911 0.106146626
0000d0 b3 28 9a bc 54 04 21 3c 05 ba f1 3b 26 59 82 bd
       -0.018818235 0.009827692 0.0073769116 -0.0636466
0000e0 6f ea e9 bb cc be 71 bc a0 ce e8 41 e9 58 53 bc
       -0.0071385424 -0.014754962 29.100891 -0.012899616
0000f0 2c a2 4f bc 5e 04 c3 3b 7d 8e e8 41 c7 a3 93 3c
       -0.012672942 0.0059514483 29.069574 0.018022431
000100 85 e3 77 3c b5 4a c7 3e da 8a ae bb db 2d d0 3e
       0.0151299285 0.38924184 -0.005326611 0.40659985
000110 c5 10 ac 3e e7 97 23 bc e1 6d 36 3c e7 d2 c3 3e
       0.33606544 -0.009984947 0.011134596 0.38246843
000120 d1 15 da 3e 29 13 b3 3e 89 f8 56 3d 64 fc d8 bc
       0.4259477 0.34975556 0.052483115 -0.026487537
000130 23 03 c0 3e 61 b5 d8 3e c6 42 3d 3c cc f7 31 3e
       0.37502393 0.4232588 0.011551565 0.17379683
000140 56 b5 87 39 21 1a ab 3e 79 6f dc 3e c0 e4 cd 3e
       0.00025884312 0.33418372 0.43053797 0.40213585
000150 f1 40 08 bc ff 88 bb 3c 74 d3 72 3c ca f1 b4 3b
       -0.0083162645 0.022892473 0.014820922 0.0055219876
000160 47 94 b0 bb 20 4d be 3e 96 bf 09 bb 00 0b a5 3c
       -0.00538877 0.37168217 -0.0021018735 0.020146847
000170 3d 8f df 3c 31 0a 94 3c ec ad c0 3e 30 ee b3 bc
       0.027289981 0.018071266 0.37632692 -0.021964163
000180 e8 a9 3a 3b 22 e7 d2 3e 27 38 95 3c 02 ea b9 3e
       0.002848262 0.41191965 0.018215252 0.36311346
000190 98 fc ef 3c 5f fd 84 bc 35 40 0b 3d f7 75 e4 bb
       0.02929525 -0.016234098 0.03399678 -0.0069720703
0001a0 a3 ae ea 3c 14 cb d2 3e 0b 36 cf 3e 31 a4 cc 3e
       0.028647726 0.4117056 0.4047092 0.39969018
0001b0 b5 a2 ee 3c 72 fb 3e 3d e4 e9 01 3b ec 7d d2 3e
       0.02913032 0.046626516 0.0019823248 0.41111696
0001c0 17 6b ce bc fb 60 b8 3e 23 6f 26 bc e6 c5 17 3e
       -0.025197549 0.3601149 -0.010158333 0.14821586
0001d0 41 e4 02 3b 83 a2 9e 3c 48 8c 5e bc cd d8 8a 3d
       0.0019972476 0.019364601 -0.01358325 0.06779633
0001e0 8b 0e 43 bc 2c 3c 89 bb 11 8f cf 3e aa d4 05 3c
       -0.011905323 -0.0041880812 0.40538839 0.008168379
0001f0 a9 44 42 3c c1 45 b3 3c 8b 48 ca 3e be 14 08 3b
       0.01185719 0.021883847 0.3950847 0.0020764316
000200 83 23 c7 3c bc d7 3a 3f c5 b2 ca ba 36 2b 3e 3f
       0.024308925 0.72985435 -0.0015464654 0.74284685
000210 c9 67 47 3f c6 80 84 bc 2c 52 c7 3c 60 24 40 3f
       0.7789274 -0.016174685 0.024331175 0.75055504
000220 c8 ad 3e 3f 17 91 48 3f 7c 0d 05 3c b3 b0 1d 3c
       0.7448392 0.7834639 0.008120891 0.009624648
000230 3b 6d 49 3f 00 5f 42 3f 9b 7c c2 3b 62 f4 32 3b
       0.786823 0.7592621 0.0059352643 0.0027306308
000240 9a 23 c7 3c 33 44 41 3f 31 4b 43 3f a7 42 3c 3f
       0.024308968 0.7549469 0.7628661 0.73539203
000250 ea eb ee bb 72 59 63 bb 24 21 ca 3c 95 36 25 bc
       -0.0072913067 -0.0034690765 0.024674006 -0.010083814
000260 59 a1 c6 b9 4c 39 43 3f f9 e5 b2 bc 15 8c a0 3c
       -0.00037885716 0.76259303 -0.021838175 0.019598046
000270 09 e8 ca bc 70 9a 1a ba eb fc 44 3f 01 b5 7f bc
       -0.024768846 -0.0005897647 0.7694842 -0.01560712
000280 e9 fb 9c bc 60 e3 44 3f 45 06 b4 3c f9 80 5d 3f
       -0.019163089 0.76909447 0.021975646 0.8652492
000290 7f 20 77 bc 5f 65 94 3b f3 f6 a6 bb 80 84 aa 3c
       -0.015083431 0.004528686 -0.0050953566 0.020815134
0002a0 cb db f0 3c f0 b8 3e 3f 15 99 42 3f 65 21 43 3f
       0.02940168 0.7450094 0.76014835 0.7622283
0002b0 ee d3 d2 3c 6f 2d 15 3d 53 a5 ae bc 92 4c 4b 3f
       0.025735822 0.036420282 -0.021319067 0.7941371
0002c0 f0 22 28 bb 8c 8f 43 3f 31 97 6a bc 80 77 d8 3c
       -0.002565559 0.7639091 -0.014318273 0.02642417
0002d0 48 c8 00 3d ed d5 75 3a 39 c8 9c bc f4 8a 04 3c
       0.031441003 0.0009377886 -0.019138442 0.00808977
0002e0 a2 51 93 3b 3b c1 a0 3c 20 61 48 3f 59 02 63 bc
       0.0044958154 0.01962339 0.782732 -0.01385554
0002f0 38 b1 d4 3c a8 ed fa 3c b0 fa 3c 3f e7 76 de 3c
       0.02596341 0.030630901 0.7382002 0.027156306
000300 c1 29 81 bc 8b a1 ed 3e 4e 4d a0 3c ff c3 f3 3e
       -0.01576698 0.4641231 0.019568112 0.4761047
000310 b6 e9 e9 3e d7 05 e3 3b e5 a1 68 3c 53 5d eb 3e
       0.4568612 0.0069281864 0.014198755 0.45969638
000320 da a1 dc 3e 18 94 ec 3e 3f 8a 2b 3d 94 d9 92 bc
       0.43092233 0.46206737 0.04187989 -0.017926015
000330 f6 fc de 3e 8b f4 f2 3e c3 b2 e1 3c 23 73 85 3c
       0.4355237 0.47452196 0.02755106 0.016290253
000340 45 85 75 bc 6f f5 e4 3e 67 e2 dc 3e 96 db e3 3e
       -0.014985387 0.447185 0.4314148 0.44503468
000350 05 fd 52 bb f9 cd 69 b9 c9 56 d0 bb a4 86 0c 3b
       -0.0032194268 -0.00022297342 -0.006358002 0.0021442557
000360 3c 2c 3f bc 63 c0 dc 3e fb 33 06 3d 1d 3b d4 3c
       -0.011668261 0.4311553 0.032764416 0.025907094
000370 44 24 ce 3c 19 13 a9 bc 72 7a df 3e 50 e3 07 3a
       0.025163777 -0.02063899 0.43648106 0.00051837135
000380 71 fe 0d 3d 04 c5 ea 3e 3f dc 4c 3c ea f8 f5 3e
       0.034666482 0.45853436 0.012503683 0.4804147
000390 85 28 a5 bc 88 0b 10 3a 31 ac 0e 3c 42 ee 07 3d
       -0.020160923 0.00054948824 0.008708046 0.033186205
0003a0 32 0f 02 3d c9 3a e3 3e d8 27 f9 3e 3c 71 d9 3e
       0.031752773 0.44380787 0.4866321 0.42469203
0003b0 10 81 a7 3c c0 53 94 3c 4c 25 74 3b 49 42 e1 3e
       0.020447284 0.018106341 0.0037253676 0.43995884
0003c0 b5 bf e0 3c ed 8e f2 3e a9 a2 55 ba 99 b6 8c 3b
       0.027435163 0.4737467 -0.00081495434 0.0042942283
0003d0 c4 28 77 3c 7c 36 e9 bc 86 2a dc 3c ac 69 84 3c
       0.015085403 -0.028468363 0.026875746 0.01616367
0003e0 02 c3 e9 3c c7 2b fd bc 23 d3 db 3e 38 ac 0b 3d
       0.02853537 -0.030904664 0.42934522 0.034099787
0003f0 38 6f 86 3c f1 00 02 bd 94 3e f3 3e 3c 07 a2 bc
       0.016410455 -0.03173918 0.4750868 -0.01977884

layer4.bias f4 [290]
000000 87 f0 80 41 d4 58 98 3e e5 bb 28 3f 1f d4 c7 3e
       16.117445 0.2975527 0.65911704 0.39029023
000010 bc 36 d8 3f 1c 93 89 3e 34 54 a1 3e 58 38 e4 3e
       1.6891704 0.26870048 0.31509554 0.44574237
000020 d6 61 c9 41 5e 2a b6 41 44 36 21 3f bc 9f 14 3f
       25.172771 22.770687 0.6297343 0.58056235
000030 85 56 9a 3e 5d b0 9d 3f 1e de 9e 3e f4 d4 bc 3e
       0.30144134 1.2319447 0.31028837 0.3688122
000040 69 87 b6 3e 6d b4 1f 3f b3 bd 35 40 6a 53 68 3f
       0.35650185 0.6238468 2.8397033 0.9075228
000050 64 df ee 41 c2 2b 84 3e d8 46 a6 3c ff e9 32 3d
       29.859077 0.25814635 0.020297453 0.043680187
000060 78 1b 64 3c 9c 82 db 3c 99 cf 5d 3e f4 83 a7 3c
       0.013922565 0.026795678 0.21661223 0.020448662
000070 29 f9 b8 3e 8d 3d 5c 40 de cb 8a 3e e5 dc a0 3e
       0.36127594 3.4412568 0.27108663 0.3141853
000080 8b 83 b9 3e 2a 53 88 bc b0 c7 e9 bc 06 a3 05 bc
       0.36233172 -0.016641218 -0.028537601 -0.008156544
000090 17 b0 1d bc bf 0b 46 3d 38 c4 83 3d 51 b0 42 3e
       -0.009624503 0.048351046 0.0643391 0.19012572
0000a0 3d 21 60 3e 13 d8 12 3e 47 87 3c 3e 59 33 43 3e
       0.2188768 0.14340238 0.18410979 0.19062556
0000b0 e4 a6 6e 3e 08 28 cf 3c 11 80 c3 bc 9f 5a e6 bc
       0.23305851 0.025287643 -0.023864778 -0.028119383
0000c0 65 34 6e bc 97 e2 8b 3f a5 eb 0a 3f 9e 8d 37 bc
       -0.014538859 1.0928525 0.54265815 -0.011203198
0000d0 4a 2e 8d 41 6f 25 f1 3e 22 d3 52 3e 6d 2d dc 3c
       17.647602 0.47098872 0.20588353 0.02687713
0000e0 01 a5 02 bb 4c c5 ed bc f2 17 e0 3c cf 12 d1 3e
       -0.0019934776 -0.029024743 0.027355168 0.40834662
0000f0 fd 05 33 bc 0c 32 c9 3c e5 5a 1c 3c f4 89 0b 3d
       -0.010926721 0.024559997 0.009543155 0.03406711
000100 ec 32 69 bb c4 19 c6 bc b2 5d 45 3d f9 e6 b7 3d
       -0.003558333 -0.024182208 0.048185058 0.089796014
000110 08 e8 e0 3d 6b 46 1c 3e dc c4 bf bc b0 d9 1a 3e
       0.109817564 0.15261237 -0.0234093 0.15122104
000120 b7 d6 25 3e 60 50 89 3c a6 af b6 bc 1f 75 d2 bc
       0.16195188 0.016761959 -0.022300553 -0.025690613
000130 09 1d 26 bc 7d 3e 06 bd 4f 8b f0 bc 99 74 09 bc
       -0.010138758 -0.032774437 -0.029363303 -0.008389615
000140 4e d9 8a 3d e5 9f c0 3d 1f 90 04 3d 2a 02 85 3e
       0.06779729 0.094054975 0.032364007 0.25978214
000150 f9 51 8d 41 78 af 56 3f a3 6a 97 bc da c5 34 bc
       17.665026 0.83861494 -0.018483466 -0.0110335
000160 48 73 b3 bc 92 e5 3a bc 2c ac 9d 3b a5 15 1d 3d
       -0.021905556 -0.011407273 0.0048117843 0.03835072
000170 b0 d6 ec 3c 34 ec bd 3b 80 27 ea bc 98 18 d7 3b
       0.028910965 0.00579598 -0.028583288 0.006564211
000180 28 1a 04 bd fa bb 47 bc 2c 06 75 bc 90 38 2e 3a
       -0.032251507 -0.012190813 -0.014955085 0.0006646002
000190 ca 6d da 3c 77 59 4f bc d1 5b 5c 3c 35 8e 4e 3e
       0.02666368 -0.012655607 0.013449625 0.20171435
0001a0 a5 1d 3f 3b db 60 4e 40 91 d4 d0 bc 89 21 3b 3c
       0.0029161957 3.2246616 -0.025491985 0.01142157
0001b0 34 f9 80 3b 16 7f 3c 3e 8e a9 0a bd 2b 7a 88 41
       0.0039359573 0.18407854 -0.033853106 17.059652
0001c0 df bc f1 bc b1 c0 fa bc b4 ba bf bb 9f 6d a4 3b
       -0.029509006 -0.03060946 -0.005851114 0.0050179507
0001d0 a6 a9 9a 3c 0a 32 d5 bc ef 29 9f bb e4 f0 9b 3c
       0.018879723 -0.026024837 -0.004857294 0.019035764
0001e0 8a 88 72 bb 85 4f 77 3d 15 c3 36 bb e1 a4 1d 3e
       -0.0037007653 0.06037857 -0.0027887274 0.15394928
0001f0 89 57 79 3c 21 db 30 3e 6a 59 04 bd 70 c1 37 b8
       0.015218624 0.17271091 -0.032311834 -4.3810753e-05
000200 84 0a cf bc 3d ab 13 bc 18 23 8c 3c 74 8c e0 bc
       -0.025273569 -0.009012994 0.017106578 -0.027410723
000210 76 4a ff 3c 83 af 4a 3c 57 80 38 3c 12 71 dd 3c
       0.031163435 0.012370947 0.011261067 0.027031455
000220 11 c9 06 3d 31 c3 8d 3c 49 81 df bb d7 14 d5 bc
       0.032906596 0.017304989 -0.006820832 -0.026010914
000230 3e a9 8c 41 86 fa 07 bd 04 71 f8 bc 7a 27 f1 3c
       17.582638 -0.033197902 -0.030327328 0.02943777
000240 c5 9b 84 3c ce cb 74 3c 88 f7 c6 3b 2e 51 ac ba
       0.016187558 0.014941169 0.0060719885 -0.0013146752
000250 c2 d3 c3 bc 9a 04 ab bc e5 4b b6 bc 5c 59 2c bc
       -0.023904685 -0.020876218 -0.022252986 -0.010519352
000260 01 94 a7 3c c8 c8 ae 3c 1a 70 ab 3c 32 5c c7 3c
       0.020456316 0.021335974 0.020927478 0.024335954
000270 70 32 22 bc e7 e0 be 3c 22 6c 0f 3c de a2 05 3e
       -0.009899721 0.023300601 0.008753808 0.1305041
000280 4f 60 de bc e0 05 e3 bc a2 42 bd 3c a9 a8 af 3c
       -0.027145533 -0.027712762 0.023103062 0.021442728
000290 35 1b 8d bc de 55 9e 3e 54 d2 7a bc 21 b7 fe bc
       -0.017224887 0.30924886 -0.015308935 -0.031093182
0002a0 07 ca 99 3c 21 41 b1 bb cf 4e b4 3c 42 ba fc bc
       0.018773092 -0.0054093753 0.022010235 -0.030850533
0002b0 23 c2 68 3c f0 b2 13 3c 03 73 c2 3c a3 30 e0 bc
       0.014206442 0.00901483 0.023736482 -0.027366942
0002c0 c2 e4 94 ba ae 2b 73 bc 5d 52 0b bd 02 2b 57 bc
       -0.0011359679 -0.014841957 -0.034014095 -0.013132812
0002d0 a9 5e e1 bc e4 04 f1 bc e7 12 44 3c 36 29 04 3d
       -0.027510958 -0.029421277 0.011967397 0.032265864
0002e0 35 96 1b bc 96 d6 0e 3c de 54 ef bc 6f 8b ef 3c
       -0.009496261 0.008718153 -0.029215273 0.029241292
0002f0 55 52 a2 bc 48 73 c8 3c 48 25 13 bc 49 47 a0 bc
       -0.01981465 0.024469033 -0.0089810565 -0.019565241
000300 02 2d aa 3c 8e 67 09 bc b1 48 74 3f 5d 8d 79 bc
       0.020773415 -0.008386506 0.9542342 -0.015231458
000310 9c 34 b0 3c 73 9c 05 3d 6d ba 20 bc 17 65 c1 bc
       0.021509461 0.032619905 -0.009810072 -0.023607774
000320 f5 69 0d bc db 0a 38 3e c7 16 b9 bc 7a 84 d4 3c
       -0.008631219 0.17972891 -0.022593869 0.025942076
000330 47 80 9a 3c 43 a3 f3 3c a2 f7 e0 bc 5f bb 5c bc
       0.018859996 0.029740935 -0.02746183 -0.013472407
000340 b6 47 4b bc f1 3c f0 bc db 44 a8 bb fc dc 4a 3d
       -0.012407234 -0.029325934 -0.0051351613 0.049527153
000350 16 30 b6 3c 6b d2 61 3c d0 77 89 bb 7d a1 8a 3c
       0.022239726 0.013783078 -0.004195191 0.016922707
000360 31 04 82 bc 33 79 eb bc 0b 68 a9 bc 81 17 d1 3c
       -0.01587114 -0.028744316 -0.020679494 0.025523903
000370 94 76 83 bc 2d ac d6 3c 68 c7 9f 3c f6 d3 2e 3d
       -0.016047753 0.026205147 0.019504264 0.04268261
000380 73 da b9 3c 94 1b 09 3d 0c c1 05 bc 74 82 3a 3e
       0.022687173 0.033473566 -0.008163702 0.18213826
000390 e4 8b 80 bc fe fe 0f 3e c9 0c f5 3d 96 1c a0 b9
       -0.015691705 0.14062116 0.11965329 -0.00030538876
0003a0 b9 59 ef 3c 54 fa 66 3c f8 9b 3b bc 60 d3 24 3d
       0.029217588 0.014097769 -0.01145076 0.040240645
0003b0 ac 68 91 3c 15 af 59 3e 4c 53 a1 3d 39 7c 38 3e
       0.017750107 0.21258195 0.07877216 0.18016137
0003c0 c4 3b c5 3d 05 22 11 3e 4e fa 3e 3e 7d f8 f0 3d
       0.0963054 0.14173134 0.18650171 0.117661454
0003d0 e6 25 fc 3d 06 4d 0e 3d a2 54 11 3e 9d aa 56 3e
       0.12311916 0.034741424 0.14192441 0.20963521
0003e0 68 bd 07 3e a7 95 52 3e bb b1 9b 3d 46 ea 4e 3e
       0.13255847 0.205649 0.07602259 0.20206556
0003f0 75 0f 33 3f 49 25 90 3d 61 0d dc 3d 89 c6 95 3d
       0.6994546 0.070383616 0.10744739 0.07313258
