catanatron_experimental/my_DQN_wyniki2/my_DQN2_300_steps.pth (torch, 268915 bytes, 8 tensors)

layer1.weight f4 [64, 614]
0	0x3c60f28b	0.013729702
1	0x3bbd3445	0.0057740533
2	0xbcb794b1	-0.022409769
3	0x3c830617	0.015994115
4	0xbcadb371	-0.021203728
5	0xba9b06bb	-0.0011827567
6	0xbc7ac693	-0.015306133
7	0x3a7d116f	0.0009653782
8	0xbc0fff87	-0.00878895
9	0xbc72ab1d	-0.014811304
10	0x3c1e58f9	0.009664767
11	0x3c10d105	0.008838897
12	0x3ca972c6	0.020684611
13	0x3c507cb4	0.012725044
14	0x3c2ae7c0	0.01043123
15	0xbbee136d	-0.0072654993
16	0xbbb2e20a	-0.005459075
17	0x3c9876f9	0.018611418
18	0xbcb16f54	-0.02165953
19	0x3aa9aecb	0.0012945769
20	0xbc4786b9	-0.0121781165
21	0xbb9d6297	-0.0048030126
22	0xb7146cdb	-8.846832e-06
23	0x3bdf2744	0.0068101007
24	0x3c9718a6	0.01844437
25	0x3c976eae	0.018485393
26	0x3c8f1c54	0.017469563
27	0x3bb8118d	0.0056173266
28	0xbad007dd	-0.0015871484
29	0xbc378361	-0.011200757
30	0x3be11f0f	0.0068701576
31	0x3c6dd38d	0.01451577
32	0xbb122af5	-0.0022303436
33	0x3b494d76	0.0030716336
34	0x3bb9ef36	0.005674268
35	0x3c94d85e	0.018169578
36	0xbcac3cee	-0.021025147
37	0x3c0aa5cd	0.008462382
38	0xba403c52	-0.0007333207
39	0xbc3bf094	-0.0114709325
40	0xbbfa7477	-0.007643278
41	0x3c8416f6	0.01612423
42	0x3ad2f64d	0.0016095132
43	0xbc648817	-0.013948462
44	0xbb5552c9	-0.0032550565
45	0x3c830cd7	0.015997333
46	0x3c20a8ad	0.00980584
47	0xbbc68a7a	-0.006058988
48	0x3a5c4e2c	0.00084039825
49	0xbb32b0e0	-0.002726607
50	0x3c97a374	0.018510558
51	0xbb0f455f	-0.0021861417
52	0x3bd339c8	0.006446097
53	0x3c279835	0.01022916
54	0xbba214f9	-0.004946348
55	0x3af8df09	0.0018987368
56	0x3bbf629f	0.005840614
57	0xbbf07eea	-0.007339348
58	0x3c7f353a	0.015576655
59	0xbbd8e06a	-0.006618549
60	0x3c2271bd	0.009914813
61	0x3b92df28	0.0044821687
62	0x390241f6	0.00012422338
63	0xbc376965	-0.011194562
64	0xbc233df1	-0.009963498
65	0xbca4236d	-0.020036424
66	0x3c69285e	0.014230816
67	0x3c272164	0.010200832
68	0xbc1a5083	-0.00941861
69	0x3b74309b	0.0037260416
70	0x3c43003c	0.011901911
71	0x3c802977	0.015644772
72	0xbca7be12	-0.020476375
73	0x3ca77094	0.020439424
74	0xbba6ebbf	-0.005094021
75	0x3c5525a8	0.013009466
76	0xbc5e39b2	-0.01356356
77	0xbc505a5f	-0.012716859
78	0xbc8fab50	-0.017537743
79	0xbca8c28b	-0.020600578
80	0x3b104c8c	0.0022018282
81	0x3c2f8086	0.010711795
82	0x3bd289bd	0.006425111
83	0xbc5dc6a0	-0.013536125
84	0xbc8fc575	-0.01755021
85	0x3a9d16f1	0.0011984986
86	0xbbbb9dc4	-0.0057255942
87	0xbc9ce547	-0.019152297
88	0xbb3e7ebf	-0.0029067246
89	0xbc75c4be	-0.01500052
90	0xbc36ba1e	-0.011152772
91	0xbb80b5bd	-0.003927915
92	0x3ba12333	0.004917526
93	0xbb95c9f8	-0.0045711957
94	0xbbc8c194	-0.006126592
95	0x3be35e39	0.0069387225
96	0x3c8e61d2	0.017380629
97	0x3a8aa67c	0.0010578181
98	0xbc9a6a9f	-0.018849669
99	0x3c44784e	0.0119915735
100	0x3bfc4625	0.0076987916
101	0xbc61a605	-0.013772492
102	0xbc8d2bcc	-0.017232798
103	0xbc440240	-0.011963427
104	0x3c4b120b	0.0123944385
105	0xbc15083a	-0.0090962
106	0x3ca17b8a	0.019712228
107	0x3c2ce9cd	0.010553789
108	0x3a9b5e9c	0.0011853757
109	0x3be2ed43	0.0069252565
110	0xbc6b1736	-0.014348796
111	0x3c312b86	0.010813599
112	0x3c2b4db5	0.0104555385
113	0xbc98178b	-0.018565914
114	0xbc5b545d	-0.013386813
115	0xbc627113	-0.013820904
116	0xbc6da9a6	-0.014505779
117	0xbbe8b85a	-0.0071020545
118	0xbc0c314a	-0.008556673
119	0x3c8c085a	0.017093826
120	0x3c016f28	0.007900037
121	0x3ac7bf17	0.0015239444
122	0xbc85dff1	-0.016342135
123	0x3c91570c	0.017741702
124	0xb95e4d9d	-0.00021200483
125	0xba397b30	-0.00070755463
126	0x3bb6c798	0.0055779926
127	0xbc08e428	-0.008355178
128	0x3bf13023	0.0073604747
129	0xbbb19398	-0.005419206
130	0x3a931dac	0.0011224053
131	0x3c58f2b6	0.013241461
132	0x3ca09a01	0.019604685
133	0xb9ccca7d	-0.00039060778
134	0x3ca59ddf	0.02021688
135	0xba4d9f72	-0.00078438886
136	0x3c5fbdff	0.013656138
137	0xbaf56495	-0.0018721992
138	0x3c2d9e47	0.010596818
139	0xbc46d815	-0.012136479
140	0xbc826906	-0.01591922
141	0xba2d9f83	-0.00066231954
142	0xb8869811	-6.4179425e-05
143	0x3b33f976	0.0027461923
144	0x3c8f2e6c	0.01747819
145	0xbc204798	-0.009782694
146	0xbbcb1d3e	-0.0061985543
147	0x3c87f0d0	0.01659432
148	0xbab5fe7e	-0.0013885049
149	0xba319bdb	-0.00067752384
150	0xbbd0bbb9	-0.0063700345
151	0x3c5706c3	0.013124171
152	0x3ca2a6ad	0.019854868
153	0xb7fb31c6	-2.994471e-05
154	0x3c791eb0	0.01520507
155	0x3be49da0	0.006976798
156	0xbc03d9ac	-0.0080475025
157	0xbca028e9	-0.019550757
158	0x3c46422b	0.012100737
159	0x3b94a0b3	0.0045357584
160	0xbc8b9f04	-0.017043598
161	0x3c0c992d	0.008581442
162	0xbc49b038	-0.01231008
163	0xbae82087	-0.0017709889
164	0xbc65c87e	-0.014024852
165	0xbc8621e3	-0.01637358
166	0xbc1fb0d9	-0.009746754
167	0x3b036dda	0.002005449
168	0xbad5049b	-0.0016251983
169	0x3ba06ca5	0.004895764
170	0xbc825e64	-0.01591415
171	0x3ca393a4	0.019967861
172	0xbc802e81	-0.015647175
173	0x3ca0ddd9	0.019637035
174	0xbb31bb42	-0.002711967
175	0xbc3c0c87	-0.011477596
176	0xbc370c24	-0.011172328
177	0xbc4ad4b4	-0.012379814
178	0x3b2723f6	0.0025503612
179	0x3bdbbabc	0.00670561
180	0x3b754454	0.003742476
181	0x3c691c81	0.014227987
182	0xbc3ce77e	-0.011529801
183	0xbc963a92	-0.018338475
184	0x3c33a90b	0.010965596
185	0xbc61ac9b	-0.0137740625
186	0x3c0aab41	0.008463682
187	0xbc2c3a73	-0.010511982
188	0x3c87d996	0.016583245
189	0xbc6aedc0	-0.014338911
190	0xbca156fc	-0.019694798
191	0x3be41282	0.006960214
192	0xbc41f3a2	-0.011837872
193	0x3c2af698	0.010434769
194	0x3c84b202	0.016198162
195	0x3c97ef45	0.01854671
196	0xbc10b0b2	-0.00883119
197	0xbc36ab24	-0.011149202
198	0xbca4bd9c	-0.020109944
199	0xbb8f5b2f	-0.0043748836
200	0x3c77b06f	0.015117749
201	0x3c436d19	0.011927866
202	0xbc58a45a	-0.013222778
203	0x3b91ccb1	0.00444945
204	0x3aeeec49	0.0018228377
205	0xbb164af7	-0.0022932866
206	0xbc889f6a	-0.016677577
207	0x3c6d67a1	0.014490039
208	0x3c2c6763	0.010522696
209	0x3c94cfc2	0.018165473
210	0x3c7580af	0.014984294
211	0x3c5e1bf1	0.013556466
212	0x3c068e14	0.008212585
213	0xbca05a99	-0.01957445
214	0xbc3bda37	-0.011465601
215	0xba96c471	-0.0011502636
216	0x3c64303e	0.013927517
217	0xbb3bc516	-0.0028651408
218	0xbc2f81f5	-0.0107121365
219	0x3c473efb	0.012161012
220	0x3c9f5780	0.019450903
221	0xbaf240ad	-0.001848241
222	0xbc7e0a06	-0.015505319
223	0xbab474dc	-0.0013767737
224	0xba682b1d	-0.0008856522
225	0xbc4971ca	-0.012295196
226	0x3bba8f69	0.0056933654
227	0xbbd917dc	-0.0066251587
228	0xbc5ab27a	-0.013348216
229	0xbc18430a	-0.009293327
230	0x3c28c084	0.010299806
231	0xbc1ff466	-0.009762859
232	0xbc0c8287	-0.008576042
233	0xbb9c90e4	-0.0047780145
234	0xbc092684	-0.008370999
235	0x3ca901b6	0.020630699
236	0x39aaca19	0.000325755
237	0xbbc75243	-0.0060828044
238	0xba553e3c	-0.0008134579
239	0xbc72650a	-0.014794597
240	0x3c913db6	0.017729621
241	0x3c91f723	0.01781804
242	0x3c04228d	0.008064878
243	0x3bcc1ec4	0.0062292535
244	0x3c1b767e	0.0094887
245	0xbc0ff069	-0.008785346
246	0x3bc4d853	0.006007233
247	0xbbe9f431	-0.0071397056
248	0x3c9a0dce	0.01880541
249	0xbc6cbdb5	-0.014449527
250	0x3c9c776a	0.01909991
251	0x3b3617ca	0.0027785175
252	0xbc8bd2ed	-0.01706835
253	0x3c427db9	0.011870795
254	0x3c666c56	0.014063915
255	0x3c1ee55b	0.009698237

layer1.bias f4 [64]
0	0x3c5a4839	0.013322883
1	0x3a81e1e4	0.000990924
2	0xba460da5	-0.0007555134
3	0x41778e51	15.472245
4	0xbcbe6f10	-0.023246318
5	0x4176cf2c	15.425579
6	0xbcc5d506	-0.024149429
7	0x41771ba7	15.444251
8	0x3c6e22c4	0.014534656
9	0x41778c1d	15.471707
10	0x4176b413	15.418963
11	0x41777a10	15.4673
12	0xbcc8ecae	-0.02452692
13	0xbd52290d	-0.05130868
14	0x41765b42	15.39728
15	0x4174b896	15.295065
16	0x41774150	15.453445
17	0x4176d56f	15.427108
18	0x41779268	15.473244
19	0x3c97dc37	0.018537624
20	0x41751c45	15.319402
21	0x4176fe8b	15.437144
22	0x4176b8e5	15.42014
23	0xbc10d49a	-0.008839751
24	0xba146eb4	-0.0005662248
25	0x417731c8	15.449654
26	0xbee33346	-0.44375056
27	0x4177a51e	15.477812
28	0x3b8cf533	0.004301691
29	0x3c8f86c3	0.017520314
30	0xbc8edda7	-0.017439676
31	0xbc71177f	-0.014715075
32	0x417710e6	15.441626
33	0xbc57e0e1	-0.013176174
34	0x3c623c95	0.013808389
35	0x41776c81	15.46399
36	0x4176b781	15.419801
37	0x41772282	15.445925
38	0x41772893	15.447406
39	0x3b499faa	0.0030765333
40	0xbecc58b3	-0.39911422
41	0xbb862270	-0.0040934607
42	0x417723fc	15.446285
43	0xbe97078b	-0.29497942
44	0xbaf31057	-0.0018544298
45	0xbc3d6519	-0.011559748
46	0xbc81c2a4	-0.015839882
47	0xbbfaf5ac	-0.007658681
48	0x4176f08f	15.43373
49	0x3c066680	0.008203149
50	0xbb47e4a0	-0.0030501261
51	0xbcb49c89	-0.022047298
52	0x4176a8d3	15.416217
53	0x4176ed7b	15.432979
54	0x4176e9b0	15.432053
55	0x41766d22	15.401644
56	0x3b888f7a	0.0041674944
57	0xbc1b37d1	-0.009473757
58	0xbc8cd179	-0.017189728
59	0x4176eada	15.432337
60	0x41773f36	15.452932
61	0x4177293e	15.447569
62	0x417718a8	15.44352
63	0x417690e6	15.410376

layer2.weight f4 [64, 64]
0	0xbc262b9a	-0.010142231
1	0xbada732e	-0.0016666406
2	0x3baa9f32	0.005206966
3	0x3d17e6f3	0.037085485
4	0xbce3b4e6	-0.02779622
5	0x3b33c2e7	0.0027429403
6	0xbd5894e6	-0.052876376
7	0x3d561eb2	0.052275367
8	0xbc9c882c	-0.0191079
9	0x3b19a45b	0.002344391
10	0xbd4a2f97	-0.04936179
11	0x3d0cbac2	0.034357794
12	0xbd120e02	-0.03565789
13	0x3d2e55a6	0.04256215
14	0x3a3aa4dd	0.00071199035
15	0x3cb91800	0.022594452
16	0x3d1b26d5	0.03787883
17	0x3d149596	0.03627547
18	0x3b8ae13d	0.0042382763
19	0x3b821d81	0.0039708023
20	0xbd5ed9ef	-0.054407056
21	0xbcdd6440	-0.027025342
22	0x3d0e5095	0.034744818
23	0x3ceb5d10	0.0287309
24	0x3d2b8967	0.041879084
25	0xbce02d8e	-0.027365472
26	0x3d09c106	0.033631347
27	0xbd8749c8	-0.066058695
28	0xbd78e9ff	-0.06077003
29	0x3c2b6d74	0.010463107
30	0xbd3527ee	-0.044227533
31	0xbd81c49a	-0.06336327
32	0xbd2aa59f	-0.041661855
33	0x3ccf609c	0.025314622
34	0xbd143ca7	-0.036190655
35	0xbc9c1bd4	-0.019056238
36	0x3d245938	0.040124148
37	0xbd0f2e36	-0.03495618
38	0xbd224148	-0.03961304
39	0xbd03fd00	-0.0322237
40	0x3d481ecb	0.04885749
41	0x3d30156d	0.042989183
42	0x3d71deaf	0.05905026
43	0x3ca16b26	0.019704413
44	0xbc9a3570	-0.01882431
45	0x3d93f74f	0.07224905
46	0x3d62af06	0.055342697
47	0x3c6a1589	0.014287361
48	0xbd8b84e7	-0.068124585
49	0x3d2c0526	0.041997097
50	0xbc2d01b2	-0.010559486
51	0x3d29c5a2	0.041448243
52	0x3c12f86e	0.008970363
53	0xbc83b128	-0.016075686
54	0xbd9d3553	-0.076761864
55	0x3b44ed60	0.0030048713
56	0xbcd63f07	-0.0261531
57	0xbd6d5cdc	-0.057949886
58	0x3d61b46a	0.055103697
59	0x3d3f683a	0.046730258
60	0xbd675113	-0.056473803
61	0xbd4111f3	-0.04713626
62	0x3ca4e6f9	0.020129668
63	0xbd6336b8	-0.055472106
64	0x3c455fef	0.012046798
65	0x3cba3866	0.022731971
66	0xbc6cd116	-0.014454147
67	0xbd30e5e6	-0.043188
68	0xbbb81034	-0.005617166
69	0xbd07cb58	-0.033152908
70	0xbbffeb6e	-0.007810048
71	0xbd17a09d	-0.037018407
72	0xbd36a821	-0.044593934
73	0x3bd887d3	0.0066079884
74	0x3d398af2	0.045298524
75	0x3d757904	0.059929863
76	0xbc46b830	-0.012128875
77	0x3d4b989d	0.04970609
78	0xbcad6f0f	-0.02117112
79	0x3d4602b5	0.048342425
80	0xbcf0feaf	-0.029418318
81	0x3cfcd88e	0.03086498
82	0xbcd107de	-0.025516447
83	0x3d57606c	0.05258219
84	0xba09fa7e	-0.00052634615
85	0xbd7dccc9	-0.061962876
86	0x3cf8a212	0.030350719
87	0x3d08d46e	0.033405714
88	0xba9aa75a	-0.0011799142
89	0xbcb856a8	-0.022502258
90	0xbcd3c2c8	-0.025849715
91	0xbca27edf	-0.019835887
92	0x3d0eee17	0.03489503
93	0xbd52a74d	-0.05142908
94	0xbca2b691	-0.019862445
95	0xbd04089b	-0.03223477
96	0xbcb027ce	-0.021503355
97	0xbcd26d69	-0.025686936
98	0x3cf3f7a9	0.02978118
99	0xbd182012	-0.03713996
100	0xbd60f406	-0.05492022
101	0xbd81cc66	-0.06337814
102	0xbd861490	-0.06546891
103	0xbc2af8df	-0.010435312
104	0xbd37aab8	-0.044840544
105	0xbd45999f	-0.048242208
106	0x3d5dd277	0.054155793
107	0x3d5ae903	0.053444874
108	0xbc6d9dc9	-0.014502951
109	0xbd7083b2	-0.058719344
110	0xbcfa12f4	-0.030526616
111	0x3c25831b	0.010102059
112	0x3d020f52	0.03175289
113	0xbba7152a	-0.0050989585
114	0xbcd091ec	-0.025460206
115	0x3d6a86e4	0.057257548
116	0x3d64d996	0.05587157
117	0x3ca5f5e1	0.020258846
118	0xbc9ae555	-0.018908182
119	0xbcbd38fe	-0.023098465
120	0x3cd09493	0.02546147
121	0x3b402266	0.0029317378
122	0xbc89adc4	-0.01680649
123	0x3d263335	0.04057618
124	0xbd174989	-0.036935363
125	0x3d715330	0.058917224
126	0x3c0fa6e8	0.008767821
127	0x3d573eb6	0.05255004
128	0x3c09412e	0.008377356
129	0x3d38e5bb	0.045140963
130	0x3d4c6a0d	0.049905825
131	0x416be1d1	14.742631
132	0xbe1bbc03	-0.1520844
133	0x416bd244	14.738834
134	0xbccaa06b	-0.024734696
135	0x416c1a65	14.756444
136	0xbb305556	-0.0026906333
137	0x416c8eed	14.784894
138	0x416dc24b	14.859935
139	0x416c10b2	14.754076
140	0xbcc24996	-0.02371673
141	0xc013de87	-2.310457
142	0x416cee94	14.808247
143	0x416d366c	14.825787
144	0x416decae	14.870283
145	0x416ca50e	14.790297
146	0x416c15f3	14.755359
147	0x3ce4a858	0.027912304
148	0x417151a1	15.082429
149	0x416c95e1	14.786592
150	0x416d8127	14.844031
151	0xbd2811d8	-0.041032642
152	0x3d4dc7dd	0.050239433
153	0x416dcbdf	14.862273
154	0xc151d196	-13.113668
155	0x416c28d7	14.759971
156	0x3d7f36ee	0.062308244
157	0xbccebc5a	-0.025236297
158	0xbc87ebf3	-0.016592002
159	0xbc731e67	-0.014838791
160	0x416e7280	14.902954
161	0xbcbcaae5	-0.023030708
162	0x3d2a6189	0.041596923
163	0x416c4fc2	14.769472
164	0x416dc7d0	14.861282
165	0x416e4a00	14.893066
166	0x416dc979	14.861688
167	0xbc11605f	-0.008873074
168	0xc15fea5f	-13.9947195
169	0x3cda66fe	0.026660439
170	0x416c44dd	14.766812
171	0xc166289f	-14.384917
172	0xbc2c2153	-0.010505992
173	0x3d83ea2c	0.06441149
174	0xbba7553a	-0.0051065953
175	0xbb2fd87d	-0.0026831918
176	0x416d7e74	14.843372
177	0xbd204e9e	-0.039137475
178	0xbd7cd0a5	-0.061722416
179	0x3d17e805	0.037086505
180	0x416e2c89	14.885873
181	0x416d73f1	14.840806
182	0x416bb59c	14.731838
183	0x416e42fb	14.891353
184	0xbd587c8a	-0.052853145
185	0xb9463811	-0.00018903638
186	0xbd9e7660	-0.07737422
187	0x416cdbf0	14.803696
188	0x416d0833	14.814502
189	0x416e5f82	14.898317
190	0x416d4b6a	14.830912
191	0x416dd65e	14.864836
192	0x3d43b02c	0.047775432
193	0xbd8011cd	-0.06253395
194	0xbd466c6d	-0.048443247
195	0xbcd5b36e	-0.026086535
196	0x3f1300b8	0.5742297
197	0x3db8062c	0.08985552
198	0x3c88d588	0.016703382
199	0xbd4eed15	-0.050519068
200	0xbc33afb2	-0.010967182
201	0x3cacb747	0.021083487
202	0x3d2e3d0a	0.04253868
203	0xbd48cb80	-0.049022198
204	0x3caab9a6	0.020840477
205	0xbcccb687	-0.02498938
206	0x3cef70b1	0.02922854
207	0x3e592837	0.21206747
208	0x3d37bb47	0.044856336
209	0xbd61e24f	-0.055147465
210	0x3d301942	0.042992838
211	0xbd4055d7	-0.046956863
212	0xbe41dfa3	-0.18932967
213	0xbe31a187	-0.17346774
214	0x3a9bf620	0.0011898912
215	0x3cbbdede	0.02293342
216	0xbd5bdca7	-0.053677227
217	0xbd63d432	-0.055622287
218	0xbe100289	-0.14063467
219	0x3d5455be	0.051839583
220	0x3d00b6ed	0.03142445
221	0x3d2e8757	0.04260954
222	0x3cdc7485	0.02691103
223	0xbd33e2a4	-0.043917313
224	0xbe2a8dd5	-0.16655667
225	0x3c6dcdb7	0.014514378
226	0x3cb6229a	0.022233296
227	0x3d1a754b	0.037709516
228	0xbd9e1c10	-0.07720196
229	0x3cb495e6	0.022044133
230	0xbcca040e	-0.024660137
231	0xbd06bdaa	-0.03289572
232	0xbd6ace0a	-0.0573254
233	0x3be51737	0.006991293
234	0xbc3e6be5	-0.011622404
235	0x3eba0d4c	0.3633827
236	0xbd709483	-0.05873538
237	0x3e68e578	0.22743785
238	0xbc8bf4b4	-0.017084457
239	0xbd80c5bb	-0.06287714
240	0xbcd3cca6	-0.02585442
241	0xbcad6bfd	-0.021169657
242	0xbcd12fc6	-0.025535475
243	0x3ce9c00a	0.028533954
244	0xbe02e94d	-0.1278431
245	0x3d21704c	0.039413735
246	0xbcc6ab3b	-0.02425157
247	0x3df2efc1	0.11862136
248	0xbd3cea4d	-0.046121884
249	0x3d4fd835	0.0507433
250	0xbd371df8	-0.044706315
251	0xbd38c423	-0.045108926
252	0xbb6eb184	-0.0036421726
253	0x3d1b42cd	0.037905503
254	0xbd4f9012	-0.050674506
255	0xbd965782	-0.073409095

layer2.bias f4 [64]
0	0xbd2c1cae	-0.04201954
1	0x3d3e1cbe	0.04641413
2	0x419ce170	19.610077
3	0xbb9fb9b3	-0.004874432
4	0x419cbada	19.591236
5	0x419ce53c	19.61193
6	0xbd8ca110	-0.06866658
7	0xbd6c2292	-0.057650156
8	0x419d55cb	19.666891
9	0xbcca6ef1	-0.024711104
10	0x419d12dc	19.634209
11	0xbd4bd2ad	-0.049761463
12	0x419ccdd6	19.600506
13	0x3d762124	0.0600902
14	0x419d1c07	19.638685
15	0x419c6729	19.550371
16	0x419cba0c	19.590843
17	0x419d5b9d	19.669733
18	0xbc588c08	-0.01321698
19	0x419d0e01	19.631838
20	0x3d0cdfd1	0.034393135
21	0x419c857e	19.565182
22	0x3c6e42a3	0.014542255
23	0xbd348b70	-0.04407829
24	0xbd8c3c55	-0.06847445
25	0xbd6e05c0	-0.058110952
26	0xbd25cb94	-0.04047735
27	0x419c7990	19.559357
28	0xbd7fb571	-0.062428895
29	0x419d6d6e	19.678432
30	0x419d65bb	19.674673
31	0x3d391e49	0.045194898
32	0x3d037ef8	0.03210351
33	0xbd69c1bb	-0.05706952
34	0x419cf24b	19.618307
35	0x419c62af	19.548185
36	0x419cfe29	19.624102
37	0x3d08edc9	0.033429895
38	0xbb3baa45	-0.0028635424
39	0xbbc80d7c	-0.006105123
40	0x419c57aa	19.542805
41	0x419cad46	19.584606
42	0x419d12d1	19.634188
43	0xbb651641	-0.0034955891
44	0x3acbdfd4	0.0015554377
45	0xbd50fd2a	-0.051022686
46	0xbd7d1dcc	-0.061795995
47	0x419cdbe6	19.607372
48	0xbd6bc735	-0.057563026
49	0xbd77a614	-0.06046112
50	0x419cddf0	19.608368
51	0x3ae31230	0.0017324146
52	0x419cd7f6	19.60545
53	0x419cea3a	19.614368
54	0x419c8584	19.565193
55	0x419ce77f	19.613035
56	0x419d5752	19.667637
57	0x419c909c	19.57061
58	0xbcd2f04d	-0.02574935
59	0x419d18a7	19.637037
60	0x419c96e8	19.573685
61	0x419d1d0c	19.639183
62	0x419d4d9d	19.662897
63	0x419d2c06	19.646496

layer3.weight f4 [64, 64]
0	0x3d027fd6	0.031860195
1	0xbd863b3c	-0.06554267
2	0xbd930750	-0.07179129
3	0xbd703376	-0.058642827
4	0x3b24c4aa	0.0025141635
5	0xbd8ff299	-0.07028694
6	0x3c86799c	0.01641541
7	0xbcb93367	-0.022607518
8	0xbc4416c7	-0.011968321
9	0xbc84ba25	-0.016202042
10	0xb9546215	-0.00020254434
11	0xbd4c0806	-0.04981234
12	0xbd82f001	-0.06393433
13	0x3c8f8a65	0.017522046
14	0x3b55dbbe	0.0032632197
15	0xbcab48ba	-0.020908702
16	0x3c0ca451	0.008584098
17	0x3d188465	0.037235636
18	0x3d33353a	0.043751933
19	0xbd820a72	-0.063496485
20	0xbd0c9600	-0.03432274
21	0x3dd6ac4c	0.10482082
22	0xbd0c2cef	-0.03422254
23	0x3d8ed609	0.06974418
24	0xbd4cb1df	-0.04997432
25	0xbcc83878	-0.024440989
26	0xbd6f46df	-0.058417197
27	0x3d758cf4	0.059948877
28	0x3aac0253	0.0013123251
29	0xbd5025d1	-0.050817315
30	0x3ca0d053	0.019630587
31	0x3d4a2544	0.049351946
32	0x3c7510ba	0.014957601
33	0xbd740583	-0.05957557
34	0xbd638757	-0.055548992
35	0x3ca3c665	0.019992063
36	0x3cbce0eb	0.023056468
37	0xbcbeaa85	-0.02327467
38	0x3d4dffca	0.050292768
39	0x3d73ebbe	0.059550993
40	0x3d4da94e	0.05021029
41	0x3d02d5fb	0.03194235
42	0x3d18956d	0.03725188
43	0xbd26bd8a	-0.040708102
44	0x3d3b86e1	0.045782927
45	0x3cacd45a	0.02109735
46	0xbc50a5be	-0.0127348285
47	0x3d570676	0.052496396
48	0xbc300b95	-0.010744949
49	0x3d1f109d	0.038834203
50	0x3ce13632	0.027491663
51	0xbd510804	-0.051033035
52	0x3c9a08df	0.018803058
53	0xbd01dd05	-0.03170492
54	0x3d0c6b65	0.034282107
55	0xbd474b06	-0.048655532
56	0xbd82bd1f	-0.06383728
57	0x3d54ae52	0.051924057
58	0xbcd7f014	-0.026359595
59	0xbd76558c	-0.060140178
60	0xbd12557f	-0.035726067
61	0xbd35ed69	-0.044415865
62	0x3d288e5e	0.041151397
63	0xbd450ae5	-0.048106093
64	0xbd39276f	-0.045203622
65	0xbc44bf74	-0.012008537
66	0x416729cf	14.447707
67	0x3ed19404	0.4093324
68	0x416749b7	14.455497
69	0x4165fda6	14.374426
70	0xbd55e4e0	-0.052220225
71	0x3d47ec4a	0.048809327
72	0x4165e5d9	14.368615
73	0xbe143c1b	-0.14476053
74	0x4165dcfc	14.366451
75	0xbd3b44cc	-0.045719907
76	0x41674b6b	14.455913
77	0xbbeef753	-0.007292667
78	0x4166d782	14.427614
79	0x4167649b	14.462062
80	0x41664944	14.392887
81	0x41660989	14.377328
82	0x3d8d10f6	0.06888001
83	0x41665d78	14.3978195
84	0x3cb51eee	0.022109475
85	0x41673a87	14.451789
86	0x3d32a5f7	0.043615308
87	0xbd04a852	-0.032387085
88	0x3c5c8cbb	0.013461287
89	0xbd424ae3	-0.0474347
90	0x3d6e23fc	0.058139786
91	0x4167410d	14.453382
92	0xbc00153a	-0.007817561
93	0x4166b4b3	14.419116
94	0x4166e2a3	14.430331
95	0x3d6bba13	0.0575505
96	0xbd5612df	-0.05226409
97	0x3d0f1de2	0.034940608
98	0x4165cfca	14.36323
99	0x41670305	14.438237
100	0x41666a00	14.400879
101	0x3d5a4490	0.053288043
102	0x3e53063d	0.20607848
103	0x3e72db21	0.23716404
104	0x4167407c	14.453243
105	0x41676f3d	14.464658
106	0x416737a2	14.451082
107	0xbd4ed27c	-0.050493702
108	0xbc7e566a	-0.015523532
109	0x3cfe521f	0.031045018
110	0x3a827997	0.000995445
111	0x4166fa5d	14.436124
112	0xbd10fa40	-0.035394907
113	0x3d2c1dc8	0.04202059
114	0x41678a7f	14.4713125
115	0x3d4163e7	0.047214415
116	0x416609db	14.377406
117	0x41673295	14.449849
118	0x41677fb6	14.468679
119	0x4167b697	14.482078
120	0x416574b6	14.340994
121	0x41666128	14.39872
122	0xbcfb3a09	-0.030667322
123	0x4165b1ad	14.355878
124	0x41669a85	14.4127245
125	0x41675e0e	14.460463
126	0x4165ce79	14.362908
127	0x4166d853	14.427814
128	0xbd485333	-0.04890747
129	0x3d16da3e	0.036829226
130	0x3ae37f05	0.001735658
131	0xbd14c39b	-0.036319356
132	0xbbfbffd4	-0.007690409
133	0x3cb219f8	0.021740898
134	0xbc5edea8	-0.01360289
135	0x3d5ef20c	0.054430053
136	0x3d3d98bb	0.046288233
137	0xbd4b4638	-0.049627513
138	0xbcb3ce9b	-0.021949103
139	0xbd4b7ceb	-0.049679678
140	0xbc970e4f	-0.01843944
141	0xbd146b61	-0.036235217
142	0xbced12bf	-0.028939603
143	0x3d48b391	0.048999373
144	0x3c1de3a7	0.009636796
145	0xbd20910d	-0.03920083
146	0xbb518560	-0.0031970367
147	0x3ce91438	0.028452024
148	0xbc057f1e	-0.008147983
149	0xbd6ba78a	-0.057532825
150	0x3cf91a5c	0.030408077
151	0xbd8e720e	-0.06955348
152	0xbd2ea2e8	-0.04263583
153	0xbd0a6c09	-0.033794437
154	0x3cc54038	0.024078473
155	0x3d5b8005	0.053588886
156	0x3d2b0a90	0.04175812
157	0xbab73b19	-0.0013979404
158	0x3b746921	0.0037294107
159	0xb7fbedf9	-3.0032346e-05
160	0xbb774877	-0.0037732401
161	0x3b6aac88	0.0035808403
162	0x3d45ff2f	0.048339065
163	0x3caa9b38	0.020825967
164	0x3ab3d110	0.0013718922
165	0xbcff54c0	-0.031168342
166	0x3d4f9289	0.050676856
167	0xbd560575	-0.052251298
168	0xbd705411	-0.058673922
169	0xbd6460b1	-0.055756275
170	0xbd7a2775	-0.061072785
171	0x3d4dadd5	0.050214607
172	0xbcb7efc9	-0.022453206
173	0xbd798485	-0.060917396
174	0xbd6221bc	-0.055207953
175	0xbc81462c	-0.01578053
176	0x3cd4009d	0.025879199
177	0xbd71e053	-0.059051823
178	0x3d260eb4	0.040541366
179	0x3c0dc6a1	0.008653314
180	0xbd293cd2	-0.04131777
181	0x3d40c31f	0.047061082
182	0xbd8ebd5e	-0.06969713
183	0x3caa519c	0.020790868
184	0x3c8d820b	0.017273923
185	0x3be78614	0.007065544
186	0x3d4c2b25	0.049845833
187	0x3cfdc643	0.030978328
188	0x3cf14dda	0.029456068
189	0x3c451d91	0.012030975
190	0xbd1e73fb	-0.038684826
191	0xbd8c9ba4	-0.068656236
192	0xbcfef24a	-0.031121392
193	0xbd7148e7	-0.058907416
194	0x4162bce9	14.171121
195	0x3eb940db	0.36182293
196	0x4162daf2	14.178453
197	0x416206d0	14.126663
198	0xbd1f4b79	-0.038890336
199	0x3c36ff45	0.011169259
200	0x41623d87	14.140021
201	0x3ecd60ba	0.4011286
202	0x41640b3a	14.252741
203	0xbcec3f97	-0.028838916
204	0x4163087f	14.189574
205	0xb9c73dc8	-0.00038002268
206	0x4162951b	14.161403
207	0x4162a149	14.164376
208	0x4162510b	14.144786
209	0x41635dcd	14.210401
210	0xbbeaa9ca	-0.0071613537
211	0x4162cb1c	14.174587
212	0x3d193c22	0.037410863
213	0x4161fdcc	14.124462
214	0xbd1d2120	-0.03836167
215	0x3d662146	0.056184076
216	0xbba5352f	-0.0050417404
217	0x3d289855	0.0411609
218	0x3c83d5e0	0.016093194
219	0x41628972	14.158556
220	0x3c94e8ca	0.018177409
221	0x416282f5	14.156972
222	0x41631343	14.192203
223	0x3c2ef506	0.010678535
224	0xbcc185a5	-0.023623297
225	0x3cf54d09	0.02994396
226	0x4163405c	14.203213
227	0x41629517	14.161399
228	0x4161998d	14.099988
229	0x3d6af282	0.05736018
230	0x3f276666	0.6539062
231	0x3e9630ad	0.29334012
232	0x41617392	14.090715
233	0x41626358	14.149254
234	0x41632869	14.197366
235	0xbce272b1	-0.02764258
236	0xbd62c85d	-0.055366863
237	0x3cde8b84	0.027166136
238	0x3d54c4f6	0.05194565
239	0x41630c5c	14.190517
240	0xbd82206b	-0.063538395
241	0x3c33ee88	0.010982163
242	0x4162e5c0	14.181091
243	0xbc70c021	-0.014694245
244	0x41629e4f	14.16365
245	0x4161620f	14.08644
246	0x4162d528	14.17704
247	0x4161a5d7	14.102988
248	0x4161ff9e	14.124907
249	0x4161bdca	14.108835
250	0xbd195cc3	-0.03744198
251	0x41631536	14.192678
252	0x41626f00	14.1521
253	0x41624080	14.140747
254	0x4162d822	14.177767
255	0x416317d3	14.193316

layer3.bias f4 [64]
0	0xbb5f55f1	-0.0034078325
1	0x4187b876	16.965069
2	0xbcea1154	-0.028572716
3	0x41891889	17.13698
4	0x418260ce	16.297268
5	0xbd2fe02e	-0.042938404
6	0xbb838216	-0.00401331
7	0x4182530d	16.290552
8	0x4184aed2	16.585361
9	0x417d890b	15.845958
10	0xbce08a58	-0.027409717
11	0xbd41408c	-0.047180697
12	0x41816faf	16.179533
13	0x418abe0c	17.342796
14	0xbc7ed7b3	-0.015554356
15	0x3d317c22	0.043331273
16	0xbd743643	-0.05962206
17	0x41887f9e	17.062313
18	0x418bb89c	17.465141
19	0x4189a84f	17.207182
20	0xbd39893f	-0.045296904
21	0x3c82ec0c	0.015981697
22	0x3befe6ec	0.007321229
23	0x3ce2eeb4	0.027701713
24	0x3d076f43	0.03306509
25	0x418367f9	16.425768
26	0xbb0e75e2	-0.0021737744
27	0x3bb45f51	0.0055045267
28	0x3ca39999	0.019970702
29	0x3d059472	0.03261227
30	0x4189fc79	17.248278
31	0x3a9d234f	0.0011988672
32	0xbd839d7d	-0.06426523
33	0x4188722c	17.055748
34	0x3c8810a7	0.016609503
35	0x41752bd5	15.323201
36	0x3cc18241	0.02362168
37	0x3d7359dd	0.059411872
38	0x3c892256	0.016740005
39	0xbd38ecc9	-0.04514769
40	0x3c1a1582	0.009404542
41	0x41831090	16.383087
42	0x418a3b0a	17.278828
43	0x41868ed2	16.819736
44	0xbc69065d	-0.0142227085
45	0x3c122944	0.008920971
46	0xb9eb124c	-0.00044836325
47	0x418aa8f5	17.332499
48	0x3a604703	0.00085555034
49	0x4188ce59	17.100756
50	0xbd778456	-0.06042894
51	0x3d5eabf2	0.0543632
52	0xbcb729ee	-0.02235886
53	0xbd677db4	-0.056516364
54	0xbd74aef5	-0.059737165
55	0xbd692c99	-0.056927297
56	0x3d80894d	0.06276188
57	0xbd363764	-0.04448642
58	0x418a9bf3	17.326147
59	0xbd5d0867	-0.05396309
60	0x3c45dda7	0.012076772
61	0x3d04bb08	0.03240493
62	0x41871dfc	16.88964
63	0xbc2c3bda	-0.010512317

layer4.weight f4 [290, 64]
0	0xbc54a5ce	-0.012978984
1	0x40807c48	4.015171
2	0xbcb7ea65	-0.022450635
3	0x407fd7c0	3.9975433
4	0x407d1163	3.9541862
5	0xbcd200a6	-0.025635075
6	0xbd86dd5d	-0.065851904
7	0x407ea811	3.979008
8	0x407dd373	3.9660308
9	0x407cbc2f	3.9489858
10	0x3b3adf75	0.0028514538
11	0x3d199655	0.037496883
12	0x407d33c6	3.956285
13	0x40817178	4.045101
14	0x37957c3b	1.7820033e-05
15	0x3eb48ec1	0.35265163
16	0xba9913b9	-0.0011678851
17	0x407eb0c3	3.9795387
18	0x408110a6	4.0332823
19	0x4080567d	4.0105577
20	0xbc80461e	-0.015658434
21	0x3d661a00	0.05617714
22	0x3d7eaa24	0.062173977
23	0x3d4ee04f	0.050506886
24	0x3b009804	0.0019621858
25	0x407de649	3.9671805
26	0x3cf515dd	0.029917652
27	0xbb900b5b	-0.004395885
28	0x3cef6b44	0.029225953
29	0xbd5de413	-0.054172587
30	0x40804073	4.0078673
31	0xbc9c7fde	-0.01910394
32	0x3d56af8d	0.052413512
33	0x40803a7e	4.00714
34	0x3d78629d	0.06064092
35	0x407b9bbe	3.9313807
36	0x3d5450e4	0.051834956
37	0x3d762e72	0.060102887
38	0xbdb97ebc	-0.09057376
39	0xbd0e8351	-0.0347932
40	0x3d76b40e	0.060230307
41	0x407d4f6c	3.9579725
42	0x4081747b	4.045469
43	0x407fcd8c	3.9969206
44	0xbccdc567	-0.025118543
45	0xbe432b7e	-0.1905956
46	0xbd761897	-0.060082044
47	0x40809937	4.018703
48	0xbce0d751	-0.02744642
49	0x40800873	4.0010314
50	0xbb49fe2a	-0.003082166
51	0x3e4bc13d	0.19897933
52	0xbd107984	-0.035272136
53	0x3c96eb4b	0.018422743
54	0x3c62902b	0.013828318
55	0xbdf44e9b	-0.11929055
56	0xbc5b3e44	-0.0133815445
57	0xbce294b3	-0.027658796
58	0x4081593e	4.042144
59	0xbcc6150c	-0.024179958
60	0xbcc29aa0	-0.023755372
61	0x3c36c792	0.01115598
62	0x407ef9ea	3.9840035
63	0x3d0a61a0	0.03378451
64	0x3ce85503	0.02836085
65	0x3f1fc156	0.6240438
66	0xbc239635	-0.009984543
67	0x3f281fa5	0.65673286
68	0x3f060ab6	0.52360094
69	0xbc9953c8	-0.018716708
70	0x3caafb64	0.020871826
71	0x3f1c8d3c	0.61153007
72	0x3f3145a3	0.6924688
73	0x3f0c8e48	0.54904604
74	0x3dc9796a	0.09837611
75	0xbd4b600e	-0.04965215
76	0x3f18d933	0.5970642
77	0x3f301876	0.68787324
78	0x3cb162e9	0.02165361
79	0x3ea6cd60	0.32578564
80	0x39fe5de3	0.00048516606
81	0x3f0542b3	0.520549
82	0x3f339aff	0.7015838
83	0x3f25ef35	0.64818126
84	0xbc7f6692	-0.0155884195
85	0x3d2fc3df	0.042911407
86	0x3ce3970b	0.027781984
87	0x3c2998a5	0.010351335
88	0xbc258117	-0.010101578
89	0x3f1734da	0.5906502
90	0xbb811a38	-0.003939893
91	0x3d1ab185	0.037766952
92	0x3d5185f1	0.051153127
93	0x3d0ac259	0.03387675
94	0x3f19a0e8	0.6001115
95	0xbd28a182	-0.04116965
96	0x3baef359	0.005339068
97	0x3f2a9df3	0.6664726
98	0x3d0bd9a4	0.034143105
99	0x3f12f391	0.574029
100	0x3d60ec2b	0.054912727
101	0xbcf94363	-0.03042764
102	0x3d828436	0.063728735
103	0xbc561f53	-0.013068992
104	0x3d5bf4f0	0.053700387
105	0x3f2a67c6	0.66564596
106	0x3f27328a	0.6531149
107	0x3f24d372	0.6438514
108	0x3d5fa9bb	0.054605227
109	0x3db2ff76	0.087401316
110	0x3b737dff	0.0037153957
111	0x3f2a4a1b	0.66519326
112	0xbd4175d7	-0.04723152
113	0x3f11ca5b	0.56949395
114	0xbc9bfb9b	-0.019040873
115	0x3e8e417e	0.27784342
116	0x3b755369	0.003743375
117	0x3d14abd7	0.03629669
118	0xbcd0948e	-0.025461461
119	0x3e0222e1	0.12708618
120	0xbcb6d11c	-0.022316508
121	0xbc009e86	-0.007850295
122	0x3f278218	0.6543288
123	0x3c7ad52e	0.015309615
124	0x3cb613d8	0.02222626
125	0x3d280490	0.041019976
126	0x3f22a1df	0.63528246
127	0x3b7f1405	0.0038921845
128	0x3d3aa473	0.045566987
129	0x3faf1e30	1.3681087
130	0xbb3dfa04	-0.0028988132
131	0x3fb23c85	1.3924719
132	0x3fbae488	1.4600992
133	0xbcf85d11	-0.030317815
134	0x3d3ad03e	0.04560875
135	0x3fb4156e	1.406904
136	0x3fb2b6c1	1.3962022
137	0x3fbbfba3	1.4686168
138	0x3c79612c	0.0152209215
139	0x3c93ca30	0.018040746
140	0x3fbcc8ef	1.474882
141	0x3fb62c8c	1.4232345
142	0x3c36484a	0.0111256335
143	0x3ba7b8bf	0.005118459
144	0x3d3aa484	0.04556705
145	0x3fb52369	1.4151431
146	0x3fb709f7	1.4299916
147	0x3fb0716f	1.3784617
148	0xbc5fedfb	-0.013667579
149	0xbbd51357	-0.0065025496
150	0x3d3d711e	0.046250455
151	0xbc9ad9eb	-0.01890274
152	0xba3a2a3f	-0.0007101632
153	0x3fb6f932	1.4294798
154	0xbd27ab4f	-0.040934857
155	0x3d167c10	0.03673941
156	0xbd3e2c16	-0.046428762
157	0xba90e542	-0.0011054652
158	0x3fb8a095	1.4424006
159	0xbcefa934	-0.029255487
160	0xbd13234d	-0.035922337
161	0x3fb888a3	1.4416698
162	0x3d28b87a	0.041191556
163	0x3fcf9cb1	1.6219693
164	0xbce79ec2	-0.028273944
165	0x3c0b17f2	0.008489596
166	0xbc1c79af	-0.009550496
167	0x3d1fcff3	0.039016675
168	0x3d61bd3d	0.055112112
169	0x3fb2c132	1.3965209
170	0x3fb662ff	1.4248961
171	0x3fb6e2ca	1.428796
172	0x3d4597bd	0.048240412
173	0x3d8bcfca	0.06826742
174	0xbd23aed7	-0.039961662
175	0x3fbe8a93	1.488604
176	0xbb9d970a	-0.004809265
177	0x3fb74a0d	1.4319474
178	0xbcdbdf18	-0.026839778
179	0x3d4ae2b6	0.049532615
180	0x3d7160b5	0.058930118
181	0x3ae669db	0.0017579155
182	0xbd12f398	-0.03587684
183	0x3c786fe2	0.015163394
184	0x3c0a140b	0.00842763
185	0x3d16ad3b	0.0367863
186	0x3fbbce9b	1.4672426
187	0xbcd4c272	-0.025971625
188	0x3d47597f	0.048669335
189	0x3d6b2ef3	0.05741782
190	0x3fb11f6e	1.3837717
191	0x3d5080c1	0.05090404
192	0xbcf215b6	-0.029551368
193	0x3f39ab35	0.72526866
194	0x3d1640bf	0.03668284
195	0x3f3f7576	0.74788606
196	0x3f35eb42	0.710621
197	0x3c54c5b0	0.0129865855
198	0x3cda0823	0.026615208
199	0x3f378e59	0.7170158
200	0x3f29961c	0.66244674
201	0x3f3862c2	0.7202569
202	0x3da0c4aa	0.07850011
203	0xbd09a2a8	-0.033602387
204	0x3f2bbe20	0.6708698
205	0x3f3eae23	0.7448446
206	0x3d538ad2	0.05164606
207	0x3cfa1df3	0.030531859
208	0xbce61d3d	-0.028090114
209	0x3f316e7d	0.69309217
210	0x3f29f79e	0.6639346
211	0x3f3078a4	0.68934083
212	0xbbc5be7b	-0.00603467
213	0xb9db23c2	-0.00041797577
214	0xbc4344a0	-0.011918217
215	0x3b83b520	0.0040193945
216	0xbcb32d22	-0.021872107
217	0x3f29a0d7	0.6626105
218	0x3d7b8845	0.061409254
219	0x3d46ea39	0.048563216
220	0x3d41332f	0.047167953
221	0xbd1e78ee	-0.038689546
222	0x3f2c6992	0.6734859
223	0x3a7eb5ad	0.0009716403
224	0x3d85149e	0.06498073
225	0x3f36ee10	0.71457005
226	0x3cc00249	0.02343859
227	0x3f411ea9	0.7543741
228	0xbd1acce1	-0.037793044
229	0x3a8703b1	0.0010300783
230	0x3c85b86c	0.01632329
231	0x3d7eca8c	0.062204883
232	0x3d73c3ea	0.05951301
233	0x3f2fb3b9	0.6863361
234	0x3f44775b	0.7674462
235	0x3f26c49f	0.6514377
236	0x3d1cfd0f	0.038327273
237	0x3d0b07c1	0.03394294
238	0x3be4d259	0.006983083
239	0x3f2e1214	0.67996335
240	0x3d52a5d0	0.051427662
241	0x3f3e3d0e	0.7431191
242	0xbac83ba1	-0.001527656
243	0x3c03e0fb	0.008049245
244	0x3ce7a67e	0.028277632
245	0xbd5a94e4	-0.05336465
246	0x3d4e5976	0.050378285
247	0x3cf8325d	0.030297453
248	0x3d5b198f	0.05349117
249	0xbd6d4800	-0.057929993
250	0x3f28f53c	0.659992
251	0x3d82e9de	0.06392263
252	0x3cfbf78e	0.030757692
253	0xbd73a930	-0.05948752
254	0x3f3ef8f9	0.7459865
255	0xbd17dac8	-0.03707388

layer4.bias f4 [290]
0	0x410b7af1	8.717515
1	0x3efc88ff	0.4932327
2	0x3f9e27f3	1.2355942
3	0x3f234255	0.6377309
4	0x4048bf21	3.1366656
5	0x3f00f05b	0.50366753
6	0x3eefd51f	0.46842286
7	0x3f298588	0.6621938
8	0x4094295a	4.630048
9	0x4033326b	2.7999523
10	0x3f8e1ae4	1.1101956
11	0x3f7d400c	0.9892585
12	0x3ef11fa4	0.47094452
13	0x400e58e7	2.2241762
14	0x3f14e464	0.58160996
15	0x3f1a6f89	0.6032644
16	0x3ecdbc78	0.40182853
17	0x3f95afb6	1.1694248
18	0x4041e058	3.0293179
19	0x3fb88108	1.4414377
20	0x409e4a34	4.946558
21	0x3ef7bfee	0.48388618
22	0x3d1bd642	0.03804613
23	0x3da7af0f	0.08187687
24	0x3cd5c9b0	0.026097149
25	0x3d4dbadf	0.050227042
26	0x3ecfe59a	0.4060486
27	0x3d1cffcf	0.038329896
28	0x3f039f7c	0.5141523
29	0x3fa4b15f	1.2866629
30	0x3f0216b7	0.5081591
31	0xbbb08b98	-0.0053877346
32	0x3f2de02e	0.67920196
33	0xbcff885d	-0.031192953
34	0xbd5b1dec	-0.053495333
35	0xbc7a77ea	-0.015287379
36	0xbc93c9a0	-0.018040478
37	0x3db99dcd	0.09063301
38	0x3df6fc21	0.120598085
39	0x3eb678c5	0.35639015
40	0x3ed20ff8	0.41027808
41	0x3e89a13e	0.2688083
42	0x3eb0b193	0.34510478
43	0x3eb6f39d	0.35732737
44	0x3e9914f9	0.29898813
45	0x3d4227ac	0.047401115
46	0xbd373b89	-0.04473451
47	0xbd57e6c5	-0.052710313
48	0xbcdf42ec	-0.02725359
49	0x3ed10a44	0.40828145
50	0x3f268eb7	0.65061516
51	0xbcac07f4	-0.020999886
52	0x40768f91	3.8525126
53	0x3e4bc01d	0.19897504
54	0x3e7f893f	0.24954699
55	0x3d4e5c31	0.05038089
56	0xbb74dcd0	-0.003736306
57	0xbd5edb5a	-0.05440841
58	0x3d520732	0.051276393
59	0x3e254b30	0.16141963
60	0xbca7c925	-0.020481655
61	0x3d3c927a	0.04603813
62	0x3c928e1e	0.017890032
63	0x3d82c99e	0.06386112
64	0xbbda9184	-0.006670179
65	0xbd39aaf6	-0.045329057
66	0x3db8fa6b	0.090321384
67	0x3e2c5b57	0.16831718
68	0x3e52cbea	0.205856
69	0x3e927ab7	0.2860925
70	0xbd33bc05	-0.04388048
71	0x3e91212f	0.2834563
72	0x3e9b6e54	0.3035761
73	0x3d00b189	0.03141931
74	0xbd2b38c6	-0.04180219
75	0xbd453e69	-0.048155222
76	0xbc9baf81	-0.019004585
77	0xbd7b9c00	-0.06142807
78	0xbd617135	-0.055039603
79	0xbc80d3a1	-0.015725913
80	0x3e02235c	0.12708801
81	0x3e348912	0.17630413
82	0x3d78796e	0.06066268
83	0x3e475820	0.19467211
84	0x40794e63	3.8954093
85	0x3f85fc2c	1.0467582
86	0xbd0deb28	-0.03464809
87	0xbca96f5a	-0.02068298
88	0xbd282efc	-0.041060433
89	0xbcaf2b1f	-0.021382866
90	0x3c13c600	0.009019375
91	0x3d933b0d	0.071889974
92	0x3d5df950	0.05419284
93	0x3c320186	0.010864621
94	0xbd5b771d	-0.053580392
95	0x3c4997aa	0.012304226
96	0xbd779f5f	-0.060454722
97	0xbcbb3392	-0.02285174
98	0xbce5a47b	-0.028032532
99	0x3aa349aa	0.0012457867
100	0x3d4cb7ed	0.049980093
101	0xbcc25632	-0.023722742
102	0x3cce8803	0.02521134
103	0x3ec196e6	0.3781044
104	0x3bb31f79	0.0054663983
105	0x3f990a10	1.1956196
106	0xbd43bafe	-0.04778575
107	0x3caf632c	0.021409594
108	0x3bf1bae3	0.007377015
109	0x3eb0a9ee	0.34504646
110	0xbd81f669	-0.06345827
111	0x40711599	3.7669432
112	0xbd6292d9	-0.055315826
113	0xbd6b04dc	-0.05737768
114	0xbc33b282	-0.010967853
115	0x3c1a1ed1	0.009406761
116	0x3d10f3ab	0.03538863
117	0xbd47d2e0	-0.04878509
118	0xbc152c51	-0.009104804
119	0x3d1229b0	0.035684288
120	0xbbe3511e	-0.00693716
121	0x3de7caba	0.11317964
122	0xbbab4aeb	-0.005227437
123	0x3e93bf45	0.28856865
124	0x3ce9b0cc	0.028526686
125	0x3ea5c41d	0.32376185
126	0xbd78144f	-0.060566243
127	0xb8ac3851	-8.212089e-05
128	0xbd420be5	-0.047374625
129	0xbc8a68ac	-0.016895615
130	0x3d0359bf	0.03206801
131	0xbd527555	-0.051381428
132	0x3d6f456b	0.05841581
133	0x3cbdf6f2	0.023189042
134	0x3cacebd3	0.021108544
135	0x3d4f8de1	0.050672416
136	0x3d7ca05c	0.061676368
137	0x3d04dcbd	0.032437075
138	0xbc5178c2	-0.012785139
139	0xbd47b75e	-0.048758857
140	0x406ec472	3.73074
141	0xbd7ee1ff	-0.062227245
142	0xbd68d93b	-0.056847792
143	0x3d620510	0.05518061
144	0x3cf88efb	0.030341616
145	0x3ce56dc1	0.028006436
146	0x3c3a7b27	0.011381901
147	0xbb218221	-0.0024644213
148	0xbd378a02	-0.04480935
149	0xbd2046e5	-0.03913011
150	0xbd2adbad	-0.041713405
151	0xbca189e9	-0.019719081
152	0x3d1d0f12	0.03834445
153	0x3d23cfd3	0.03999312
154	0x3d20abc5	0.039226312
155	0x3d3ad9a9	0.045617733
156	0xbc9802be	-0.018555995
157	0x3d32e69a	0.04367695
158	0x3c866d66	0.016409587
159	0x3e7a77a3	0.244597
160	0xbd506bcb	-0.05088405
161	0xbd54c5b9	-0.051946376
162	0x3d3162c8	0.043307096
163	0x3d24a06d	0.040192056
164	0xbd043e5e	-0.03228604
165	0x3c9c28b2	0.019062374
166	0xbceb155f	-0.028696714
167	0xbd6ebb6d	-0.058284212
168	0x3d1020bd	0.03518747
169	0xbc26232b	-0.010140221
170	0x3d28fdb8	0.04125759
171	0xbd6cddcf	-0.05782872
172	0x3cda26a8	0.02662976
173	0x3c8a6ff1	0.016899081
174	0x3d363f4d	0.044493962
175	0xbd521e8a	-0.051298656
176	0xbb0b8d02	-0.0021293764
177	0xbce3e960	-0.027821243
178	0xbd82954b	-0.063761316
179	0xbcc9a908	-0.024616733
180	0xbd533c17	-0.051570978
181	0xbd61e43e	-0.05514931
182	0x3cb7c533	0.0224329
183	0x3d77bb35	0.06048127
184	0xbc91d3c8	-0.01780118
185	0x3c85e069	0.016342359
186	0xbd604fd0	-0.054763615
187	0x3d6082ad	0.054812122
188	0xbd182040	-0.03714013
189	0x3d3bdfa7	0.04586759
190	0xbc89ea2a	-0.016835291
191	0xbd163b09	-0.036677394
192	0x3d1f7eb5	0.038939197
193	0xbc80c75c	-0.015720062
194	0x3ed1c41b	0.4096993
195	0xbce9e3fc	-0.028551094
196	0x3d2525df	0.04031932
197	0x3d7a6b90	0.061137736
198	0xbc96a6f1	-0.01839015
199	0xbd354241	-0.044252638
200	0xbc84889e	-0.016178425
201	0x3e36eda6	0.17864093
202	0xbd2d7a7f	-0.04235315
203	0x3d472f58	0.048629135
204	0x3d10cc7c	0.03535126
205	0x3d6458f9	0.055748913
206	0xbd52daab	-0.05147807
207	0xbccee242	-0.025254373
208	0xbcbe8603	-0.023257261
209	0xbd612827	-0.054969933
210	0xbc1db74d	-0.009626222
211	0x3dbe21b1	0.0928377
212	0x3d2ac1b9	0.041688655
213	0x3cd3a83b	0.025837054
214	0xbc00d6a7	-0.007863677
215	0x3d01eed2	0.031721897
216	0xbcf3af48	-0.029746667
217	0xbd5cb186	-0.053880237
218	0xbd1ec7cf	-0.03876477
219	0x3d43f9fe	0.047845833
220	0xbcf66822	-0.030078951
221	0x3d49315d	0.049119342
222	0x3d15c1b9	0.0365617
223	0x3da3da39	0.08000607
224	0x3d2e3169	0.04252759
225	0x3d807fdb	0.062743865
226	0xbc7ab055	-0.01530083
227	0x3da0b0f3	0.078462504
228	0xbcf0f15e	-0.029411968
229	0x3e16a15e	0.14709994
230	0x3e199603	0.14998631
231	0xba161289	-0.0005724808
232	0x3d605455	0.054767925
233	0x3cd87b43	0.026425963
234	0xbcafd5a0	-0.021464169
235	0xbc170b49	-0.009218999
236	0x3d08463f	0.033270117
237	0x3e38cf27	0.18047772
238	0x3d5c6db7	0.05381557
239	0xbd0641f1	-0.03277773
240	0x3e38dac0	0.18052197
241	0x3e391b29	0.18076767
242	0x3e82d017	0.25549385
243	0x3dac37c3	0.08409073
244	0x3e02fb51	0.12791182
245	0x3d855eb1	0.065122016
246	0x3e43bab5	0.19114192
247	0x3ec92fe2	0.39294344
248	0x3decc80a	0.11561592
249	0x3e407bd9	0.18797244
250	0x3dd5210e	0.10406695
251	0x3ec1ed8c	0.37876546
252	0xbcf32eaf	-0.029685346
253	0x3d564e16	0.052320562
254	0x3d0e812d	0.03479116
255	0x3d552057	0.052032795
