catanatron_experimental/my_DQN_wyniki2/my_DQN2_950_steps.pth (torch, 268915 bytes, 8 tensors)

layer1.weight f4 [64, 614]
0	0x3b38f1f9	0.0028220399
1	0x3a9b913d	0.0011868846
2	0xbb96f0fd	-0.0046063648
3	0x3b576f37	0.0032872686
4	0xbb8ed1db	-0.004358513
5	0xb97ee57e	-0.0002430882
6	0xbb4e2fd8	-0.0031461623
7	0x3950129e	0.00019843361
8	0xbaecc744	-0.0018064757
9	0xbb478611	-0.00304449
10	0x3b0231f8	0.001986621
11	0x3aee1d88	0.001816676
12	0x3b8b5223	0.004251735
13	0x3b2b6b8d	0.0026156635
14	0x3b0c8269	0.0021440035
15	0xbac3bfe0	-0.0014934503
16	0xba9313a8	-0.0011221068
17	0x3b7ab3ca	0.0038254135
18	0xbb91e45c	-0.0044522714
19	0x398b82bd	0.00026609554
20	0xbb240b73	-0.0025031238
21	0xba8167d1	-0.0009872859
22	0xb5f4101a	-1.8184103e-06
23	0x3ab779e5	0.0013998119
24	0x3b786fda	0.0037908466
25	0x3b78fdb2	0.003799301
26	0x3b6b4ebe	0.0035905088
27	0x3a9757a2	0.0011546502
28	0xb9ab0b54	-0.00032624102
29	0xbb16e2c1	-0.002302334
30	0x3ab9173a	0.0014121302
31	0x3b438bee	0.0029838043
32	0xb9f0547c	-0.00045839313
33	0x3a2583e2	0.00063139026
34	0x3a98deea	0.0011663113
35	0x3b74be74	0.0037344964
36	0xbb8d9eb8	-0.0043218993
37	0x3ae3f743	0.0017392415
38	0xb91e0f4a	-0.0001507375
39	0xbb1a8700	-0.0023579001
40	0xbacdec4f	-0.0015710684
41	0x3b5932d7	0.0033141875
42	0x39ad72f1	0.0003308277
43	0xbb3be5e5	-0.0028670963
44	0xba2f66ce	-0.00066910393
45	0x3b577a65	0.003287935
46	0x3b0416e2	0.002015524
47	0xbaa33d8c	-0.0012454255
48	0x393520e6	0.00017273761
49	0xba12eb70	-0.0005604541
50	0x3b7954b1	0.0038044865
51	0xb9eb92c8	-0.00044932053
52	0x3aadaabd	0.0013249737
53	0x3b09ccb9	0.0021026565
54	0xba85436e	-0.001016719
55	0x39cc9e40	0.00039027818
56	0x3a9d5aab	0.001200517
57	0xbac5bb47	-0.001508572
58	0x3b51d3d3	0.0032017126
59	0xbab251e5	-0.0013604729
60	0x3b058ff4	0.0020379992
61	0x3a717bcf	0.00092118693
62	0x37d62a60	2.553052e-05
63	0xbb16cd62	-0.0023010601
64	0xbb06386d	-0.002048041
65	0xbb86f5bd	-0.0041186498
66	0x3b3fb481	0.0029251876
67	0x3b096a2d	0.0020967827
68	0xbafdb86a	-0.0019357328
69	0x3a48c41e	0.0007658618
70	0x3b2051f0	0.00244629
71	0x3b52be8c	0.0032157032
72	0xbb89ec1e	-0.0042090556
73	0x3b89abd9	0.004201394
74	0xba893db1	-0.0010470656
75	0x3b2f4178	0.0026741903
76	0xbb36b784	-0.002788038
77	0xbb2b4f45	-0.0026139778
78	0xbb6c3bb4	-0.0036046328
79	0xbb8ac37d	-0.00423473
80	0x39ed465e	0.0004525659
81	0x3b104962	0.0022016396
82	0x3aad192b	0.0013206353
83	0xbb36595d	-0.002782426
84	0xbb6c6706	-0.003607215
85	0x398129bf	0.000246359
86	0xba9a4294	-0.0011769109
87	0xbb8100ff	-0.0039368863
88	0xba1c9d91	-0.0005974407
89	0xbb4a12f3	-0.0030834049
90	0xbb163d47	-0.0022924708
91	0xba53a280	-0.00080732256
92	0x3a847bf5	0.0010107743
93	0xba764815	-0.00093948963
94	0xbaa50f89	-0.0012593131
95	0x3abaf133	0.0014262557
96	0x3b6a19b0	0.0035720877
97	0x3963f85d	0.0002174093
98	0xbb7de2fe	-0.0038740034
99	0x3b218a15	0.0024648954
100	0x3acf6b62	0.0015824849
101	0xbb3987a1	-0.00283096
102	0xbb681ecf	-0.0035418754
103	0xbb2127b8	-0.0024590325
104	0x3b26f702	0.0025476818
105	0xbaf50c0e	-0.0018695609
106	0x3b84c4d8	0.004051786
107	0x3b0e2dba	0.0021694736
108	0x397f772e	0.00024363093
109	0x3aba9471	0.0014234913
110	0xbb4148be	-0.002949282
111	0x3b11ace2	0.002222829
112	0x3b0cd762	0.0021490683
113	0xbb7a14d9	-0.0038159399
114	0xbb34539b	-0.0027515653
115	0xbb3a2e65	-0.0028409
116	0xbb4369a2	-0.00298176
117	0xbabf5828	-0.0014598416
118	0xbae686d3	-0.0017587788
119	0x3b66423c	0.0035134694
120	0x3ad4cfcb	0.0016236244
121	0x39a43975	0.00031323326
122	0xbb5c1da8	-0.0033587012
123	0x3b6ef92b	0.0036464434
124	0xb836c7d4	-4.3578286e-05
125	0xb9187f0d	-0.0001454318
126	0x3a964856	0.001146565
127	0xbae114bc	-0.0017172317
128	0x3ac64e78	0.0015129587
129	0xba920208	-0.0011139521
130	0x3971e2bc	0.00023068016
131	0x3b326119	0.002721852
132	0x3b840af1	0.0040296246
133	0xb8a8602c	-8.028778e-05
134	0x3b8828d5	0.004155258
135	0xb9290fac	-0.00016122934
136	0x3b37f538	0.0028069746
137	0xb9c9c2ce	-0.00038482848
138	0x3b0ec0a1	0.0021782296
139	0xbb237ce5	-0.002494627
140	0xbb566b13	-0.003271763
141	0xb90ec1a0	-0.00013614306
142	0xb75d4af6	-1.319008e-05
143	0x3a13f848	0.0005644602
144	0x3b6b6cbd	0.0035922967
145	0xbb03c7d1	-0.0020108114
146	0xbaa70035	-0.001274115
147	0x3b5f88bf	0.0034108607
148	0xb995a2fd	-0.0002854093
149	0xb91208c8	-0.00013926916
150	0xbaab9f6e	-0.0013093778
151	0x3b30c8b0	0.0026975088
152	0x3b85bba2	0.0040812055
153	0xb6ce880e	-6.1551173e-06
154	0x3b4cd274	0.003125337
155	0x3abbf796	0.0014340754
156	0xbad8cda7	-0.0016540781
157	0xbb83aea1	-0.00401862
158	0x3b23027f	0.0024873314
159	0x3a746435	0.00093227933
160	0xbb6591bd	-0.0035029494
161	0x3ae73008	0.0017638216
162	0xbb25d4e3	-0.0025303892
163	0xb9bedaf4	-0.00036402757
164	0xbb3cec58	-0.0028827395
165	0xbb5c898f	-0.0033651327
166	0xbb034c21	-0.002003439
167	0x39d81b10	0.00041218894
168	0xb9af2626	-0.00033407024
169	0x3a83e636	0.0010063115
170	0xbb565978	-0.0032707136
171	0x3b867f22	0.004104511
172	0xbb52c6c3	-0.0032161928
173	0x3b8442be	0.0040362766
174	0xba122279	-0.0005574595
175	0xbb1a9e15	-0.002359276
176	0xbb1680b3	-0.0022964894
177	0xbb26c4b8	-0.0025446843
178	0x3a096c4f	0.00052422745
179	0x3ab4a708	0.0013782689
180	0x3a49a7ef	0.00076925656
181	0x3b3faab7	0.002924604
182	0xbb1b52f6	-0.0023700572
183	0xbb7701bc	-0.0037690243
184	0x3b13b67b	0.0022539187
185	0xbb398d05	-0.0028312814
186	0x3ae4003b	0.0017395088
187	0xbb0d9cab	-0.0021608274
188	0x3b5f6204	0.0034085521
189	0xbb41266e	-0.0029472369
190	0xbb84a6b1	-0.0040481915
191	0x3abb854e	0.0014306696
192	0xbb1f77b5	-0.0024332826
193	0x3b0c8ec9	0.0021447411
194	0x3b5a2f93	0.0033292517
195	0x3b79d1b3	0.0038119375
196	0xbaede88a	-0.0018150967
197	0xbb1630f3	-0.002291736
198	0xbb877411	-0.0041337092
199	0xba6bb6ed	-0.00089917966
200	0x3b4ba63a	0.003107442
201	0x3b20ab6c	0.0024516238
202	0xbb322007	-0.0027179734
203	0x3a6fb9f9	0.00091448386
204	0x39c4704e	0.00037467707
205	0xb9f71cc0	-0.00047132932
206	0xbb60a583	-0.003427834
207	0x3b4332fe	0.0029785032
208	0x3b0dc21e	0.0021630595
209	0x3b74b082	0.0037336652
210	0x3b49da39	0.0030800237
211	0x3b369f2a	0.0027865865
212	0x3add3a9f	0.0016878432
213	0xbb83d768	-0.004023481
214	0xbb1a7485	-0.0023567986
215	0xb977e506	-0.00023641073
216	0x3b3b9dbb	0.002862795
217	0xba1a6311	-0.0005889396
218	0xbb104a94	-0.0022017108
219	0x3b23d0e4	0.0024996335
220	0x3b8302d1	0.0039981385
221	0xb9c72f1d	-0.0003799134
222	0xbb50ded8	-0.0031871106
223	0xb9945d94	-0.0002829848
224	0xb93ee3ae	-0.0001820463
225	0xbb25a1ac	-0.0025273366
226	0x3a99633f	0.0011702551
227	0xbab27fed	-0.0013618447
228	0xbb33cfb5	-0.0027437035
229	0xbafa5db7	-0.0019101416
230	0x3b0ac1d6	0.0021172664
231	0xbb03838e	-0.0020067426
232	0xbae70b21	-0.0017627218
233	0xba80bbc1	-0.000982158
234	0xbae1800f	-0.0017204302
235	0x3b8af69f	0.0042408253
236	0x388c69b4	6.695409e-05
237	0xbaa3e09f	-0.0012502855
238	0xb92f55cb	-0.00016721261
239	0xbb474cd6	-0.0030410788
240	0x3b6ecfac	0.00364397
241	0x3b6fff8e	0.0036620828
242	0x3ad94576	0.0016576487
243	0x3aa7d35f	0.0012804082
244	0x3aff9eca	0.0019502279
245	0xbaecae36	-0.001805729
246	0x3aa1da19	0.0012348323
247	0xbac05b7d	-0.0014675703
248	0x3b7d4b92	0.003864978
249	0xbb42a65e	-0.0029701213
250	0x3b80a6d8	0.0039261393
251	0x3a15b7cd	0.00057112874
252	0xbb65e8a9	-0.0035081303
253	0x3b1fe7e2	0.0024399688
254	0x3b3d7349	0.0028907827
255	0x3b02a528	0.0019934867

layer1.bias f4 [64]
0	0x3b337924	0.0027385438
1	0x39558b44	0.00020365143
2	0xb922d7a2	-0.00015529853
3	0x429d33cd	78.60117
4	0xbb9c908d	-0.004777974
5	0x429d2f07	78.59185
6	0xbba2a96c	-0.0049640443
7	0x429d30ef	78.59557
8	0xbb955e5a	-0.0045583667
9	0x429d33bf	78.60107
10	0x429d2e56	78.5905
11	0x429d334b	78.60018
12	0xbba5339c	-0.0050415527
13	0xbc4a3caa	-0.012343565
14	0x429d2c18	78.58612
15	0x429d21a4	78.565704
16	0x429d31dc	78.59738
17	0x429d2f2d	78.59214
18	0x429d33e7	78.60137
19	0x3b79b24b	0.0038100656
20	0x429d241b	78.57052
21	0x429d3033	78.59414
22	0x429d2e75	78.59074
23	0xbaee2368	-0.0018168511
24	0xb8f41320	-0.00011638389
25	0x429d317a	78.596634
26	0xc0979f82	-4.738221
27	0x429d3460	78.602295
28	0x3a67c5e1	0.0008841437
29	0x3b6bff1d	0.0036010214
30	0xbb6ae6e3	-0.0035843186
31	0xbb4639ff	-0.003024697
32	0x429d30a9	78.59504
33	0xbb317dc4	-0.0027083019
34	0x3b3a0347	0.00283833
35	0x429d32f6	78.59953
36	0x429d2e6b	78.59066
37	0x429d3119	78.595894
38	0x429d3140	78.59619
39	0x3a25c749	0.0006323946
40	0xc0980dda	-4.751691
41	0xba5c8a7d	-0.00084129703
42	0x429d3123	78.59597
43	0xc097d6a3	-4.744951
44	0xb9c7d8b9	-0.0003811771
45	0xbb1bb8b8	-0.0023761224
46	0xbb555782	-0.003255338
47	0xbace5698	-0.001574236
48	0x429d2fda	78.59346
49	0x3adcf9dd	0.0016859133
50	0xba24581d	-0.00062692334
51	0xbb947ef4	-0.0045317356
52	0x429d2e0e	78.58995
53	0x429d2fc6	78.59331
54	0x429d2fae	78.593124
55	0x429d2c8a	78.58699
56	0x3a608bbb	0.00085657433
57	0xbaff36da	-0.0019471303
58	0xbb678bb3	-0.003533107
59	0x429d2fb5	78.59318
60	0x429d31d0	78.59729
61	0x429d3144	78.59622
62	0x429d30db	78.59542
63	0x429d2d71	78.58875

layer2.weight f4 [64, 64]
0	0xbb089e5c	-0.0020846343
1	0xb9b39c20	-0.00034257863
2	0x3a8c45f1	0.0010701997
3	0x3bf9c3f8	0.0076222382
4	0xbbbb3868	-0.0057135113
5	0x3a13cba3	0.0005637949
6	0xbc321336	-0.010868838
7	0x3c300c46	0.010745114
8	0xbb80b498	-0.0039277785
9	0x39fc9f83	0.0004818403
10	0xbc263d50	-0.010146454
11	0x3be766b3	0.0070618032
12	0xbbf02506	-0.0073286323
13	0x3c0f55de	0.0087485
14	0x391974f9	0.00014634793
15	0x3b982e7e	0.004644214
16	0x3bff1ab4	0.0077851657
17	0x3bf4522c	0.0074560847
18	0x3a645928	0.0008710795
19	0x3a55ee05	0.0008160773
20	0xbc373a9f	-0.01118341
21	0xbbb6089d	-0.005555226
22	0x3be9fd21	0.007140771
23	0x3bc18287	0.0059054527
24	0x3c0d091e	0.008608131
25	0xbbb8507d	-0.0056248293
26	0x3be27e75	0.0069120475
27	0xbc5e725a	-0.013577068
28	0xbc4ca73c	-0.012491044
29	0x3b0cf1d6	0.002150645
30	0xbc14f297	-0.009091041
31	0xbc555abe	-0.013022123
32	0xbc0c4b50	-0.008562878
33	0x3baa8199	0.0052034375
34	0xbbf3c103	-0.0074387803
35	0xbb8059d8	-0.00391696
36	0x3c072222	0.008247884
37	0xbbeb6c66	-0.007184553
38	0xbc0567fc	-0.008142468
39	0xbbd9082e	-0.0066232895
40	0x3c248795	0.010042091
41	0x3c10c60c	0.008836281
42	0x3c46df16	0.012138149
43	0x3b84b752	0.004050174
44	0xbb7d8c3c	-0.0038688323
45	0x3c734d71	0.014850006
46	0x3c3a614d	0.011375737
47	0x3b40767c	0.0029367497
48	0xbc6566b2	-0.014001535
49	0x3c0d703c	0.008632716
50	0xbb0e412b	-0.0021706324
51	0x3c0b9536	0.008519461
52	0x3af1a537	0.0018436079
53	0xbb588a8a	-0.003304156
54	0xbc8142aa	-0.015778858
55	0x3a21eba8	0.0006176778
56	0xbbb02680	-0.0053756833
57	0xbc432a17	-0.0119118905
58	0x3c399371	0.011326657
59	0x3c1d5f51	0.009605245
60	0xbc3e2fea	-0.011608103
61	0xbc1ec050	-0.009689406
62	0x3b879560	0.00413768
63	0xbc3ad0c1	-0.01140231
64	0x3b2249d1	0.0024763236
65	0x3b991b5b	0.0046724505
66	0xbb42b66b	-0.002971078
67	0xbc1173eb	-0.008877735
68	0xba975689	-0.0011546175
69	0xbbdf4a47	-0.0068142745
70	0xbad26a32	-0.0016053377
71	0xbbf95006	-0.0076084165
72	0xbc162e77	-0.0091663515
73	0x3ab2085d	0.0013582815
74	0x3c188c16	0.009310743
75	0x3c49d3dd	0.012318579
76	0xbb2362da	-0.0024930746
77	0x3c27655b	0.010217036
78	0xbb8e9a2e	-0.0043518757
79	0x3c22ceb3	0.009936976
80	0xbbc6256a	-0.0060469406
81	0x3bcfe3d0	0.006344296
82	0xbbabde29	-0.0052449894
83	0x3c31131e	0.010807781
84	0xb8e2dd15	-0.000108176995
85	0xbc50acb9	-0.012736493
86	0x3bcc6c4e	0.006238497
87	0x3be0fb49	0.006865893
88	0xb97e475b	-0.0002424991
89	0xbb979075	-0.004625375
90	0xbbae1c05	-0.005313399
91	0xbb859ac9	-0.0040772897
92	0x3beb0224	0.007171886
93	0xbc2d319c	-0.01057091
94	0xbb85c8bb	-0.004082767
95	0xbbd91b61	-0.0066255783
96	0xbb90d56f	-0.0044199745
97	0xbbad01bd	-0.0052797482
98	0x3bc8959e	0.0061213514
99	0xbbfa2323	-0.007633583
100	0xbc38f337	-0.011288456
101	0xbc5567aa	-0.013025204
102	0xbc5c73c2	-0.013455333
103	0xbb0c90b0	-0.0021448545
104	0xbc170315	-0.009217043
105	0xbc2278eb	-0.009916524
106	0x3c36630c	0.011132013
107	0x3c33fc21	0.010985405
108	0xbb435fd3	-0.0029811754
109	0xbc45bf41	-0.012069524
110	0xbbcd9c1c	-0.006274713
111	0x3b081308	0.0020763297
112	0x3bd5d685	0.006525817
113	0xba89600a	-0.0010480892
114	0xbbab7d06	-0.00523341
115	0x3c40d25c	0.011768904
116	0x3c3c28d4	0.011484344
117	0x3b8871d1	0.0041639586
118	0xbb7eae1f	-0.0038861108
119	0xbb9b9512	-0.004747995
120	0x3bab7f32	0.0052336687
121	0x3a1df9cb	0.0006026297
122	0xbb625ebd	-0.0034541332
123	0x3c08a4ac	0.008340042
124	0xbbf8c075	-0.007591302
125	0x3c466b92	0.012110608
126	0x3aec3469	0.001802099
127	0x3c30f721	0.010801108
128	0x3ae1abde	0.0017217358
129	0x3c180611	0.00927879
130	0x3c28111d	0.010257986
131	0x429d4268	78.6297
132	0xbd000928	-0.031258732
133	0x429d4214	78.62906
134	0xbba699d7	-0.005084257
135	0x429d43d5	78.632484
136	0x3be52012	0.0069923485
137	0x429d46ae	78.63805
138	0x429d4e5a	78.65303
139	0x429d4396	78.632
140	0xbb9fbd86	-0.004874888
141	0xbef20255	-0.47267404
142	0x429d491e	78.64281
143	0x429d4aba	78.64595
144	0x429d4f6e	78.655136
145	0x429d473d	78.63914
146	0x429d43b9	78.63227
147	0x3bbc0064	0.0057373513
148	0x429d650d	78.697365
149	0x429d46db	78.63839
150	0x429d4cbb	78.649864
151	0xbc0a3197	-0.008434675
152	0x3c2930f6	0.010326615
153	0x429d4e95	78.65348
154	0xc212ef49	-36.733677
155	0x429d442d	78.633156
156	0x3c51d536	0.012807181
157	0xbba9fa4e	-0.0051873093
158	0xbb5f80a0	-0.0034103766
159	0xbb47e435	-0.0030501012
160	0x429d52bf	78.66161
161	0xbb9b20e5	-0.004734146
162	0x3c0c136f	0.008549555
163	0x429d4526	78.635056
164	0x429d4e7d	78.6533
165	0x429d51b5	78.659584
166	0x429d4e88	78.65338
167	0xbaef0879	-0.0018236778
168	0xc2142eea	-37.045815
169	0x3bb39238	0.005480077
170	0x429d44d7	78.63445
171	0xc2144d40	-37.07544
172	0xbb0d87b8	-0.0021595787
173	0x3c58e8fb	0.013239141
174	0xba89952a	-0.0010496725
175	0xba109304	-0.0005515071
176	0x429d4ca7	78.64971
177	0xbc03cd93	-0.008044618
178	0xbc4fdd51	-0.012687043
179	0x3bf9c5bc	0.0076224487
180	0x429d50ff	78.658195
181	0x429d4c5e	78.649155
182	0x429d414f	78.627556
183	0x429d51a0	78.659424
184	0xbc31ff00	-0.010864019
185	0xb822fa45	-3.885689e-05
186	0xbc824a18	-0.015904471
187	0x429d4893	78.64175
188	0x429d49b3	78.64394
189	0x429d5247	78.6607
190	0x429d4b5d	78.647194
191	0x429d4ed6	78.65398
192	0x3c20e34f	0.00981982
193	0xbc52981a	-0.012853647
194	0xbc232504	-0.009957556
195	0xbbafb542	-0.005362184
196	0x3df1b2cc	0.11801681
197	0x3c974e4c	0.018469952
198	0x3b60fd12	0.003433053
199	0xbc2a2275	-0.010384192
200	0xbb13bbef	-0.0022542437
201	0x3b8e0496	0.004334043
202	0x3c0f41d7	0.008743725
203	0xbc2517d5	-0.010076483
204	0x3b8c5bfe	0.0042834273
205	0xbba84fd0	-0.0051364675
206	0x3bc4dc07	0.0060076746
207	0x3d328d81	0.04359198
208	0x3c1710b7	0.009220294
209	0xbc39b922	-0.011335643
210	0x3c10c940	0.008837044
211	0xbc1e2477	-0.009652249
212	0xbd1f676f	-0.038917
213	0xbd120d6c	-0.03565733
214	0x39803a18	0.00024457346
215	0x3b9a785e	0.004714056
216	0xbc34c2a9	-0.011032739
217	0xbc3b521c	-0.011433151
218	0xbceccc40	-0.028905988
219	0x3c2e958d	0.010655773
220	0x3bd3a46e	0.0064588105
221	0x3c0f7e54	0.008758146
222	0x3bb540d5	0.00553141
223	0xbc13e59c	-0.009026911
224	0xbd0c377d	-0.034232605
225	0x3b438729	0.00298352
226	0x3b95c0b1	0.0045700897
227	0x3bfdf466	0.007750082
228	0xbc81ffff	-0.015869139
229	0x3b94795b	0.0045310683
230	0xbba6199b	-0.0050689704
231	0xbbdd88d1	-0.0067606946
232	0xbc410c2e	-0.011782689
233	0x3abc5b73	0.0014370516
234	0xbb1c8ded	-0.0023888305
235	0x3d98f7c4	0.074691325
236	0xbc45cd34	-0.01207285
237	0x3d3f7d57	0.046750393
238	0xbb662148	-0.0035115052
239	0xbc53bc7a	-0.012923354
240	0xbbae242e	-0.0053143715
241	0xbb8e97af	-0.004351578
242	0xbbabff04	-0.005248906
243	0x3bc03133	0.00586524
244	0xbcd73f8a	-0.026275415
245	0x3c04bb93	0.008101362
246	0xbba35845	-0.004984888
247	0x3cc7be18	0.024382636
248	0xbc1b5545	-0.009480779
249	0x3c2ae410	0.010430351
250	0xbc168f5f	-0.009189456
251	0xbc17ea79	-0.009272211
252	0xba44407e	-0.0007486417
253	0x3bff4910	0.007790692
254	0xbc2aa8aa	-0.010416189
255	0xbc773175	-0.015087475

layer2.bias f4 [64]
0	0xbc0d83da	-0.008637393
1	0x3c1c4d38	0.009539895
2	0x429f6da3	79.714134
3	0xba835361	-0.0010019356
4	0x429f6b93	79.710106
5	0x429f6de0	79.7146
6	0xbc673cd9	-0.014113628
7	0xbc4225fe	-0.011849878
8	0x429f73c9	79.72614
9	0xbba67147	-0.0050794217
10	0x429f7045	79.71928
11	0xbc2794f8	-0.010228388
12	0x429f6ca2	79.71217
13	0x3c4a5eef	0.0123517355
14	0x429f70ba	79.72017
15	0x429f6731	79.701546
16	0x429f6b8a	79.71004
17	0x429f741c	79.726776
18	0xbb320bd9	-0.0027167706
19	0x429f7007	79.7188
20	0x3be7a30c	0.0070689972
21	0x429f68b0	79.70447
22	0x3b43e64e	0.002989191
23	0xbc147092	-0.009060042
24	0xbc6698d6	-0.014074525
25	0xbc43b4be	-0.011944948
26	0xbc084eb9	-0.00831955
27	0x429f6815	79.703285
28	0xbc523da7	-0.012832082
29	0x429f750d	79.728615
30	0x429f74ac	79.727875
31	0x3c18338d	0.009289634
32	0x3bd8376a	0.0065984027
33	0xbc403290	-0.011730805
34	0x429f6e89	79.71589
35	0x429f66ee	79.701035
36	0x429f6f2c	79.71713
37	0x3be1244d	0.0068707825
38	0xba1a4ce6	-0.00058860925
39	0xbaa47979	-0.0012548409
40	0x429f6663	79.699974
41	0x429f6aec	79.70883
42	0x429f7044	79.71927
43	0xba3c5aad	-0.00071851426
44	0x39a79fbf	0.00031971742
45	0xbc2bd554	-0.010487873
46	0xbc501cca	-0.012702176
47	0x429f6d6a	79.7137
48	0xbc41da5e	-0.011831848
49	0xbc4b9dc1	-0.012427748
50	0x429f6d71	79.71375
51	0x39bab2bf	0.0003560986
52	0x429f6d29	79.7132
53	0x429f6e1a	79.71504
54	0x429f68c6	79.704636
55	0x429f6de9	79.71467
56	0x429f73e1	79.726326
57	0x429f6961	79.70582
58	0xbbad6dfe	-0.005292653
59	0x429f7095	79.71989
60	0x429f69bb	79.706505
61	0x429f70c5	79.72025
62	0x429f7364	79.72537
63	0x429f7198	79.72186

layer3.weight f4 [64, 64]
0	0x3bd690db	0.00654803
1	0xbc5cb30a	-0.013470421
2	0xbc71bda1	-0.014754684
3	0xbc457c9a	-0.012053633
4	0x3a0779c1	0.0005167984
5	0xbc6cb1d6	-0.014446696
6	0x3b5d191a	0.0033736886
7	0xbb984489	-0.004646842
8	0xbb2138d4	-0.0024600523
9	0xbb5a3ceb	-0.003330047
10	0xb82e9fc3	-4.1633622e-05
11	0xbc27c0ba	-0.010238821
12	0xbc574aa9	-0.013140359
13	0x3b6c0526	0.003601381
14	0x3a2fd5f2	0.00067076006
15	0xbb8cd339	-0.0042976406
16	0x3ae7422d	0.0017643623
17	0x3bfac9ad	0.007653436
18	0x3c1357b8	0.008993082
19	0xbc55ce72	-0.013049709
20	0xbbe72ad8	-0.007054668
21	0x3cb07f28	0.021545008
22	0xbbe67f93	-0.007034251
23	0x3c6ada44	0.014334265
24	0xbc284bfd	-0.010272023
25	0xbba49cd2	-0.0050235773
26	0xbc44ba00	-0.0120072365
27	0x3c49e477	0.012322537
28	0x398d6de6	0.00026975496
29	0xbc2b23fe	-0.010445593
30	0x3b843795	0.004034946
31	0x3c2634d7	0.010144434
32	0x3b497cf3	0.0030744642
33	0xbc48a0f1	-0.012245403
34	0xbc3b12fb	-0.0114180995
35	0x3b86a900	0.004109502
36	0x3b9b4d89	0.0047394675
37	0xbb9cc1e3	-0.0047838553
38	0x3c295f0b	0.010337601
39	0x3c488be9	0.012240388
40	0x3c2917cc	0.010320615
41	0x3bd71f88	0.006565038
42	0x3bfae57c	0.007656751
43	0xbc091760	-0.008367389
44	0x3c1a2fa9	0.009410777
45	0x3b8e1c41	0.004336864
46	0xbb2b8d59	-0.002617678
47	0x3c30c870	0.0107899755
48	0xbb10bdcf	-0.002208579
49	0x3c02c8a4	0.007982407
50	0x3bb92a8f	0.0056508253
51	0xbc2bde42	-0.010490002
52	0x3b7d4383	0.0038644976
53	0xbbd58333	-0.0065158843
54	0x3be6e574	0.007046396
55	0xbc23dab9	-0.010000878
56	0xbc56f663	-0.013120267
57	0x3c2edecb	0.010673235
58	0xbbb18a64	-0.005418109
59	0xbc4a89e5	-0.012361978
60	0xbbf09a33	-0.0073426007
61	0xbc1594f5	-0.009129752
62	0x3c0a98db	0.008459295
63	0xbc220441	-0.0098887095
64	0xbc183ae8	-0.009291388
65	0xbb21c562	-0.00246843
66	0x429d1d4d	78.55723
67	0x3dac504e	0.084137544
68	0x429d1e19	78.558784
69	0x429d15cf	78.542595
70	0xbc2fdd5c	-0.0107339285
71	0x3c245e60	0.010032266
72	0x429d1538	78.54144
73	0xbcf3c01d	-0.029754693
74	0x429d1500	78.541016
75	0xbc19f918	-0.0093977675
76	0x429d1e25	78.558876
77	0xbac4794e	-0.0014989765
78	0x429d1b41	78.55323
79	0x429d1ec7	78.56011
80	0x429d17b3	78.54629
81	0x429d161d	78.54319
82	0x3c67f317	0.014157078
83	0x429d1832	78.54726
84	0x3b94eb2d	0.0045446367
85	0x429d1db8	78.558044
86	0x3c12e282	0.0089651365
87	0xbbda1fb9	-0.0066566137
88	0x3b355506	0.0027669086
89	0xbc1fbe93	-0.009750026
90	0x3c43cd5e	0.011950819
91	0x429d1de1	78.55836
92	0xbad29da7	-0.0016068713
93	0x429d1a61	78.55152
94	0x429d1b89	78.55378
95	0x3c41cf83	0.01182926
96	0xbc3002b1	-0.010742829
97	0x3beb5153	0.0071813255
98	0x429d14ac	78.540375
99	0x429d1c59	78.55537
100	0x429d1884	78.54788
101	0x3c337624	0.01095346
102	0x3d2d8022	0.042358525
103	0x3d47ad40	0.04874921
104	0x429d1ddc	78.55832
105	0x429d1f08	78.56061
106	0x429d1da5	78.5579
107	0xbc2a0c8d	-0.010378969
108	0xbb511caf	-0.0031907966
109	0x3bd11935	0.0063811787
110	0x39568683	0.0002045874
111	0x429d1c22	78.55495
112	0xbbee6115	-0.0072747567
113	0x3c0d84c5	0.008637612
114	0x429d1fb5	78.56193
115	0x3c1f02e7	0.009705282
116	0x429d161f	78.543205
117	0x429d1d84	78.55765
118	0x429d1f71	78.56141
119	0x429d20cb	78.56405
120	0x429d1265	78.53593
121	0x429d184b	78.54745
122	0xbbce8ed9	-0.00630365
123	0x429d13e9	78.53889
124	0x429d19bc	78.55026
125	0x429d1e9a	78.55977
126	0x429d14a2	78.5403
127	0x429d1b46	78.55327
128	0xbc24b32b	-0.010052483
129	0x3bf808fb	0.00756943
130	0x39bb0c23	0.00035676462
131	0xbbf49ccd	-0.007464981
132	0xbacf3187	-0.0015807607
133	0x3b926ff8	0.004468914
134	0xbb373e7d	-0.002796083
135	0x3c374e5b	0.011188115
136	0x3c1be27b	0.009514446
137	0xbc2721ca	-0.010200927
138	0xbb93d538	-0.0045115016
139	0xbc274ea4	-0.0102116205
140	0xbb785ed1	-0.0037898312
141	0xbbf40dbc	-0.0074479263
142	0xbbc2ecc0	-0.005948633
143	0x3c2503cf	0.010071709
144	0x3b01d1b4	0.001980883
145	0xbc0403c4	-0.008057538
146	0xba2c447a	-0.0006571483
147	0x3bbfa3e5	0.005848395
148	0xbadb7f3b	-0.0016746292
149	0xbc41c02e	-0.011825604
150	0x3bcccedf	0.006250247
151	0xbc6a3495	-0.014294763
152	0xbc0f94c0	-0.008763492
153	0xbbe3981b	-0.0069456226
154	0x3ba22ff0	0.0049495623
155	0x3c34772d	0.011014742
156	0x3c0c9f6c	0.008582931
157	0xb996a74e	-0.0002873488
158	0x3a48f250	0.0007665502
159	0xb6cf22de	-6.17314e-06
160	0xba4b5104	-0.0007755908
161	0x3a40f0d8	0.0007360107
162	0x3c22cbd1	0.009936289
163	0x3b8c42a2	0.004280404
164	0x3993d73a	0.0002819838
165	0xbbd1edd3	-0.0064065247
166	0x3c2aaab5	0.010416676
167	0xbc2ff7cc	-0.010740232
168	0xbc4597b1	-0.012060092
169	0xbc3bc589	-0.01146067
170	0xbc4dacf5	-0.012553443
171	0x3c291b8b	0.010321508
172	0xbb973bdf	-0.0046152915
173	0xbc4d25e6	-0.012521243
174	0xbc39ed3c	-0.011348065
175	0xbb548d34	-0.0032432796
176	0x3bae4f28	0.0053194948
177	0xbc46e06d	-0.012138468
178	0x3c088667	0.008332825
179	0x3ae91afa	0.0017784529
180	0xbc0b2676	-0.0084930565
181	0x3c1e7f2b	0.009673874
182	0xbc6ab161	-0.014324517
183	0x3b8c068a	0.0042732405
184	0x3b68ab42	0.0035502468
185	0x3abe5b9d	0.0014523152
186	0x3c27dd84	0.0102456845
187	0x3bd0a758	0.006367605
188	0x3bc66729	0.006054778
189	0x3b2213a8	0.0024730954
190	0xbc024821	-0.007951767
191	0xbc67340a	-0.014111528
192	0xbbd19c93	-0.006396839
193	0xbc46630c	-0.012108576
194	0x429d08a8	78.51691
195	0x3d984f59	0.07437009
196	0x429d0967	78.518364
197	0x429d042d	78.508156
198	0xbc02f8f1	-0.007993923
199	0x3b16761e	0.0022958587
200	0x429d0583	78.510765
201	0x3da8dc0a	0.08245094
202	0x429d10ee	78.533066
203	0xbbc23e00	-0.005927801
204	0x429d0a89	78.52058
205	0xb8a3cfe7	-7.8111705e-05
206	0x429d07ac	78.514984
207	0x429d07f9	78.51557
208	0x429d05ff	78.51171
209	0x429d0ca1	78.524666
210	0xbac0eea2	-0.0014719556
211	0x429d0901	78.517586
212	0x3bfbf57b	0.0076891757
213	0x429d03f4	78.50772
214	0xbc013218	-0.007885478
215	0x3c3d3567	0.011548377
216	0xba87d452	-0.0010362959
217	0x3c0aa11a	0.008461261
218	0x3b58c761	0.0033077823
219	0x429d0764	78.514435
220	0x3b74d913	0.0037360832
221	0x429d0739	78.51411
222	0x429d0acc	78.52109
223	0x3b0fd79b	0.002194858
224	0xbb9f1e53	-0.00485591
225	0x3bc9af32	0.006154918
226	0x429d0beb	78.52328
227	0x429d07ac	78.514984
228	0x429d0176	78.50285
229	0x3c412a5e	0.011789886
230	0x3e09a36b	0.13441245
231	0x3d76f169	0.06028882
232	0x429d0084	78.50101
233	0x429d0671	78.51258
234	0x429d0b54	78.522125
235	0xbbba2fbc	-0.00568196
236	0xbc3a7619	-0.011380696
237	0x3bb6fa76	0.0055840565
238	0x3c2ef182	0.010677697
239	0x429d0aa0	78.52075
240	0xbc55f2d1	-0.01305838
241	0x3b13ef58	0.002257308
242	0x429d09ad	78.5189
243	0xbb45f172	-0.0030203727
244	0x429d07e6	78.51543
245	0x429d0015	78.50016
246	0x429d0941	78.518074
247	0x429d01c4	78.50345
248	0x429d03ff	78.507805
249	0x429d025e	78.50462
250	0xbbfc2ab2	-0.0076955194
251	0x429d0ad9	78.52119
252	0x429d06bb	78.513145
253	0x429d0597	78.51092
254	0x429d0955	78.51823
255	0x429d0ae9	78.52131

layer3.bias f4 [64]
0	0xba37a017	-0.0007004751
1	0x429a1e27	77.05889
2	0xbbc07313	-0.005873093
3	0x429a346b	77.10238
4	0x4299dc03	76.92971
5	0xbc109978	-0.008825652
6	0xba583c95	-0.00082487735
7	0x4299df5b	76.93624
8	0x4299fa9c	76.98947
9	0x4299adb9	76.8393
10	0xbbb89c67	-0.005633879
11	0xbc1ee62e	-0.009698434
12	0x4299d11d	76.908424
13	0x429a4828	77.14093
14	0xbb5186a0	-0.0031971112
15	0x3c11eed6	0.008907041
16	0xbc48c8c1	-0.012254895
17	0x429a2b9d	77.08518
18	0x429a555f	77.16674
19	0x429a38c9	77.11091
20	0xbc188aad	-0.009310407
21	0x3b574416	0.003284698
22	0x3ac53d0c	0.0015048101
23	0x3bba959a	0.0056941034
24	0x3bdeb0d4	0.006795982
25	0x4299e729	76.951485
26	0xb9ea3aed	-0.0004467586
27	0x3a944b9c	0.0011314037
28	0x3b868408	0.004105095
29	0x3bdba222	0.0067026773
30	0x429a4011	77.12513
31	0x398133e1	0.0002464345
32	0xbc5869fa	-0.0132088605
33	0x429a29de	77.08177
34	0x3b5fbdd0	0.0034140237
35	0x42997871	76.73524
36	0x3b9f1b90	0.0048555806
37	0x3c4814c6	0.012211984
38	0x3b61794b	0.0034404572
39	0xbc180bbc	-0.009280141
40	0x3afd5827	0.001932864
41	0x4299e645	76.949745
42	0x429a4049	77.12556
43	0x429a1564	77.04178
44	0xbb3f9878	-0.0029235166
45	0x3af051b8	0.0018334901
46	0xb8c144a7	-9.215745e-05
47	0x429a4751	77.13929
48	0x39386558	0.00017585361
49	0x429a2fbf	77.093254
50	0xbc4b8212	-0.012421148
51	0x3c3714ff	0.011174439
52	0xbb969933	-0.0045958995
53	0xbc3e54b2	-0.011616873
54	0xbc492b76	-0.012278428
55	0xbc3fb7fe	-0.011701582
56	0x3c535a4a	0.012899945
57	0xbc15d1c6	-0.009144252
58	0x429a47a3	77.139915
59	0xbc35bc12	-0.011092203
60	0x3b22b074	0.0024824413
61	0x3bda3e57	0.0066602635
62	0x429a1c32	77.05507
63	0xbb0d9dd4	-0.0021608965

layer4.weight f4 [290, 64]
0	0xbb2ed7c2	-0.0026678895
1	0x4290c9a3	72.39382
2	0xbb973776	-0.0046147658
3	0x4290c7d1	72.39027
4	0x4290c358	72.38153
5	0xbbaca80c	-0.005269056
6	0xbc5dbdab	-0.01353399
7	0x4290c5e8	72.386536
8	0x4290c493	72.383934
9	0x4290c2cc	72.38046
10	0x3a19a560	0.00058611296
11	0x3bfc88a0	0.0077067167
12	0x4290c38d	72.381935
13	0x4290ccb6	72.399826
14	0x3675c831	3.6624372e-06
15	0x3d947358	0.072485626
16	0xb97bb38a	-0.00024004109
17	0x4290c5f7	72.38665
18	0x4290cb7b	72.39742
19	0x4290c925	72.39286
20	0xbb52ed1e	-0.003218479
21	0x3c3d2f64	0.011546943
22	0x3c5160fe	0.012779472
23	0x3c2a17f1	0.010381685
24	0x39d37233	0.0004033014
25	0x4290c4b4	72.384186
26	0x3bc9813c	0.006149439
27	0xba6cdadd	-0.0009035299
28	0x3bc4d79e	0.006007149
29	0xbc367174	-0.011135448
30	0x4290c8e2	72.39235
31	0xbb80adc8	-0.0039269663
32	0x3c3081c9	0.010773131
33	0x4290c8cf	72.392204
34	0x3c4c3845	0.012464588
35	0x4290c0f8	72.37689
36	0x3c2e918b	0.010654817
37	0x3c4a69dd	0.012354341
38	0xbc9881fe	-0.018616673
39	0xbbea5132	-0.0071507925
40	0x3c4ad759	0.012380444
41	0x4290c3be	72.38231
42	0x4290ccbe	72.39989
43	0x4290c7c3	72.39016
44	0xbba92ef2	-0.005163067
45	0xbd207512	-0.039174147
46	0xbc4a57ee	-0.012350066
47	0x4290c9fd	72.39451
48	0xbbb8db64	-0.005641388
49	0x4290c82b	72.39095
50	0xba2614ca	-0.0006335495
51	0x3d2786ab	0.040899914
52	0xbbed8ecd	-0.007249689
53	0x3b782519	0.0037863909
54	0x3b3a47f1	0.0028424228
55	0xbcc8dc9e	-0.024519261
56	0xbb34419d	-0.002750493
57	0xbbba4bab	-0.00568529
58	0x4290cc69	72.39924
59	0xbba2ddb0	-0.004970275
60	0xbb9fff61	-0.0048827385
61	0x3b164855	0.0022931297
62	0x4290c668	72.38751
63	0x3be386f2	0.006943577
64	0x3bbf063b	0.0058296
65	0x3e7694d3	0.2408021
66	0xbb06813f	-0.0020523814
67	0x3e7d5341	0.2473879
68	0x3e624c91	0.2209952
69	0xbb7c1c11	-0.0038468877
70	0x3b8c92c7	0.004289958
71	0x3e73d609	0.23812117
72	0x3e82b4cb	0.2552856
73	0x3e67d3ad	0.22639342
74	0x3ca5a7ed	0.020221675
75	0xbc2736fe	-0.010205982
76	0x3e715bae	0.2357013
77	0x3e81fe06	0.25389117
78	0x3b91da31	0.0044510593
79	0x3d892483	0.06696417
80	0x38d122c0	9.972369e-05
81	0x3e611cef	0.21983694
82	0x3e836d90	0.25669527
83	0x3e7baa56	0.24576697
84	0xbb51fc8d	-0.00320414
85	0x3c1081c6	0.008820003
86	0x3bbb1fe1	0.0057105874
87	0x3b0b70cf	0.0021276956
88	0xbb081169	-0.002076233
89	0x3e7028c6	0.23453054
90	0xba5445c4	-0.0008097554
91	0x3bfe5839	0.007761982
92	0x3c2c44f3	0.010514486
93	0x3be42646	0.0069625704
94	0x3e71582a	0.23568788
95	0xbc0aa8b9	-0.008463078
96	0x3a8fd63d	0.0010973882
97	0x3e7fa0f9	0.2496375
98	0x3be5f3eb	0.0070176027
99	0x3e6d4a7e	0.23172948
100	0x3c38eca6	0.01128689
101	0xbbccf088	-0.0062542595
102	0x3c56981a	0.013097787
103	0xbb300cc9	-0.002686309
104	0x3c34d688	0.011037476
105	0x3e7fef11	0.2499354
106	0x3e7ca16a	0.2467095
107	0x3e7a8e32	0.24468306
108	0x3c37e4a5	0.011223947
109	0x3c932bbc	0.01796519
110	0x3a483242	0.00076368835
111	0x3e7f26fa	0.24917212
112	0xbc1f117f	-0.009708761
113	0x3e6b2c41	0.229661
114	0xbb803eb4	-0.003913725
115	0x3d69e41b	0.057102304
116	0x3a49b484	0.00076944404
117	0x3bf47644	0.0074603874
118	0xbbab7f2e	-0.005233667
119	0x3cd5f6ec	0.026118718
120	0xbb96502b	-0.0045871935
121	0xbad37cc5	-0.0016135207
122	0x3e7cf35f	0.24702214
123	0x3b4e3be0	0.0031468794
124	0x3b95b48d	0.0045686425
125	0x3c0a2691	0.0084320465
126	0x3e78cb2a	0.24296251
127	0x3a51b867	0.00080001954
128	0x3c19749d	0.009366182
129	0x3e8ff91a	0.28119737
130	0xba1c311f	-0.00059582473
131	0x3e928c3c	0.28622615
132	0x3e99a98d	0.3001217
133	0xbbcc33bb	-0.0062317527
134	0x3c1998cc	0.0093748085
135	0x3e940f2a	0.2891782
136	0x3e92f040	0.2869892
137	0x3e9a9021	0.30188087
138	0x3b4d08f2	0.003128585
139	0x3b73023f	0.0037080196
140	0x3e9b39b8	0.30317473
141	0x3e95c8db	0.29254803
142	0x3b15dfae	0.002286892
143	0x3a89e7b1	0.001052132
144	0x3c1974b0	0.009366199
145	0x3e94eedc	0.29088485
146	0x3e967eea	0.29393703
147	0x3e911311	0.2833486
148	0xbb381c7e	-0.0028093155
149	0xbaaf3255	-0.001336644
150	0x3c1bc271	0.009506808
151	0xbb7e9b2c	-0.0038849814
152	0xb9190fad	-0.00014597057
153	0x3e96711f	0.2938318
154	0xbc09dc8e	-0.008414401
155	0x3bf76dbb	0.0075509227
156	0xbc1c599d	-0.00954285
157	0xb96e3eb5	-0.00022720809
158	0x3e97cd41	0.29648784
159	0xbbc509fe	-0.006013154
160	0xbbf1ec1c	-0.0073828828
161	0x3e97b98f	0.29633757
162	0x3c0abb54	0.008467514
163	0x3eaab313	0.33339748
164	0xbbbe6ff2	-0.0058116848
165	0x3ae4b345	0.0017448446
166	0xbb00a8b4	-0.0019631805
167	0x3c0365a3	0.008019838
168	0x3c399aaf	0.011328383
169	0x3e92f8c9	0.28705433
170	0x3e95f5a1	0.29288962
171	0x3e965eb4	0.29369128
172	0x3c227762	0.009916158
173	0x3c65e365	0.014031266
174	0xbc069590	-0.008214369
175	0x3e9ca761	0.3059645
176	0xba8192d8	-0.0009885682
177	0x3e96b39b	0.29433903
178	0xbbb4c4ac	-0.005516609
179	0x3c26d02f	0.010181471
180	0x3c4676ca	0.012113282
181	0x39bd7141	0.0003613327
182	0xbbf19d4c	-0.0073734876
183	0x3b4c4328	0.0031167958
184	0x3ae30730	0.0017320868
185	0x3bf7bec2	0.007560582
186	0x3e9a6aef	0.3015971
187	0xbbaeef71	-0.0053386022
188	0x3c23e688	0.010003693
189	0x3c415c5b	0.011801804
190	0x3e91a2fb	0.28444657
191	0x3c2b6ede	0.0104634445
192	0xbbc70c0f	-0.0060744355
193	0x3e8350c3	0.25647554
194	0x3bf70bed	0.0075392635
195	0x3e85a2f9	0.261009
196	0x3e82262f	0.25419757
197	0x3b2ef220	0.002669461
198	0x3bb344e7	0.0054708603
199	0x3e82636b	0.25466475
200	0x3e79c7eb	0.24392669
201	0x3e83371a	0.25627977
202	0x3c842df8	0.0161352
203	0xbbe24c6a	-0.006906082
204	0x3e7bb0ef	0.24579214
205	0x3e8556de	0.26042837
206	0x3c2dedc0	0.010615766
207	0x3bcda52a	0.0062757926
208	0xbbbd3211	-0.0057737906
209	0x3e8017c0	0.2501812
210	0x3e79ac6d	0.24382181
211	0x3e7f192a	0.24911943
212	0xbaa296ff	-0.001240462
213	0xb8b42c01	-8.591265e-05
214	0xbb2089af	-0.0024496128
215	0x3a589123	0.0008261373
216	0xbb935119	-0.0044957516
217	0x3e7a053d	0.24416061
218	0x3c4ecf32	0.012622641
219	0x3c238baf	0.009982034
220	0x3c1edb56	0.009695848
221	0xbc024c31	-0.007952736
222	0x3e7b9fcd	0.24572678
223	0x39516a84	0.00019971473
224	0x3c5ad0ee	0.013355477
225	0x3e823ba1	0.25436118
226	0x3b9ddf23	0.0048178597
227	0x3e86e68d	0.2634777
228	0xbbfe8592	-0.0077673877
229	0x395dfd88	0.0002117065
230	0x3b5bdd01	0.0033548477
231	0x3c517bc5	0.012785857
232	0x3c486b62	0.012232633
233	0x3e7f0316	0.24903521
234	0x3e87b1d2	0.26502854
235	0x3e76f953	0.24118547
236	0x3c011481	0.007878424
237	0x3be49898	0.0069761984
238	0x3abc22e4	0.001435366
239	0x3e7d0ab0	0.24711108
240	0x3c2d305e	0.010570614
241	0x3e853ef3	0.2602459
242	0xb9a49f77	-0.00031399328
243	0x3ad8d9c0	0.0016544387
244	0x3bbe7656	0.0058124466
245	0xbc33b79c	-0.010969069
246	0x3c29a8e3	0.010355207
247	0x3bcc10b9	0.0062275794
248	0x3c3423b5	0.010994841
249	0xbc4318d2	-0.011907773
250	0x3e78e14e	0.24304697
251	0x3c57407b	0.013137932
252	0x3bcf2abd	0.0063222335
253	0xbc485590	-0.012227431
254	0x3e856f99	0.26061705
255	0xbbf9afee	-0.0076198494

layer4.bias f4 [290]
0	0x4284d0cb	66.4078
1	0x3e2e3523	0.17012458
2	0x3e8209c1	0.25398067
3	0x3e4d7952	0.20065811
4	0x3f374e44	0.716038
5	0x3dd401be	0.10351895
6	0x3e86a597	0.2629821
7	0x3e6c190c	0.2305643
8	0x4273f3ff	60.988277
9	0x4269de0c	58.466843
10	0x3e78713d	0.24261947
11	0x3e8d09ce	0.27546543
12	0x3e243473	0.16035633
13	0x3f087425	0.5330222
14	0x3e131a2b	0.14365451
15	0x3e897217	0.26844856
16	0x3e0ca6a4	0.13735443
17	0x3ebc2c06	0.36752337
18	0x3f8f0a6e	1.1175058
19	0x3eb7024b	0.35743937
20	0x426cb6ff	59.178707
21	0x3dcbb2ee	0.099462375
22	0x3c001f41	0.0078199515
23	0x3c89dfaa	0.016830284
24	0x3bafc752	0.005364337
25	0x3c292647	0.010324067
26	0x3daaef1d	0.083463885
27	0x3c0116c1	0.00787896
28	0x3e0e8cf6	0.1392096
29	0x40a5dfa6	5.183551
30	0x3dd5e2c0	0.1044364
31	0x3df7e8f3	0.121049784
32	0x3e0ef643	0.13961129
33	0xbbd2186a	-0.006411602
34	0xbc342740	-0.010995686
35	0xbb4def2d	-0.0031423077
36	0xbb73014f	-0.0037079637
37	0x3c989ba9	0.018628912
38	0x3ccb126f	0.024789063
39	0x3d960788	0.07325655
40	0x3dacb478	0.08432859
41	0x3d624a15	0.05524643
42	0x3d9148c5	0.07093958
43	0x3d966c8a	0.07344921
44	0x3ea65b1a	0.3249138
45	0x3c1fa1fb	0.009743209
46	0xbc16a7ac	-0.0091952495
47	0xbc3182a8	-0.0108343735
48	0xbbb79083	-0.005601944
49	0x4006e84d	2.1079285
50	0x3eecb062	0.4622832
51	0xbb8d7292	-0.0043166364
52	0x41d3dfe7	26.484327
53	0x3f09bd43	0.53804415
54	0x3eb8333f	0.35976598
55	0x3c29ab1e	0.010355739
56	0xba4951b0	-0.0007679714
57	0xbc373bc7	-0.011183686
58	0x3c2cad56	0.010539373
59	0x3e9534a9	0.2914174
60	0xbb89f54b	-0.0042101494
61	0x3c1b0cbe	0.009463487
62	0x3b70f6fb	0.0036768306
63	0x3c570b11	0.013125197
64	0xbab3b4dc	-0.0013710517
65	0xbc18a685	-0.009317045
66	0x3c9816b1	0.018565508
67	0x3d0db814	0.03459938
68	0x3d2d4fe3	0.042312514
69	0x3d70d72f	0.058798965
70	0xbc13c601	-0.009019376
71	0x3d6ea0e6	0.058258913
72	0x3d7f9141	0.062394384
73	0x3bd39ba9	0.006457765
74	0xbc0cc5f0	-0.008592114
75	0xbc222e75	-0.0098987715
76	0xbb7ffd4d	-0.003906089
77	0xbc4edf6f	-0.012626513
78	0xbc395bec	-0.01131342
79	0xbb53d317	-0.0032321864
80	0x3cd5f7b5	0.026119092
81	0x3d146e92	0.03623826
82	0x3c4c4aff	0.012469052
83	0x3ecdad6c	0.40171373
84	0x41ec400b	29.531271
85	0x3f1bfbc5	0.60931045
86	0xbbe95670	-0.0071209
87	0xbb8b4f5e	-0.0042514047
88	0xbc0a49c0	-0.008440435
89	0x3f528540	0.82234573
90	0x3af2fb48	0.0018538022
91	0x3c7213b5	0.014775206
92	0x3c3682d7	0.011139593
93	0x3b125bf8	0.002233265
94	0xbc346ff0	-0.011013016
95	0x3b25c0ba	0.0025291876
96	0xbc4b983e	-0.012426434
97	0xbb99eada	-0.004697186
98	0xbbbccf4f	-0.005762018
99	0x39864218	0.00025607715
100	0x3c2850f4	0.010273207
101	0xbb9fc7c6	-0.00487611
102	0x3ba9cf34	0.0051821712
103	0x3d9f2c57	0.07772129
104	0x3a9345ec	0.0011236048
105	0x4099b543	4.8033767
106	0x3ec9ced6	0.39415616
107	0x3b903140	0.0044004023
108	0x3ac6c1b2	0.0015163927
109	0x3e028d16	0.12749133
110	0xbc55ad3e	-0.013041792
111	0x41cad27b	25.352774
112	0xbc3a4a26	-0.011370217
113	0xbc41398e	-0.011793507
114	0xbb13be39	-0.0022543801
115	0x3afd6751	0.0019333159
116	0x3bee5652	0.007273474
117	0xbc24499d	-0.010027316
118	0xbaf5469d	-0.0018713061
119	0x3bf05269	0.007334043
120	0xbabae673	-0.0014259353
121	0x3cbe9431	0.023264023
122	0xba8cd50f	-0.0010744649
123	0x3d72f00c	0.059310958
124	0x3bc024dd	0.0058637694
125	0x3d88488a	0.06654461
126	0xbc4bf81b	-0.01244929
127	0xb78d9ae4	-1.6880636e-05
128	0xbc1f8b67	-0.009737826
129	0xbb63928c	-0.00347248
130	0x3bd7f9cc	0.0065910574
131	0xbc2d084a	-0.010561058
132	0x3c44b8d3	0.012006956
133	0x3b9c2ea6	0.004766303
134	0x3b8e2f5e	0.0043391427
135	0x3c2aa6dc	0.010415759
136	0x3c4fb598	0.012677573
137	0x3bda7580	0.006666839
138	0xbb2c3a4a	-0.002627986
139	0xbc24332c	-0.010021966
140	0x41ee0dba	29.756702
141	0xbc518f17	-0.012790463
142	0xbc3f7340	-0.011685193
143	0x3f5bf3e5	0.8591903
144	0x3bcc5ca6	0.0062366305
145	0x3bbca28d	0.0057566823
146	0x3b195281	0.0023395123
147	0xba04ca45	-0.0005065541
148	0xbc16e830	-0.009210631
149	0xbc03c73f	-0.008043109
150	0xbc0c785a	-0.008573616
151	0xbb84d0b4	-0.0040531997
152	0x3c012348	0.007881947
153	0x3c06b0c5	0.008220856
154	0x3c04196c	0.008062702
155	0x3c19a091	0.009376661
156	0xbb79f1fc	-0.0038138619
157	0x3c131767	0.0089777475
158	0x3b5d0524	0.0033724988
159	0x3d4deeef	0.050276693
160	0xbc2b5d9f	-0.010459333
161	0xbc2ef22b	-0.0106778545
162	0x3c11da18	0.008902095
163	0x3c075c98	0.008261822
164	0xbbd97257	-0.006635945
165	0x3f17ead4	0.59342694
166	0xbbc14733	-0.00589838
167	0xbc44488e	-0.011980189
168	0x3becfe4f	0.0072324644
169	0xbb08975c	-0.002084217
170	0x3c0af362	0.008480879
171	0xbc42c0f7	-0.011886827
172	0x3bb35dcc	0.005473828
173	0x3b639e8d	0.0034731955
174	0x3c15d847	0.009145803
175	0xbc2cc084	-0.010543946
176	0xb9e5740e	-0.0004376475
177	0xbbbb6386	-0.005718651
178	0xbc56b464	-0.013104532
179	0xbba5cef9	-0.0050600735
180	0xbc2daca5	-0.010600244
181	0xbc39babb	-0.011336024
182	0x3b9718dc	0.0046111178
183	0x3c4baf0f	0.012431874
184	0xbb6fc598	-0.003658628
185	0x3b5c1e69	0.0033587462
186	0xbc386c87	-0.011256344
187	0x3c389624	0.011266265
188	0xbbfa2368	-0.0076336153
189	0x3c1a7901	0.009428264
190	0xbb62c22f	-0.0034600606
191	0xbbf70284	-0.0075381417
192	0x3c0322fb	0.008003945
193	0xbb53bf24	-0.0032309974
194	0x3f40ebfc	0.75360084
195	0xbbc04e58	-0.0058687143
196	0x3c07c7fc	0.008287426
197	0x3c4de504	0.012566809
198	0xbb77b464	-0.003779673
199	0xbc150836	-0.009096196
200	0xbb59ebd7	-0.0033252144
201	0x3e4a5216	0.19757876
202	0x3cc032b6	0.02346168
203	0x3c23c41d	0.0099954875
204	0x3bee1617	0.007265817
205	0x3c3bbf2e	0.011459155
206	0xbc2d5c19	-0.01058104
207	0xbbaa1986	-0.005191031
208	0xbb9ca398	-0.004780244
209	0xbc391ed3	-0.011298853
210	0xbb01ad51	-0.0019787143
211	0x3c9c5137	0.019081695
212	0x3c0c62b8	0.008568458
213	0x3bae0615	0.0053107836
214	0xbad3d7fb	-0.001616239
215	0x3bd5a0b1	0.0065194
216	0xbbc85a8a	-0.0061143087
217	0xbc3573b1	-0.011074946
218	0xbc028ce8	-0.007968165
219	0x3c2120d8	0.009834491
220	0xbbca9921	-0.006182805
221	0x3c256cdd	0.010096756
222	0x3bf63a7e	0.007514297
223	0x3c86b95a	0.016445804
224	0x3c0f3862	0.00874147
225	0x3c534aee	0.012896283
226	0xbb4e1d95	-0.0031450738
227	0x3d8fb837	0.07017558
228	0xbbc61a52	-0.006045618
229	0x3dc93211	0.098240025
230	0x3ddfdbdc	0.10930607
231	0x3dbe372f	0.09287869
232	0x3d83292b	0.064043365
233	0x3bb1fded	0.0054318816
234	0xbb90909f	-0.0044117714
235	0x3c7e02be	0.0155035835
236	0x3f054020	0.5205097
237	0x3e5b3675	0.21407492
238	0x3e1ee9bd	0.15518852
239	0x3d8e2c28	0.06942016
240	0x3d651695	0.05592974
241	0x3d5fa956	0.05460485
242	0x3e1bae65	0.15203245
243	0x3e0f4aa0	0.13993311
244	0x3e396f42	0.18108848
245	0x3c5b4a2c	0.013384383
246	0x3ded17b6	0.11576788
247	0x3eec84b3	0.4619499
248	0x3dc7ba00	0.097522736
249	0x3e1fce07	0.15605937
250	0x3ddf14e6	0.10892658
251	0x3ebcb76f	0.368587
252	0x3e89fc9c	0.26950538
253	0x3d86e729	0.06587059
254	0x3e0b8bb1	0.13627507
255	0x3da09dd4	0.07842603
