catanatron_experimental/my_DQN_wyniki2/my_DQN2_100_steps.pth (torch, 268915 bytes, 8 tensors)

layer1.weight f4 [64, 614]
00000000: fa7a b13c c548 153c b3d6 10bd 67bb ce3c
00000010: 460c 09bd 059a f4ba 7bdb c5bc 4bab c73a
00000020: 6d37 63bc e676 bfbc 89d5 793c 3780 643c
00000030: a7b2 053d 877c a43c b4d7 863c 8dd7 3bbc
00000040: 5b22 0dbc d493 f03c fdfc 0bbd cee1 053b
00000050: 056c 9dbc 2954 f8bb 3f33 6ab7 bc0f 303c
00000060: 1a66 ee3c 46ef ee3c edcb e13c 983a 113c
00000070: e220 24bb dac8 90bc 989e 313c bfa5 bb3c
00000080: fc9e 66bb 4dd5 9e3b 10b4 123c c5db ea3c
00000090: c6e3 07bd d2c1 5a3c b4ab 97ba d345 94bc
000000a0: 969a 45bc f96d d03c a772 263b 044e b4bc
000000b0: 424f a8bb 29c6 ce3c 5b80 7d3c 41a3 1cbc
000000c0: 6ed1 ad3a 40fb 8cbb 6c43 ef3c 950d 62bb
000000d0: dba7 263c ab38 843c 32bc ffbb 9d5a 443b
000000e0: 5300 173c dcbe 3dbc 4e59 c93c 1b1e 2bbc
000000f0: c527 803c 4cbc e73b d382 4d39 11b4 90bc
00000100: 22cb 80bc bb82 01bd c3f5 b73c b7da 833c
00000110: 4d7a 73bc ffa7 c03b 95da 993c 043b ca3c
00000120: 2557 04bd c718 043d d9b0 03bc ad2b a83c
00000130: fd55 afbc 9b61 a4bc b1b0 e2bc 2e28 05bd
00000140: 24b2 633b db78 8a3c 0d1d 263c 05fc aebc
00000150: 87da e2bc d6dd f73a 0605 14bc 2790 f7bc
00000160: ee4c 96bb 5de9 c1bc 8b28 90bc 3316 cbbb
00000170: 673f fe3b 7c56 ecbb 9e66 1ebc fa63 333c
00000180: 95a5 e03c e6c2 da3a 89a3 f3bc 4f04 9b3c
00000190: a10a 473c 1a0a b2bc 66be debc daa6 9abc
000001a0: 5136 a03c cd26 6bbc 8aca fe3c d76c 883c
000001b0: c724 f53a 380b 333c b17a b9bc 9bc8 8b3c
000001c0: cf27 873c 8afc efbc 800a adbc a4a9 b2bc
000001d0: e784 bbbc 519d 37bc f135 5dbc f0f4 dc3c
000001e0: ee37 4c3c e298 1d3b db39 d3bc b750 e53c
000001f0: 9065 afb9 4359 92ba 0733 103c 73fe 57bc
00000200: 0a4c 3e3c 0319 0cbc 471f e83a 9c2c ab3c
00000210: 9c69 fd3c bc94 21ba 41ac 023d 6a3d a2ba
00000220: 9185 b03c 6b9c 41bb 8bfb 883c 04e1 9cbc
00000230: 19c1 cdbc 84fc 88ba fd5b d4b8 a000 8e3b
00000240: dae8 e13c 8ee7 7cbc 0d3f 20bc df80 d63c
00000250: 9d96 0fbb 681f 8cba a4ae 24bc c4a6 a93c
00000260: 1f52 003d 3730 46b8 b38c c43c f05e 343c
00000270: a20c 50bc cbb6 fcbc e769 9c3c 7f84 ea3b
00000280: a04d dcbc 00d8 5d3c 5422 9fbc 7725 37bb
00000290: c04b b5bc c1a1 d3bc ebf7 7bbc c660 4f3b
000002a0: a011 28bb 7622 fd3b 27b0 cdbc b10f 013d
000002b0: e842 cabc c6d2 fd3c e037 8cbb fd5b 94bc
000002c0: 7769 90bc 7906 a0bc b9dc 833b 085c 2d3c
000002d0: a282 c13b 61ec b73c 1e0c 95bc fe06 edbc
000002e0: a8c0 8d3c 460f b2bc 7aca 5a3c d1e1 87bc
000002f0: 905b d63c ce59 b9bc fa90 febc a3f1 333c
00000300: f105 99bc 5ee3 863c 125e d13c 57bc ef3c
00000310: f34d 64bc e51c 90bc 3bfd 01bd 7930 e2bb
00000320: 806c c33c c530 9a3c 81ee aabc b809 e63b
00000330: a180 3c3b b720 6dbb 4f93 d7bc 8750 bb3c
00000340: 2005 883c 42ce ea3c e6b2 c13c b83e af3c
00000350: 3f4c 543c c905 fdbc 5434 94bc d0df edba
00000360: fe08 b43c ca23 94bb fd79 8abc eb32 9d3c
00000370: de69 fb3c 8423 3fbb 8c6f c8bc c962 0ebb
00000380: cf2d b7ba a3f1 9ebc 6e31 133c 0a4a 2bbc
00000390: 8e8a acbc e741 70bc 9726 853c 4d63 7cbc
000003a0: 69b4 5dbc 2a0c f7bb e565 58bc d159 053d
000003b0: 67c0 063a 4342 1dbc 0d3f a8ba 0240 bfbc
000003c0: 4929 e53c ee4c e63c e17f 503c 590b 213c
000003d0: 7a4a 753c 3e1f 63bc 5350 1b3c 9b95 38bc
000003e0: fb10 f33c c3c9 babc 54e4 f63c 48aa 8f3b
000003f0: 14a0 dcbc 4373 993c 1acd b53c 6db4 7a3c
0.021665085 0.009111588 -0.035361003 0.025235845 -0.03345897 -0.0018661624 -0.024152508 0.0015233544
-0.013868195 -0.023372125 0.015248665 0.013946584 0.03264108 0.02007891 0.016460277 -0.0114649655
-0.008614148 0.029367365 -0.034176815 0.002042878 -0.019216547 -0.007578392 -1.39594185e-05 0.010745939
0.02910142 0.029166829 0.02756306 0.0088640675 -0.0025044014 -0.017673898 0.010841034 0.022906182
-0.0035189977 0.004847205 0.008954063 0.028669247 -0.033176206 0.013351874 -0.0011571557 -0.018099701
-0.012060782 0.025443064 0.0025397928 -0.022009857 -0.0051364014 0.025240975 0.015472497 -0.009560407
0.0013261267 -0.0043024123 0.029206954 -0.0034492959 0.010171856 0.016140303 -0.007804417 0.0029961236
0.009216386 -0.011581149 0.024578717 -0.010444189 0.015643964 0.0070720073 0.0001959906 -0.017663987
-0.015721861 -0.031618815 0.022456056 0.016095502 -0.014860702 0.0058794017 0.018780986 0.024686344
-0.03230967 0.032250192 -0.008037769 0.020528639 -0.021403307 -0.020066073 -0.027672144 -0.03250902
0.0034743631 0.016903332 0.010138762 -0.021360407 -0.027692093 0.0018910717 -0.009034401 -0.030220104
-0.0045868075 -0.023670847 -0.017597457 -0.0061977147 0.007759023 -0.007212458 -0.0096680205 0.010949129
0.027422706 0.0016690164 -0.029741066 0.018922953 0.01214853 -0.021733332 -0.027190398 -0.01887839
0.01955715 -0.014352513 0.031102438 0.016653461 0.0018702977 0.010927968 -0.022641512 0.01706343
0.016498474 -0.029295225 -0.02112317 -0.021809407 -0.022890521 -0.011206941 -0.01350163 0.026972264
0.012464507 0.0024047424 -0.025784424 0.02799259 -0.0003345427 -0.0011165518 0.008801228 -0.013183224
0.011614809 -0.008550885 0.0017709517 0.020895295 0.030934148 -0.0006163826 0.031902555 -0.0012377922
0.021548064 -0.0029542695 0.016721508 -0.019150265 -0.02511649 -0.0010451232 -0.00010126082 0.0043335706
0.027576853 -0.015436066 -0.0097806575 0.026184497 -0.002190984 -0.0010690512 -0.010051403 0.020709403
0.031328317 -4.7251782e-05 0.023992872 0.011008963 -0.012698324 -0.030848881 0.019093467 0.007156908
-0.026892483 0.013540268 -0.019425549 -0.0027945915 -0.022130847 -0.025833966 -0.0153789325 0.0031643375
-0.002564527 0.0077250553 -0.02510841 0.031509105 -0.024690107 0.030984294 -0.0042791218 -0.01811027
-0.017628415 -0.019534336 0.004024115 0.010581024 0.005905465 0.022451581 -0.018194254 -0.028933998
0.01730378 -0.021735799 0.013353938 -0.01658717 0.026166707 -0.02262583 -0.03107499 0.010982904
-0.01867959 0.016465839 0.025557552 0.029264612 -0.0139346 -0.017591903 -0.03173564 -0.006902751
0.023855448 0.018822083 -0.02086568 0.0070202015 0.0028763192 -0.003618283 -0.02631536 0.022865547
0.016604006 0.028662805 0.023644876 0.021392211 0.012957632 -0.030886548 -0.018091358 -0.0018148366
0.021976944 -0.004520868 -0.016903872 0.019189319 0.03069013 -0.0029165456 -0.024467252 -0.002172636
-0.0013975444 -0.01940233 0.008983953 -0.010454664 -0.021062162 -0.01466415 0.016253753 -0.0154045345
-0.013531783 -0.007539292 -0.013207887 0.03255636 0.00051403645 -0.009598318 -0.0012836173 -0.023345951
0.027973788 0.028112855 0.012725801 0.009829366 0.01497137 -0.013862429 0.0094796 -0.0112661375
0.029671183 -0.022801286 0.030138172 0.004384313 -0.0269318 0.018731719 0.022192527 0.015301806

layer1.bias f4 [64]
00000000: e937 ac3c 34eb cc3a 2c41 9cba 5d6b 463f
00000010: 9640 16bd 6391 313f 4415 1cbd 6367 3c3f
00000020: 7ee3 bb3c b362 443f 6c2c 313f c619 443f
00000030: b65c c8bc 5881 163c 7a70 293f 5b2e 023f
00000040: 7d95 3f3f daff 333f 8115 463f f19d ef3c
00000050: e7d7 1d3f cbc7 393f 39ff 313f c885 64bc
00000060: 1f36 6aba 5bfc 3d3f e543 c0bc 3113 473f
00000070: 9e68 de3b 3176 e23c 2968 e1bc 6a38 bebc
00000080: 0c68 3b3f ee4f c9bb 6680 b23c aac1 433f
00000090: 80db 323f 9419 3b3f 7de9 3d3f 6a15 9f3b
000000a0: a683 0d3d a1a2 d3bb 8138 3c3f d507 13bb
000000b0: 31c6 3fbb 68ca 6cbc 5eba ccbc b800 46bc
000000c0: 0292 373f e10d 543c c1b6 9dbb 5882 0ebd
000000d0: ef81 303f a4d0 363f 42a9 343f 79cf 2e3f
000000e0: 777a d73b 85e7 74bc 7330 debc 49e8 353f
000000f0: d04e 3d3f 3903 3d3f 012b 3b3f a402 2f3f
0.021022754 0.0015634061 -0.0011921278 0.77507573 -0.036682688 0.6936247 -0.038106218 0.73595256
0.022935625 0.76713103 0.6920841 0.7660183 -0.02445827 0.009186111 0.6618725 0.5085198
0.74837476 0.70312274 0.7737656 0.029250117 0.61657566 0.72570485 0.69530064 -0.013947912
-0.0008934456 0.7421319 -0.023469875 0.7776366 0.0067873737 0.027644249 -0.027515488 -0.02322026
0.7320564 -0.0061435616 0.02178974 0.7646738 0.6986618 0.73085904 0.741844 0.0048548477
0.034549378 -0.006458596 0.7352372 -0.0022435088 -0.0029262418 -0.014452554 -0.02499121 -0.012085132
0.71707165 0.012942762 -0.0048130457 -0.034792274 0.6894826 0.7141211 0.70570767 0.6828533
0.0065758782 -0.014947777 -0.027122712 0.71057564 0.73948383 0.7383304 0.73112494 0.68363404

layer2.weight f4 [64, 64]
00000000: e01a 83bc 5459 2cbb b29e 063c 0daf 6f3d
00000010: 16a8 33bd 3cd5 8d3b 46e2 aabd ddee a83d
00000020: 8afe f6bc 786a 723b ae85 9fbd c10c 5e3d
00000030: 2a71 66bd 8a8c 893d 3942 933a a40b 123d
00000040: b7cc 743d 1573 6a3d 3820 db3b ba48 cd3b
00000050: 46d3 afbd ddae 2ebd 7c8a 603d 16b2 393d
00000060: b656 873d 63dd 30bd bd56 593d 9f74 d5bd
00000070: 3b63 c4bd c140 873c baef 8ebd 6abd ccbd
00000080: bea3 86bd b69d 233d c4e6 69bd 8a51 f6bc
00000090: c1ad 813d 87e8 61bd 0101 80bd ec44 50bd
000000a0: 0ee5 9d3d 96ee 8a3d c2d6 be3d bdb0 fe3c
000000b0: 8f4f f3bc de77 e93d 51da b23d 79af b83c
000000c0: 2b24 dcbd f2b7 873d bd7f 88bc c2f3 853d
000000d0: 53e4 673c 10cc cfbc 5f0d f8bd fe60 9b3b
000000e0: 7b08 29bd ff47 bbbd 6a15 b23d bb04 973d
000000f0: ae81 b6bd a653 98bd 811d 023d f144 b3bd
00000100: 75ba 9b3c 57ed 123d 24d9 babc cd92 8bbd
00000110: 8439 11bc b544 56bd ebe9 49bc e93e 6fbd
00000120: 8e1a 90bd e6d7 2a3c 9765 923d c7ac c13d
00000130: a2c7 9cbc 09a0 a03d 35d6 08bd b138 9c3d
00000140: a324 3ebd 5b7e 473d ddeb 24bd d2ed a93d
00000150: bdb1 59ba 5d3f c8bd a52a 443d f0e5 573d
00000160: 6a03 f4ba e071 11bd de13 27bd 4832 00bd
00000170: ff81 613d 5e34 a6bd d75e 00bd 6957 50bd
00000180: 1ffd 0abd b906 26bd 647b 403d 230a 70bd
00000190: 287c b1bd 9ec9 ccbd c68c d3bd 26e5 86bc
000001a0: 54e8 90bd 32e7 9bbd 4705 af3d 04b5 ac3d
000001b0: 7c7b bbbc aac2 bdbd 8a4d 45bd 5e97 823c
000001c0: 2c32 4d3d 2bd1 03bc 2a8d 24bd 3a08 b93d
000001d0: 0e8e b43d f1f0 023d 4965 f4bc 7c4c 15bd
000001e0: 418f 243d 4c97 973b b838 d9bc cf20 833d
000001f0: 0bb4 6ebd f767 be3d a2a9 623c 19d3 a93d
00000200: 798f 583c 4ae4 913d 9547 a13d 474d 333f
00000210: 43b8 75be ea98 303f b0dd 1fbd b018 373f
00000220: 2021 8bbb cd9a 453f a410 623f 3c1f 383f
00000230: 2296 53bd 245b c3bf 029e 4a3f ba6d 453f
00000240: 62bd 663f ba0e 463f 9375 393f 5c67 343d
00000250: f812 973f fe42 423f f4de 5b3f 939a 84bd
00000260: 1f5d a23d c069 633f 19b2 0dbf ba6c 3c3f
00000270: a65a c93d e01c 23bd 1479 d6bc 35d1 bfbc
00000280: e3ba 713f e6d9 50bd 3e6e 863d de7f 3e3f
00000290: 224b 613f 7242 6f3f 88d0 623f 355f 65bc
000002a0: 9ba6 f9be d84f 2c3d f97a 3b3f 67e8 fcbe
000002b0: 14ce 87bc d9e9 d03d 2b03 04bc 69be 8abb
000002c0: b604 5c3f b8f2 7cbd 1978 c7bd c9b0 6f3d
000002d0: 81f7 6b3f d469 5a3f f960 2d3f f267 6b3f
000002e0: f6ce aabd 1162 9cb9 fc03 fabd 1488 4a3f
000002f0: fb6d 503f a402 713f 4bf9 563f dcfe 613f
00000300: df65 9a3d 0f16 cabd 568b 9cbd 109a 28bd
00000310: 72f1 673f 7e31 113e a8e7 d73c 1a43 a3bd
00000320: f3c5 8dbc e544 083d 1479 893d 846e 9ebd
00000330: 7bb3 063d c284 21bd d9e7 3c3d 0057 ab3e
00000340: 92f5 903d 7b39 b2bd 9ef1 8a3d cbbf 97bd
00000350: 1cf6 98be ca23 8cbe 0415 f63a f737 143d
00000360: 0977 adbd adc0 b3bd 3f3c 63be c087 a73d
00000370: 1118 4b3d d2b3 893d f7ef 2d3d 79ee 8dbd
00000380: 0c91 86be 2fa1 bb3c b3b2 0f3d 65b4 733d
00000390: 4276 f9bd 107d 0e3d b863 1fbd 3e97 54bd
000003a0: aa40 b9bd 79be 343c 173e 96bc 9bcb 123f
000003b0: 0ed0 bdbd efc0 b73e bdd5 dcbc 2f2f cbbd
000003c0: a71b 27bd c8d3 08bd f20b 25bd 256d 383d
000003d0: 8a8d 4ebe d4b8 7e3d 52bd 1cbd a9ac 3f3e
000003e0: 610e 95bd 81fb a33d bb77 90bd 76c9 91bd
000003f0: ce52 bcbb ddf8 743d eec2 a3bd 5c34 edbd
-0.016004026 -0.002629836 0.008216547 0.05851655 -0.04386147 0.004328398 -0.083439395 0.082486846
-0.03015067 0.003698973 -0.07789169 0.05421138 -0.056260265 0.06716259 0.0011234946 0.035655633
0.059765544 0.057238657 0.0066871904 0.006264773 -0.08585219 -0.04264723 0.05481957 0.04533585
0.06608336 -0.04317988 0.053061236 -0.10422634 -0.09589239 0.01651037 -0.06979318 -0.09997065
-0.065742 0.039945327 -0.05710484 -0.030068178 0.06331969 -0.055153396 -0.062501915 -0.05084698
0.07709704 0.06783788 0.093183056 0.031090135 -0.029701022 0.11399816 0.08733047 0.02254461
-0.10749086 0.06626882 -0.016662473 0.06540634 0.014153558 -0.02536586 -0.12111925 0.004741787
-0.041267853 -0.091445915 0.08695491 0.07373949 -0.08911453 -0.0743783 0.03176642 -0.08753384
0.019009808 0.035870876 -0.022808619 -0.068151094 -0.00886381 -0.052311618 -0.012323837 -0.058409605
-0.07036315 0.010427451 0.07148283 0.09456783 -0.019138161 0.07843024 -0.03340741 0.076280005
-0.04642166 0.048704486 -0.040264 0.08297314 -0.0008304378 -0.097777106 0.04789223 0.05270952
-0.001861674 -0.03550899 -0.04079043 -0.031297952 0.055055615 -0.08115457 -0.031340446 -0.05086461
-0.0339328 -0.040533755 0.046992674 -0.058603417 -0.08666259 -0.09999393 -0.10329585 -0.016466688
-0.07075563 -0.076124564 0.085459284 0.084329635 -0.02288603 -0.09265645 -0.04816965 0.015941318
0.050096676 -0.008045475 -0.040173687 0.09034772 0.08816157 0.03196806 -0.029833453 -0.036449894
0.04017568 0.0046261903 -0.026516303 0.06402742 -0.05827717 0.092971735 0.013834389 0.08292217
0.0132178 0.07123621 0.07874981 0.7003979 -0.23996072 0.6898333 -0.039029777 0.71522045
-0.004245892 0.7718933 0.8830664 0.7192266 -0.05165685 -1.5262189 0.7914735 0.77120554
0.90132725 0.7736622 0.7244503 0.044043884 1.1802664 0.7588347 0.85887074 -0.06474795
0.07927918 0.88833237 -0.5534988 0.73603404 0.09831743 -0.03982246 -0.026180781 -0.023415187
0.9442579 -0.050989054 0.06563996 0.7441386 0.8800527 0.9346076 0.88599443 -0.01399975
-0.48759922 0.042068332 0.73234516 -0.4939606 -0.016577758 0.10200853 -0.008057396 -0.0042341244
0.8594469 -0.061754912 -0.09739704 0.058518205 0.92174536 0.8531773 0.67726094 0.9195548
-0.08340256 -0.00029827704 -0.12207791 0.7911389 0.81417817 0.94144654 0.8397414 0.8827951
0.075389616 -0.098674886 -0.07643764 -0.04116255 0.9060279 0.14179036 0.02635558 -0.07971783
-0.017306304 0.033268828 0.06712547 -0.07735923 0.03288601 -0.03943325 0.046119545 0.33464813
0.07078089 -0.0870237 0.06784366 -0.074096285 -0.29875267 -0.27371055 0.0018774574 0.036186185
-0.0846997 -0.08776984 -0.22190951 0.08180189 0.0495835 0.06723751 0.042465176 -0.06930251
-0.26282537 0.022904007 0.03508253 0.05949821 -0.12180759 0.034787238 -0.03891346 -0.05190205
-0.09045537 0.01103174 -0.018340154 0.5734193 -0.09268199 0.35889384 -0.026957387 -0.09921109
-0.040797856 -0.033405095 -0.040294595 0.045025963 -0.2017118 0.062187985 -0.038266487 0.18718208
-0.07278133 0.08006955 -0.07054087 -0.07118504 -0.005747176 0.059807647 -0.07996164 -0.115822524

layer2.bias f4 [64]
00000000: 6fca 87bd c7ff 953d 672d 2c3f 0106 fcbb
00000010: 7b01 263f 4a5b 2d3f 61e4 ddbd bd4e babd
00000020: b1a5 443f 19b7 1fbd d5a8 303f 7cce a0bd
00000030: a0c6 273f 5132 c23d 1698 393f e1c8 143f
00000040: 476a 253f 8fb5 413f 3ddb aabc e898 313f
00000050: fe46 5e3d c6aa 223f 5bfc bb3c bd74 8ebd
00000060: f446 ddbd e1cc bbbd edcf 82bd 73db 1a3f
00000070: 10bf c9bd 1561 453f f0e1 413f 8e10 923d
00000080: 0d7c 4f3d 746e b8bd 4fc6 303f 23d1 153f
00000090: 4014 323f 780d 583d cf0e 94bb 47d7 1dbc
000000a0: d50d 123f b5df 1c3f bf20 373f b7bd b4bb
000000b0: 00d9 203b 43e3 a4bd 12b5 c7bd 9db3 293f
000000c0: b200 b9bd 5c64 c3bd 13d1 283f 3c28 333b
000000d0: cdf2 2a3f 630f 303f 6261 183f a2ec 2e3f
000000e0: d4a3 433f beeb 1c3f ea6d 26bd 7968 343f
000000f0: 20a4 1c3f e0cd 383f 3a6d 403f 1401 3a3f
-0.06630408 0.07324176 0.6725678 -0.0076911454 0.6484601 0.6771742 -0.108345754 -0.090970494
0.76815325 -0.038992975 0.6900762 -0.07851884 0.6553745 0.09482253 0.7249769 0.58119017
0.6461529 0.7566766 -0.020856494 0.6937394 0.054266922 0.6354183 0.02294748 -0.0695586
-0.10804549 -0.09169937 -0.06387315 0.604911 -0.098508954 0.7710126 0.7573538 0.07132064
0.050655413 -0.09005442 0.69052595 0.5852224 0.6956215 0.05274722 -0.004518367 -0.009633846
0.57052356 0.6127885 0.7153434 -0.00551578 0.0024543405 -0.08051159 -0.09751333 0.66289693
-0.09033336 -0.095406264 0.6594402 0.0027337214 0.66776735 0.6877348 0.59523594 0.68329823
0.76421857 0.61297214 -0.040632166 0.7047191 0.61187935 0.7218914 0.75166667 0.72657895

layer3.weight f4 [64, 64]
00000000: 70e5 4d3d b6c9 d3bd e1fb e7bd bd82 bdbd
00000010: bc02 823b be22 e3bd 022c d43c 1521 12bd
00000020: 1ab7 9abc e56a d1bc 7991 a7b9 28f9 a0bd
00000030: 3698 cebd 077c e23c cbb9 a83b e723 07bd
00000040: 7fe9 5d3c a7a8 703d 8764 8d3d 8e2a cdbd
00000050: fed2 5dbd 145f 293e 082f 5dbd 355c e13d
00000060: 0b81 a1bd 7ef9 1dbd 41c7 bcbd bbbc c13d
00000070: b9b5 073b 6338 a4bd d3bd fd3c a17d 9f3d
00000080: 5a59 c13c 3e86 c0bd 4984 b3bd 4c38 013d
00000090: d306 153d 646f 16bd fd88 a23d 0f72 c03d
000000a0: 2845 a23d bc6e 4e3d 19c3 703d c78c 83bd
000000b0: 1cf3 933d e25b 083d fa9c a4bc 85a6 a93d
000000c0: cee6 8abc 33f9 7a3d 18b1 313d f9eb a4bd
000000d0: 2f09 f33c 97e3 4cbd 1090 5d3d 803c 9dbd
000000e0: 1d47 cebd 97cd a73d a75f 2abd 8e5b c2bd
000000f0: 55e2 66bd 5289 8fbd ccfe 843d 5b78 9bbd
00000100: b817 92bd a33c 9bbc a7cf 403f 4f5b 253f
00000110: 8310 443f 3975 233f 09c1 a8bd dabc 9d3d
00000120: cd16 213f e4e5 69be ae1e 203f 64bf 93bd
00000130: c93b 443f 3b89 3cbc 40bd 383f dcab 463f
00000140: 34cb 2a3f 757b 243f 3f94 de3d 69cb 2c3f
00000150: bbe8 0e3d 6a76 423f 93f2 8c3d cd4e 51bd
00000160: 3e03 ae3c 054b 99bd 75e4 bb3d 2228 433f
00000170: 641b 4abc 954d 353f c8e6 393f dbfb b93d
00000180: 7de5 a8bd 64ce 613d 9bc9 1e3f 2f0b 3d3f
00000190: 110a 2e3f 1235 ac3d 367f a63e 839c bf3e
000001a0: dc2a 433f 1ad7 473f c24d 423f 3c2e a3bd
000001b0: f2aa c8bc a0a7 483d 7bdb cd3a ce30 3c3f
000001c0: 1dde 66bd 4dcb 873d 1266 4a3f 2894 983d
000001d0: a29b 243f 16c1 413f b472 493f 59b7 4e3f
000001e0: beb7 153f c829 2d3f bd36 46bd 7ae4 1b3f
000001f0: 48b5 323f 5a1c 463f bebd 1e3f bbe0 383f
00000200: c40e 9ebd 9302 6e3d bf7d 333b 37bb 6abd
00000210: 12d3 46bc 3683 0c3d f7d6 afbc 1fe6 af3d
00000220: da97 953d 035f a0bd 8ade 0dbd e089 a0bd
00000230: 9b55 eebc eb30 6abd 390d 3bbd 785b 9e3d
00000240: 091e 793c c15b 7dbd c24f a5bb d8e5 373d
00000250: 47a1 52bc 2aed b9bd 4a89 443d 16bf e0bd
00000260: a0c9 89bd 1266 5abd dda1 1b3d 442d ad3d
00000270: 0ef3 863d 088f 10bb 47d4 c03b f3c4 46b8
00000280: b01a c3bb 1626 b93b f435 9c3d 939b 063d
00000290: 7ee0 0d3b 5472 49bd dec4 a33d ddda a8bd
000002a0: bb9c bdbd 0f2f b4bd b95d c5bd b548 a23d
000002b0: 951f 11bd d6dc c4bd 516b b2bd e4f7 cbbc
000002c0: a244 273d 0bd8 bebd 5204 833d b2b1 5f3c
000002d0: 4288 85bd d315 983d 6d35 e1bd bb61 063d
000002e0: f045 df3c 86ab 363c 4215 a13d 353a 483d
000002f0: b763 3e3d fe86 9b3c 2f00 7abd dfdb ddbd
00000300: 3024 49bd c25f bebd e809 693f 9c2b 123f
00000310: 753c 6c3f 8b53 5a3f c056 7bbd 2a5f 903c
00000320: 3e7e 5f3f 3a0c 223f 15bd 853f c165 3abd
00000330: 5a6f 703f f731 1dba 6c8b 653f 25d1 663f
00000340: d618 603f 7d96 793f ea23 39bc 31ee 6a3f
00000350: edc5 713d 2b13 4d3f c6ed 77bd d691 b53d
00000360: 8c5a 02bc d406 853d 9106 d03c 06d6 623f
00000370: 80f5 ea3c 5146 643f 4960 723f 8c0a 8a3c
00000380: dfae 18bd 9889 413d 5cbf 763f d7b2 653f
00000390: 5b41 4d3f 965d b93d 9510 843f 7ff7 ec3e
000003a0: 525d 493f 8338 623f 72b6 753f ecaa 32bd
000003b0: 39ee b2bd f795 2f3d 6edf a73d af69 723f
000003c0: ab7d cdbd eff7 8d3c e77c 6d3f d0f2 bdbc
000003d0: 7288 683f 0d15 473f c6e6 6c3f 199a 4d3f
000003e0: 596d 563f 4d72 513f 71f9 71bd 97cc 733f
000003f0: 0632 5d3f b691 5d3f 10ff 6d3f 5556 733f
0.050267637 -0.10341208 -0.11327339 -0.09253452 0.003967611 -0.11090611 0.02589989 -0.03567608
-0.018886138 -0.025563667 -0.00031961108 -0.07860023 -0.10087626 0.027647031 0.0051491014 -0.032993224
0.013544439 0.05875459 0.0690394 -0.10017882 -0.054156296 0.16540176 -0.05399993 0.11003915
-0.07885941 -0.038568012 -0.09217692 0.094598256 0.002070768 -0.080185674 0.030974304 0.07787634
0.023602176 -0.09400605 -0.08765466 0.03154783 0.03638346 -0.036727324 0.07936285 0.09396755
0.07923347 0.050398573 0.05877981 -0.064233355 0.07224104 0.03329075 -0.020094384 0.08283714
-0.01695576 0.06127281 0.04338178 -0.08052821 0.029667465 -0.050021734 0.054092467 -0.07677555
-0.100721575 0.0819351 -0.041595127 -0.09490119 -0.05636819 -0.07008614 0.06493911 -0.07591315
-0.0713343 -0.018949812 0.7531685 0.6459245 0.76587695 0.6385074 -0.082399435 0.07702036
0.62925416 -0.22841603 0.62546813 -0.07214239 0.76653725 -0.011507328 0.7216377 0.77605987
0.66716313 0.6425088 0.108681194 0.6749788 0.034889918 0.75961936 0.06882205 -0.05110054
0.02124178 -0.07485012 0.09174434 0.7623311 -0.012335632 0.70821506 0.7261777 0.09081241
-0.082468964 0.05512847 0.62026376 0.7384519 0.6798411 0.0840856 0.3251893 0.37424096
0.76237273 0.78062594 0.758999 -0.07967803 -0.024495576 0.048987985 0.0015705669 0.7351197
-0.056364167 0.066305734 0.79061997 0.074501336 0.64299977 0.7568525 0.7869065 0.80748516
0.58483493 0.6764188 -0.048392046 0.608955 0.69807863 0.7738701 0.62008274 0.7221791
-0.0771766 0.058107924 0.0027388183 -0.05730745 -0.012135284 0.03430482 -0.021464808 0.08588814
0.07304354 -0.07830622 -0.034636058 -0.078387976 -0.029093554 -0.057175558 -0.045666907 0.0773229
0.015204915 -0.06185508 -0.0050449083 0.04489693 -0.012855834 -0.090784386 0.04798249 -0.10973947
-0.0672791 -0.053319998 0.03799616 0.08455899 0.06589328 -0.002205791 0.0058846804 -4.7390302e-05
-0.005954109 0.005650292 0.07627478 0.03286321 0.00216487 -0.049181297 0.07996534 -0.0824487
-0.092584096 -0.08798038 -0.09637017 0.07924024 -0.03543051 -0.096124336 -0.08711875 -0.024898477
0.040836938 -0.09318551 0.063973084 0.013653206 -0.0652013 0.07426038 -0.10996518 0.032808047
0.027255028 0.011149293 0.07865383 0.048883636 0.046481814 0.018985268 -0.06103533 -0.10832953
-0.049106777 -0.09295608 0.9103074 0.5709779 0.9227975 0.85283726 -0.061362028 0.017623503
0.87302005 0.63299906 1.0448328 -0.045507196 0.9391991 -0.000599652 0.89665866 0.9016288
0.87537897 0.9749525 -0.0113000665 0.917697 0.059026647 0.80107373 -0.060529493 0.088657066
-0.007956158 0.06495443 0.025393756 0.88607824 0.028681517 0.89169794 0.9467817 0.016850732
-0.037276145 0.04725036 0.9638574 0.8972601 0.8017785 0.09051053 1.031756 0.46282575
0.7865802 0.8836748 0.95981514 -0.043620035 -0.087368436 0.042867627 0.08196913 0.9469251
-0.10033735 0.017330138 0.9276871 -0.023187071 0.908332 0.77766496 0.9253963 0.8031326
0.837606 0.81815034 -0.059075776 0.95234054 0.86404455 0.8655046 0.9296732 0.9505361

layer3.bias f4 [64]
00000000: 3834 b0bb 7ac1 ce3e 39ac 38bd bd03 313f
00000010: 45f5 3c3e 7bc4 8abd 0681 cfbb 8c01 023f
00000020: 9ed9 8c3e 21d8 a73c c470 893b 2a78 98bd
00000030: d826 5b3e 573b 283f 077d 7cba e506 8c3d
00000040: 6eac c0bd 9a85 c23e 40cd 513f 2d71 133f
00000050: 4464 92bd eb91 ce3c c645 3d3c 5d0c 333d
00000060: ceb0 553d 4643 6c3e 18c5 60bb a751 0e3c
00000070: 7814 013d e4c2 523d 6db4 2c3f 33f1 f73a
00000080: b3ac cfbd 3251 173f 02b4 d63c e221 56bd
00000090: 2fac 183d caff bf3d 645f d83c d1e9 91bd
000000a0: 221d 733c 4123 af3e b312 303f 5c59 383f
000000b0: e9da b7bc 4d9c 663c ca76 39ba 8f16 2d3f
000000c0: c1f1 b03a e2c8 0b3f cb49 c3bd 52af af3d
000000d0: 4c81 10bd eaa4 b6bd 200b c1bd 19f9 b7bd
000000e0: c7d0 ca3d ddc2 8fbd c53a 3d3f b965 aebd
000000f0: f51b 9c3c 4b6c 513d 0c6e 253f ede2 87bc
-0.0053773187 0.40381986 -0.04508612 0.6914633 0.18452938 -0.06775757 -0.0063325195 0.5078361
0.2750978 0.0204888 0.004194351 -0.074447945 0.21401536 0.65715545 -0.00096316676 0.068372525
-0.09407888 0.37992555 0.8195381 0.5759457 -0.071480304 0.025216063 0.01155228 0.043712962
0.052170567 0.23072538 -0.0034297165 0.00868646 0.03151366 0.051455393 0.6746281 0.0018916487
-0.10140362 0.5910827 0.026208881 -0.052278407 0.037273582 0.0937496 0.026412673 -0.07124675
0.014838489 0.34206584 0.6877853 0.7201135 -0.022443252 0.014075351 -0.0007074891 0.67612547
0.0013499783 0.546034 -0.09535559 0.085783616 -0.035279557 -0.089181736 -0.0942595 -0.089830585
0.09903102 -0.07019589 0.739178 -0.08515496 0.0190563 0.051128667 0.64621043 -0.016587699

layer4.weight f4 [290, 64]
00000000: e0c6 a7bc d9cb cc3d 441b 11bd f67b 933d
00000010: 156b 8c3b f5b0 25bd 30c9 d4bd 88bf 2e3d
00000020: abb3 ba3c 19ea 72bb fb9b a83b 5b54 723d
00000030: d51e f33b 9dbc 163e b03d a63a 6377 0e3f
00000040: 3487 f1ba e36f 343d 02ab 033e 4bdc bd3d
00000050: ca67 cabc 188c b53d 11ec c83d 1539 a33d
00000060: c5e7 4a3b c956 c93c 735d 413d 594a e3bb
00000070: a1e3 3c3d 0b13 afbd ecaf b43d 90f1 f6bc
00000080: a661 a93d 3fdb b23d b4f8 c33d bbf3 ebbc
00000090: ed83 a73d c83c c23d 0b5c 12be 38da 60bd
000000a0: e6a5 c23d 8d1d 253c b943 173e 6247 913d
000000b0: 325b 22bd d5fc 99be 952b c2bd 6204 d83d
000000c0: 3565 31bd ab0e 9f3d 215f 9fbb 89c0 a03e
000000d0: 18f8 63bd c31d ee3c 13c2 b23c 7fbf 40be
000000e0: e8f8 acbc a2c5 32bd e823 123e ea46 1cbd
000000f0: 268a 19bd 0033 903c d705 4f3d 8d55 5a3d
00000100: e44e 373d ca24 823d bf11 81bc 883e ef3d
00000110: fab6 d8bd 41eb f1bc 23e7 063d 64f6 393d
00000120: 601f 293e bbdf 8ebd c522 1c3e 2973 a0bd
00000130: e0ba 5f3c ad15 293e c4b9 e43c 2399 033f
00000140: c3b0 483a 4d7c d6bd 3eb5 3e3e c362 d13d
00000150: 7780 c9bc 1bae 8a3d 9e90 333d 66d0 853c
00000160: cb95 82bc fe90 1f3b 31b3 cbbb 7813 743d
00000170: 3650 a53d 2aef 5a3d 660a e03c 350e 85bd
00000180: 3a09 0a3c cd79 043e c1aa 5c3d 8171 77bd
00000190: e375 b13d 95a9 44bd 69ec cd3d 5def a8bc
000001a0: 5e8a ad3d 20aa f73d c446 e33d ef78 c63d
000001b0: bb75 b03d c439 0d3e 161c c03b 1f31 053e
000001c0: 5ca2 98bd d624 bebc d11d f6bc c572 e03e
000001d0: b08e c13b f595 6a3d 3d8f 24bd 4b51 4d3e
000001e0: 6d3a 10bd f1f1 4abc a6cd e33d 09e7 c53c
000001f0: 38a7 0f3d e38f 843d 8ef6 a93d f53e c93b
00000200: e741 933d 33d4 17bc 71e4 95bb b424 f23c
00000210: bfcf fe3d 5af4 43bd 2d64 933d bdba 573d
00000220: 19c0 0e3d 7a7f dd3d 28d2 943c 6c30 e93c
00000230: bb3b 223e 89be a03d 276e b53c de52 043c
00000240: f341 933d 16b7 853d 7eec b63d b980 e73b
00000250: 16ab b0bc 3c1d 28bc ac78 953d 4753 f4bc
00000260: 44e2 92ba 79c0 ae3d 0d48 84bd a86d 6d3d
00000270: dc0b 96bd b19f e4ba 0759 df3d 9c14 3dbd
00000280: 3228 68bd 04af db3d 4620 853d c542 4e3e
00000290: 02bf 36bd 1b77 5b3c e0e7 76bc 5f29 7c3d
000002a0: 571c b23d 361a 0d3d 3342 a43d 14f9 b23d
000002b0: bce5 9b3d 1b9b dc3d 7625 81bd 4814 393e
000002c0: 34a6 f8bb 0940 bb3d fa78 2dbd 6411 a03d
000002d0: b872 be3d 22cb 353b a8dc 67bd 2903 c43c
000002e0: 55da 593c d1ba 6d3d 28c1 173e 75dd 27bd
000002f0: 0648 9d3d 818d b93d b820 843c b27f a43d
00000300: de01 3fbd 53c8 e83d ac10 6d3d bb56 193e
00000310: 5f4c c13d 03e0 a73c 0f06 2c3d 50bd cf3d
00000320: 2b52 843c 614c e33d 7a7f f03d 6b27 59bd
00000330: 5c2a f33c 19ba 143e eb10 8c3d 3856 453d
00000340: a68e 35bd 0bda 823d 36b5 943c adf8 683d
00000350: c703 1cbc cde3 2cba ba10 9abc 5fd2 cf3b
00000360: 185e 0dbd 6a57 8a3c 9174 c63d 74ef 9c3d
00000370: 976d 983d 0a08 7abd 33f4 063d 08f5 c83a
00000380: 72f9 d13d e173 c63d 047e 173d 9eb2 203e
00000390: af3e 74bd 9605 d53a 93fb d23c 4605 c93d
000003a0: df52 c03d c26e 5e3d f675 383e e20e e8ba
000003b0: 5eb5 773d 655d 5b3d 5e88 343c ea90 2c3d
000003c0: 3033 a63d d03b 113e 00fc 1dbb 4218 503c
000003d0: 1fc5 363d 8c73 acbd 52cf a23d c0d2 433d
000003e0: addb ac3d 7537 bbbd eb40 483c 6d8e ce3d
000003f0: 87cc 463d ee3d c0bd fb81 163e a69b 6fbd
-0.020480573 0.09999818 -0.035426393 0.07201378 0.004285226 -0.040451963 -0.10389936 0.042663127
0.02279075 -0.0037065803 0.0051455474 0.05916248 0.007419447 0.14720388 0.0012683179 0.5565092
-0.0018427134 0.044052016 0.12858203 0.09270533 -0.024707694 0.088646114 0.09810651 0.07969872
0.00309609 0.024577515 0.04720826 -0.006936353 0.04611552 -0.08548554 0.08822617 -0.030144483
0.08270578 0.08733224 0.09568921 -0.028802743 0.0817946 0.09484249 -0.14292924 -0.05489561
0.09504299 0.010077846 0.14771928 0.07093693 -0.039637752 -0.30075708 -0.09480969 0.10547711
-0.04330941 0.077664696 -0.004863635 0.31396893 -0.055656523 0.029066926 0.021821057 -0.1882305
-0.021114781 -0.04364551 0.1427151 -0.038153566 -0.037485264 0.017602444 0.05054268 0.053304244
0.04475297 0.06354673 -0.015755532 0.11681849 -0.10581775 -0.029531123 0.032935273 0.045400992
0.16515875 -0.06976267 0.15247639 -0.07834465 0.013655394 0.16512175 0.027920611 0.51405543
0.0007655734 -0.10472927 0.18623826 0.102239154 -0.02459739 0.06771489 0.04383909 0.016334724
-0.015940567 0.0024347897 -0.0062164296 0.05958888 0.0807194 0.05345074 0.027348708 -0.064968504
0.008425051 0.12937088 0.05387378 -0.06041098 0.08665063 -0.04801329 0.10054857 -0.02062195
0.08473657 0.12092996 0.11097482 0.09691035 0.08616205 0.13791567 0.005862723 0.1300702
-0.074528426 -0.023210924 -0.030043514 0.43837562 0.0059069023 0.057271916 -0.040175665 0.20050542
-0.03521197 -0.012386785 0.11123209 0.024158018 0.03507158 0.06472757 0.0829898 0.0061415383
0.07190304 -0.009266901 -0.0045743515 0.029558517 0.12441968 -0.047840454 0.071968414 0.052668322
0.034851167 0.1081533 0.018166617 0.028465472 0.15843098 0.07848842 0.022147251 0.008076398
0.07190313 0.065290615 0.08931826 0.0070649055 -0.021565955 -0.010260876 0.07298407 -0.029824866
-0.0011206348 0.08532805 -0.06459055 0.057965904 -0.07326481 -0.0017442611 0.109056525 -0.046162233
-0.05667896 0.10726741 0.06500296 0.20142658 -0.044615753 0.013395096 -0.015069932 0.061562892
0.08696812 0.034448825 0.08020439 0.08738914 0.07612178 0.107717715 -0.06305973 0.18074143
-0.0075881723 0.09143073 -0.0423517 0.07815817 0.092992246 0.0027739485 -0.05660692 0.023927288
0.013296683 0.05803949 0.14819777 -0.040982682 0.07679753 0.09060193 0.016128883 0.080321684
-0.04663264 0.11366334 0.057877228 0.14974491 0.09438395 0.02049256 0.041997965 0.1014353
0.016152462 0.110985525 0.11743064 -0.053016108 0.029683284 0.14524116 0.06839164 0.048177928
-0.044325493 0.06389245 0.018152814 0.05687778 -0.009522385 -0.0006595224 -0.018806804 0.006342217
-0.034513563 0.016887385 0.09690202 0.076628596 0.074427776 -0.061042823 0.03294773 0.0015331814
0.10252656 0.09690071 0.036985412 0.15693137 -0.059630092 0.0016252275 0.025754726 0.09815459
0.093908064 0.054304846 0.18013749 -0.0017704631 0.0604757 0.053555865 0.011018841 0.04213039
0.08115232 0.14182973 -0.0024106503 0.012701096 0.044621583 -0.08420476 0.079496995 0.04780841
0.08440337 -0.09141437 0.012222509 0.10085759 0.048534896 -0.09386812 0.14698021 -0.058498047

layer4.bias f4 [290]
00000000: 3346 673f 756c b33d 52d1 353d adb9 0d3e
00000010: 2c63 a23d b6a1 01ba 34c6 473c f7b2 4b3c
00000020: 3aac 313e 4671 f6bc 1372 363d 0691 be3d
00000030: 51ce bd3c 67a1 c73d fd12 c7bc 7a3d 873d
00000040: 6da8 a13d 0049 173d 3315 fc3d bfbd 8f3d
00000050: 84f5 1fbe 0c36 7e3d 1907 1d3d 2c52 f03d
00000060: 7eab 283d ef52 a23d 4ebb 7fbd 483a 233d
00000070: 03d0 933d e223 e03d b8eb 3c3d 074c 0bbc
00000080: 0246 253e 479b 49bd 27df acbd 549d c5bc
00000090: 882f e9bc 5974 123e 99ce 0a3e f4ee a1bc
000000a0: b778 b43d eafe 243c b64a 05bd 5ff7 093d
000000b0: 6a69 133e 232f 993d 618f 90bd 4858 aabd
000000c0: 5725 30bd 9b20 90bd 78c6 953c 27ba 07bd
000000d0: b9fa 193d 1545 4f3d 2d83 023e c2cf 583d
000000e0: cf2f c1bb 5ed4 afbd 86e8 553c 4b9f f63d
000000f0: 1060 04bd bdc7 943d ff3b e73c 075b ce3d
00000100: ea70 2cbc a77e 92bd 7df4 113e 5719 1c3e
00000110: 54ba f4bb cd96 f63d c2cf 8dbd 8f65 003e
00000120: a5e8 783d a50f 4b3d 5c17 87bd 76a0 9bbd
00000130: 7ea4 f5bc 2c84 c6bd 50e0 b1bd e944 cbbc
00000140: c872 163e 84f2 013e e62d bf3d 7983 003d
00000150: 8c6a 163e 606e ce3d 2e04 56bd f6af 05bd
00000160: 07b2 84bd 5435 0abd cd29 693c cb4d e83d
00000170: a723 af3d 9a70 d73d 2d26 adbd 2c0f 9f3c
00000180: 155f c3bd e9b1 13bd 502f 35bd 83d4 003b
00000190: e385 a13d f953 19bd d5f3 223d 2c94 ba3d
000001a0: 3b53 0d3c e0b1 803d 706e 9abd a561 0a3d
000001b0: 93ba 3e3c 8990 213d 430b cdbd f993 993d
000001c0: 30c4 b2bd 246c b9bd 30c8 8dbc d62b 733c
000001d0: 1db6 643d a1a8 9dbd 5b5f 6bbc f99c 663d
000001e0: ad59 33bc 1242 de3c 9e25 07bc d900 c53d
000001f0: 5461 383d be9a 2ebd 1abb c3bd 26e0 07b9
00000200: 2619 99bd bf60 dabc bc40 4f3d f80c a6bd
00000210: 1cc6 bc3d a264 463d 716e 083d 36c1 a33d
00000220: a099 8a3d 6aa1 513d d045 a5bc bd92 9dbd
00000230: f85f 453d 8017 c9bd 45b7 b7bd c954 b23d
00000240: 9f1b 443d 8a03 353d 9621 933c eed4 7ebb
00000250: 29ce 90bd 71e6 7cbd 36ce 86bd 2ce1 febc
00000260: 8cd1 773d d93f 813d 2b85 7d3d 8c6b 933d
00000270: 62db efbc fd25 8d3d c118 d43c 35e9 f43d
00000280: 446f a4bd 09e0 a7bd 4df3 8b3d 71e6 813d
00000290: deaa 50bd e49e bc3c 3a79 39bd 895a bcbd
000002a0: 8e6c 633d 4b14 83bc ae56 853d 3ae3 babd
000002b0: ce1d 2c3d 476c da3c 04c9 8f3d 88c8 a5bd
000002c0: 0b31 5cbb 50d1 33bd a707 cebd b91c 1fbd
000002d0: aca9 a6bd fd3a b2bd 82fd 103d fe74 c33d
000002e0: f814 e6bc 943a d33c ccf8 b0bd 7e21 b13d
000002f0: 720a 70bd 9638 943d cd97 d9bc bb07 6dbd
00000300: 32a8 7b3d bb31 cbbc 2cb1 6ebd 0889 38bd
00000310: 9b4e 823d 9093 c53d e0b0 edbc 3504 8fbd
00000320: 9e1d d1bc f553 5c3e d714 63be 7926 9d3d
00000330: 2879 643d 892a d8bc db5c a6bd 9d3a 23bd
00000340: a752 16bd dea5 b1bd a9d8 78bc a1df 233e
00000350: d3b9 863d f0fe 263d a549 4bbc e04d 89bb
00000360: b342 40bd 8c20 aebd 7385 7abd 50a0 9a3d
00000370: 2e6a 42bd 61bf 9e3d 8f49 6c3d 2c68 ff3d
00000380: e16f 893d 3d09 c63d e8c9 c5bc 1507 f43d
00000390: 061a 3ebd 6d75 c93d a389 8e3d ba0f 37bd
000003a0: 84bb 473d 7c4c 1fbd 70c4 14bd b90e 5e3c
000003b0: 4c08 573d 1f38 b03d 7997 023d 0e9c 5dbd
000003c0: 4389 103e cffd 9a3d 5a0c 1e3e 79b3 123c
000003d0: 91a5 7b3d 98e8 bf3d 3948 213e bdd4 e8bc
000003e0: 0806 cf3d 0a3d 0d3e 4f53 033e 1930 833d
000003f0: f7dd 3fbd 33e5 04bc c1df 10bd b6aa 8bbd
0.9034149 0.08760921 0.044389077 0.13840361 0.07929072 -0.0004945056 0.012193251 0.012432805
0.17350855 -0.03008331 0.044542383 0.09305005 0.023169668 0.09747582 -0.024301047 0.066035226
0.07893453 0.036934853 0.12308731 0.07018613 -0.15621 0.062063262 0.038336847 0.11734423
0.041179173 0.079259746 -0.062434487 0.039850503 0.072174095 0.10944344 0.046123236 -0.008502013
0.16139987 -0.04922035 -0.084410004 -0.024122871 -0.028465047 0.14302196 0.13555373 -0.019767262
0.08812087 0.010070542 -0.032541953 0.033683177 0.14395681 0.07479694 -0.07058597 -0.083176196
-0.04300436 -0.07037469 0.018283114 -0.033136513 0.037592623 0.05060299 0.12745352 0.05293251
-0.005895592 -0.08585428 0.013055926 0.120421015 -0.032318175 0.072646596 0.02822685 0.10075956
-0.010524968 -0.07153063 0.14253421 0.15244041 -0.007468501 0.12040482 -0.06924392 0.12538742
0.060768742 0.049575467 -0.06596252 -0.07598965 -0.029985663 -0.096931785 -0.08685362 -0.024813132
0.14692223 0.12690169 0.09334926 0.031375382 0.14689082 0.10079646 -0.05225008 -0.032638513
-0.064792685 -0.033742264 0.0142311575 0.11342963 0.08551722 0.10519524 -0.08454547 0.019416414
-0.0953962 -0.03605834 -0.044234574 0.0019657917 0.07886865 -0.0374336 0.039783318 0.09110293
0.008625801 0.06283927 -0.075405955 0.033784527 0.011641162 0.03944448 -0.100119136 0.07498927
-0.08728826 -0.09053829 -0.01730737 0.014841994 0.05583774 -0.07698179 -0.014365996 0.056302045
-0.010946673 0.027131114 -0.008248715 0.09619302 0.045014694 -0.042628042 -0.09557171 -0.00012958105
-0.074755 -0.02665746 0.050598845 -0.08107942 0.09217474 0.048435815 0.03330845 0.079958364
0.06767583 0.051179327 -0.02017489 -0.07694004 0.048187226 -0.098189354 -0.08970503 0.08707578
0.047877904 0.04419283 0.017960351 -0.003888424 -0.07070572 -0.061743204 -0.065823 -0.03111323
0.060502574 0.06311006 0.061894577 0.07198247 -0.029279415 0.06892011 0.02589071 0.11958543
-0.08029035 -0.08197028 0.06833515 0.06342781 -0.0509442 0.023024984 -0.045281626 -0.09196956
0.055523448 -0.016000887 0.065106735 -0.09125371 0.04202061 0.026662959 0.070207626 -0.08094889
-0.0033598568 -0.043900788 -0.10060053 -0.03884575 -0.08137831 -0.08702657 0.035398014 0.09543799
-0.02808617 0.025784768 -0.08641204 0.08648966 -0.05860371 0.072373554 -0.026561642 -0.0578687
0.0614397 -0.024803987 -0.058274433 -0.04505256 0.06362649 0.09647286 -0.029015005 -0.06983224
-0.025526818 0.21516402 -0.22175919 0.07673354 0.055779606 -0.02638747 -0.081231795 -0.03985082
-0.036699917 -0.08674215 -0.015188375 0.16003276 0.06578412 0.04077047 -0.012407695 -0.0041901916
-0.04693861 -0.085023016 -0.061162423 0.075501084 -0.047464542 0.077513464 0.05768734 0.12471041
0.06710792 0.09669731 -0.024144128 0.11915413 -0.046411537 0.0983685 0.06959846 -0.044692732
0.048762813 -0.0388913 -0.03632015 0.013553315 0.052498147 0.08604454 0.031882737 -0.054103903
0.14114861 0.075679414 0.15434399 0.008953922 0.061437193 0.093705356 0.15750207 -0.028421754
0.10108572 0.13792816 0.12824748 0.06405658 -0.04684254 -0.008111286 -0.03536964 -0.0681967
