catanatron_experimental/my_DQN_wyniki2/my_DQN2_900_steps.pth (torch, 268915 bytes, 8 tensors)

layer1.weight f4 [64, 614]
000000 5a 7c 48 3b 2a a0 a8 3a c9 9d a3 bb 8b 85 69 3b
       0.0030591697 0.0012865115 -0.0049931747 0.0035632576
000010 c6 d0 9a bb af 2b 8a b9 0c 82 5f bb c5 8a 61 39
       -0.0047245948 -0.00026353958 -0.0034104614 0.00021509368
000020 e1 56 00 bb d9 47 58 bb 13 20 0d 3b c1 12 01 3b
       -0.0019583034 -0.003300181 0.002153401 0.0019695016
000030 8c 06 97 3b ed d0 39 3b 21 4f 18 3b bd 30 d4 ba
       0.0046089347 0.002835329 0.0023240524 -0.0016188842
000040 c8 6d 9f ba d0 e2 87 3b 36 25 9e bb 6f 3b 97 39
       -0.0012163455 0.004146911 -0.0048262132 0.00028845246
000050 d6 d3 31 bb f9 42 8c ba fd 48 04 b6 31 e3 c6 3a
       -0.002713432 -0.0010701112 -1.9712018e-06 0.001517391
000060 dc aa 86 3b 98 f7 86 3b 0f 12 7f 3b c1 0c a4 3a
       0.0041097235 0.004118871 0.0038920676 0.0012516008
000070 89 67 b9 b9 65 8e 23 bb 0a a4 c8 3a 77 f8 53 3b
       -0.0003536309 -0.00249567 0.0015307677 0.0032344142
000080 41 46 02 ba 6d 6b 33 3a 56 b7 a5 3a e2 a8 84 3b
       -0.0004969575 0.0006844316 0.0012643139 0.0040484527
000090 50 83 99 bb d8 1c f7 3a 9a 55 2b b9 e7 80 27 bb
       -0.004684843 0.0018853201 -0.0001633972 -0.002555901
0000a0 37 39 df ba 32 73 6b 3b e2 04 bc 39 92 ae 4b bb
       -0.0017030601 0.0035926816 0.00035861792 -0.0031079394
0000b0 0e 22 3e ba 91 91 69 3b 3b 32 0f 3b 58 f1 b0 ba
       -0.00072529993 0.0035639743 0.0021850008 -0.001349966
0000c0 ae 58 44 39 35 42 1f ba a8 26 87 3b f7 5b ff b9
       0.00018725052 -0.0006075234 0.004124481 -0.0004870591
0000d0 93 40 bc 3a c5 5e 15 3b 5d 72 90 ba b7 cd dd 39
       0.0014362506 0.0022792083 -0.0011020411 0.00042305674
0000e0 15 93 aa 3a 9b 57 d6 ba 00 75 63 3b 33 4a c1 ba
       0.0013013805 -0.0016353013 0.0034707189 -0.0014746845
0000f0 d8 c5 10 3b 6e e6 82 3a 30 28 e8 37 4a 77 23 bb
       0.002209058 0.0009986886 2.7675269e-05 -0.0024942928
000100 a2 7d 11 bb 28 4c 92 bb b2 ce 4f 3b 88 f3 14 3b
       -0.0022200127 -0.004464645 0.0031708893 0.0022728164
000110 a4 88 09 bb f8 a0 59 3a 48 cb 2d 3b c7 71 64 3b
       -0.0020985985 0.0008301879 0.002651887 0.0034857856
000120 f1 80 95 bb 00 3b 95 3b 1f c3 94 ba 40 f9 3d 3b
       -0.00456249 0.0045541525 -0.0011349655 0.0028987676
000130 88 0f 46 bb f2 b1 39 bb e1 09 80 bb 4f 6b 96 bb
       -0.003022166 -0.0028334823 -0.0039074277 -0.004590429
000140 01 9d 00 3a 3c 68 1c 3b d9 a4 bb 3a 02 a9 45 bb
       0.0004906208 0.002386584 0.0014316096 -0.003016055
000150 c8 21 80 bb 80 00 8c 39 14 37 a7 ba 34 d5 8b bb
       -0.003910277 0.00026703253 -0.0012757503 -0.004267359
000160 70 c7 29 ba b4 0c 5b bb 80 db 22 bb 45 67 65 ba
       -0.0006476557 -0.003342432 -0.002485007 -0.0008751045
000170 6e 9d 8f 3a 5c 80 85 ba 91 ee b2 ba 9c a4 ca 3a
       0.0010956952 -0.0010185349 -0.0013651421 0.0015460434
000180 36 c3 7d 3b 0d 1e 77 39 fe 9f 89 bb 2a 1c 2f 3b
       0.003872109 0.0002356695 -0.0041999808 0.0026719668
000190 55 d6 e0 3a c4 1b 49 bb 08 9e 7b bb 6b b2 2e bb
       0.001715372 -0.0030686716 -0.0038393755 -0.0026656638
0001a0 94 fa 34 3b 90 d3 04 bb bc ea 8f 3b 93 1e 1a 3b
       0.0027615177 -0.0020267703 0.004391996 0.0023516759
0001b0 4f 7a 8a 39 c6 3f ca 3a 03 85 51 bb 1c e9 1d 3b
       0.00026412538 0.0015430383 -0.003197015 0.0024095243
0001c0 e3 aa 18 3b 36 8e 87 bb 9b 7a 43 bb db d0 49 bb
       0.0023295216 -0.004136826 -0.0029827717 -0.0030794654
0001d0 4f d3 53 bb 7d 6a cf ba 58 e2 f9 ba f0 98 79 3b
       -0.0032321995 -0.0015824583 -0.0019064648 0.0038085543
0001e0 b1 b0 e6 3a 71 06 b2 39 37 9a 6e bb e1 89 81 3b
       0.0017600266 0.00033955605 -0.0036407837 0.003953204
0001f0 4c 21 46 b8 e7 4f 25 b9 75 e7 a2 3a 05 fe f3 ba
       -4.723789e-05 -0.00015765392 0.0012428599 -0.0018615132
000200 d0 f6 d6 3a 5b 45 9e ba 01 1e 83 39 c7 5a 41 3b
       0.001640046 -0.0012075113 0.00025008622 0.002950357
000210 64 25 8f 3b fb 86 b6 b8 e6 9a 93 3b c0 44 37 b9
       0.004368471 -8.703578e-05 0.0045045493 -0.00017477851
000220 79 69 47 3b 27 b6 da b9 12 be 1a 3b 05 37 31 bb
       0.0030427857 -0.00041715914 0.0023611826 -0.002704085
000230 c6 6d 68 bb 26 bf 1a b9 6b e3 6f b7 75 65 20 3a
       -0.003546582 -0.00014757793 -1.429846e-05 0.0006118634
000240 a5 32 7f 3b f9 db 0e bb ad 04 b5 ba 09 4e 72 3b
       0.0038940099 -0.0021798594 -0.0013810598 0.0036972782
000250 b4 34 a2 b9 ab 4c 1e b9 bf 09 ba ba b7 a4 3f 3b
       -0.00030938315 -0.00015096615 -0.0014193578 0.0029242465
000260 7f f5 90 3b 2d e1 df b6 22 07 5e 3b cf c1 cb 3a
       0.0044237967 -6.672132e-06 0.0033878763 0.001554543
000270 78 04 eb ba 6d c0 8e bb cf b0 30 3b 3e 77 84 3a
       -0.0017930409 -0.004356435 0.0026960855 0.0010106338
000280 f8 db 78 bb 4e 9a fa 3a 5c c2 33 bb a1 e2 ce b9
       -0.0037972908 0.0019119473 -0.002742908 -0.00039460234
000290 d9 cb 4c bb 1c 10 6f bb b1 54 0e bb 07 41 ea 39
       -0.0031249432 -0.0036478108 -0.002171796 0.00044680407
0002a0 62 db bd b9 37 fd 8e 3a d6 5a 68 bb c4 ca 91 3b
       -0.00036212342 0.0010909204 -0.0035454533 0.0044492204
0002b0 a0 7a 64 bb bf 60 8f 3b 7f 68 1e ba cf 99 27 bb
       -0.003486313 0.0043755467 -0.0006042793 -0.0025573855
0002c0 64 24 23 bb bc c3 34 bb da f5 14 3a 9e d5 c3 3a
       -0.0024893517 -0.0027582487 0.00056823867 0.0014940982
0002d0 20 99 5a 3a 12 c4 4f 3b f7 5c 28 bb cb e4 85 bb
       0.00083388574 0.003170256 -0.0025690177 -0.004086112
0002e0 2c 1e 20 3b 82 21 49 bb 9d 26 f7 3a 15 81 19 bb
       0.0024432046 -0.0030690138 0.0018856112 -0.0023422886
0002f0 c9 23 72 3b d7 5f 51 bb c1 ca 8f bb 97 45 cb 3a
       0.00369476 -0.0031947994 -0.004388184 0.001550841
000300 ab da 2c bb 35 5c 18 3b af 83 6c 3b 49 6a 87 3b
       -0.0026375453 0.002324832 0.0036089232 0.004132543
000310 03 f6 00 bb 2d ce 22 bb f8 d5 92 bb 3a 83 7f ba
       -0.0019677884 -0.0024842129 -0.0044810735 -0.00097470323
000320 3f c0 5c 3b ce 2c 2e 3b cb 13 41 bb 74 f2 81 3a
       0.0033683924 0.0026576999 -0.002946126 0.0009914176
000330 df ef d4 39 69 f3 05 ba b1 84 73 bb 1e 98 53 3b
       0.0004061451 -0.00051098183 -0.0037157948 0.0032286714
000340 be a9 19 3b 36 a1 84 3b 71 cf 5a 3b 04 f5 45 3b
       0.0023447121 0.004047538 0.0033387805 0.0030205855
000350 91 d1 ef 3a 06 ed 8e bb f7 6c 27 bb c1 5f 86 b9
       0.0018296709 -0.0043617515 -0.0025547126 -0.00025629814
000360 24 60 4b 3b 22 5a 27 ba 7f 69 1c bb 6c 93 31 3b
       0.0031032646 -0.0006383975 -0.0023866592 0.0027095927
000370 81 04 8e 3b cd e9 d7 b9 04 6b 62 bb e8 d4 a0 b9
       0.004334033 -0.0004118219 -0.003454865 -0.00030676206
000380 18 ec 4e b9 65 8b 33 bb 1e 46 a6 3a 69 7c c1 ba
       -0.00019733643 -0.0027396318 0.0012685691 -0.0014761809
000390 b7 ea 42 bb ff b4 07 bb 84 69 16 3b 50 91 0e bb
       -0.0029741952 -0.0020707247 0.0022951076 -0.0021754093
0003a0 2c 72 fa ba a3 8b 8b ba 1a 73 f4 ba f4 a2 96 3b
       -0.0019107512 -0.0010646473 -0.0018650026 0.0045970622
0003b0 02 35 98 38 b9 a4 b1 ba 77 0f 3e b9 f2 09 58 bb
       7.257798e-05 -0.001355312 -0.00018125573 -0.0032964912
0003c0 5f 73 81 3b 31 18 82 3b 93 87 eb 3a 71 ec b5 3a
       0.003950521 0.003970169 0.0017969481 0.0013879669
0003d0 ae 8f 0a 3b 0e 49 00 bb 2e 72 af 3a e2 83 d0 ba
       0.0021142769 -0.0019574794 0.0013385469 -0.0015908445
0003e0 f5 4c 89 3b c6 ff 52 bb 6a 75 8b 3b 34 4b 22 3a
       0.004190082 -0.003219591 0.00425594 0.0006191016
0003f0 15 39 79 bb 5a 56 2d 3b 5a 5c 4d 3b 10 9e 0d 3b
       -0.0038028408 0.0026449175 0.0031335563 0.0021609105

layer1.bias f4 [64]
000000 47 8c 42 3b 12 7d 67 39 bb 82 30 b9 46 ac 99 42
       0.0029685663 0.00022076469 -0.00016833369 76.83647
000010 6b b9 a9 bb 06 a7 99 42 0e 51 b0 bb 1f a9 99 42
       -0.0051795742 76.82622 -0.005380756 76.830315
000020 81 ea a1 bb 37 ac 99 42 43 a6 99 42 b7 ab 99 42
       -0.004941285 76.83636 76.82473 76.83538
000030 48 15 b3 bb c2 39 5b bc cc a3 99 42 4c 98 99 42
       -0.0054651834 -0.01338047 76.819916 76.797455
000040 24 aa 99 42 30 a7 99 42 63 ac 99 42 4b 59 87 3b
       76.832306 76.82654 76.83669 0.0041305176
000050 03 9b 99 42 50 a8 99 42 66 a6 99 42 f1 15 01 bb
       76.80276 76.828735 76.825 -0.0019696916
000060 a7 4a 04 b9 b8 a9 99 42 79 17 8e c0 e8 ac 99 42
       -0.00012616311 76.83148 -4.4403653 76.83771
000070 4c 3d 7b 3a a5 d1 7f 3b 42 a1 7e bb ab e0 56 bb
       0.0009584024 0.003903487 -0.0038853441 -0.003278772
000080 d2 a8 99 42 23 66 40 bb fe a1 49 3b 5a ab 99 42
       76.82973 -0.0029357753 0.003076672 76.83467
000090 5b a6 99 42 4d a9 99 42 78 a9 99 42 c3 b3 33 3a
       76.82491 76.830666 76.83099 0.00068550947
0000a0 a7 7e 8e c0 20 11 6f ba 58 a9 99 42 12 41 8e c0
       -4.4529605 -0.0009119678 76.83075 -4.445443
0000b0 41 a1 d8 b9 be cb 28 bb 68 45 67 bb d6 ab df ba
       -0.00041318874 -0.0025756205 -0.0035289172 -0.0017064761
0000c0 ee a7 99 42 d0 8a ef 3a 29 28 32 ba fd f8 a0 bb
       76.82799 0.0018275622 -0.00067961455 -0.004912494
0000d0 f4 a5 99 42 d8 a7 99 42 be a7 99 42 49 a4 99 42
       76.82413 76.82782 76.82762 76.82087
0000e0 91 68 73 3a 96 57 0a bb 05 fe 7a bb c6 a7 99 42
       0.0009285296 -0.0021109334 -0.003829838 76.82768
0000f0 16 aa 99 42 7c a9 99 42 09 a9 99 42 48 a5 99 42
       76.8322 76.831024 76.83015 76.822815

layer2.weight f4 [64, 64]
000000 57 17 14 bb 72 b2 c2 b9 34 0f 98 3a db 62 07 3c
       -0.002259692 -0.00037135516 0.001160121 0.008263315
000010 01 f2 ca bb 18 35 20 3a d0 05 41 bc ea d6 3e 3c
       -0.0061934 0.0006111427 -0.011781171 0.011647919
000020 06 84 8b bb 99 ee 08 3a 6d 32 34 bc c7 d5 fa 3b
       -0.004257682 0.0005223542 -0.010998351 0.007654879
000030 83 2c 02 bc 1a 60 1b 3c 3e 59 26 39 7f f7 a4 3b
       -0.007945183 0.009483362 0.00015864239 0.0050343866
000040 66 48 0a 3c 54 6d 04 3c 7a 87 77 3a 47 e7 67 3a
       0.008440113 0.0080827065 0.000944249 0.00088464137
000050 4b 9e 46 bc 15 51 c5 bb af a4 fd 3b 9c c3 d1 3b
       -0.012122701 -0.0060216286 0.007740579 0.0064014923
000060 e3 e0 18 3c dd cc c7 bb c9 83 f5 3b 24 21 71 bc
       0.009330961 -0.0060974197 0.0074925167 -0.014717374
000070 99 d7 5d bc 9c c7 18 3b 00 76 21 bc e3 48 67 bc
       -0.013540172 0.0023312336 -0.009854794 -0.014116499
000080 e2 14 18 bc 19 d1 b8 3b 7d 1d 04 bc 9a 23 8b bb
       -0.009282323 0.0056401608 -0.008063671 -0.0042461874
000090 96 7c 12 3c 46 32 ff bb 3e 9a 10 bc 83 44 eb bb
       0.008940836 -0.0077879755 -0.008825837 -0.007179798
0000a0 61 5c 32 3c 0a ef 1c 3c 3d 93 57 3c 64 dc 8f 3b
       0.010886283 0.009578476 0.013157663 0.0043902863
0000b0 6b 70 89 bb 73 df 83 3c 32 08 4a 3c 2e a1 50 3b
       -0.0041943095 0.01609776 0.0123310555 0.0031834352
0000c0 17 ad 78 bc d8 50 19 3c af 33 1a bb 8a 4f 17 3c
       -0.015177987 0.009357654 -0.002352934 0.009235272
0000d0 e3 fc 02 3b 06 bb 6a bb fa 1a 8c bc 0d 85 2f 3a
       0.0019987158 -0.003581704 -0.017102707 0.00066955463
0000e0 95 f3 be bb 78 8e 53 bc 6e 28 49 3c 17 98 2a 3c
       -0.005827377 -0.012912385 0.012277706 0.010412238
0000f0 07 29 4e bc 3e 14 2c bc 4e fa 92 3b 56 81 4a bc
       -0.012583024 -0.010502873 0.004485405 -0.012359938
000100 47 ea 2f 3b 8c f8 a5 3b 28 11 53 bb 66 ab 1d bc
       0.002684252 0.0050650295 -0.003220627 -0.009623384
000110 90 0b a4 ba e4 09 f2 bb f0 16 e4 ba 22 24 07 bc
       -0.0012515653 -0.007386433 -0.0017401855 -0.008248361
000120 7d cb 22 bc 30 fa c0 3a f8 5d 25 3c 92 c8 5a 3c
       -0.009936211 0.0014722999 0.010093205 0.013353484
000130 61 1a 31 bb b1 73 35 3c 53 94 9a bb 20 79 30 3c
       -0.002702378 0.011074946 -0.0047173887 0.010771066
000140 67 ca d6 bb 35 58 e1 3b 72 4e ba bb 38 f4 3f 3c
       -0.00655489 0.00687697 -0.005685621 0.011715941
000150 7a e9 f5 b8 fb 33 62 bc c5 96 dd 3b 42 e2 f3 3b
       -0.00011725999 -0.013806338 0.006762358 0.0074427435
000160 56 d6 89 b9 2f 4a a4 bb c3 b9 bc bb a9 d1 90 bb
       -0.0002629037 -0.005013726 -0.005759449 -0.0044195247
000170 db be fe 3b fe be 3b bc c9 03 91 bb 87 59 eb bb
       0.0077742166 -0.01145911 -0.0044255 -0.0071823034
000180 b5 ff 9c bb c8 8b bb bb b9 6d d9 3b d1 95 07 bc
       -0.004791225 -0.0057234503 0.0066353944 -0.008275465
000190 ac 7d 48 bc c9 56 67 bc 4b f8 6e bc 38 5e 18 bb
       -0.012236994 -0.014119812 -0.014585565 -0.0023249518
0001a0 59 b1 23 bc e9 1c 30 bc 8e b3 45 3c 2e 1b 43 3c
       -0.009991013 -0.01074908 0.012066735 0.011908336
0001b0 b0 c8 53 bb e9 5b 56 bc b9 e2 de bb 62 83 13 3b
       -0.0032315664 -0.0130834365 -0.00680193 0.002250873
0001c0 01 ce e7 3b 80 e8 94 ba 0f e4 b9 bb e1 04 51 3c
       0.007074118 -0.0011360794 -0.0056729387 0.012757511
0001d0 55 f7 4b 3c 2c e8 93 3b cd 0d 8a bb 57 a4 a8 bb
       0.012449105 0.004513761 -0.004213071 -0.005146544
0001e0 71 e6 b9 3b 73 3e 2b 3a cd 61 75 bb 05 1e 14 3c
       0.0056732227 0.0006532438 -0.0037442327 0.00904036
0001f0 77 d6 06 bc 4a 16 57 3c db 05 00 3b 52 d6 3f 3c
       -0.008229843 0.013127873 0.001953474 0.011708813
000200 29 a2 f4 3a b5 ca 24 3c 35 30 36 3c 57 bc 99 42
       0.001866405 0.010058095 0.011119892 76.86785
000210 e0 cd 0a bd fb bb 99 42 b9 95 b4 bb e9 bd 99 42
       -0.033887744 76.86715 -0.0055110124 76.87092
000220 28 60 f8 3b 0b c1 99 42 7b c9 99 42 a4 bd 99 42
       0.007579822 76.87704 76.89352 76.87039
000230 a6 27 ad bb db 2e 03 bf b9 c3 99 42 7e c5 99 42
       -0.0052842675 -0.5124337 76.88227 76.88573
000240 ab ca 99 42 a8 c1 99 42 ca bd 99 42 61 cb cb 3b
       76.895836 76.878235 76.87068 0.006219313
000250 73 e2 99 42 3c c1 99 42 b3 c7 99 42 8b cc 15 bc
       76.94228 76.87741 76.89004 -0.009143005
000260 6b 68 37 3c bc c9 99 42 6f 84 12 c2 4a be 99 42
       0.011194329 76.89401 -36.62933 76.87166
000270 7f 76 63 3c 24 40 b8 bb 2c 45 72 bb ad ad 58 bb
       0.013883232 -0.0056228805 -0.00369675 -0.0033062503
000280 51 ce 99 42 f3 26 a8 bb e7 d8 17 3c 5b bf 99 42
       76.90296 -0.0051315962 0.009268022 76.87374
000290 a2 c9 99 42 2c cd 99 42 ae c9 99 42 2e 92 01 bb
       76.893814 76.90073 76.893906 -0.0019770968
0002a0 6c bc 13 c2 a2 a7 c2 3b 05 bf 99 42 62 d6 13 c2
       -36.934006 0.0059403935 76.873085 -36.95936
0002b0 57 6a 19 bb 60 22 6b 3c 50 22 95 ba c1 b7 1c ba
       -0.002340933 0.014351457 -0.0011378024 -0.0005978309
0002c0 9d c7 99 42 45 e2 0e bc 34 51 61 bc d0 63 07 3c
       76.88987 -0.008720939 -0.0137522705 0.008263543
0002d0 64 cc 99 42 4c c7 99 42 22 bb 99 42 15 cd 99 42
       76.8992 76.88925 76.86549 76.90055
0002e0 2f f0 40 bc f6 a7 30 b8 76 3a 8d bc 20 c3 99 42
       -0.011776014 -4.2118096e-05 -0.01723979 76.8811
0002f0 5d c4 99 42 cd cd 99 42 32 c6 99 42 03 ca 99 42
       76.88352 76.901955 76.8871 76.894554
000300 e1 68 2e 3c 60 48 64 bc 5c d6 30 bc ce 77 be bb
       0.010645122 -0.013933271 -0.010793295 -0.0058126217
000310 41 04 03 3e a8 02 a4 3c 35 e4 73 3b 29 6b 38 bc
       0.12794591 0.020020798 0.003721488 -0.011256018
000320 15 24 20 bb e9 f1 99 3b 5b 4a 1b 3c 78 f7 32 bc
       -0.002443557 0.0046980274 0.009478177 -0.010923259
000330 84 26 98 3b 06 75 b6 bb dd 64 d5 3b 39 8b 41 3d
       0.0046432633 -0.0055681495 0.006512268 0.047251914
000340 15 c0 23 3c 67 51 49 bc 81 f2 1c 3c 68 6c 2b bc
       0.009994526 -0.012287474 0.009579302 -0.010462858
000350 bb c8 2c bd b2 51 1e bd de 01 8b 39 1e 71 a7 3b
       -0.04218362 -0.03865213 0.00026513537 0.00510992
000360 c3 f3 43 bc f1 0d 4b bc a1 59 00 bd 55 3d 3d 3c
       -0.011959973 -0.012393461 -0.031335477 0.011550267
000370 58 69 e5 3b 07 8c 1b 3c be 7a c4 3b 3a 51 20 bc
       0.0070010833 0.009493834 0.0059960773 -0.009784991
000380 ed ff 17 bd 4c f3 53 3b d0 54 a2 3b 8a a9 09 3c
       -0.037109304 0.003234106 0.004953958 0.008402238
000390 6b e9 8c bc ef f2 a0 3b 1b 0c b4 bb 9f 26 f0 bb
       -0.017201146 0.0049117724 -0.005494607 -0.0073288227
0003a0 6f 43 51 bc 5c 2e cc 3a 97 b6 29 bb 27 d2 a5 3d
       -0.012772425 0.0015577781 -0.0025896186 0.08096724
0003b0 00 6b 56 bc d5 92 4f 3d ac 75 79 bb 3f 83 65 bc
       -0.013087034 0.05067714 -0.0038064523 -0.014008342
0003c0 7d c2 bc bb 9d 91 9a bb 6f 72 ba bb 00 56 d0 3b
       -0.0057604895 -0.0047170655 -0.005689911 0.0063579082
0003d0 46 52 e9 bc e7 e0 0f 3c bd 0e b1 bb 74 84 d8 3c
       -0.028481614 0.008781648 -0.0054033683 0.026430346
0003e0 76 5f 28 bc 89 3c 39 3c 40 34 23 bc 21 ac 24 bc
       -0.010276666 0.011305937 -0.009961188 -0.010050804
0003f0 13 bc 54 ba 6a 61 0a 3c 7b fb 38 bc 9d fe 85 bc
       -0.00081151834 0.008446077 -0.011290426 -0.01635676

layer2.bias f4 [64]
000000 24 66 19 bc df 6f 29 3c 18 1f 9c 42 9f 5c 8e ba
       -0.009362731 0.010341614 78.06073 -0.0010861343
000010 d3 1c 9c 42 5b 1f 9c 42 41 a8 7a bc b3 74 52 bc
       78.0563 78.06124 -0.015298904 -0.012845206
000020 dc 25 9c 42 30 6a b4 bb fe 21 9c 42 f4 a7 35 bc
       78.073944 -0.0055058226 78.06639 -0.011087406
000030 fd 1d 9c 42 c4 5e 5b 3c 7e 22 9c 42 01 18 9c 42
       78.05857 0.013389293 78.06737 78.04688
000040 ca 1c 9c 42 37 26 9c 42 e8 fd 40 bb b9 21 9c 42
       78.05623 78.07464 -0.0029448215 78.065865
000050 6b 17 fb 3b a6 19 9c 42 5f 5a 54 3b 71 e9 20 bc
       0.0076627037 78.050095 0.0032402498 -0.009821282
000060 d9 f5 79 bc ae 24 54 bc 04 c3 13 bc fc 18 9c 42
       -0.015256369 -0.012948198 -0.009018663 78.0488
000070 f8 e6 63 bc 40 27 9c 42 d5 26 9c 42 1a fd 24 3c
       -0.013910048 78.07666 78.07584 0.01007011
000080 0d 60 ea 3b 7b 57 50 bc 15 20 9c 42 b8 17 9c 42
       0.0071525634 -0.0127161695 78.06266 78.046326
000090 c8 20 9c 42 01 0f f4 3b 37 42 27 ba dc 4c b2 ba
       78.064026 0.0074480777 -0.0006380411 -0.0013603228
0000a0 1f 17 9c 42 1c 1c 9c 42 fc 21 9c 42 82 2d 4c ba
       78.04516 78.0549 78.066376 -0.00077887636
0000b0 c9 b3 b5 39 c7 44 3a bc f0 95 61 bc d9 1e 9c 42
       0.0003465696 -0.011368937 -0.013768658 78.06025
0000c0 c6 22 52 bc 18 b7 5c bc e1 1e 9c 42 b8 60 ca 39
       -0.012825673 -0.013471387 78.06031 0.00038600503
0000d0 92 1e 9c 42 9b 1f 9c 42 bf 19 9c 42 65 1f 9c 42
       78.05971 78.06173 78.050285 78.06132
0000e0 f6 25 9c 42 69 1a 9c 42 97 ff bb bb 56 22 9c 42
       78.07414 78.05158 -0.005737256 78.06706
0000f0 cc 1a 9c 42 8a 22 9c 42 6c 25 9c 42 72 23 9c 42
       78.05234 78.06746 78.07309 78.06923

layer3.weight f4 [64, 64]
000000 67 96 e8 3b 6f 3d 6f bc 21 0a 83 bc d1 13 56 bc
       0.0070980075 -0.014602049 -0.01599604 -0.013066248
000010 2c dc 12 3a 0e 4b 80 bc f3 ac 6f 3b ee 0f a5 bb
       0.0005602266 -0.015660789 0.0036571592 -0.0050372994
000020 d1 c4 2e bb 03 92 6c bb 7f 48 3d b8 fb d7 35 bc
       -0.0026667605 -0.0036097772 -4.512863e-05 -0.011098857
000030 3b 5e 69 bc 32 d8 7f 3b 89 9b 3e 3a 5f a6 98 bb
       -0.014243658 0.0039038775 0.00072711013 -0.004658505
000040 0b ae fa 3a 76 ee 07 3c 84 b7 1f 3c 52 c5 67 bc
       0.0019125355 0.0082966 0.009748343 -0.014146166
000050 ab 94 fa bb 7c 54 bf 3c 95 da f9 bb 8b 93 7e 3c
       -0.007647117 0.023355715 -0.007624934 0.015538107
000060 d3 70 36 bc 74 73 b2 bb b5 3f 55 bc 80 da 5a 3c
       -0.011135298 -0.005445892 -0.013015677 0.0133577585
000070 4e 4e 99 39 8d 82 39 bc e9 54 8f 3b 55 29 34 3c
       0.00029240776 -0.01132263 0.0043741358 0.010996182
000080 b4 6a 5a 3b 33 7a 59 bc 54 c9 4a bc 70 f8 91 3b
       0.003332776 -0.0132737635 -0.012377102 0.004454665
000090 1d 57 a8 3b 8c ee a9 bb ca 99 37 3c 11 63 59 3c
       0.005137338 -0.0051859077 0.0112061 0.013268248
0000a0 75 4d 37 3c da 2f e9 3b 43 fd 07 3c 6d 99 14 bc
       0.011187901 0.0071163 0.008300128 -0.009069783
0000b0 ac 22 27 3c 9b 0b 9a 3b f1 f5 39 bb 72 a4 3f 3c
       0.0102011375 0.0047010905 -0.0028375352 0.011696922
0000c0 1d e6 1c bb e0 c4 0d 3c a0 b8 c8 3b 8f 4e 3a bc
       -0.002394087 0.008652896 0.0061255246 -0.011371269
0000d0 88 48 89 3b 66 74 e7 bb 30 49 fa 3b 3c 9e 31 bc
       0.0041895546 -0.0070634363 0.007638119 -0.010840949
0000e0 99 03 69 bc 64 8d 3d 3c a0 73 c0 bb 2a 8d 5b bc
       -0.014222049 0.011569355 -0.0058731586 -0.013400355
0000f0 11 6c 02 bc 89 25 22 bc ea 3c 16 3c 7f 9f 2f bc
       -0.007960335 -0.009896644 0.0091697965 -0.010719179
000100 41 05 25 bc e8 5b 2f bb 86 93 99 42 77 cb ba 3d
       -0.010072053 -0.0026757661 76.78813 0.09120839
000110 67 94 99 42 49 8b 99 42 a4 a3 3e bc 0c 2f 32 3c
       76.78985 76.77204 -0.011635695 0.010875475
000120 a2 8a 99 42 fe 1c 04 bd 65 8a 99 42 cb e7 26 bc
       76.77077 -0.03225421 76.7703 -0.0101871
000130 74 94 99 42 9f f9 d4 ba 46 91 99 42 26 95 99 42
       76.78995 -0.0016248709 76.78374 76.791306
000140 5d 8d 99 42 9e 8b 99 42 7a 6e 7b 3c e9 8d 99 42
       76.7761 76.77269 0.015346164 76.77717
000150 fd 6d a1 3b fc 93 99 42 89 38 1f 3c a7 72 ec bb
       0.0049264417 76.78903 0.009718069 -0.007215816
000160 47 90 44 3b cf 28 2d bc 5b 3f 54 3c 29 94 99 42
       0.0029993223 -0.010568812 0.012954558 76.789375
000170 5b 4e e4 ba 50 90 99 42 95 91 99 42 04 17 52 3c
       -0.0017418371 76.78186 76.78434 0.01282287
000180 71 cc 3e bc de 14 ff 3b 08 8a 99 42 7a 92 99 42
       -0.011645422 0.00778447 76.76959 76.78609
000190 43 8e 99 42 02 89 42 3c ff 12 3c 3d 3c 72 58 3d
       76.777855 0.0118734855 0.045916554 0.052843317
0001a0 24 94 99 42 6e 95 99 42 e7 93 99 42 b0 53 38 bc
       76.78934 76.791855 76.78887 -0.011250421
0001b0 eb ae 62 bb 1a ab e2 3b 47 8b 68 39 3d 92 99 42
       -0.0034589123 0.0069173696 0.00022177129 76.78562
0001c0 64 37 01 bc 23 67 19 3c 2c 96 99 42 f4 5b 2c 3c
       -0.007886741 0.009362969 76.793304 0.01051997
0001d0 a1 8b 99 42 c3 93 99 42 e1 95 99 42 5e 97 99 42
       76.77271 76.7886 76.79273 76.79564
0001e0 87 87 99 42 04 8e 99 42 80 e8 df bb 32 89 99 42
       76.7647 76.777374 -0.006833136 76.76796
0001f0 9a 8f 99 42 f5 94 99 42 fd 89 99 42 4b 91 99 42
       76.78047 76.79093 76.76951 76.783775
000200 71 8b 32 bc 35 73 06 3c e2 c1 ca 39 5f 96 04 bc
       -0.010897503 0.008206178 0.00038672896 -0.008092492
000210 f0 97 e0 ba 73 bc 9e 3b 81 a2 46 bb c7 b3 46 3c
       -0.0017135125 0.0048442422 -0.0030309262 0.012127823
000220 e6 f9 28 3c 89 29 35 bc 79 3f a0 bb c4 5a 35 bc
       0.010313487 -0.011057266 -0.004890379 -0.0110690035
000230 a4 a1 86 bb b0 47 04 bc 05 4c d3 bb fa e1 32 3c
       -0.0041086245 -0.008073732 -0.006448271 0.010918135
000240 c9 b6 0c 3b 8b 1d 0f bc 83 be 3a ba aa bc cf 3b
       0.0021471253 -0.008735071 -0.00071237254 0.006339629
000250 1f ed ed ba 67 06 52 bc 32 03 de 3b f7 df 7d bc
       -0.0018152333 -0.012818909 0.0067752833 -0.015495292
000260 60 a4 1b bc 31 b5 f6 bb 74 ce af 3b 69 a1 43 3c
       -0.009499639 -0.007528924 0.0053651873 0.011940339
000270 21 6e 18 3c 21 4e a3 b9 df d3 59 3a 21 88 e0 b6
       0.0093036005 -0.00031147993 0.00083094643 -6.6915677e-06
000280 37 64 5c ba f5 25 51 3a 07 76 30 3c b4 0b 98 3b
       -0.0008407267 0.00079783733 0.010770327 0.004640067
000290 a6 41 a0 39 00 91 e3 bb b6 fd 38 3c 88 c0 3e bc
       0.0003056649 -0.0069447756 0.011290958 -0.011642583
0002a0 1d 31 56 bc 66 8b 4b bc e5 f4 5e bc 77 51 37 3c
       -0.013073233 -0.012423372 -0.013608192 0.011188856
0002b0 bd ee a3 bb ec 62 5e bc 09 8a 49 bc b3 67 66 bb
       -0.005002825 -0.0135733895 -0.012300977 -0.0035157024
0002c0 76 f0 bc 3b b0 94 57 bc f8 fd 13 3c 51 b0 fc 3a
       0.00576597 -0.013158008 0.009032719 0.0019278621
0002d0 04 d7 16 bc 15 ce 2b 3c 24 67 7e bc df ca 97 3b
       -0.009206537 0.0104861455 -0.01552752 0.0046323384
0002e0 ce 36 7c 3b 72 58 ce 3a 94 f7 35 3c 13 2e e2 3b
       0.0038484815 0.0015742911 0.0111063905 0.006902465
0002f0 85 11 d7 3b 0d b0 2f 3b 51 38 0d bc aa 9e 7a bc
       0.006563368 0.0026807815 -0.008619384 -0.0152966175
000300 80 39 e3 bb 11 0d 57 bc d1 7c 99 42 e9 1b a5 3d
       -0.006934345 -0.013125674 76.74378 0.08061964
000310 a3 7d 99 42 e3 77 99 42 b4 f9 0d bc f3 18 23 3b
       76.745384 76.73415 -0.008665491 0.0024886697
000320 5b 79 99 42 6d 0d b7 3d eb 85 99 42 b5 8e d2 bb
       76.73702 0.08938108 76.76156 -0.0064257034
000330 e2 7e 99 42 55 92 b1 b8 bc 7b 99 42 10 7c 99 42
       76.74782 -8.467274e-05 76.74167 76.74231
000340 e4 79 99 42 30 81 99 42 8f 23 d1 ba 33 7d 99 42
       76.73807 76.75232 -0.0015956032 76.74453
000350 5b 91 08 3c a4 77 99 42 5e 09 0c bc be 19 4d 3c
       0.008335437 76.73367 -0.008547155 0.012518344
000360 f8 3e 93 ba e4 45 16 3c 99 fd 6a 3b 6c 7b 99 42
       -0.0011233976 0.009171937 0.0035856722 76.74106
000370 86 b7 84 3b 3d 7b 99 42 2c 7f 99 42 f5 ec 1b 3b
       0.004050198 76.7407 76.74838 0.002379236
000380 7c 79 ac bb f8 a0 da 3b 67 80 99 42 bc 7b 99 42
       -0.0052635055 0.006672021 76.750786 76.74167
000390 e7 74 99 42 1b 64 51 3c d2 31 15 3e f7 db 85 3d
       76.728325 0.012780215 0.14569786 0.065360956
0003a0 dc 73 99 42 61 7a 99 42 c1 7f 99 42 51 d2 c9 bb
       76.72629 76.73902 76.74952 -0.006159105
0003b0 cc 1e 4a bc 6e 58 c6 3b d9 a1 3d 3c fb 7e 99 42
       -0.012336444 0.006053022 0.011574232 76.74801
0003c0 71 ec 67 bc c7 5b 20 3b f0 7d 99 42 32 92 56 bb
       -0.014155493 0.0024468766 76.74597 -0.0032740948
0003d0 fb 7b 99 42 62 73 99 42 79 7d 99 42 3c 75 99 42
       76.74215 76.72536 76.74506 76.72897
0003e0 b1 77 99 42 e6 75 99 42 8a ae 08 bc 3a 7f 99 42
       76.73377 76.73027 -0.008342395 76.74849
0003f0 b3 7a 99 42 71 79 99 42 8f 7d 99 42 4c 7f 99 42
       76.73965 76.73719 76.74523 76.74863

layer3.bias f4 [64]
000000 c7 0c 47 ba d2 56 97 42 7c 9d d0 bb 93 6f 97 42
       -0.00075931515 75.66957 -0.00636643 75.71792
000010 ed 0d 97 42 bf be 1c bc b5 65 6a ba 8f 11 97 42
       75.5272 -0.009566962 -0.0008941547 75.534294
000020 91 2f 97 42 b0 da 96 42 85 1f c8 bb 04 3d 2c bc
       75.5929 75.427124 -0.006107273 -0.010512594
000030 e2 01 97 42 a8 85 97 42 dd 21 63 bb 8f 30 1e 3c
       75.50368 75.76105 -0.0034657635 0.009655132
000040 13 a6 59 bc dc 65 97 42 9b 94 97 42 75 74 97 42
       -0.013284224 75.698944 75.790245 75.727455
000050 73 5c 25 bc 2a 57 69 3b 12 cf d5 3a 0b 41 ca 3b
       -0.010092842 0.0035604932 0.0016312322 0.0061723045
000060 2a 64 f1 3b 37 1a 97 42 bf e6 fd b9 51 c1 a0 3a
       0.007366677 75.5512 -0.0004842784 0.0012264644
000070 1d d0 91 3b 41 13 ee 3b 89 7c 97 42 45 0b 8c 39
       0.004449858 0.007265479 75.74323 0.00026711277
000080 63 97 6a bc ed 63 97 42 ed 87 72 3b cc 9f 96 42
       -0.01431832 75.69517 0.0037007288 75.3121
000090 82 76 ac 3b 33 e2 58 3c b8 6b 74 3b fd d0 24 bc
       0.0052631507 0.013237524 0.003729565 -0.010059592
0000a0 da 53 09 3b 38 19 97 42 d0 7c 97 42 fc 4c 97 42
       0.002095452 75.549255 75.743774 75.65036
0000b0 45 b0 4f bb c1 44 02 3b 94 80 d1 b8 b8 84 97 42
       -0.0031690758 0.0019877406 -9.989846e-05 75.75922
0000c0 90 e3 47 39 77 6a 97 42 33 99 5c bc 53 75 46 3c
       0.00019062893 75.70794 -0.01346426 0.012112933
0000d0 e0 3e a3 bb f3 50 4e bc b3 12 5a bc 7b d2 4f bc
       -0.0049818605 -0.012592542 -0.013310122 -0.01268446
0000e0 80 19 65 3c 47 67 22 bc 09 85 97 42 33 fe 44 bc
       0.01398313 -0.009912319 75.759834 -0.012023496
0000f0 9d 58 30 3b 8b 93 ec 3b 97 54 97 42 58 82 19 bb
       0.0026908286 0.007219737 75.665215 -0.0023423638

layer4.weight f4 [290, 64]
000000 b3 85 3d bb 83 3d 8c 42 f8 e9 a3 bb 8d 3b 8c 42
       -0.0028918802 70.12014 -0.0050022565 70.11631
000010 bc 36 8c 42 91 2b bb bb 51 5f 70 bc 7e 39 8c 42
       70.1069 -0.0057119806 -0.014671163 70.11229
000020 0f 38 8c 42 25 36 8c 42 77 8d 26 3a 0d e2 08 3c
       70.10949 70.10575 0.00063534774 0.008354676
000030 f5 36 8c 42 d2 40 8c 42 09 3b 85 36 71 ec a0 3d
       70.10734 70.1266 3.9705815e-06 0.078575976
000040 32 6d 88 b9 8e 39 8c 42 7f 3f 8c 42 fb 3c 8c 42
       -0.00026021298 70.11241 70.124016 70.1191
000050 ef a3 64 bb 58 13 4d 3c 57 f9 62 3c e5 5f 38 3c
       -0.003488775 0.012516819 0.013853393 0.011253332
000060 40 33 e5 39 33 38 8c 42 55 6f da 3b b1 61 80 ba
       0.00043716468 70.109764 0.006666104 -0.0009794739
000070 ff 5f d5 3b 3d c3 45 bc b3 3c 8c 42 ca 7c 8b bb
       0.0065116878 -0.012070474 70.11855 -0.0042568194
000080 5d 57 3f 3c 9f 3c 8c 42 f9 5d 5d 3c 2d 34 8c 42
       0.011678544 70.1184 0.013511174 70.101906
000090 f4 38 3d 3c 92 6a 5b 3c 14 53 a5 bc a8 fe fd bb
       0.011549223 0.013392108 -0.020181216 -0.0077513047
0000a0 d1 e0 5b 3c 2a 37 8c 42 db 40 8c 42 7e 3b 8c 42
       0.0134203 70.10774 70.12667 70.116196
0000b0 42 66 b7 bb 05 f2 2d bd 34 57 5b bc e4 3d 8c 42
       -0.005596907 -0.042467136 -0.01338749 70.12088
0000c0 1c 64 c8 bb ee 3b 8c 42 f0 06 34 ba 41 98 35 3d
       -0.0061154496 70.11705 -0.0006867489 0.044334654
0000d0 f8 c4 00 bc 6b 82 86 3b a2 ec 49 3b f8 bb d9 bc
       -0.007859461 0.0041049025 0.003081121 -0.026578888
0000e0 fb 66 43 bb ad f0 c9 bb 7f 40 8c 42 3c 89 b0 bb
       -0.002981602 -0.006162724 70.12597 -0.0053874534
0000f0 41 70 ad bb 74 e7 22 3b 08 3a 8c 42 81 a2 f6 3b
       -0.0052929227 0.0024857195 70.11334 0.007526696
000100 98 11 cf 3b e0 a9 85 3e 13 cd 11 bb 2a 51 89 3e
       0.006319236 0.26106167 -0.0022247478 0.26819736
000110 55 4e 75 3e 83 a6 88 bb 6e 60 98 3b 0d 29 84 3e
       0.23955663 -0.0041702404 0.004650167 0.2581257
000120 2b af 8d 3e 4e 4c 7b 3e 1b 92 b3 3c cf 40 35 bc
       0.27672705 0.24540827 0.021920254 -0.011062815
000130 01 d5 82 3e 43 e7 8c 3e 31 1a 9e 3b b9 a7 94 3d
       0.25553134 0.2752019 0.0048248996 0.07258553
000140 95 b5 e2 38 f8 06 74 3e 42 79 8e 3e 26 68 88 3e
       0.00010810342 0.23830783 0.27826887 0.2664196
000150 db a0 63 bb 13 a5 1c 3c 57 d7 ca 3b ec 27 17 3b
       -0.0034733329 0.009560841 0.0061902213 0.0023064567
000160 9d 81 13 bb 8c 2e 82 3e 64 19 66 ba 70 df 09 3c
       -0.0022507675 0.25426137 -0.0008777587 0.008415088
000170 07 bf 3a 3c 0e 50 f7 3b 19 d3 82 3e 30 4e 16 bc
       0.0113980835 0.007547385 0.2555168 -0.009173915
000180 79 eb 9b 3a db 90 8a 3e 21 45 f9 3b 48 9f 80 3e
       0.0011895738 0.2706364 0.0076071178 0.25121522
000190 af 76 48 3c 38 28 de bb 32 9e 68 3c 79 d7 3e bb
       0.012235328 -0.006779697 0.014197873 -0.002912013
0001a0 5b 09 44 3c 02 bb 8a 3e a4 ef 88 3e ce ce 87 3e
       0.011965121 0.270958 0.2674533 0.26524967
0001b0 6d 57 47 3c de 87 9f 3c 19 02 59 3a 06 4f 8a 3e
       0.01216684 0.019473966 0.00082782056 0.27013415
0001c0 ab 6b 2c bc 9a ec 7e 3e c4 06 8b bb ef 89 7d 3d
       -0.010523717 0.24894944 -0.00424275 0.06189912
0001d0 b7 a6 5a 3a 2e 81 04 3c 6c e6 b9 bb da f0 e7 3c
       0.00083408825 0.008087439 -0.0056732204 0.02831309
0001e0 ed ef a2 bb a2 3e e5 ba 95 1c 89 3e 05 8f 5f 3b
       -0.004972449 -0.001748998 0.2677962 0.0034112346
0001f0 b0 47 a2 3b 8c c0 15 3c 42 dc 86 3e 78 57 63 3a
       0.0049523935 0.009140145 0.26339918 0.00086723967
000200 db 58 26 3c 53 11 9c 3e d2 50 29 ba 12 db 9e 3e
       0.010153021 0.30481967 -0.00064588815 0.31026512
000210 f8 91 a6 3e 12 59 dd bb e5 7f 26 3c 3f 7e a0 3e
       0.3253324 -0.006755003 0.010162328 0.31346318
000220 6d 47 9f 3e c1 8a a7 3e 13 43 5e 3b 58 b7 83 3b
       0.3110918 0.32723048 0.003391449 0.004019659
000230 bb 41 a8 3e a4 5d a2 3e 51 76 22 3b 1f 7c 95 3a
       0.32862648 0.31712067 0.002478976 0.0011404789
000240 ef 58 26 3c f7 71 a1 3e 75 22 a3 3e 79 42 9d 3e
       0.010153039 0.3153226 0.31862226 0.30714777
000250 3e 94 47 bb b3 e8 bd ba 7c d6 28 3c 93 03 8a bb
       -0.003045335 -0.0014488905 0.010305043 -0.004211852
000260 f3 eb 25 b9 8d 13 a3 3e 00 70 15 bc 37 1f 06 3c
       -0.00015823524 0.31850854 -0.009120941 0.008186153
000270 93 7d 29 bc bf 24 81 b9 e9 8b a4 3e 9f 97 d5 bb
       -0.010344881 -0.00024632175 0.32137993 -0.006518319
000280 01 23 03 bc 9d 76 a4 3e 6f 62 16 3c e0 06 b9 3e
       -0.008003951 0.32121745 0.009178742 0.36138058
000290 83 6e ce bb a3 e9 f7 3a 64 77 0b bb 97 70 0e 3c
       -0.006299795 0.0018914234 -0.002128088 0.008693836
0002a0 4d 30 49 3c ab 50 9f 3e 0a 8e a2 3e a2 ff a2 3e
       0.012279582 0.31116232 0.31748992 0.31835657
0002b0 43 1b 30 3c 72 33 79 3c 3c e3 11 bc 00 d2 a9 3e
       0.010748687 0.015210019 -0.008904275 0.3316803
0002c0 08 72 8c ba 6d 5b a3 3e f2 f5 c3 bb 0b d0 34 3c
       -0.0010715136 0.3190569 -0.0059802467 0.011035929
0002d0 6e 22 57 3c 26 5a cd 39 98 f8 02 bc ba 69 5d 3b
       0.013130767 0.00039167813 -0.00799384 0.0033784942
0002e0 55 17 f6 3a 0e 4b 06 3c 9f 62 a7 3e 96 9f bd bb
       0.0018775264 0.008196605 0.3269243 -0.0057868464
0002f0 38 ab 31 3c 43 9a 51 3c 62 de 9d 3e 8f d4 39 3c
       0.010844044 0.0127931265 0.30833727 0.011342182
000300 e0 c3 d7 bb c2 59 8e 3e 4f ea 05 3c 98 da 90 3e
       -0.0065846294 0.27802855 0.008173539 0.28291774
000310 30 13 8d 3e 85 a2 3d 3b 4b 53 c2 3b 2a 56 8d 3e
       0.275537 0.002893598 0.0059303395 0.276048
000320 fe 64 87 3e b0 3d 8e 3e b7 4a 8f 3c 2d 4e f5 bb
       0.26444238 0.2778144 0.017491682 -0.007486126
000330 c4 6b 88 3e 91 87 90 3e 42 88 3c 3c 7d ec de 3b
       0.2664472 0.2822843 0.011507096 0.006803094
000340 32 16 cd bb 61 dd 8a 3e 1e 56 87 3e 91 47 8a 3e
       -0.0062587494 0.27122024 0.2643289 0.27007726
000350 3f 3d b0 ba 67 4f c3 b8 89 08 2e bb 3d c2 6a 3a
       -0.0013445987 -9.3131144e-05 -0.002655538 0.00089553354
000360 57 b0 9f bb e8 85 87 3e e5 2d 60 3c 4b 47 31 3c
       -0.0048733163 0.2646935 0.013682817 0.01082022
000370 57 31 2c 3c c2 3c 0d bc 5e 62 88 3e 97 03 63 39
       0.01050981 -0.008620443 0.26637548 0.00021649744
000380 fd 30 6d 3c a5 2a 8d 3e be 21 ab 3b 96 3b 92 3e
       0.014477012 0.27571598 0.0052225282 0.28561085
000390 ea f7 09 bc d4 a3 70 39 93 53 6e 3b 2b 16 63 3c
       -0.008420924 0.00022949214 0.0036365732 0.013860266
0003a0 e2 3f 59 3c a7 3b 8a 3e 56 19 93 3e 3f e0 85 3e
       0.01325986 0.26998636 0.28730267 0.2614765
0003b0 ef e9 0b 3c 94 cc f7 3b e1 f0 cb 3a 60 29 89 3e
       0.008539661 0.0075622294 0.0015559458 0.2678938
0003c0 ab bd 3b 3c 7a 6d 90 3e 4c 76 b2 b9 b5 11 eb 3a
       0.011458795 0.28208524 -0.00034038944 0.0017934354
0003d0 73 75 ce 3b 6e d0 42 bc e8 e8 37 3c 42 33 dd 3b
       0.006300622 -0.011890514 0.011224963 0.006750495
0003e0 5b 46 43 3c c3 7b 53 bc 3c e8 86 3e 49 53 69 3c
       0.0119186295 -0.012907925 0.26349056 0.014241048
0003f0 9e 90 e0 3b 48 28 59 bc 8c a2 90 3e 04 58 07 bc
       0.006853177 -0.013254233 0.28249013 -0.008260731

layer4.bias f4 [290]
000000 c7 fa 7e 42 a0 d4 3c 3e 18 f4 8c 3e 35 bd 5e 3e
       63.7449 0.18440485 0.2752998 0.21751864
000010 b0 b3 46 3f d5 ce e5 3d b9 f4 91 3e ce ed 7f 3e
       0.7761793 0.11221091 0.2850702 0.24993059
000020 1e cc 6c 42 c7 6a 64 42 9c ab 86 3e a2 e1 98 3e
       59.199333 57.104275 0.26302803 0.29859644
000030 ef 00 32 3e 8c 61 0c 3f d6 74 1f 3e 25 fc 94 3e
       0.17383169 0.54836345 0.15571913 0.2909862
000040 f8 75 18 3e cf fa cb 3e 32 0e 9b 3f f4 60 c6 3e
       0.14888752 0.3983979 1.2113707 0.38745844
000050 f5 d7 67 42 f7 cd dc 3d 5b e5 0a 3c 63 73 95 3c
       57.960896 0.10781472 0.008477534 0.018243497
000060 8c 8b be 3b f8 5c 37 3c a2 48 b9 3d 53 ec 0b 3c
       0.005814975 0.011191599 0.09047057 0.008540231
000070 f9 85 1a 3e d7 b8 a2 40 28 db e7 3d e1 61 06 3e
       0.15090169 5.0850635 0.113210976 0.13123275
000080 4c f8 1a 3e df be e3 bb 37 4a 43 bc 4e 3c 5f bb
       0.1513378 -0.006950244 -0.01191955 -0.0034063044
000090 d8 b6 83 bb c6 6e a5 3c a0 20 dc 3c 65 a1 a2 3d
       -0.0040195994 0.020194422 0.026871026 0.0794094
0000a0 1f 39 bb 3d ad 4b 75 3d a7 7c 9d 3d 98 0e a3 3d
       0.09141754 0.059886623 0.07689791 0.07961768
0000b0 1e bf 92 3e 47 09 2d 3c 85 4e 23 bc 5d 6b 40 bc
       0.28661436 0.010561294 -0.009967451 -0.011744347
0000c0 d1 fb c6 bb 47 ae fe 3f 41 4a 00 3f 61 53 99 bb
       -0.0060724993 1.9896935 0.501133 -0.004679129
0000d0 d6 16 c8 41 21 b1 06 3f 10 1c 82 3e 4c eb 37 3c
       25.01115 0.5261403 0.25412035 0.011225533
0000e0 fb 3b 5a ba 8c 9f 46 bc 5b 31 3b 3c 6d bd a1 3e
       -0.0008324978 -0.012123 0.0114253415 0.31589833
0000f0 ed 8a 95 bb 34 11 28 3c 63 9e 82 3b d7 19 69 3c
       -0.0045636804 0.010258008 0.0039861663 0.014227352
000100 6e cd c2 ba 7d 7a 25 bc 21 dd a4 3c d8 9e 19 3d
       -0.0014862248 -0.010100004 0.020124974 0.037505
000110 62 df 3b 3d 24 8d 82 3d fe 2e 20 bc 01 5a 81 3d
       0.04586733 0.06374577 -0.009776829 0.06315995
000120 60 88 8a 3d e7 5f e5 3b f3 97 18 bc de cc 2f bc
       0.06764293 0.006999958 -0.009313571 -0.0107299965
000130 b1 c2 8a bb 68 3f 60 bc 36 ed 48 bc b0 9b 65 bb
       -0.004234635 -0.013686992 -0.012263587 -0.0035035424
000140 b3 f1 e7 3c 47 e7 20 3d 32 72 5d 3c 65 f5 de 3e
       0.028313493 0.039283063 0.013515996 0.43546596
000150 17 3b e0 41 d9 15 29 3f fe f0 fc bb 88 03 97 bb
       28.028852 0.6604896 -0.007719158 -0.0046085753
000160 d6 e6 15 bc e7 21 47 3f a1 b3 03 3b 1f 38 83 3c
       -0.009149274 0.77786106 0.002009608 0.016017972
000170 2c d6 45 3c c9 a6 1e 3b 83 99 43 bc b9 ac 33 3b
       0.012074988 0.0024208298 -0.0119384555 0.0027416183
000180 24 b1 5c bc 6d d8 a6 bb 48 ac cc bb 2e 88 91 39
       -0.013469968 -0.005091718 -0.0062461235 0.00027758017
000190 46 76 36 3c f2 32 ad bb f6 11 b8 3b 94 88 ac 3d
       0.011136597 -0.005285614 0.0056173755 0.08424488
0001a0 3c a4 9f 3a e7 54 96 40 11 da 96 3e 49 4e 9c 3b
       0.0012179683 4.697864 0.29463246 0.0047700745
0001b0 72 73 d7 3a bc 83 0d 3e 9e a1 67 bc a3 33 c0 41
       0.0016437604 0.13819784 -0.014137654 24.025213
0001c0 07 ef 49 bc 8f 74 51 bc 8f 26 20 bb 2b 5c 09 3b
       -0.012325055 -0.012784137 -0.0024437045 0.0020959477
0001d0 8e 31 01 3c 36 18 32 bc c4 f3 04 bb 21 45 02 3c
       0.00788535 -0.01087003 -0.0020286897 0.007951052
0001e0 ec 98 ca ba d8 95 ce 3c 5d a8 98 ba a3 ad 83 3d
       -0.0015456951 0.025217935 -0.0011646856 0.06429603
0001f0 9e 48 d0 3b 78 bc 93 3d ac 18 5d bc 27 7f 99 b7
       0.006356313 0.07213682 -0.013494652 -1.8298231e-05
000200 63 f0 2c bc 24 af 76 bb 9f 1c ea 3b ca 92 3b bc
       -0.01055536 -0.0037641013 0.007144525 -0.011448571
000210 70 3e 55 3c 15 4e a9 3b 5b 20 9a 3b 81 f9 38 3c
       0.013015375 0.005166779 0.004703564 0.011289955
000220 5d 26 61 3c ca ce ec 3b 5b b3 3a bb 88 ff 31 bc
       0.013742057 0.0072267996 -0.0028488252 -0.010864146
000230 49 26 e2 41 fb 2a 63 bc e2 87 4f bc 1a d8 50 3f
       28.268694 -0.013865228 -0.012666674 0.81579745
000240 8d 85 dd 3b a2 7b cc 3b 0e 34 26 3b 7d f0 0f ba
       0.0067603053 0.006240324 0.0025360617 -0.00054908526
000250 45 94 23 bc 59 db 0e bc 7e 44 18 bc 50 f7 8f bb
       -0.009984081 -0.008719289 -0.009293674 -0.0043934956
000260 a2 f9 0b 3c eb 00 12 3c ec 34 0f 3c 48 88 26 3c
       0.008543404 0.008911352 0.008740645 0.010164328
000270 a9 7b 87 bb d7 71 1f 3c 22 97 6f 3b 0c 3c 5f 3d
       -0.0041346145 0.009731731 0.0036558588 0.054500625
000280 ab c1 39 bc 91 a2 3d bc 17 1a 1e 3c 5c bc 12 3c
       -0.011337678 -0.011574403 0.009649775 0.008956041
000290 6d b8 eb bb 85 ac 24 3f 58 83 d1 bb cf c4 54 bc
       -0.007193616 0.64325744 -0.006393831 -0.012986376
0002a0 3f 75 00 3c ed 0f 14 bb 6f 9f 16 3c 95 1c 53 bc
       0.007840454 -0.00225925 0.009193285 -0.012885232
0002b0 72 6e c2 3b 36 bc 76 3b 4f 6e 22 3c 03 46 3b bc
       0.0059335763 0.0037648804 0.009913995 -0.011430266
0002c0 a4 bb f8 b9 df 20 cb bb a0 bc 68 bc 03 bc b3 bb
       -0.0004744205 -0.006198987 -0.014205128 -0.005485059
0002d0 9d 42 3c bc 24 53 49 bc e3 c8 a3 3b c8 c9 5c 3c
       -0.011490491 -0.012287889 0.004998313 0.013475843
0002e0 c1 f8 81 bb 0a 9b 6e 3b 63 eb 47 bc b4 18 48 3c
       -0.0039664214 0.0036408328 -0.012202117 0.012212921
0002f0 f7 95 07 bc ce 71 27 3c 5b cc 75 bb 38 e5 05 bc
       -0.0082755005 0.010220004 -0.0037505839 -0.008172326
000300 ae 27 0e 3c 1d 86 65 bb ae 20 51 3f a1 75 d0 bb
       0.008676453 -0.0035022565 0.8169049 -0.0063616787
000310 84 31 13 3c 59 31 5f 3c 72 45 86 bb 61 8d 21 bc
       0.008983973 0.013622605 -0.004097634 -0.0098603675
000320 ed 3a 6c bb e4 50 5b 3e a3 57 d0 3c 5d 85 31 3c
       -0.0036045865 0.21417576 0.025432413 0.010835019
000330 b8 0e 01 3c 7f 84 4b 3c 72 ec 3b bc 97 61 b8 bb
       0.007877044 0.012421726 -0.011469947 -0.005626868
000340 ed cd a9 bb 21 ac 48 bc fd 8e 0c bb 4a 74 a9 3c
       -0.005182019 -0.01224807 -0.0021447532 0.020685334
000350 a0 2d 18 3c 4a a2 bc 3b 0d a1 e5 ba 1d 94 e7 3b
       0.009288222 0.005756651 -0.001751931 0.007067217
000360 aa 2d d9 bb fe b0 44 bc 8a 83 0d bc 07 ab 2e 3c
       -0.006627758 -0.012005089 -0.008637318 0.010660893
000370 9e 9d db bb b8 52 33 3c 02 79 05 3c 47 0a 92 3c
       -0.006702139 0.010945015 0.008146526 0.017827166
000380 17 40 1b 3c f7 08 65 3c 5a 6e 5f bb e1 ca 9b 3d
       0.009475729 0.013979188 -0.0034092874 0.076070555
000390 69 be d6 bb d6 19 da 3d b5 a8 f2 3d ec 30 ce 3d
       -0.0065534604 0.10649459 0.118485846 0.10067925
0003a0 73 2e 8e 3d 09 ef c0 3b 29 b5 9c bb 4e b1 89 3c
       0.06942453 0.00588787 -0.004782338 0.016808178
0003b0 c2 6e 10 3f af db 24 3e da 40 2c 3e df 1c 9a 3d
       0.56419003 0.16099428 0.16821614 0.07525038
0003c0 d1 55 78 3d 96 71 72 3d 54 c0 28 3e e5 53 1b 3e
       0.060628716 0.059190355 0.16479617 0.15168722
0003d0 d0 01 49 3e 36 b3 6d 3c 43 83 00 3e 27 32 00 3f
       0.19629598 0.014508059 0.12550072 0.50076526
0003e0 04 80 d8 3d e5 39 25 3e 55 4d bd 3d 56 92 cc 3e
       0.10571292 0.16135366 0.092432655 0.39955395
0003f0 e3 92 95 3e 41 3c 92 3d 2f 45 17 3e 31 1e ae 3d
       0.29213628 0.07140399 0.14772485 0.08501852
