catanatron_experimental/my_DQN_wyniki2/my_DQN2_800_steps.pth (torch, 268915 bytes, 8 tensors)

layer1.weight f4 [64, 614]
0	0x3b77bfe2	0.003780358
1	0x3ad06273	0.0015898481
2	0xbbca2f27	-0.006170172
3	0x3b904a85	0.0044034147
4	0xbbbf4e9c	-0.0058382284
5	0xb9aabcd7	-0.00032565623
6	0xbb8a1ce4	-0.00421487
7	0x398b5ebc	0.0002658273
8	0xbb1e9a36	-0.0024200804
9	0xbb85a5c9	-0.004078601
10	0x3b2e64d9	0.0026610403
11	0x3b1f7f2f	0.0024337282
12	0x3bba9ff5	0.005695338
13	0x3b659c73	0.0035035878
14	0x3b3c3874	0.0028720172
15	0xbb031de3	-0.0020006828
16	0xbac5005c	-0.0015030014
17	0x3ba7ec7c	0.0051246267
18	0xbbc36bf7	-0.005963798
19	0x39bae1b5	0.0003564485
20	0xbb5bbf38	-0.0033530723
21	0xbaad5536	-0.0013224247
22	0xb6237a31	-2.4360018e-06
23	0x3af5c2d8	0.0018750085
24	0x3ba668e8	0.005078424
25	0x3ba6c83e	0.0050897887
26	0x3b9d9d08	0.0048099793
27	0x3acab9e0	0.0015466772
28	0xb9e51c0d	-0.00043699183
29	0xbb4a1bec	-0.0030839397
30	0x3af7f146	0.001891651
31	0x3b82fb41	0.003997237
32	0xba20f8ec	-0.0006140608
33	0x3a5db49a	0.00084573927
34	0x3accc629	0.0015623021
35	0x3ba3ee6c	0.0050027873
36	0xbbbdb22e	-0.005789063
37	0x3b18b04e	0.0023298445
38	0xb953b89e	-0.00020191303
39	0xbb4efd1e	-0.0031583975
40	0xbb09efde	-0.0021047513
41	0x3b917d48	0.0044399835
42	0x39e85746	0.00044315512
43	0xbb7bb1ab	-0.003840546
44	0xba6af3a1	-0.0008962695
45	0x3b90521d	0.00440432
46	0x3b30f13d	0.0026999258
47	0xbadaa93f	-0.0016682519
48	0x3972a184	0.00023139088
49	0xba44cabb	-0.0007507016
50	0x3ba702b6	0.0050967587
51	0xba1dcac8	-0.00060192915
52	0x3ae8a13d	0.0017748248
53	0x3b3892e3	0.0028163723
54	0xbab281f8	-0.0013619056
55	0x3a090f28	0.0005228394
56	0x3ad2c7c7	0.0016081267
57	0xbb0470cf	-0.002020884
58	0x3b8c8af5	0.004289026
59	0xbaeedc16	-0.001822355
60	0x3b32e7fe	0.0027298923
61	0x3aa1c125	0.0012340887
62	0x380f73bd	3.4201646e-05
63	0xbb49ff09	-0.0030822179
64	0xbb33c8a0	-0.0027432814
65	0xbbb4c50d	-0.0055166543
66	0x3b8066e1	0.003918514
67	0x3b381077	0.0028085986
68	0xbb29f370	-0.0025932454
69	0x3a867bfe	0.0010260341
70	0x3b56c30b	0.0032770063
71	0x3b8d28f2	0.0043078596
72	0xbbb8bc71	-0.0056376983
73	0x3bb86760	0.0056275576
74	0xbab7d596	-0.0014025446
75	0x3b6ac147	0.0035820769
76	0xbb74bfad	-0.0037345693
77	0xbb6576a2	-0.0035013338
78	0xbb9e3c5e	-0.0048289737
79	0xbbb9def5	-0.0056723305
80	0x3a1eefad	0.0006062936
81	0x3b4147fe	0.0029492374
82	0x3ae7e044	0.0017690738
83	0xbb744223	-0.0037270866
84	0xbb9e597f	-0.004832446
85	0x39ad01ce	0.00032998476
86	0xbacea149	-0.001576462
87	0xbbaccb0c	-0.0052732285
88	0xba51cba8	-0.00080030644
89	0xbb875a46	-0.0041306345
90	0xbb493c4d	-0.0030706108
91	0xba8dc25f	-0.0010815373
92	0x3ab17800	0.0013539791
93	0xbaa4f60a	-0.0012585532
94	0xbadd1a34	-0.0016868771
95	0x3afa67e3	0.0019104447
96	0x3b9ccd38	0.004785206
97	0x3998b10e	0.00029123615
98	0xbbaa1048	-0.005189929
99	0x3b586245	0.0033017558
100	0x3b0aef3f	0.002119973
101	0xbb788651	-0.0037921856
102	0xbb9b7a47	-0.004744801
103	0xbb57dfee	-0.003293987
104	0x3b5fa670	0.0034126304
105	0xbb242229	-0.0025044775
106	0x3bb1d930	0.005427502
107	0x3b3e7236	0.0029059774
108	0x39ab1df7	0.00032637987
109	0x3af9ead7	0.001906718
110	0xbb817921	-0.0039512073
111	0x3b4321fe	0.00297749
112	0x3b3ca823	0.002878674
113	0xbba78360	-0.0051120967
114	0xbb718ceb	-0.0036857675
115	0xbb79637b	-0.003805368
116	0xbb82e464	-0.0039945114
117	0xbb002801	-0.0019555094
118	0xbb1a6a4a	-0.0023561888
119	0x3b9a3c8f	0.004706926
120	0x3b0e8d2b	0.0021751623
121	0x39dbfd57	0.00041959688
122	0xbb936fcc	-0.004499411
123	0x3ba0105f	0.004884764
124	0xb874d56c	-5.8372898e-05
125	0xb94c4806	-0.00019481787
126	0x3ac94b41	0.001535751
127	0xbb16c4e8	-0.002300555
128	0x3b04d3f0	0.0020267926
129	0xbac39387	-0.0014921286
130	0x39a2069c	0.00030903972
131	0x3b6ef075	0.0036459242
132	0x3bb0e118	0.005397927
133	0xb8e18b04	-0.0001075473
134	0x3bb66726	0.0055664955
135	0xb962772f	-0.00021597439
136	0x3b7669ae	0.003759961
137	0xba072562	-0.0005155412
138	0x3b3f377a	0.0029177354
139	0xbb5afec5	-0.0033416015
140	0xbb8f9e77	-0.004382904
141	0xb93f38d0	-0.00018236344
142	0xb79438ab	-1.7669363e-05
143	0x3a463720	0.0007561315
144	0x3b9db133	0.0048123836
145	0xbb308636	-0.0026935465
146	0xbadfb2c5	-0.0017066827
147	0x3b95ba84	0.0045693535
148	0xb9c86f80	-0.00038230047
149	0xb9439c87	-0.0001865496
150	0xbae5e2df	-0.0017538926
151	0x3b6cd0c8	0.0036135186
152	0x3bb3223d	0.005466728
153	0xb70a57b2	-8.245859e-06
154	0x3b8932a6	0.004186946
155	0x3afbc986	0.0019209839
156	0xbb11388e	-0.0022158953
157	0xbbb06460	-0.0053830594
158	0x3b5a598a	0.003331753
159	0x3aa3b241	0.0012489037
160	0xbb99c6d6	-0.0046928925
161	0x3b1adb17	0.0023629123
162	0xbb5e213f	-0.0033894328
163	0xb9ffa6f0	-0.00048761768
164	0xbb7d136c	-0.0038616313
165	0xbb93b7bc	-0.004507987
166	0xbb2fe003	-0.0026836402
167	0x3a10bf3f	0.0005521662
168	0xb9ea9c6a	-0.00044748496
169	0x3ab0af0d	0.0013479904
170	0xbb8f92d6	-0.004381518
171	0x3bb426e8	0.005497802
172	0xbb8d2e79	-0.0043085185
173	0x3bb12bb6	0.005406822
174	0xba43bec7	-0.00074670877
175	0xbb4f1c18	-0.0031602439
176	0xbb49976b	-0.0030760418
177	0xbb5f62fa	-0.0034086094
178	0x3a381349	0.00070219167
179	0x3af1fdb0	0.0018462446
180	0x3a8713a5	0.0010305537
181	0x3b806038	0.00391772
182	0xbb500eda	-0.0031747133
183	0xbba572d1	-0.0050490876
184	0x3b45dd90	0.0030191876
185	0xbb788d7b	-0.0037926126
186	0x3b18b664	0.0023302073
187	0xbb3daf6b	-0.0028943669
188	0x3b95a078	0.0045662485
189	0xbb816241	-0.0039484804
190	0xbbb1b0fc	-0.0054227095
191	0x3afb2f7e	0.0019163934
192	0xbb559a76	-0.0032593287
193	0x3b3c48b9	0.002872987
194	0x3b922669	0.0044601453
195	0x3ba756bd	0.0051067756
196	0xbb1f5c28	-0.0024316404
197	0xbb492ba8	-0.0030696187
198	0xbbb570ff	-0.005537152
199	0xba9de315	-0.0012045825
200	0x3b88667f	0.004162609
201	0x3b573b3c	0.0032841703
202	0xbb6e9936	-0.0036407239
203	0x3aa0902b	0.0012249997
204	0x3a039381	0.0005019233
205	0xba2584fd	-0.0006314067
206	0xbb967a17	-0.004592191
207	0x3b82bff8	0.0039901696
208	0x3b3de1b4	0.002897364
209	0x3ba3e520	0.005001679
210	0x3b8734d6	0.0041261716
211	0x3b749f37	0.0037326345
212	0x3b142dc5	0.0022610289
213	0xbbb09b2a	-0.0053895907
214	0xbb4ee450	-0.003156919
215	0xb9a60b97	-0.00031670622
216	0x3b7b506b	0.0038347493
217	0xba4ecce5	-0.0007888808
218	0xbb414997	-0.0029493326
219	0x3b5b7029	0.00334836
220	0x3baf7d7e	0.005355536
221	0xba056b3c	-0.00050895265
222	0xbb8be6e4	-0.0042694677
223	0xb9c6c08c	-0.00037908962
224	0xb97fb2a3	-0.00024385242
225	0xbb5ddc90	-0.003385339
226	0x3acd758d	0.0015675292
227	0xbaef19cc	-0.0018241941
228	0xbb70dc0c	-0.0036752252
229	0xbb27b38f	-0.0025589203
230	0x3b39dcb8	0.0028360318
231	0xbb302a7d	-0.0026880794
232	0xbb1ac27d	-0.002361446
233	0xbaac6f9b	-0.001315582
234	0xbb170d1d	-0.0023048588
235	0x3bba2423	0.0056805774
236	0x38bc17fb	8.969005e-05
237	0xbadb8566	-0.001674813
238	0xb96adcb1	-0.00022398193
239	0xbb857f3e	-0.0040740063
240	0x3b9ff4ef	0.0048814933
241	0x3ba0bf58	0.0049056225
242	0x3b1189ed	0.0022207454
243	0x3ae0ce0d	0.0017151252
244	0x3b2b385d	0.0026126124
245	0xbb1e895d	-0.0024190762
246	0x3ad8cc4b	0.0016540376
247	0xbb00d891	-0.0019660334
248	0x3ba9a9b5	0.0051777014
249	0xbb826238	-0.0039789937
250	0x3bac5426	0.0052590547
251	0x3a488b10	0.00076501165
252	0xbb9a00d7	-0.004699807
253	0x3b5632ed	0.0032684163
254	0x3b7dc5a2	0.0038722535
255	0x3b2effa4	0.0026702667

layer1.bias f4 [64]
0	0x3b7067f5	0.0036683057
1	0x398f0aaa	0.0002728303
2	0xb95a1faa	-0.00020801896
3	0x428ef94c	71.48691
4	0xbbd1ba4a	-0.006400381
5	0x428ef29e	71.47386
6	0xbbd9e147	-0.0066491696
7	0x428ef547	71.47906
8	0xbbc8149c	-0.0061059725
9	0x428ef938	71.486755
10	0x428ef1a5	71.47196
11	0x428ef896	71.48552
12	0xbbdd49b7	-0.0067531723
13	0xbc8775cf	-0.016535668
14	0x428eee83	71.46584
15	0x428edfdf	71.43725
16	0x428ef694	71.4816
17	0x428ef2d4	71.47427
18	0x428ef972	71.4872
19	0x3ba741a1	0.005104259
20	0x428ee353	71.44399
21	0x428ef442	71.477066
22	0x428ef1d1	71.4723
23	0xbb1f8311	-0.0024339596
24	0xb9237c34	-0.0001559116
25	0x428ef60a	71.480545
26	0xc0842baa	-4.13033
27	0x428efa1b	71.48849
28	0x3a9b3efe	0.0011844335
29	0x3b9e13a0	0.004824117
30	0xbb9d5731	-0.004801654
31	0xbb84c627	-0.004051942
32	0x428ef4e7	71.478325
33	0xbb6dbf9f	-0.0036277545
34	0x3b792a4f	0.0038019603
35	0x428ef81e	71.484604
36	0x428ef1c3	71.47219
37	0x428ef584	71.47952
38	0x428ef5bb	71.47994
39	0x3a5e0f03	0.0008470865
40	0xc0846d31	-4.138329
41	0xba93b859	-0.001127015
42	0x428ef592	71.47963
43	0xc0844646	-4.1335783
44	0xba05dd75	-0.0005106547
45	0xbb50976e	-0.003182854
46	0xbb8ee87c	-0.0043612104
47	0xbb0a36ba	-0.0021089748
48	0x428ef3c5	71.47611
49	0x3b140299	0.0022584556
50	0xba5c26b7	-0.0008398103
51	0xbbc6ecc0	-0.0060707033
52	0x428ef141	71.4712
53	0x428ef3a9	71.4759
54	0x428ef386	71.47563
55	0x428eef21	71.46705
56	0x3a9668bf	0.0011475309
57	0xbb2af312	-0.0026084823
58	0xbb9b1833	-0.0047331094
59	0x428ef391	71.475716
60	0x428ef683	71.48147
61	0x428ef5bf	71.47997
62	0x428ef52e	71.47887
63	0x428ef065	71.46952

layer2.weight f4 [64, 64]
0	0xbb3702b4	-0.0027925195
1	0xb9f096e2	-0.00045888784
2	0x3abbe8fd	0.0014336404
3	0x3c274d81	0.010211349
4	0xbbfac7da	-0.0076532187
5	0x3a45fa5d	0.00075522606
6	0xbc6e8806	-0.014558798
7	0x3c6bd2d2	0.014393525
8	0xbbac6632	-0.005261206
9	0x3a293525	0.00064547575
10	0xbc5ead57	-0.013591132
11	0x3c1aff8a	0.009460339
12	0xbc20d8bf	-0.009817301
13	0x3c3fffe4	0.011718724
14	0x394d8d59	0.0001960298
15	0x3bcbdc36	0.0062213195
16	0x3c2ae050	0.010429457
17	0x3c23a63c	0.009988364
18	0x3a98f2bb	0.0011669019
19	0x3a8f4be1	0.0010932648
20	0xbc756e7c	-0.014979955
21	0xbbf3d679	-0.0074413386
22	0x3c1cba03	0.009565833
23	0x3c019fa8	0.0079116
24	0x3c3ce980	0.01153028
25	0xbbf6e569	-0.007534672
26	0x3c17b543	0.009259525
27	0xbc94ff3c	-0.018188111
28	0xbc891544	-0.016733773
29	0x3b3ccae6	0.002880746
30	0xbc4785e3	-0.012177917
31	0xbc8eea9f	-0.01744586
32	0xbc3bf00a	-0.011470804
33	0x3be46466	0.0069699762
34	0xbc234575	-0.00996529
35	0xbbabef16	-0.005247007
36	0x3c350142	0.011047663
37	0xbc1db0f9	-0.009624713
38	0xbc32b2b4	-0.010906864
39	0xbc11604d	-0.008873058
40	0x3c5c66cf	0.013452246
41	0x3c41ee37	0.01183658
42	0x3c853556	0.016260784
43	0x3bb1c728	0.0054253526
44	0xbba9d583	-0.0051829233
45	0x3ca2f86a	0.019893844
46	0x3c79a6fc	0.015237566
47	0x3b80eaf4	0.0039342586
48	0xbc99a9a3	-0.018757647
49	0x3c3d73c2	0.011563243
50	0xbb3e8c53	-0.002907534
51	0x3c3afab5	0.011412312
52	0x3b21dd37	0.0024698505
53	0xbb910af8	-0.0044263564
54	0xbcad234a	-0.021134991
55	0x3a58e38c	0.0008273653
56	0xbbebf632	-0.0072009796
57	0xbc82ba08	-0.015957847
58	0x3c7895fe	0.01517248
59	0x3c52cdf9	0.0128664905
60	0xbc7ec1aa	-0.015549103
61	0xbc54a4a6	-0.012978708
62	0x3bb59e68	0.005542565
63	0xbc7a3c26	-0.01527313
64	0x3b596052	0.0033168984
65	0x3bcd15b0	0.006258689
66	0xbb826cea	-0.0039802687
67	0xbc42d60b	-0.011891852
68	0xbacab861	-0.0015466326
69	0xbc159080	-0.00912869
70	0xbb0cf02c	-0.0021505458
71	0xbc26ff94	-0.0101927705
72	0xbc49284b	-0.012277673
73	0x3aee797a	0.0018194162
74	0x3c4c592d	0.012472433
75	0x3c8730a3	0.016502684
76	0xbb5adb9c	-0.0033395058
77	0x3c603a77	0.013685814
78	0xbbbf03da	-0.0058293166
79	0x3c5a139a	0.013310337
80	0xbc04b849	-0.008100578
81	0x3c0b3f89	0.008499035
82	0xbbe637fe	-0.0070257178
83	0x3c6d32e6	0.014477467
84	0xb917f3cb	-0.00014491302
85	0xbc8bc579	-0.017061936
86	0x3c08ed30	0.008357331
87	0x3c16b3cb	0.009198139
88	0xb9aa536a	-0.00032487075
89	0xbbcb06aa	-0.006195863
90	0xbbe93768	-0.0071172006
91	0xbbb2f670	-0.0054615065
92	0x3c1d6986	0.009607678
93	0xbc6800ac	-0.014160316
94	0xbbb333b5	-0.0054688104
95	0xbc116d59	-0.008876168
96	0xbbc202bb	-0.0059207357
97	0xbbe7c137	-0.0070725936
98	0x3c065cad	0.008200807
99	0xbc278cd3	-0.010226446
100	0xbc77c185	-0.015121822
101	0xbc8ef328	-0.01744993
102	0xbc93a934	-0.018025018
103	0xbb3c4b38	-0.0028731357
104	0xbc4a479e	-0.012346176
105	0xbc599fcc	-0.013282727
106	0x3c744f0f	0.014911427
107	0x3c7117a0	0.014715105
108	0xbb82dddb	-0.0039937324
109	0xbc84737d	-0.01616835
110	0xbc09ba67	-0.008406258
111	0x3b3649c2	0.002781496
112	0x3c0f3c5c	0.008742418
113	0xbab8030a	-0.0014038992
114	0xbbe5b42b	-0.007010003
115	0x3c812981	0.01576686
116	0x3c7c0be6	0.015383696
117	0x3bb6c7bf	0.005578011
118	0xbbaa97ed	-0.0052060992
119	0xbbd06794	-0.0063600037
120	0x3be5b71e	0.0070103547
121	0x3a539bf1	0.00080722483
122	0xbb97a04e	-0.004627264
123	0x3c370b0e	0.011172069
124	0xbc269f15	-0.010169764
125	0x3c84e78a	0.016223688
126	0x3b1e3774	0.002414194
127	0x3c6d0e00	0.01446867
128	0x3b172a21	0.0023065882
129	0x3c4ba596	0.0124296155
130	0x3c6120dd	0.013740745
131	0x428f0dbf	71.52685
132	0xbd2b8532	-0.04187507
133	0x428f0d48	71.52594
134	0xbbdf2974	-0.0068103615
135	0x428f0fbd	71.53074
136	0x3c1979b7	0.009367398
137	0x428f13ba	71.53853
138	0x428f1e79	71.55952
139	0x428f0f66	71.530075
140	0xbbd5f95d	-0.0065299706
141	0xbf221bac	-0.63323474
142	0x428f1725	71.545204
143	0x428f1965	71.5496
144	0x428f1ffa	71.562454
145	0x428f1483	71.54006
146	0x428f0f95	71.53043
147	0x3bfbd564	0.0076853503
148	0x428f3e40	71.62158
149	0x428f13fa	71.53902
150	0x428f1c33	71.55508
151	0xbc391990	-0.0112975985
152	0x3c62a38f	0.013832941
153	0x428f1ecb	71.56014
154	0xc20c099a	-35.009377
155	0x428f1039	71.531685
156	0x3c8c8be3	0.017156547
157	0xbbe3b007	-0.0069484743
158	0xbb95b50f	-0.004568703
159	0xbb85e531	-0.0040861596
160	0x428f249f	71.571526
161	0xbbcfcbac	-0.0063414183
162	0x3c3ba578	0.011453025
163	0x428f1195	71.53434
164	0x428f1ea9	71.55988
165	0x428f232c	71.568695
166	0x428f1eb8	71.56
167	0xbb201a7c	-0.0024429848
168	0xc20d7915	-35.368244
169	0x3bf08996	0.0073406203
170	0x428f1127	71.5335
171	0xc20dc019	-35.437595
172	0xbb3d9349	-0.00289269
173	0x3c914b1e	0.017736014
174	0xbab8495a	-0.0014059946
175	0xba41aa2e	-0.00073877245
176	0x428f1c17	71.55486
177	0xbc308df2	-0.01077603
178	0xbc8b3b34	-0.016996004
179	0x3c274eb3	0.010211634
180	0x428f222b	71.566734
181	0x428f1bb1	71.554085
182	0x428f0c36	71.52385
183	0x428f230c	71.56845
184	0xbc6e6ce9	-0.014552333
185	0xb85a4e6d	-5.204829e-05
186	0xbcae8544	-0.02130378
187	0x428f1662	71.54372
188	0x428f17f5	71.54679
189	0x428f23f7	71.570244
190	0x428f1a49	71.55134
191	0x428f1f25	71.56083
192	0x3c578549	0.013154336
193	0xbc8d0f12	-0.0172191
194	0xbc5a8821	-0.01333812
195	0xbbeb5d72	-0.0071827704
196	0x3e21e66d	0.15810557
197	0x3ccaad3f	0.024740813
198	0x3b96b4fd	0.004599212
199	0xbc63e58b	-0.013909708
200	0xbb45e4fe	-0.0030196304
201	0x3bbe3afa	0.0058053704
202	0x3c3fe4fd	0.01171231
203	0xbc5d2522	-0.013497623
204	0x3bbc05f6	0.0057380153
205	0xbbe174fc	-0.0068804007
206	0x3c03db52	0.0080478955
207	0x3d6f2c01	0.058391575
208	0x3c4a5a08	0.012350567
209	0xbc78c7fb	-0.015184398
210	0x3c41f27b	0.011837597
211	0xbc53d4da	-0.012929166
212	0xbd55845e	-0.05212819
213	0xbd43a2b7	-0.0477626
214	0x39abc56a	0.00032762747
215	0x3bcee979	0.006314453
216	0xbc722361	-0.014778943
217	0xbc7aea7e	-0.015314696
218	0xbd1e9d90	-0.038724482
219	0x3c69d961	0.014273019
220	0x3c0dc3ad	0.00865261
221	0x3c403638	0.011731677
222	0x3bf2cc1b	0.007409585
223	0xbc461db6	-0.012092045
224	0xbd3bd5fc	-0.04585837
225	0x3b82f814	0.0039968584
226	0x3bc896d5	0.006121496
227	0x3c2a1c14	0.010382671
228	0xbcae21b4	-0.021256305
229	0x3bc6e555	0.006069819
230	0xbbde7d71	-0.006789856
231	0xbc146222	-0.0090566
232	0xbc8150c1	-0.015785577
233	0x3afc5023	0.0019249957
234	0xbb51b6c9	-0.0031999818
235	0x3dcce6db	0.1000497
236	0xbc847ce3	-0.016172832
237	0x3d804153	0.062624596
238	0xbb9a2698	-0.0047043078
239	0xbc8dd3dc	-0.017312936
240	0xbbe94238	-0.0071184896
241	0xbbbf007f	-0.0058289166
242	0xbbe66495	-0.0070310333
243	0x3c00bbc8	0.007857271
244	0xbd102ac6	-0.035197042
245	0x3c31ccd4	0.0108520575
246	0xbbdacd55	-0.0066773095
247	0x3d05cb87	0.032664802
248	0xbc5011f7	-0.012699596
249	0x3c64e7b3	0.013971257
250	0xbc49ab3d	-0.012308893
251	0xbc4b804d	-0.012420726
252	0xba8373a1	-0.0010028967
253	0x3c2aff36	0.010436824
254	0xbc64987f	-0.0139523735
255	0xbca592e7	-0.02021165

layer2.bias f4 [64]
0	0xbc3d8e17	-0.011569521
1	0x3c515f3b	0.012779052
2	0x4291f57f	72.979485
3	0xbaafe9c2	-0.0013421106
4	0x4291f2d0	72.97424
5	0x4291f5ce	72.98009
6	0xbc9ae3a3	-0.018907374
7	0xbc820ca1	-0.015875163
8	0x4291fd7d	72.995094
9	0xbbdef30b	-0.0068038753
10	0x4291f8eb	72.98617
11	0xbc607a56	-0.013701042
12	0x4291f430	72.97693
13	0x3c878c6d	0.016546452
14	0x4291f983	72.98733
15	0x4291ed1e	72.96312
16	0x4291f2c5	72.97416
17	0x4291fde8	72.99591
18	0xbb6e7e25	-0.0036391106
19	0x4291f89a	72.98555
20	0x3c1b27c5	0.009469931
21	0x4291ef0f	72.96691
22	0x3b833781	0.0040044193
23	0xbc46d9b3	-0.0121368645
24	0xbc9a764a	-0.018855233
25	0xbc831678	-0.016001925
26	0xbc36994d	-0.011144948
27	0x4291ee47	72.965385
28	0xbc8cd230	-0.017190069
29	0x4291ff21	72.9983
30	0x4291fea4	72.997345
31	0x3c4be30c	0.012444269
32	0x3c10d281	0.008839251
33	0xbc80bcb6	-0.015714984
34	0x4291f6aa	72.981766
35	0x4291ecc7	72.962456
36	0x4291f77d	72.983376
37	0x3c16cf63	0.009204718
38	0xba4eaf25	-0.0007884375
39	0xbadc53be	-0.0016809625
40	0x4291ec12	72.961075
41	0x4291f1f7	72.97259
42	0x4291f8e9	72.98615
43	0xba7c4f13	-0.000962482
44	0x39e088cd	0.00042826534
45	0xbc662c03	-0.014048579
46	0xbc8b6585	-0.017016182
47	0x4291f534	72.97891
48	0xbc81da38	-0.015851125
49	0xbc8860bc	-0.016647689
50	0x4291f53e	72.97899
51	0x39fa13b4	0.00047698396
52	0x4291f4df	72.978264
53	0x4291f61a	72.98067
54	0x4291ef2c	72.96713
55	0x4291f5da	72.98018
56	0x4291fd9b	72.99532
57	0x4291eff6	72.96867
58	0xbbe850b4	-0.0070896987
59	0x4291f953	72.98696
60	0x4291f06b	72.96957
61	0x4291f991	72.987434
62	0x4291fcf9	72.99409
63	0x4291faa3	72.989525

layer3.weight f4 [64, 64]
0	0x3c0fb76a	0.008771757
1	0xbc93d364	-0.018045135
2	0xbca1edc4	-0.019766696
3	0xbc84469a	-0.016146947
4	0x3a3578bf	0.00069225946
5	0xbc9e8bcd	-0.019353772
6	0x3b94176f	0.004519395
7	0xbbcbfa04	-0.0062248725
8	0xbb57f699	-0.003295338
9	0xbb922f4d	-0.004461205
10	0xb869e727	-5.5766806e-05
11	0xbc60b508	-0.013715036
12	0xbc90321d	-0.01760202
13	0x3b9e17af	0.0048246006
14	0x3a6b898b	0.0008985034
15	0xbbbca2aa	-0.0057566958
16	0x3b1ae730	0.0023636334
17	0x3c27faf4	0.010252703
18	0x3c455c96	0.012046
19	0xbc8f3707	-0.017482294
20	0xbc1ad7a1	-0.009450824
21	0x3cec6dc6	0.028860938
22	0xbc1a6574	-0.009423602
23	0x3c9d4eb6	0.019202571
24	0xbc616fd9	-0.013759577
25	0xbbdc831e	-0.0067294976
26	0xbc83c4a3	-0.016084975
27	0x3c873b98	0.016507909
28	0x39bd709c	0.0003613279
29	0xbc653cee	-0.013991578
30	0x3bb11cd7	0.0054050493
31	0x3c5ea1fb	0.013588424
32	0x3b86f746	0.0041188328
33	0xbc86644c	-0.016405247
34	0xbc7a956b	-0.015294413
35	0x3bb45eb9	0.005504456
36	0x3bd00792	0.0063485587
37	0xbbd1fc11	-0.0064082225
38	0x3c62e0fe	0.013847588
39	0x3c865621	0.016398491
40	0x3c628202	0.013824942
41	0x3c1015a2	0.00879422
42	0x3c280d59	0.010257089
43	0xbc37a2de	-0.011208264
44	0x3c4e87e9	0.012605646
45	0x3bbe5ac1	0.0058091586
46	0xbb65ca51	-0.0035063217
47	0x3c6cd072	0.014453994
48	0xbb41e33b	-0.0029584903
49	0x3c2f2f54	0.010692436
50	0x3bf80ae9	0.00756966
51	0xbc663822	-0.014051469
52	0x3ba9a43c	0.005177049
53	0xbc0f0557	-0.0087293
54	0x3c1aa960	0.009439796
55	0xbc5b7d6f	-0.013396605
56	0xbc8ffa75	-0.017575482
57	0x3c6a3c2c	0.014296573
58	0xbbedd08e	-0.0072575277
59	0xbc87a8c7	-0.016559971
60	0xbc212830	-0.009836242
61	0xbc485cea	-0.012229184
62	0x3c39a547	0.011330909
63	0xbc590423	-0.013245615
64	0xbc4becfd	-0.012446639
65	0xbb58b0d5	-0.0033064384
66	0x428ed9cc	71.425385
67	0x3de6d2eb	0.11270698
68	0x428edae9	71.42756
69	0x428ecf4f	71.4049
70	0xbc6b938d	-0.014378441
71	0x3c5c2f2a	0.013438979
72	0x428ece7b	71.40328
73	0xbd2344db	-0.039860588
74	0x428ece2c	71.40268
75	0xbc4e3eaa	-0.012588182
76	0x428edaf9	71.42768
77	0xbb039981	-0.002008051
78	0x428ed6ee	71.419785
79	0x428edbde	71.42943
80	0x428ed1f4	71.410065
81	0x428ecfbc	71.40573
82	0x3c9b5d22	0.018965308
83	0x428ed2a6	71.41142
84	0x3bc77c15	0.00608779
85	0x428eda63	71.42654
86	0x3c44bed5	0.0120083885
87	0xbc121bd8	-0.008917771
88	0x3b72e702	0.003706396
89	0xbc55faca	-0.013060281
90	0x3c8326e1	0.01600975
91	0x428eda9c	71.42697
92	0xbb0d12ce	-0.00215261
93	0x428ed5b5	71.4174
94	0x428ed754	71.42056
95	0x3c81d2fb	0.015847674
96	0xbc6bc5e4	-0.0143904425
97	0x3c1d9ec4	0.009620372
98	0x428ecdb7	71.40179
99	0x428ed877	71.42278
100	0x428ed318	71.41229
101	0x3c7063f3	0.014672267
102	0x3d6868c0	0.056740522
103	0x3d85c02f	0.06530797
104	0x428eda94	71.42691
105	0x428edc38	71.430115
106	0x428eda48	71.42633
107	0xbc63c858	-0.013902746
108	0xbb8c101d	-0.004274382
109	0x3c0c0dcd	0.008548212
110	0x398fb095	0.0002740665
111	0x428ed829	71.42219
112	0xbc1fabd6	-0.009745559
113	0x3c3d8f55	0.011569818
114	0x428edd2b	71.43197
115	0x3c54fd70	0.012999877
116	0x428ecfbf	71.405754
117	0x428eda18	71.425964
118	0x428edccc	71.431244
119	0x428edeaf	71.43493
120	0x428eca88	71.39557
121	0x428ed2ca	71.4117
122	0xbc0a5c39	-0.008444839
123	0x428ecca7	71.39971
124	0x428ed4cf	71.41564
125	0x428edb9e	71.42894
126	0x428ecda9	71.40168
127	0x428ed6f5	71.41984
128	0xbc5ca08f	-0.0134660145
129	0x3c2623c3	0.010140362
130	0x39fa8c31	0.00047788167
131	0xbc23d7fd	-0.010000226
132	0xbb0ac8ae	-0.0021176743
133	0x3bc4261b	0.005985988
134	0xbb7573a4	-0.003745296
135	0x3c7588cb	0.014986227
136	0x3c50cf7a	0.012744779
137	0xbc5fdfd4	-0.013664205
138	0xbbc6076a	-0.0060433643
139	0xbc601bff	-0.01367855
140	0xbba65d72	-0.0050770575
141	0xbc23789c	-0.009977486
142	0xbc029123	-0.007969174
143	0x3c5d0ac2	0.013491334
144	0x3b2de37f	0.0026533303
145	0xbc30d73d	-0.010793504
146	0xba66c2dd	-0.00088028406
147	0x3c005b92	0.007834332
148	0xbb13062d	-0.00224341
149	0xbc81c8c1	-0.015842797
150	0x3c093038	0.008373313
151	0xbc9cdf4c	-0.019149445
152	0xbc405456	-0.011738857
153	0xbc186fbc	-0.009303983
154	0x3bd93e05	0.0066297078
155	0x3c71bc9c	0.014754441
156	0x3c3c5e95	0.0114971595
157	0xb9c9cb98	-0.00038489397
158	0x3a869b18	0.001026961
159	0xb70abee7	-8.269889e-06
160	0xba882c8d	-0.0010389254
161	0x3a813e43	0.0009860474
162	0x3c5a0fb9	0.013309413
163	0x3bbbe4a3	0.0057340427
164	0x39c60a23	0.00037773055
165	0xbc0c9c75	-0.008582224
166	0x3c649b38	0.013953023
167	0xbc6bb733	-0.01438694
168	0xbc8458d8	-0.016155645
169	0xbc7b860f	-0.015351786
170	0xbc89c5a2	-0.016817871
171	0x3c628700	0.013826132
172	0xbbca945b	-0.006182236
173	0xbc896b66	-0.016774844
174	0xbc790d11	-0.015200869
175	0xbb8e6059	-0.0043449816
176	0x3be97b30	0.007125281
177	0xbc85363d	-0.016261214
178	0x3c36e2fe	0.011162518
179	0x3b1c2262	0.0023824205
180	0xbc3a64dd	-0.011376587
181	0x3c544dc7	0.012957997
182	0xbc9d3338	-0.019189462
183	0x3bbb9407	0.0057244333
184	0x3b9bd7e9	0.004755963
185	0x3afefc3e	0.0019453836
186	0x3c60dba7	0.013724244
187	0x3c0bc1e3	0.008530113
188	0x3c04e491	0.008111135
189	0x3b59188c	0.0033126203
190	0xbc2e82a3	-0.010651263
191	0xbc9addc3	-0.018904572
192	0xbc0c65c5	-0.008569186
193	0xbc84e1cb	-0.016220948
194	0x428ebce4	71.36893
195	0x3dcc089f	0.09962582
196	0x428ebdf1	71.37098
197	0x428eb6a0	71.35669
198	0xbc2f7039	-0.010707908
199	0x3b49891d	0.0030751892
200	0x428eb87e	71.36034
201	0x3de23255	0.11044756
202	0x428ec87a	71.391556
203	0xbc021ca3	-0.007941398
204	0x428ebf85	71.37406
205	0xb8db6ed4	-0.00010463377
206	0x428ebb84	71.36624
207	0x428ebbf0	71.367065
208	0x428eb92b	71.36166
209	0x428ec275	71.3798
210	0xbb013cc1	-0.001972005
211	0x428ebd61	71.36988
212	0x3c28c1f7	0.010300151
213	0x428eb64f	71.35607
214	0xbc2d0d04	-0.010562185
215	0x3c7d7401	0.015469552
216	0xbab5f43d	-0.0013881993
217	0x3c39b071	0.011333571
218	0x3b913449	0.0044312817
219	0x428ebb1f	71.36547
220	0x3ba4002b	0.005004903
221	0x428ebae4	71.36502
222	0x428ebfe4	71.37479
223	0x3b40ae1b	0.002940065
224	0xbbd52200	-0.0065042973
225	0x3c071870	0.008245572
226	0x428ec176	71.37785
227	0x428ebb84	71.36624
228	0x428eb2d2	71.34926
229	0x3c8164e1	0.015795173
230	0x3e385c38	0.18003929
231	0x3da567db	0.080764495
232	0x428eb17f	71.34667
233	0x428eb9cc	71.362885
234	0x428ec0a3	71.37624
235	0xbbf96541	-0.0076109474
236	0xbc79c292	-0.015244143
237	0x3bf518f0	0.0074797794
238	0x3c6a556b	0.014302592
239	0x428ebfa7	71.37432
240	0xbc8f4f0d	-0.017493749
241	0x3b462af7	0.0030238011
242	0x428ebe52	71.37172
243	0xbb84954a	-0.004046117
244	0x428ebbd5	71.36686
245	0x428eb0e4	71.34549
246	0x428ebdbc	71.370575
247	0x428eb33f	71.35009
248	0x428eb65f	71.35619
249	0x428eb416	71.35173
250	0xbc28e604	-0.010308746
251	0x428ebff7	71.37493
252	0x428eba33	71.36367
253	0x428eb89a	71.36055
254	0x428ebdd8	71.37079
255	0x428ec00d	71.3751

layer3.bias f4 [64]
0	0xba75f647	-0.00093827065
1	0x428cb208	70.34772
2	0xbc00e8a1	-0.007867963
3	0x428cceee	70.40416
4	0x428c5a22	70.17604
5	0xbc41b2c7	-0.011822409
6	0xba90d604	-0.001105011
7	0x428c5e7a	70.184525
8	0x428c8303	70.25588
9	0x428c1adc	70.05246
10	0xbbf74c51	-0.0075469394
11	0xbc54d720	-0.012990743
12	0x428c4b8c	70.14755
13	0x428ce8d6	70.45476
14	0xbb8c56fe	-0.004282831
15	0x3c4379ee	0.011930926
16	0xbc867f1c	-0.016418032
17	0x428cc394	70.38199
18	0x428cfa47	70.48882
19	0x428cd4b2	70.41542
20	0xbc4c5752	-0.012471991
21	0x3b902dc6	0.004399988
22	0x3b041bcc	0.002015817
23	0x3bf9ec6a	0.0076270597
24	0x3c152943	0.009104076
25	0x428c6915	70.20524
26	0xba1ce390	-0.0005984837
27	0x3ac6a88e	0.0015156434
28	0x3bb42d71	0.005498581
29	0x3c131d73	0.008979189
30	0x428cde16	70.43376
31	0x39ad0f6e	0.00033008627
32	0xbc90f4d8	-0.017694876
33	0x428cc155	70.3776
34	0x3b95de37	0.004573609
35	0x428bd06f	69.9071
36	0x3bd51e4f	0.006503857
37	0x3c8605e5	0.016360233
38	0x3b970890	0.004609175
39	0xbc4bad42	-0.012431445
40	0x3b29b239	0.0025893582
41	0x428c67d8	70.20282
42	0x428cde79	70.43452
43	0x428ca655	70.32487
44	0xbb8053cb	-0.003916239
45	0x3b20f70c	0.0024561314
46	0xb9017668	-0.00012346508
47	0x428ce7ba	70.45259
48	0x397701a9	0.00023556374
49	0x428cc8ff	70.39257
50	0xbc884dea	-0.016638715
51	0x3c753c50	0.014967993
52	0xbbc9b885	-0.0061560296
53	0xbc7ef2fc	-0.015560862
54	0xbc86c17e	-0.016449686
55	0xbc806941	-0.015675189
56	0x3c8d91c6	0.017281424
57	0xbc48ad74	-0.012248386
58	0x428ce810	70.45325
59	0xbc73706d	-0.014858347
60	0x3b59eac7	0.003325151
61	0x3c123041	0.008922637
62	0x428caf57	70.34246
63	0xbb3db0f9	-0.0028944595

layer4.weight f4 [290, 64]
0	0xbb6a32ae	-0.0035735774
1	0x427cb912	63.180733
2	0xbbca8e63	-0.0061815246
3	0x427cb409	63.175816
4	0x427ca7a3	63.163708
5	0xbbe749fc	-0.00705838
6	0xbc9485af	-0.018130152
7	0x427caebd	63.170643
8	0x427cab10	63.167053
9	0x427ca623	63.162243
10	0x3a4dce4e	0.0007850871
11	0x3c2925a6	0.0103239175
12	0x427ca839	63.16428
13	0x427cc195	63.189045
14	0x36a49fe8	4.9061964e-06
15	0x3dc6dd62	0.09710194
16	0xb9a8959c	-0.00032154925
17	0x427caee5	63.170795
18	0x427cbe30	63.18573
19	0x427cb7b6	63.179405
20	0xbb8d4849	-0.0043115956
21	0x3c7d6c14	0.015467662
22	0x3c8c3dab	0.01711925
23	0x3c63d786	0.013906365
24	0x3a0da1dd	0.00054028427
25	0x427cab68	63.16739
26	0x3c06fa19	0.008238339
27	0xba9ea763	-0.0012104328
28	0x3c03d861	0.008047194
29	0xbc746243	-0.014916006
30	0x427cb6fa	63.178688
31	0xbbac5d44	-0.0052601416
32	0x3c6c7155	0.014431317
33	0x427cb6c7	63.178493
34	0x3c88c9cf	0.016697792
35	0x427ca110	63.157288
36	0x3c69d3f8	0.014271729
37	0x3c8793a3	0.01654989
38	0xbccc4be5	-0.024938533
39	0xbc1cf28b	-0.009579311
40	0x3c87dbe6	0.016584348
41	0x427ca8bd	63.164783
42	0x427cc1ad	63.189137
43	0x427cb3e0	63.17566
44	0xbbe2a0de	-0.0069161495
45	0xbd56f2ca	-0.052477635
46	0xbc8787ce	-0.016544249
47	0x427cba0b	63.181683
48	0xbbf7a1b0	-0.0075571164
49	0x427cb501	63.17676
50	0xba5e76f9	-0.0008486356
51	0x3d606727	0.054785874
52	0xbc1f2060	-0.009712309
53	0x3ba636a9	0.005072434
54	0x3b79855d	0.0038073875
55	0xbd068c7e	-0.032848828
56	0xbb7174ca	-0.0036843293
57	0xbbf98a4c	-0.007615363
58	0x427cc0bf	63.18823
59	0xbbda27d6	-0.006657581
60	0xbbd652d8	-0.0065406375
61	0x3b494b3e	0.0030715014
62	0x427cb022	63.172005
63	0x3c186418	0.009301208
64	0x3bffe0f5	0.0078087994
65	0x3ea5299e	0.32258314
66	0xbb3429b9	-0.002749069
67	0x3ea9aee6	0.3314125
68	0x3e97944d	0.29605332
69	0xbba8dc18	-0.0051531903
70	0x3bbc4df9	0.0057465998
71	0x3ea3537b	0.31899628
72	0x3eaf14a7	0.34195444
73	0x3e9b482f	0.3032851
74	0x3cdde4f3	0.02708671
75	0xbc5ffc44	-0.013670985
76	0x3ea1ab5b	0.31576046
77	0x3eae1f0f	0.3400807
78	0x3bc35e67	0.0059621814
79	0x3db7b441	0.089699276
80	0x390c1428	0.00013358949
81	0x3e96ca6e	0.29451317
82	0x3eb00cef	0.34384868
83	0x3ea88f86	0.32922
84	0xbb8ca65e	-0.0042922935
85	0x3c41932e	0.0118148755
86	0x3bfaa6cb	0.007649278
87	0x3b3ac973	0.002850142
88	0xbb36478b	-0.002781364
89	0x3ea0db4b	0.31417307
90	0xba8e3044	-0.0010848125
91	0x3c2a5ea7	0.010398543
92	0x3c66c37d	0.014084694
93	0x3c18d035	0.009326984
94	0x3ea1a8f8	0.31574225
95	0xbc39babe	-0.011336027
96	0x3ac0ac45	0.0014699778
97	0x3eab39d1	0.33442548
98	0x3c1a0859	0.009401404
99	0x3e9ef273	0.3104435
100	0x3c77b8d1	0.015119747
101	0xbc09471a	-0.008378768
102	0x3c8fbc33	0.017545795
103	0xbb6bd382	-0.0035984223
104	0x3c723e5d	0.014785376
105	0x3eab6de4	0.33482277
106	0x3ea93670	0.33049345
107	0x3ea7d3a1	0.32778648
108	0x3c765335	0.015034487
109	0x3cc520b8	0.024063453
110	0x3a8619c2	0.0010231065
111	0x3eaae880	0.33380508
112	0xbc5510e1	-0.0130045125
113	0x3e9d85d7	0.30766174
114	0xbbabcb78	-0.005242761
115	0x3d9ca930	0.076494575
116	0x3a871bf2	0.0010308011
117	0x3c23be4c	0.009994101
118	0xbbe5b718	-0.007010352
119	0x3d0f51c2	0.03499008
120	0xbbc955d8	-0.0061442666
121	0xbb0da8fb	-0.0021615613
122	0x3ea96df3	0.33091697
123	0x3b8a24e9	0.004215826
124	0x3bc886c1	0.0061195795
125	0x3c390aa6	0.011294043
126	0x3ea6a648	0.32548738
127	0x3a8c7880	0.0010717064
128	0x3c4d8cdd	0.012545791
129	0x3ec0db16	0.3766715
130	0xba513908	-0.00079812156
131	0x3ec44bcb	0.38339075
132	0x3ecdd3e8	0.40200734
133	0xbc08c6b9	-0.00834816
134	0x3c4dbd6c	0.012557369
135	0x3ec65648	0.38737702
136	0x3ec4d127	0.3844082
137	0x3ecf095e	0.40436834
138	0x3b8957b4	0.004191363
139	0x3ba2c647	0.004967484
140	0x3ecfecfa	0.40610486
141	0x3ec8a1a6	0.39185828
142	0x3b48bfdf	0.0030631942
143	0x3ab8b696	0.0014092501
144	0x3c4d8cf6	0.012545815
145	0x3ec780f2	0.38965565
146	0x3ec994ff	0.39371487
147	0x3ec254e7	0.379554
148	0xbb769eea	-0.0037631341
149	0xbaeaacd9	-0.0017904296
150	0x3c50a479	0.012734526
151	0xbbaa8b4c	-0.0052045938
152	0xb94d0652	-0.00019552678
153	0x3ec98260	0.3935728
154	0xbc38a7d8	-0.011270486
155	0x3c25bb69	0.010115483
156	0xbc517031	-0.012783096
157	0xb99f951c	-0.00030437938
158	0x3ecb58cf	0.39716193
159	0xbc03f9f8	-0.008055203
160	0xbc220cdc	-0.009890761
161	0x3ecb3e31	0.39695886
162	0x3c39d3ea	0.011342028
163	0x3ee4a660	0.44658184
164	0xbbff1781	-0.0077847843
165	0x3b192fe0	0.0023374483
166	0xbb2c5698	-0.002629673
167	0x3c30024a	0.010742733
168	0x3c789f99	0.01517477
169	0x3ec4dc87	0.384495
170	0x3ec8dcf0	0.39231062
171	0x3ec96978	0.3933828
172	0x3c599dba	0.013282234
173	0x3c99fd56	0.018797558
174	0xbc3444d0	-0.011002734
175	0x3ed1d8b9	0.4098566
176	0xbaad8f06	-0.0013241477
177	0x3ec9dc38	0.39425826
178	0xbbf22619	-0.0073897955
179	0x3c5f725d	0.013638106
180	0x3c84ef19	0.016227292
181	0x39fdc2f5	0.00048401175
182	0xbc21d7d7	-0.00987812
183	0x3b88d136	0.0041753305
184	0x3b180f9b	0.002320266
185	0x3c25f1e1	0.010128469
186	0x3eced774	0.40398753
187	0xbbea52a0	-0.007150963
188	0x3c5b8d60	0.013400406
189	0x3c818636	0.015811067
190	0x3ec314cb	0.381018
191	0x3c65a0f7	0.014015428
192	0xbc05539e	-0.008137612
193	0x3eafe63d	0.34355345
194	0x3c2579ad	0.010099811
195	0x3eb3015d	0.34961978
196	0x3eae5505	0.3404924
197	0x3b6a563e	0.003575697
198	0x3bf021ee	0.0073282635
199	0x3eaea74e	0.34112018
200	0x3ea7502a	0.32678348
201	0x3eafc3be	0.34329027
202	0x3cb11004	0.021614082
203	0xbc179435	-0.009251644
204	0x3ea893e3	0.3292533
205	0x3eb29be0	0.34884548
206	0x3c68fa11	0.014219777
207	0x3c09c06f	0.008407696
208	0xbbfd6f9d	-0.0077342526
209	0x3eab9858	0.33514667
210	0x3ea73dad	0.32664242
211	0x3eaadf49	0.33373478
212	0xbad9c86a	-0.0016615514
213	0xb8f157cf	-0.00011508131
214	0xbb570e8b	-0.0032815065
215	0x3a910f71	0.0011067224
216	0xbbc55392	-0.0060219252
217	0x3ea7790e	0.32709545
218	0x3c8a871f	0.016910134
219	0x3c5b12be	0.013371168
220	0x3c54c8ab	0.012987296
221	0xbc2e8817	-0.010652564
222	0x3ea8888c	0.32916677
223	0x398c4414	0.00026753603
224	0x3c9291fb	0.017891875
225	0x3eae71d7	0.34071228
226	0x3bd37868	0.0064535625
227	0x3eb4b0cb	0.35291132
228	0xbc2a7ce4	-0.010405753
229	0x3994b0a6	0.00028360373
230	0x3b9344b2	0.004494273
231	0x3c8c4fb0	0.017127842
232	0x3c86403a	0.016388047
233	0x3eaad091	0.3336225
234	0x3eb5c534	0.35502017
235	0x3ea56d2d	0.32309857
236	0x3c2ce544	0.010552708
237	0x3c191dc7	0.009345478
238	0x3afc03e4	0.0019227234
239	0x3ea97dc2	0.33103758
240	0x3c67ff09	0.014159926
241	0x3eb27bff	0.34860227
242	0xb9dc8699	-0.00042061953
243	0x3b1140c5	0.002216385
244	0x3bff2010	0.0077858046
245	0xbc70bbbc	-0.014693197
246	0x3c634373	0.013871062
247	0x3c08aeeb	0.008342485
248	0x3c714cb0	0.014727756
249	0xbc82ae84	-0.015952356
250	0x3ea6b529	0.3256009
251	0x3c902b63	0.017598813
252	0x3c0ac427	0.008469618
253	0xbc863188	-0.01638104
254	0x3eb2bcda	0.34909707
255	0xbc27400a	-0.010208139

layer4.bias f4 [290]
0	0x425e713c	55.61058
1	0x3e6958b1	0.2278774
2	0x3eae2ed2	0.34020096
3	0x3e89a335	0.2688233
4	0x3f7588af	0.9591169
5	0x3e0e027b	0.13868134
6	0x3e9229d7	0.28547546
7	0x3e9e2511	0.30887654
8	0x42566632	53.5998
9	0x424da5e5	51.412006
10	0x3ea669d7	0.32502624
11	0x3ebcea68	0.36897588
12	0x3e1f4f67	0.15557633
13	0x3f2d7ac8	0.67765474
14	0x3e23fb6d	0.1601388
15	0x3e9686bd	0.29399672
16	0x3e3c6812	0.18399075
17	0x3ebcc97d	0.36872473
18	0x3fbb99e3	1.4656337
19	0x3ef52361	0.47878554
20	0x4257e030	53.968933
21	0x3e086f22	0.13323644
22	0x3c2ba233	0.010475683
23	0x3cb8abf4	0.022542931
24	0x3beb75cd	0.007185674
25	0x3c62954f	0.013829543
26	0x3de4f66e	0.11179815
27	0x3c2ce84a	0.010553429
28	0x3e3ef218	0.18647039
29	0x40972883	4.7236953
30	0x3e0f4470	0.1399095
31	0x3e260e3c	0.16216367
32	0x3e3f7f7f	0.1870098
33	0xbc0cb920	-0.008589059
34	0xbc71516f	-0.014728888
35	0xbb89f1c7	-0.0042097303
36	0xbba2c5a7	-0.0049674097
37	0x3ccc6dac	0.02495464
38	0x3d0802e5	0.033205885
39	0x3dc8f4a5	0.09812287
40	0x3de75aca	0.112966135
41	0x3d9792ab	0.074010216
42	0x3dc29c82	0.09502508
43	0x3dc97c2b	0.09838136
44	0x3df6578c	0.12028417
45	0x3c55d3ec	0.013051014
46	0xbc49cc13	-0.0123167215
47	0xbc6dc62f	-0.014512583
48	0xbbf5e12d	-0.0075036497
49	0x3ff6678d	1.9250351
50	0x3efe906c	0.4971956
51	0xbbbd76e6	-0.005781996
52	0x41b238e2	22.277775
53	0x3ee70fae	0.4512915
54	0x3ea0c42f	0.31399676
55	0x3c63466f	0.013871773
56	0xba86dab8	-0.0010288572
57	0xbc757007	-0.014980323
58	0x3c67512c	0.014118474
59	0x3ec7dd62	0.3903609
60	0xbbb8c895	-0.0056391456
61	0x3c4fb09d	0.012676385
62	0x3ba16717	0.0049256193
63	0x3c90081d	0.017581994
64	0xbaf0b80c	-0.0018365397
65	0xbc4c7bf5	-0.0124807255
66	0x3ccbbc0f	0.024869947
67	0x3d3dd439	0.04634497
68	0x3d6828ce	0.05667954
69	0x3da15189	0.0787688
70	0xbc45f2b3	-0.01208179
71	0x3d9fd605	0.07804493
72	0x3dab2f57	0.08358639
73	0x3c0dbdc6	0.008651203
74	0xbc3c9135	-0.011509229
75	0xbc593c11	-0.01325895
76	0xbbab7761	-0.005232737
77	0xbc8a91f3	-0.016915297
78	0xbc784c5f	-0.015154927
79	0xbb8de314	-0.0043300483
80	0x3d0f5246	0.03499057
81	0x3d46d70e	0.048544936
82	0x3c88d68a	0.016703863
83	0x3eda6b4a	0.4265998
84	0x41c4ee8f	24.616484
85	0x3f50f169	0.8161836
86	0xbc1c4a08	-0.009539135
87	0xbbba9c35	-0.005694891
88	0xbc393a41	-0.011305393
89	0x3eeb9c34	0.4601761
90	0x3b22c1a4	0.0024834657
91	0x3ca22741	0.019794108
92	0x3c747971	0.014921532
93	0x3b440b70	0.0029914044
94	0xbc71b2e5	-0.014752124
95	0x3b5e0638	0.0033878218
96	0xbc885cfe	-0.016645905
97	0xbbce2b8c	-0.0062918123
98	0xbbfcec45	-0.007718595
99	0x39b3d584	0.00034300622
100	0x3c617682	0.013761165
101	0xbbd60747	-0.0065316292
102	0x3be3768c	0.006941622
103	0x3dd534b0	0.1041044
104	0x3ac5445f	0.0015050283
105	0x408bcb58	4.368572
106	0xbc579142	-0.013157191
107	0x3bc12737	0.0058945674
108	0x3b05218a	0.002031418
109	0x3e2edf4a	0.17077366
110	0xbc8f211b	-0.01747184
111	0x41ac0650	21.503082
112	0xbc798848	-0.015230246
113	0xbc816f01	-0.015800001
114	0xbb45e81a	-0.0030198158
115	0x3b29bc7f	0.0025899706
116	0x3c1fa4b9	0.009743863
117	0xbc5c1323	-0.013432297
118	0xbb244931	-0.002506804
119	0x3c20f784	0.009824637
120	0xbafa5963	-0.0019100126
121	0x3cff4818	0.031162307
122	0xbabca515	-0.001439246
123	0x3da2ba27	0.07945662
124	0x3c00b361	0.007855267
125	0x3db6911e	0.08914398
126	0xbc889e2d	-0.016676987
127	0xb7bdad08	-2.261113e-05
128	0xbc55b540	-0.013043702
129	0xbb986bf7	-0.0046515423
130	0x3c10a8a5	0.0088292705
131	0xbc67c9e6	-0.014147257
132	0x3c83c3db	0.016084602
133	0x3bd135b2	0.006384575
134	0x3bbe746a	0.0058122175
135	0x3c649617	0.0139518
136	0x3c8b20b9	0.016983377
137	0x3c125508	0.008931406
138	0xbb66b507	-0.0035203116
139	0xbc5bf4d7	-0.013425074
140	0x41c63fa4	24.781075
141	0xbc8c5cb2	-0.017134044
142	0xbc803a74	-0.015652873
143	0x3ef11148	0.47083497
144	0x3c08e28b	0.008354793
145	0x3bfcaff3	0.0077114045
146	0x3b4d5f19	0.00313372
147	0xba31e06d	-0.0006785456
148	0xbc4a2345	-0.0123375105
149	0xbc308572	-0.010774003
150	0xbc3c2b3d	-0.011484918
151	0xbbb1e900	-0.005429387
152	0x3c2cf91f	0.010557442
153	0x3c346917	0.0110113835
154	0x3c30f4a1	0.010800512
155	0x3c4dc7dd	0.012559858
156	0xbba76c53	-0.005109349
157	0x3c45055b	0.012025203
158	0x3b940a1f	0.004517808
159	0x3d89f19d	0.06735537
160	0xbc6589c4	-0.014009897
161	0xbc6a564b	-0.0143028
162	0x3c435e47	0.011924333
163	0x3c3550fb	0.0110666705
164	0xbc11a841	-0.0088902125
165	0x3f4b80c6	0.7949337
166	0xbc01781b	-0.0079021705
167	0xbc837901	-0.01604891
168	0x3c1ebf38	0.009689145
169	0xbb36f96f	-0.002791967
170	0x3c3a1fc0	0.011360109
171	0xbc8273f1	-0.015924426
172	0x3bf0434b	0.0073322407
173	0x3b98741a	0.0046525123
174	0x3c48b611	0.012250439
175	0xbc676ac5	-0.014124577
176	0xba19b2b3	-0.0005863115
177	0xbbfb01f6	-0.007660146
178	0xbc8fcee2	-0.017554704
179	0xbbde1953	-0.006777921
180	0xbc68a3c3	-0.0141992
181	0xbc78ca19	-0.015184903
182	0x3bca6509	0.006176595
183	0x3c886c81	0.016653301
184	0xbba0980d	-0.0049009384
185	0x3b93704d	0.0044994713
186	0xbc770b68	-0.015078403
187	0x3c7743d2	0.015091853
188	0xbc278d02	-0.01022649
189	0x3c4eea59	0.012629115
190	0xbb97e205	-0.004635098
191	0xbc25735a	-0.010098303
192	0x3c2fa8b6	0.010721376
193	0xbb8dd5a6	-0.0043284474
194	0x3f813af4	1.0096116
195	0xbc00cf9f	-0.007862001
196	0x3c35e36e	0.011101587
197	0x3c89eb01	0.016835691
198	0xbba5eae8	-0.0050634034
199	0xbc47a288	-0.012184747
200	0xbb91f941	-0.004454762
201	0x3e5b4e7d	0.2141666
202	0x3d00bcce	0.03143006
203	0x3c5b5eed	0.013389331
204	0x3c1f7a42	0.009733738
205	0x3c7b7d80	0.015349746
206	0xbc6838fe	-0.014173744
207	0xbbe3d9a4	-0.006953435
208	0xbbd1d3ae	-0.006403408
209	0xbc77fb59	-0.01513561
210	0xbb2db29a	-0.002650416
211	0x3cd164b4	0.025560714
212	0x3c3c0ecd	0.011478138
213	0x3be91a52	0.0071137333
214	0xbb0de65f	-0.0021652204
215	0x3c0f18d0	0.008733943
216	0xbc0634e2	-0.008191319
217	0xbc730fe8	-0.014835335
218	0xbc2edf0e	-0.010673298
219	0x3c57d6d2	0.013173776
220	0xbc07b2d5	-0.008282383
221	0x3c5d95b5	0.0135244625
222	0x3c24ece8	0.0100662485
223	0x3cb47486	0.022028219
224	0x3c3fd84b	0.011709283
225	0x3c8d876f	0.017276494
226	0xbb8a10b6	-0.004213418
227	0x3dc083f4	0.09400168
228	0xbc04b0d2	-0.008098798
229	0x3d94a366	0.07257728
230	0x3e15f26f	0.14643262
231	0x3d8d28a4	0.06892517
232	0x3dafb107	0.08578687
233	0x3bee6b7a	0.007275996
234	0xbbc1a6fb	-0.005909798
235	0x3caa25aa	0.020769913
236	0x3e806e9d	0.2508439
237	0x3e4bba4b	0.19895284
238	0x3e54dbdf	0.20786999
239	0x3dbe7019	0.09298725
240	0x3d997344	0.07492688
241	0x3d95d072	0.073151484
242	0x3e05ab3a	0.13053599
243	0x3e1295cc	0.14314955
244	0x3e2c148e	0.16804716
245	0x3c92e2cf	0.017930416
246	0x3d960478	0.07325071
247	0x3ddd9413	0.108192585
248	0x3e05c8c4	0.13064867
249	0x3dd95d3b	0.106134854
250	0x3db83dfe	0.08996199
251	0x3ecbae8d	0.3978161
252	0x3eb8d244	0.3609792
253	0x3db4b19d	0.088229395
254	0x3df8ff6f	0.12158095
255	0x3dd72939	0.105059095
