catanatron_experimental/my_DQN_wyniki2/my_DQN2_500_steps.pth (torch, 268915 bytes, 8 tensors)

layer1.weight f4 [64, 614]
00000000: a6f6 053c 1753 613b 0fa0 5abc 8b07 1c3c
00000010: bedc 4ebc a39c 38ba b356 15bc f0b4 163a
00000020: 017f abbb eb80 10bc 2d91 bc3b 9775 ac3b
00000030: 7dcb 493c 624a f83b 8587 cb3b f5c7 8dbb
00000040: fc05 55bb 1694 353c df4f 53bc f312 4a3a
00000050: 879b edbb 956e 3bbb b6c2 b0b6 18e3 843b
00000060: deef 333c 2c56 343c 5c6e 2a3c e035 5b3b
00000070: 9fbe 77ba 478b dabb 5e11 863b 11a2 0d3c
00000080: 5611 aeba 99bd ef3a 196c 5d3b 8e42 313c
00000090: ad1d 4dbc 6d1b a53b d2ee e4b9 bad1 dfbb
000000a0: b425 95bb 1251 1d3c bd3b 7b3a ee14 08bc
000000b0: cb0c feba 8f0f 1c3c f356 bf3b f270 6cbb
000000c0: 5131 033a e2cb d4ba ed94 343c 9f9f aaba
000000d0: 358c 7b3b ec96 c73b 0003 41bb 0832 943a
000000e0: 73eb 633b 7337 8fbb d8f8 173c ab27 81bb
000000f0: 4b72 c13b 94e8 2e3b a41e 9b38 1a6c dabb
00000100: 5767 c2bb b77a 43bc e0d9 0a3c ea08 c73b
00000110: dbc4 b7bb 9a6a 113b 8839 e83b 8da1 183c
00000120: 2cc4 47bc 8f67 473c cdc8 46bb a4d6 fd3b
00000130: 8d54 04bc 5321 f8bb f219 2bbc 8efa 48bc
00000140: 0bdb ab3a 9aff d03b 48ba 7a3b 840f 04bc
00000150: 5239 2bbc 5915 3b3a b66e 5fbb c5da 3abc
00000160: eedb e2ba 195d 12bc c599 d9bb 2148 19bb
00000170: eae6 3f3b dd61 32bb 2c16 6fbb 6665 873b
00000180: 8e8e 293c 3d1c 253a c5e3 37bc 8af9 e93b
00000190: 9d3b 963b 0062 06bc c41d 28bc ee6b e9bb
000001a0: dfd3 f13b 797b b1bb b74e 403c 95ed cd3b
000001b0: 7005 393a d822 873b 41fd 0bbc beff d23b
000001c0: e500 cc3b b620 35bc 469d 02bc a5d9 06bc
000001d0: 1389 0dbc 0f97 8abb 4ff8 a6bb f7c6 263c
000001e0: 5124 9a3b eade 6d3a 236d 1fbc 3914 2d3c
000001f0: 8060 04b9 e5e3 dcb9 eca9 593b 1507 a3bb
00000200: 95a0 8f3b bb7a 53bb 4033 2f3a bb32 013c
00000210: b645 3f3c 6be4 73b9 cb39 453c 6de1 f4b9
00000220: 863d 053c 6423 92ba a4c3 ce3b cdcc ecbb
00000230: 094d 1bbc 1ac5 ceb9 be46 20b8 0b55 d63a
00000240: 1384 2a3c 1fe3 bebb 51e1 71bb 17e7 213c
00000250: cebb 58ba 7d84 d3b9 bd95 78bb b309 003c
00000260: d2b1 413c b196 95b7 c957 143c a921 883b
00000270: a006 9dbb 23be 3ebc 571b ec3b 5d00 313b
00000280: f247 26bc 0272 a73b 2532 f0bb 803c 8aba
00000290: 96d6 08bc 11bb 1fbc 732d bebb 3483 9c3a
000002a0: 41af 7dba c50f 3f3b 6940 1bbc 2ece 423c
000002b0: 8ca7 18bc 6d95 3f3c 9ca9 d3ba 23f3 dfbb
000002c0: 2efc d9bb 478b f1bb fc0b c73a f3d9 823b
000002d0: 0d10 123b cad2 0a3c f3f8 e0bb c5e7 32bc
000002e0: 2ef4 d53b e065 06bc fe21 a53b bb1a cdbb
000002f0: efca 213c f3e4 0bbc c323 40bc a6cf 873b
00000300: 95fa e6bb 2f99 cb3b 4c08 1e3c bbef 343c
00000310: e04f acbb ca87 d9bb 7732 44bc cbb9 2abb
00000320: 747f 133c cdba e83b 6603 01bc bda0 2d3b
00000330: 9a48 8e3a 45fb b2ba 35b6 22bc 3961 0d3c
00000340: c950 cd3b 5438 313c 4034 123c b042 043c
00000350: f03a a03b 06fa 3ebc fbb6 dfbb b98b 33ba
00000360: 2ae1 073c b89d dfba 4c01 d1bb 9846 ed3b
00000370: c7c1 3d3c 0c41 90ba 1f49 17bc aee9 56ba
00000380: ce42 0aba 77e8 efbb 742b 5e3b 2449 81bb
00000390: 5b3d 02bc 9b55 b5bb 31f8 c83b dc7e bebb
000003a0: 7a57 a7bb 3c77 3abb 2555 a3bb e544 493c
000003b0: 3864 4b39 6f5d 6dbb f2f3 fdb9 e056 10bc
000003c0: f7f5 2c3c 72d3 2d3c c55e 9d3b 5516 733b
000003d0: 5b22 b93b dd6c abbb 906d 6a3b a952 8bbb
000003e0: da75 373c affa 0cbc 2f59 3a3c 9cd9 d83a
000003f0: 8986 26bc 8b9e e73b 5038 093c 3838 bd3b
0.008176481 0.00343818 -0.013343825 0.009523283 -0.012625871 -0.00070423837 -0.009114909 0.00057490077
-0.005233646 -0.008819799 0.005754611 0.0052630412 0.012316582 0.0075772265 0.0062112235 -0.0043268153
-0.0032504788 0.01108267 -0.012897461 0.0007708512 -0.0072512063 -0.0028599848 -5.267876e-06 0.004055392
0.010982482 0.011006873 0.010402288 0.003344886 -0.0009450707 -0.006669435 0.004091426 0.008644597
-0.0013280313 0.0018290757 0.0033786355 0.0108190905 -0.012519282 0.00503867 -0.00043665484 -0.0068304213
-0.0045516137 0.009601848 0.0009583792 -0.008305771 -0.0019382475 0.009525194 0.0058392226 -0.0036078063
0.0005004602 -0.0016235078 0.011021835 -0.0013017541 0.003838313 0.0060909893 -0.002945125 0.0011306414
0.003477779 -0.0043706237 0.009275638 -0.0039414964 0.0059035174 0.002668892 7.396683e-05 -0.0066657187
-0.005932729 -0.011931113 0.008474797 0.0060740607 -0.005608184 0.0022188784 0.0070869364 0.00931586
-0.012192767 0.012170686 -0.003033209 0.0077465344 -0.008076799 -0.007572332 -0.010443198 -0.012266768
0.0013111545 0.0063781263 0.0038258005 -0.00806034 -0.010450678 0.0007136665 -0.0034093088 -0.011404698
-0.0017307976 -0.008933329 -0.006640645 -0.002338894 0.0029281923 -0.0027218976 -0.0036481721 0.0041319607
0.010348929 0.00062984583 -0.011223738 0.007140343 0.004584743 -0.008202076 -0.010261003 -0.007123462
0.0073799933 -0.0054163304 0.011737517 0.0062844255 0.0007058 0.0041240267 -0.008544267 0.0064391783
0.0062256926 -0.011055162 -0.007972067 -0.008230601 -0.008638638 -0.0042294334 -0.0050955187 0.010179273
0.0047040363 0.00090740493 -0.00973061 0.0105639035 -0.0001262445 -0.00042131465 0.0033212854 -0.0049752095
0.0043831565 -0.0032269198 0.0006683357 0.00788563 0.011674335 -0.00023259378 0.012037705 -0.00046707262
0.008132344 -0.0011149463 0.0063099433 -0.0072265626 -0.009478816 -0.00039438234 -3.8212856e-05 0.0016352249
0.0104074655 -0.005825415 -0.003690798 0.009881756 -0.0008267731 -0.00040343768 -0.0037931048 0.0078148125
0.011822181 -1.7832355e-05 0.009054133 0.004154403 -0.0047920495 -0.011642012 0.0072054076 0.0027008273
-0.010148989 0.0051100263 -0.0073301964 -0.0010546595 -0.0083519425 -0.00974919 -0.005803758 0.0011940957
-0.0009677299 0.0029153686 -0.009475806 0.011889977 -0.00931729 0.011693341 -0.001614857 -0.006834404
-0.0066523766 -0.0073713395 0.0015186067 0.0039932667 0.00222874 0.008473108 -0.0068656146 -0.010919516
0.0065293526 -0.008203 0.0050394526 -0.00625929 0.009875043 -0.0085384725 -0.011727276 0.0041446267
-0.0070489147 0.0062133293 0.009645533 0.011043484 -0.0052585453 -0.006638502 -0.011974922 -0.0026050683
0.009002555 0.0071023465 -0.007874345 0.0026493513 0.0010855377 -0.0013655206 -0.009931137 0.008629137
0.006265734 0.010816652 0.00892359 0.00807254 0.0048898384 -0.01165629 -0.006827233 -0.00068491284
0.008293429 -0.0017060554 -0.0063783284 0.0072410814 0.011581845 -0.0011005714 -0.009233742 -0.0008198273
-0.0005274237 -0.007321413 0.0033900412 -0.0039454866 -0.007949199 -0.0055338866 0.0061331023 -0.0058134627
-0.0051068636 -0.0028452417 -0.0049845153 0.012284492 0.00019396923 -0.003621902 -0.00048437674 -0.008809775
0.010556689 0.0106094945 0.004802557 0.0037092168 0.0056498474 -0.0052314834 0.003577087 -0.004251797
0.011197532 -0.0086046895 0.011373802 0.0016544345 -0.010163912 0.0070684603 0.008375242 0.005774524

layer1.bias f4 [64]
00000000: 61fe 013c 91ac 1a3a 31dd ebb9 5cdd 1b42
00000010: 41c9 62bc acc0 1b42 2a9a 6bbc 21cc 1b42
00000020: 0bd1 0d3c 08dd 1b42 8abc 1b42 4fda 1b42
00000030: 104a 6fbc cc23 0cbd 07af 1b42 3470 1b42
00000040: b9d1 1b42 98c1 1b42 fddd 1b42 8ed8 343c
00000050: 007f 1b42 b9c7 1b42 45bd 1b42 c779 acbb
00000060: e8c4 b0b9 66cf 1b42 fe18 cebf d1e0 1b42
00000070: cedd 273b 14ee 2a3c 2623 2abc f791 0fbc
00000080: 81ca 1b42 628d 00bc b7ba 063c 50d8 1b42
00000090: 11bd 1b42 20cd 1b42 0bce 1b42 971e f03a
000000a0: b3d2 cdbf babb 1fbb 58cd 1b42 5590 cdbf
000000b0: a6bd 90ba 578c e1bb 7587 1abc d372 95bb
000000c0: a4c5 1b42 2a0c a03b 1d0c eeba 7819 57bc
000000d0: d7ba 1b42 2dc5 1b42 9dc4 1b42 b4b1 1b42
000000e0: 75a3 223b c3d6 b8bb f3b3 27bc cac4 1b42
000000f0: 6cd1 1b42 24ce 1b42 afcb 1b42 2eb7 1b42
0.007934184 0.0005900348 -0.00044987493 38.96617 -0.013841928 38.938156 -0.014380017 38.949345
0.008655797 38.96585 38.93412 38.963192 -0.01460506 -0.034213826 38.920925 38.859573
38.954807 38.939056 38.966785 0.011037959 38.874023 38.94504 38.934834 -0.0052635404
-0.00033716043 38.952538 -1.6101377 38.969547 0.0025614384 0.010432739 -0.010384357 -0.008762828
38.947758 -0.007846208 0.008223227 38.961243 38.934635 38.950317 38.951214 0.0018319663
-1.6079925 -0.0024373368 38.95053 -1.6059672 -0.0011042848 -0.006883185 -0.00943171 -0.0045608073
38.94301 0.0048842626 -0.0018161569 -0.013128631 38.93246 38.942554 38.942005 38.92354
0.0024816666 -0.005640836 -0.010235774 38.942177 38.954514 38.95131 38.94891 38.928886

layer2.weight f4 [64, 64]
00000000: 2ce3 c5bb d817 82ba 2331 4b3b 9ae5 b43c
00000010: 7d98 87bc 4f13 d63a 16fa 00bd 40ff fe3c
00000020: f36c 3abc fbf8 b63a 6fc8 f0bc 5799 a73c
00000030: c2ee adbc 1d9d cf3c 1b45 de39 756f 5c3c
00000040: a8c2 b83c 24f3 b03c 1863 253b 5cf3 1a3b
00000050: b2b4 04bd 1bd6 83bc df79 a93c 3326 8c3c
00000060: f647 cc3c 7580 85bc ed0a a43c a21c 21bd
00000070: 8038 14bd b026 cc3b 1dbf d7bc c589 1abd
00000080: cc38 cbbc 97f6 763c 068a b0bc 7fea 39bc
00000090: 47bb c33c d383 aabc 2738 c1bc ae31 9dbc
000000a0: 2652 ee3c 4fb2 d13c e107 103d 733b 403c
000000b0: c9a4 37bc 3337 303d 29fe 063d 3266 0b3c
000000c0: 7428 26bd 45db cc3c ec09 cebb 222e ca3c
000000d0: c306 af3b 3ed5 1cbc 2e39 3bbd 0387 ea3a
000000e0: ae25 7fbc bd5a 0dbd 7c6a 063d 20f2 e33c
000000f0: c2c0 09bd 8fee e5bc e762 443c 214e 07bd
00000100: 8e0f eb3b 6dc3 5d3c 6306 0dbc 75ad d2bc
00000110: 4534 5bbb adb9 a1bc ea63 98bb 8d91 b4bc
00000120: 2a84 d9bc 2ff2 803b 65f6 dc3c aa2f 123d
00000130: 0fa7 ecbb 5b75 f23c a08b 4ebc 3fd0 eb3c
00000140: 4083 8fbc ff92 963c d4f0 78bc d63f 003d
00000150: 874e a4b9 be24 17bd 100e 943c 94f4 a23c
00000160: b02b 38ba ce88 5bbc 862f 7cbc 0e82 41bc
00000170: e136 aa3c 8ddd fabc e2c4 41bc d03f 9dbc
00000180: 89c8 51bc 8798 7abc 7048 913c 152b b5bc
00000190: 89f7 05bd 0b93 1abd 53ab 1fbd e89b cbbb
000001a0: 7aba dabc dd53 ebbc 9a16 043d a85d 023d
000001b0: e881 0dbc 473a 0fbd 87eb 94bc cb19 c53b
000001c0: 83e2 9a3c 4ffa 46bb c063 78bc a7a8 0b3d
000001d0: 1246 083d f8a2 453c 1675 38bc a158 61bc
000001e0: f166 783c f0cf e43a 45f4 23bc 44ec c53c
000001f0: 002a b4bc 60b5 0f3d a814 ab3b 7b2b 003d
00000200: 8574 a33b 7034 dc3c b170 f33c 4631 1c42
00000210: 8376 b9bd 4b2f 1c42 964d 71bc d939 1c42
00000220: 99ff d1ba f94a 1c42 f978 1c42 6138 1c42
00000230: a360 67bc d7ba afbf 9d59 1c42 4d63 1c42
00000240: 5a7f 1c42 524e 1c42 2d39 1c42 2b28 883c
00000250: 02ff 1c42 034c 1c42 5e6f 1c42 4c28 c8bc
00000260: fa10 f53c 567a 1c42 e3b7 cdc1 ed3b 1c42
00000270: d6f9 173d 1a32 76bc 33e1 21bc 16c6 10bc
00000280: f192 1c42 7cb0 60bc bee7 ca3c c041 1c42
00000290: cd79 1c42 cd8c 1c42 0e7a 1c42 5e1f adbb
000002a0: b9fd d2c1 9f10 823c f03f 1c42 e5ca d4c1
000002b0: d2fc ccbb bc1a 1d3d df46 47bb 9c68 d1ba
000002c0: ea6e 1c42 95eb bebc 468e 16bd e8e6 b43c
000002d0: 9788 1c42 2b6d 1c42 ab2a 1c42 4c8c 1c42
000002e0: 60eb 00bd 650f ecb8 dbb3 3cbd 5756 1c42
000002f0: 1f5d 1c42 2a90 1c42 2b67 1c42 d77b 1c42
00000300: 780a e93c 7685 18bd 604d ecbc bc7f 7ebc
00000310: aa10 af3e 3c28 5b3d dff5 223c 666c f6bc
00000320: 2ffc d5bb a7b1 4d3c f07f cf3c 2022 efbc
00000330: a350 4b3c 72cc 73bc 2497 8e3c 0453 013e
00000340: 5bce da3c 8885 06bd f2b6 d13c 3a0d e5bc
00000350: d0e2 e6bd 318b d3bd dbbc 393a 8ebc 5f3c
00000360: 0aee 02bd eeaa 07bd 9d82 abbd c7de fc3c
00000370: 8c49 993c 0fd8 cf3c 0848 833c 8d39 d6bc
00000380: 7a1c cbbd 989e 0d3c 59e6 583c 68f0 b73c
00000390: 5649 3cbd 7a11 573c 0d95 70bc 2c73 a0bc
000003a0: 5cd2 0bbd 7a6b 883b 7bc5 e2bb e58f 5d3e
000003b0: 4044 0fbd f7b1 0a3e 45af 26bc 1d5b 19bd
000003c0: 4f3b 7cbc fc87 4ebc 9220 79bc 1534 8b3c
000003d0: 5ee5 9bbd 8141 c03c b697 6cbc 18aa 903d
000003e0: 4bfc e0bc 9c85 f73c 9711 dabc 2d0c dcbc
000003f0: bd25 0ebb c7e3 b83c 562f f7bc 300a 33bd
-0.006039044 -0.0009925319 0.003100463 0.022082139 -0.016552204 0.0016332659 -0.0314885 0.031127572
-0.011378515 0.00139597 -0.02939245 0.02045886 -0.021232013 0.025343472 0.00042394627 0.013454308
0.022553757 0.021600313 0.0025236066 0.0023643589 -0.032398887 -0.016093304 0.020687995 0.017108059
0.024936657 -0.016296605 0.020024741 -0.039333947 -0.036186695 0.006230198 -0.026336247 -0.037729044
-0.024807356 0.01507344 -0.02155019 -0.011347412 0.023893012 -0.020814812 -0.023586346 -0.019188728
0.029091906 0.02559772 0.035163764 0.011732924 -0.011208721 0.043021392 0.03295723 0.008508252
-0.040565923 0.0250069 -0.006287804 0.024680201 0.005341382 -0.009572325 -0.045708828 0.001789302
-0.015572948 -0.034510363 0.032816395 0.027825415 -0.033631094 -0.028067855 0.011986471 -0.033033494
0.007173485 0.013535363 -0.00860748 -0.025717476 -0.0033447903 -0.019741857 -0.0046505826 -0.02204206
-0.026552279 0.0039351205 0.026972959 0.035689987 -0.0072220634 0.029596975 -0.012606531 0.028785823
-0.01751864 0.01838064 -0.015194137 0.03131088 -0.00031339025 -0.036900274 0.018073112 0.019892015
-0.0007025553 -0.013399316 -0.01539219 -0.011810793 0.020778121 -0.030623222 -0.011826726 -0.019195467
-0.012804159 -0.015295154 0.017734736 -0.02211527 -0.03270677 -0.037737887 -0.038981747 -0.006213654
-0.026700247 -0.028726513 0.032248117 0.0318276 -0.008636929 -0.034967687 -0.018178714 0.0060150377
0.018906837 -0.0030361598 -0.015160501 0.034096386 0.03326995 0.012062781 -0.011258384 -0.013754041
0.015161262 0.001745699 -0.010006969 0.024160512 -0.021992683 0.035085082 0.0052209683 0.031291466
0.0049882554 0.026880473 0.029716821 39.04812 -0.090558074 39.046185 -0.014727971 39.05649
-0.0016021609 39.073215 39.118137 39.055058 -0.014122161 -1.3728894 39.087513 39.096973
39.124367 39.076485 39.055836 0.016620716 39.24903 39.07423 39.108757 -0.024433278
0.029915322 39.11947 -25.714788 39.05852 0.037103496 -0.015026594 -0.009880352 -0.00883629
39.143497 -0.013713952 0.024768706 39.06421 39.118946 39.1375 39.119194 -0.0052832803
-26.373888 0.015877066 39.06244 -26.59907 -0.0062557245 0.038355574 -0.0030407233 -0.0015976611
39.108315 -0.023305694 -0.036756776 0.02208276 39.13339 39.10661 39.041668 39.13701
-0.03147447 -0.000112562244 -0.04606996 39.084316 39.09094 39.140785 39.10075 39.120937
0.028447375 -0.037236653 -0.028845489 -0.015533384 0.341924 0.053505167 0.009946316 -0.030080985
-0.006530307 0.012554563 0.02532956 -0.029191077 0.012409362 -0.0148802865 0.017406054 0.12629324
0.026709726 -0.03284219 0.02559993 -0.027960408 -0.1127373 -0.10329283 0.00070853316 0.013655795
-0.031965293 -0.033121996 -0.08374522 0.030867947 0.018711828 0.02537158 0.016025558 -0.02615049
-0.09917541 0.008643769 0.013238513 0.022453502 -0.045968376 0.013126725 -0.014683974 -0.019586168
-0.03413616 0.004163203 -0.006920514 0.21636923 -0.034977198 0.1354445 -0.010173623 -0.037440408
-0.015395 -0.012605663 -0.015205519 0.016992608 -0.07612108 0.023468735 -0.014440468 0.07063693
-0.027464053 0.030215077 -0.026619716 -0.026861275 -0.0021689974 0.02256955 -0.030173939 -0.043710887

layer2.bias f4 [64]
00000000: 4bf7 ccbc 2b67 e23c 89c6 2842 1d38 3ebb
00000010: fbba 2842 e3c7 2842 3d7b 27bd 149d 0cbd
00000020: 08e9 2842 3213 71bc 5bd5 2842 09bb f2bc
00000030: ebc0 2842 cf93 123d e4d7 2842 6aa2 2842
00000040: ccba 2842 d5ea 2842 bbf4 00bc f4d3 2842
00000050: c0c4 a73c d3aa 2842 f7e3 0d3c e104 d7bc
00000060: 4005 27bd d5bf 0dbd 6970 c5bc 70a7 2842
00000070: 2544 18bd 16f0 2842 f9ed 2842 d776 dc3c
00000080: 1198 9c3c 1035 0bbd 9bcb 2842 f5a0 2842
00000090: 2bcf 2842 6912 a33c a57d dfba 533d 6ebb
000000a0: d89d 2842 58b7 2842 4ed5 2842 e76a 08bb
000000b0: ceca 723a 0ae4 f8bc 52bc 16bd 4dc5 2842
000000c0: ef65 0cbd 5979 13bd 77c5 2842 9a38 873a
000000d0: dbc3 2842 2ac9 2842 51ab 2842 17c8 2842
000000e0: 87e9 2842 b2ae 2842 9434 7bbc 1bd7 2842
000000f0: a9b0 2842 22d8 2842 cbe6 2842 bedc 2842
-0.025020262 0.027637085 42.193882 -0.0029025145 42.1826 42.1952 -0.040889014 -0.03432949
42.22757 -0.014714049 42.208355 -0.029630201 42.188396 0.035785493 42.21083 42.158607
42.18242 42.22933 -0.007870848 42.206985 0.02047956 42.16682 0.008660308 -0.026247444
-0.04077649 -0.034606773 -0.024101453 42.163513 -0.037174363 42.23446 42.232395 0.026912136
0.01911548 -0.03398615 42.198833 42.157185 42.202312 0.01990624 -0.0017050995 -0.003635247
42.154144 42.179047 42.208305 -0.0020815672 0.00092617876 -0.030382175 -0.03680069 42.192677
-0.0342769 -0.036004398 42.192837 0.0010316551 42.191265 42.19645 42.1673 42.1954
42.228054 42.1706 -0.01533236 42.210064 42.17252 42.211067 42.225384 42.21557

layer3.weight f4 [64, 64]
00000000: 1e68 9b3c 07d9 1fbd 8b18 2fbd ad0a 0fbd
00000010: bb3a c43a 7d6f 2bbd be22 203c 9e8f 5cbc
00000020: 4e84 e9bb ed11 1ebc 77ed fcb8 0cfb f2bc
00000030: 54ed 1bbd 72f2 2a3c a3af fe3a f8fa 4bbc
00000040: 107f a73b f9a3 b53c aa68 d53c b9dc 1abd
00000050: 486e a7bc 90a7 7f3d 16f3 a6bc 031a 2a3d
00000060: dfc6 f3bc 1371 6ebc 577e 0ebd a03b 123d
00000070: ecd7 4c3a 77e2 f7bc 8785 3f3c 3ebc f03c
00000080: 17f1 113c c150 11bd a17d 07bd 150b 433c
00000090: 15f1 603c 1b10 63bc cd52 f53c 4c41 113d
000000a0: 0ded f43c 69ce 9b3c 26b8 b53c 9691 c6bc
000000b0: 5553 df3c 23d4 4d3c 787b f8bb 8209 003d
000000c0: 68a6 d1bb 586c bd3c 3d1f 863c fdf0 f8bc
000000d0: 0270 373c c9a6 9abc 603c a73c dc54 edbc
000000e0: e7b0 1bbd 6148 fd3c 9196 80bc bdb2 12bd
000000f0: 2744 aebc b4a7 d8bc 1dbd c83c aeaa eabc
00000100: 9381 dcbc 874f eabb 4052 1b42 a196 793e
00000110: 0d57 1b42 4d25 1b42 7fba febc 5915 ee3c
00000120: bf21 1b42 6089 b0bd 6920 1b42 5604 dfbc
00000130: 4d57 1b42 274f 8ebb f745 1b42 205b 1b42
00000140: 9d30 1b42 1c27 1b42 53fe 273d 9f33 1b42
00000150: 81b4 573c c354 1b42 fcbe d43c dafc 9dbc
00000160: 6156 033c 2c62 e7bc c8d1 0d3d ba55 1b42
00000170: 8389 98bb be40 1b42 ae47 1b42 035e 0c3d
00000180: 2ff1 febc 3a70 aa3c 701e 1b42 894c 1b42
00000190: 8735 1b42 38fc 013d bc4e fb3d b89d 103e
000001a0: a255 1b42 ad5c 1b42 4f54 1b42 964c f6bc
000001b0: f975 17bc 7673 973c b360 1b3a 3f4b 1b42
000001c0: b0a5 acbc 9af8 cc3c b660 1b42 e24f e63c
000001d0: 2727 1b42 8b53 1b42 1c5f 1b42 3e67 1b42
000001e0: be10 1b42 3634 1b42 9e9b 95bc e019 1b42
000001f0: d83c 1b42 175a 1b42 391e 1b42 1946 1b42
00000200: 4091 eebc a8a5 b33c b978 873a e029 b1bc
00000210: a811 96bb 8a19 543c 88b7 04bc 29c3 043d
00000220: dfc9 e13c 7f12 f2bc 6a21 56bc 2154 f2bc
00000230: 91e3 33bc 00c1 b0bc 032e 8dbc 4d05 ef3c
00000240: cd06 bc3b 2f3b bfbc 7385 f9ba dacd 8a3c
00000250: b6fa 9ebb d652 0cbd 2555 943c 08a2 29bd
00000260: bff8 cfbc c2d5 a4bc 07ea 6a3c 24b7 023d
00000270: f8b0 cb3c 8834 5aba 878c 113b 0107 96b7
00000280: 1842 13bb b8be 0b3b 0ecc eb3c 672c 4b3c
00000290: 6124 563a 5b0b 98bc 4c32 f73c 42e1 febc
000002a0: 091e 0fbd b8fd 07bd bef7 14bd 5ef2 f43c
000002b0: 5a0d 5bbc 8d95 14bd e8aa 06bd a6f3 19bc
000002c0: 4579 7c3c d608 10bd a3c0 c53c 54d4 a83b
000002d0: 438b c9bc 738f e53c 68fc 29bd c7d4 4a3c
000002e0: cc82 283c 5fe0 893b 3325 f33c d820 973c
000002f0: 36b2 8f3c 03c1 ea3b 07b1 bcbc e574 27bd
00000300: 88d1 97bc 46af 0fbd 36d6 1a42 669f 5c3e
00000310: b5da 1a42 51bb 1a42 48b3 bdbc bfec d93b
00000320: 57c3 1a42 a697 743e f307 1b42 97ae 8cbc
00000330: 7fe1 1a42 3145 6db9 53d0 1a42 1dd2 1a42
00000340: 41c6 1a42 1bee 1a42 1cbd 8bbb 50d8 1a42
00000350: 917d b63c fab9 1a42 5b21 bbbc 890b 093d
00000360: 75be 44bb 04c9 c83c ff01 1d3c 9bce 1a42
00000370: 1556 313c 9ecd 1a42 19e3 1a42 265a d03b
00000380: f477 66bc 4515 923c cde9 1a42 52d0 1a42
00000390: ffaa 1a42 bde7 0b3d 655b c73e 02dc 323e
000003a0: 4da5 1a42 edc8 1a42 44e6 1a42 9eda 86bc
000003b0: 160d 07bd a585 843c 5863 fd3c 0de2 1a42
000003c0: d1f6 1abd df47 d63b 58dc 1a42 235e 0fbc
000003d0: abd1 1a42 b5a2 1a42 d2d9 1a42 d3ac 1a42
000003e0: 40ba 1a42 6cb0 1a42 33a4 b6bc 62e3 1a42
000003f0: aaca 1a42 cbc3 1a42 45da 1a42 c6e3 1a42
0.018970545 -0.039025333 -0.042748015 -0.03492229 0.0014971116 -0.04185437 0.009773908 -0.013461975
-0.0071263677 -0.0096478285 -0.00012060528 -0.029660724 -0.03806813 0.01043378 0.0019431006 -0.012449972
0.0051115826 0.022172915 0.026050884 -0.037808154 -0.020438328 0.06241566 -0.020379584 0.041528713
-0.029757915 -0.014553326 -0.034788456 0.035701394 0.0007814157 -0.030259354 0.01168955 0.029386636
0.008907578 -0.035477404 -0.033078793 0.011904498 0.013729353 -0.01385882 0.029946709 0.035462663
0.02989819 0.019019322 0.022182535 -0.024239343 0.027261415 0.012562784 -0.007583078 0.031259067
-0.006398011 0.023122951 0.016372317 -0.03038835 0.011196138 -0.018878357 0.020414531 -0.028971128
-0.038010504 0.030918302 -0.015696796 -0.03581499 -0.021272732 -0.026447155 0.024504239 -0.02864584
-0.026917255 -0.0071505937 38.830322 0.24373867 38.83501 38.786427 -0.031094788 0.029062914
38.782955 -0.08619952 38.78165 -0.027223747 38.835255 -0.004342932 38.818325 38.83899
38.797474 38.788193 0.041014027 38.80041 0.013165594 38.832775 0.025969975 -0.019285608
0.0080162 -0.028245054 0.03462389 38.833717 -0.0046550645 38.813225 38.82 0.034269344
-0.031120865 0.020805467 38.779724 38.82474 38.802273 0.031734675 0.12270877 0.14122665
38.833626 38.840504 38.832333 -0.030065816 -0.0092444355 0.018487673 0.000592719 38.823483
-0.0210751 0.025020886 38.844444 0.028114263 38.788235 38.831585 38.84288 38.850822
38.76635 38.800987 -0.01826268 38.77527 38.809418 38.83798 38.779514 38.818455
-0.029121995 0.021929577 0.0010335661 -0.021626413 -0.0045797415 0.012945542 -0.008100398 0.03241268
0.02756208 -0.029549835 -0.01306949 -0.029581131 -0.010979549 -0.021576405 -0.017233854 0.029177332
0.0057381154 -0.02334365 -0.0019036963 0.01694386 -0.0048516644 -0.034258686 0.018107006 -0.04141429
-0.025387166 -0.020121459 0.014338023 0.031912938 0.024864659 -0.0008323868 0.0022209005 -1.7884655e-05
-0.0022469815 0.0021323394 0.028783824 0.012400723 0.0008168873 -0.018560102 0.03017535 -0.03111327
-0.034940753 -0.03320095 -0.036369078 0.029900726 -0.0133698825 -0.036275435 -0.032877833 -0.009396469
0.015409772 -0.035164677 0.024139708 0.0051522646 -0.024602538 0.028022503 -0.04150048 0.012379832
0.010285091 0.0042076553 0.029680824 0.018448278 0.017541032 0.007164122 -0.023033632 -0.040882964
-0.01853253 -0.035079263 38.70919 0.2154518 38.71358 38.682926 -0.023156777 0.006650537
38.69076 0.23885974 38.757763 -0.017173095 38.72021 -0.00022627857 38.70344 38.70519
38.693607 38.732525 -0.004264487 38.711243 0.022276672 38.681618 -0.022843054 0.033458266
-0.0030020748 0.024509914 0.009582995 38.701763 0.010823746 38.700798 38.721775 0.006358403
-0.014066685 0.017832408 38.72832 38.703438 38.66699 0.03415655 0.38936916 0.17466739
38.661427 38.696217 38.72487 -0.016461667 -0.032971464 0.016177008 0.03093116 38.720753
-0.03783304 0.0065393294 38.71518 -0.008750471 38.704754 38.658894 38.712715 38.668774
38.681885 38.672287 -0.022295093 38.722054 38.697914 38.691204 38.713154 38.722435

layer3.bias f4 [64]
00000000: 19ff 04bb 038e 1742 bc63 8bbc 4b0c 1842
00000010: 5a06 1642 eb71 d1bc df9b 1cbb a417 1642
00000020: c5bb 1642 64f3 1442 21b8 85bc ea25 e6bc
00000030: f0c3 1542 b980 1842 e9c1 17bc 025f d33c
00000040: 016e 11bd adda 1742 64cb 1842 cd27 1842
00000050: 64f4 dcbc a0e8 1b3c 47dd 8e3b b123 873c
00000060: 0f4a a13c df49 1642 a0a6 a9ba b8cf 563b
00000070: 52d5 423c ec13 9f3c 8050 1842 ee23 3b3a
00000080: 45bd 1cbd a6d1 1742 af0d 223c 49bc 1342
00000090: eb73 663c c4e9 103d 3b50 233c b83c dcbc
000000a0: fb7e b73b f942 1642 c953 1842 3f57 1742
000000b0: 98c5 0abc 520f ae3b 5ffa 8bb9 df7b 1842
000000c0: be8f 053a eaf2 1742 6c65 13bd 1a99 043d
000000d0: f11f 5abc 5edb 09bd 6cb6 11bd 66dc 0abd
000000e0: 5e13 193d d5fe d8bc 4e7c 1842 ab9f 03bd
000000f0: 60a4 eb3b f612 9e3c d87f 1742 671c cdbb
-0.0020293652 37.888683 -0.01701533 38.012005 37.506203 -0.025567016 -0.0023896617 37.523087
37.68337 37.237686 -0.016323151 -0.02809425 37.441345 38.125706 -0.00926254 0.02580214
-0.0355053 37.96355 38.198624 38.038868 -0.026972003 0.009515911 0.0043598744 0.016496511
0.019688634 37.57214 -0.0012943335 0.0032777619 0.01189168 0.01941868 38.078613 0.0007138838
-0.03826644 37.954735 0.009890958 36.933872 0.014065723 0.035379186 0.009967859 -0.026884422
0.005599854 37.565403 38.08182 37.8352 -0.008469962 0.005311885 -0.00026698687 38.120968
0.00050949666 37.98722 -0.035985395 0.03237257 -0.0133132795 -0.03365647 -0.03557436 -0.033901595
0.037371986 -0.0264887 38.12139 -0.032134693 0.007191226 0.01929615 37.874847 -0.0062594893

layer4.weight f4 [290, 64]
00000000: 393e fdbb 6e91 ae41 e706 5bbc d27b ae41
00000010: 7746 ae41 d216 7abc 3899 20bd 0965 ae41
00000020: 3c55 ae41 1540 ae41 2b8b de3a 5fe8 b63c
00000030: 0749 ae41 0fb6 ae41 6b05 3237 dc08 573e
00000040: b64d 36ba ae65 ae41 7ca7 ae41 a18b ae41
00000050: 95c3 18bc 3307 093d 24a7 173d 235d f63c
00000060: d724 993a a656 ae41 2bf4 913c 338d 2bbb
00000070: ee93 8e3c 2a21 04bd 7888 ae41 2963 3abc
00000080: 68ab ff3c 9387 ae41 9be8 133d 472a ae41
00000090: fbd8 fc3c aa9b 123d 0fe8 5cbd c0b6 a9bc
000000a0: 80ea 123d 304b ae41 76b6 ae41 157b ae41
000000b0: 1b0e 75bc e46c e8bd c48e 12bd 9295 ae41
000000c0: 53e6 85bc fa7f ae41 1c8e f0ba 1ba6 f23d
000000d0: 800f acbc f0b9 333c f9eb 063c 9a7c 91bd
000000e0: 2f90 02bc a5ee 86bc 6eb2 ae41 f3e5 6bbc
000000f0: e0c0 67bc e8a9 d93b 0c6b ae41 34c9 a43c
00000100: cc5b 8a3c 9970 de3e 42d1 c2bb ff5c e83e
00000110: 5f0e c03e 9099 36bc e69e 4b3c 4292 da3e
00000120: 636c f33e 13e0 c73e 76f1 6f3d 7c31 f2bc
00000130: 3f51 d63e 18e1 f13e 3441 533c 82a4 463e
00000140: 5f7a 9739 5efa be3e b909 f63e 0ecf e53e
00000150: d215 18bc b14f d13c e286 873c 95f8 c93b
00000160: 6417 c5bb e167 d43e 71bf 19bb bb37 b83c
00000170: 1f86 f93c d93d a53c d511 d73e fdd3 c8bc
00000180: 2858 503b 0c67 eb3e a48e a63c 6683 cf3e
00000190: d6f2 053d 0c6e 94bc 506d 1b3d 0100 ffbb
000001a0: 6ffc 023d c247 eb3e 0748 e73e e46a e43e
000001b0: 5f31 053d c028 553d 70ff 103b b2f1 ea3e
000001c0: 3165 e6bc 6fcc cd3e 7dc3 39bc c267 293e
000001d0: 1819 123b 9c0d b13c eb66 78bc bef9 9a3d
000001e0: 5ab5 59bc 912c 99bb 86ab e73e 6f5f 153c
000001f0: f7d4 583c 6b18 c83c cec6 e13e 57e5 173b
00000200: 9944 de3c f78a 503f c83d e2ba 5e42 543f
00000210: 3d91 5e3f 57e5 93bc fa78 de3c ba76 563f
00000220: d3d2 543f f1de 5f3f 1d80 143c 4e01 303c
00000230: 68d4 603f 0cf2 583f bd12 d93b cdbd 473b
00000240: b244 de3c cbb9 573f 97f9 593f 9421 523f
00000250: 525a 05bc cec0 7dbb af9a e13c 9167 38bc
00000260: 7fb2 ddb9 74e5 593f c0ad c7bc a935 b33c
00000270: 7079 e2bc 358d 2cba 87e1 5b3f a9b8 8ebc
00000280: f839 afbc cbc4 5b3f d0ee c83c 713e 773f
00000290: 17ef 89bc 11a5 a53b dd5b babb ed52 be3c
000002a0: ad6f 063d 2cdf 543f 2f32 593f 91ca 593f
000002b0: a151 eb3c c182 263d d0ee c2bc 0bea 623f
000002c0: 6fac 3bbb 7c46 5a3f 7fef 82bc c99b f13c
000002d0: 62bd 0f3d d436 893a fc00 afbc 71f0 133c
000002e0: 986c a43b 2070 b33c 1aa9 5f3f 5f60 7dbc
000002f0: fd65 ed3c 280b 0c3d 71f1 523f 354f f83c
00000300: ff27 90bc 55a1 043f 20ef b23c 2e0b 083f
00000310: c98f 023f 3d64 fd3b 66d8 813c d05c 033f
00000320: a342 f63e 4508 043f d577 3f3d 32e7 a3bc
00000330: e4e3 f83e 1599 073f d5ec fb3c 15f2 943c
00000340: 2009 89bc 688f ff3e 8e8b f63e 5252 fe3e
00000350: 777f 6bbb 7b80 82b9 bd8a e8bb 15da 1c3b
00000360: eb5e 55bc 1f65 f63e 4dca 153d 43e2 ec3c
00000370: 0a16 e63c dfb6 bcbc 106f f93e ebad 173a
00000380: d57c 1e3d c808 033f aca9 643c 584a 093f
00000390: 2258 b8bc adc7 203a 703e 1f3c 30ba 173d
000003a0: 6729 113d db9e fd3e 9110 0b3f 85b5 f23e
000003b0: d0f6 ba3c 8a91 a53c ac41 883b f06e fb3e
000003c0: c0db fa3c 3161 073f e174 6eba 850f 9d3b
000003d0: b4f3 893c d12b 02bd 48bc f53c 23cc 933c
000003e0: 6e7a 023d 264e 0dbd 315b f53e 09e6 1b3d
000003f0: b90c 963c 5e19 11bd cdc1 073f d0d6 b4bc
-0.007728365 21.82101 -0.013368345 21.81046 21.784407 -0.01526423 -0.03920862 21.799334
21.791618 21.78129 0.0016978731 0.0223276 21.785658 21.838896 1.0610888e-05 0.20999473
-0.0006954329 21.799648 21.83178 21.818178 -0.009323974 0.03345413 0.037024632 0.030073708
0.0011683953 21.792309 0.017816624 -0.002617669 0.017404523 -0.03225819 21.816635 -0.011376181
0.031209663 21.816198 0.0361105 21.770643 0.030865183 0.035792984 -0.053932246 -0.020717025
0.035868168 21.786713 21.839092 21.810099 -0.014956976 -0.11348894 -0.035780683 21.823032
-0.016345179 21.812489 -0.0018352899 0.11848088 -0.021003485 0.010969624 0.008234971 -0.07103844
-0.007968946 -0.016471216 21.837124 -0.014398086 -0.014145106 0.006642569 21.802269 0.020115472
0.016889475 0.4344528 -0.0059453556 0.4538345 0.37510964 -0.011145011 0.012428021 0.4268971
0.4754363 0.39038143 0.058579884 -0.029564612 0.4185886 0.47242045 0.012893964 0.19398692
0.00028892138 0.3730039 0.48054293 0.44884533 -0.009282546 0.025550695 0.01654381 0.0061636665
-0.0060147513 0.41485503 -0.0023460055 0.022487512 0.030459462 0.020171093 0.42005792 -0.024515146
0.0031790826 0.45977056 0.020331688 0.40529937 0.03270229 -0.01811888 0.037946045 -0.007781983
0.03197902 0.45953184 0.4517214 0.446128 0.032517787 0.052040815 0.002212491 0.45887524
-0.028124424 0.40195033 -0.011338112 0.16543487 0.002229279 0.021612935 -0.015161256 0.07567166
-0.0132878665 -0.004674502 0.4524805 0.009116991 0.0132343685 0.024425706 0.44096988 0.0023177469
0.02713232 0.81462044 -0.0017260844 0.8291377 0.86940366 -0.018053694 0.027157295 0.8377491
0.8313419 0.87449557 0.009063748 0.010742499 0.87824106 0.84744334 0.006624548 0.003047812
0.027132366 0.8426787 0.8514647 0.82082486 -0.00813921 -0.0038719657 0.02753958 -0.011255161
-0.00042285395 0.8511574 -0.024374843 0.021876173 -0.027645797 -0.0006582321 0.85891 -0.017422037
-0.021389946 0.8584716 0.024527937 0.96579653 -0.01683764 0.005055078 -0.0056872205 0.023232901
0.032821346 0.83153033 0.848422 0.85074717 0.028725447 0.04065204 -0.023795515 0.8863837
-0.0028636714 0.852638 -0.015983341 0.02949323 0.03509272 0.001046861 -0.021362774 0.009029494
0.005017828 0.021904051 0.87367404 -0.015464871 0.028979296 0.034190327 0.8239966 0.030311206
-0.017597197 0.51808673 0.02184254 0.5314206 0.5100065 0.0077328966 0.015850257 0.51313496
0.48097715 0.5157512 0.04674514 -0.020007703 0.48611367 0.5296796 0.030752579 0.01818184
-0.016727984 0.49914098 0.48153347 0.4967218 -0.003593413 -0.00024891258 -0.007096617 0.0023933698
-0.0130231185 0.48124024 0.036569882 0.028916484 0.02808668 -0.023036418 0.48717546 0.00057861087
0.038693268 0.51185274 0.013956469 0.53629065 -0.022502962 0.00061332696 0.009719476 0.037042797
0.035439875 0.4953526 0.54322153 0.47404113 0.022822767 0.020211 0.0041582193 0.49108076
0.030622363 0.5288268 -0.0009096396 0.00479311 0.01683984 -0.031780068 0.029997006 0.018041676
0.03185504 -0.034498356 0.47921136 0.038061175 0.018316614 -0.035424583 0.5303009 -0.022075087

layer4.bias f4 [290]
00000000: 9141 3741 890e aa3e 5c57 3c3f d70a df3e
00000010: af53 f13f bb8d 993e 3eea ab3e acba fe3e
00000020: c7bd 9241 6422 8041 ddf0 333f bee5 253f
00000030: cd96 8f3e ef00 b03f dd50 b13e f5c6 d23e
00000040: 45bb cb3e a442 323f 26db 4a40 e286 703f
00000050: c809 bb41 9988 933e 4696 b93c 3cb2 473d
00000060: 309a 7e3c b601 f53c a595 773e 0efa ba3c
00000070: 5f78 ce3e f37a 4b40 49eb 9a3e 8e8e b33e
00000080: cd11 cf3e a729 98bc 037d 02bd c727 15bc
00000090: a200 30bc 860c 5d3d 0d15 933d d74b 593e
000000a0: 1d29 7a3e 87e5 233e 256f 523e c3de 593e
000000b0: b733 853e 5d38 e73c 1335 dabc f390 00bd
000000c0: adf3 84bc c81d 483f ce0e 1b3f 9cde 4cbc
000000d0: 94c6 7741 0d95 b53e bd50 6b3e 83bf f53c
000000e0: f0d1 11bb 89b5 04bd a21e fa3c 3d82 b23e
000000f0: 68d1 47bc 4d93 e03c c787 2e3c bdbf 1b3d
00000100: d129 82bb fb1b ddbc b64c 5c3d 2742 cd3d
00000110: 3309 fb3d 9b70 2e3e 050b d6bc e2d3 2c3e
00000120: 7918 393e 2543 993c f9e7 cbbc e2e7 eabc
00000130: 5e67 39bc 16d6 15bd a842 06bd a26b 19bc
00000140: 4dfa 9a3d 0402 d73d 15f6 133d 6b73 943e
00000150: 22f7 7641 bc86 6b3f 2800 a9bc 6bc7 49bc
00000160: 1e4b c8bc 4e9a 50bc 4ffc af3b 5856 2f3d
00000170: ea2d 043d a7fc d33b e0b1 02bd 2715 f03b
00000180: 6475 13bd bdef 5ebc 1bc1 88bc 6775 423a
00000190: 23ce f33c 9d6f 67bc 86f3 753c 728c 663e
000001a0: 964e 553b e21b 4040 5017 e9bc cbdc 503c
000001b0: e4f2 8f3b e365 523e efc4 1abd 8ca8 7241
000001c0: 91ed 06bd 7ff2 0bbd 93ff d5bb 008a b73b
000001d0: 059e ac3c c3f6 edbc 65a6 b1bb d30f ae3c
000001e0: ae5d 87bb 4e09 8a3d 93fd 4bbb 45f4 2f3e
000001f0: 262b 8b3c 7e67 453e 67ba 13bd 3118 4db8
00000200: 6017 e7bc b3d1 24bc e56a 9c3c f9a1 fabc
00000210: 787d 0e3d 233a 623c faef 4d3c b72c f73c
00000220: 7671 163d ce3a 9e3c a676 f9bb a0d5 edbc
00000230: 336e 7541 f1c7 17bd aaaa 0abd 029a 063d
00000240: ca02 943c 07a0 883c 3b13 de3b 7356 c0ba
00000250: 3893 dabc 47e2 bebc 2579 cbbc 9a5f 40bc
00000260: 110c bb3c 6416 c33c 945a bf3c 3984 de3c
00000270: 6907 35bc 610b d53c 5114 203c 9927 153e
00000280: 2536 f8bc 4664 fdbc 0b41 d33c 4e10 c43c
00000290: a17f 9dbc 69b7 b03e 2bfc 8bbc 9e2b 0ebd
000002a0: dca6 ab3c 18d9 c5bb 2840 c93c 120e 0dbd
000002b0: 7fea 813c 79da 243c 2608 d93c 783a fabc
000002c0: 3b32 a6ba 68b7 87bc 9b81 1bbd a729 70bc
000002d0: ee8e fbbc aa86 06bd 43da 5a3c d185 133d
000002e0: 36a9 2dbc ae6d 1f3c 0595 05bd 8bb3 053d
000002f0: 4b2b b5bc 7bbd df3c 513b 24bc 54e8 b2bc
00000300: 05f1 bd3c 0d5d 19bc 0bcf 793e 2749 8bbc
00000310: 87ac c43c 6820 153d a568 33bc 1ade d7bc
00000320: 61d7 1dbc 5edf 223e 3399 cebc 1634 ed3c
00000330: 4c70 ac3c 2df9 073d c91a fbbc 775f 76bc
00000340: 99e4 62bc d316 06bd 7dd2 bbbb 0f6d 623d
00000350: 405a cb3c e10f 7c3c 396f 99bb ebbb 9a3c
00000360: 061d 91bc 316c 03bd 9b14 bdbc 2062 e93c
00000370: b5bd 92bc 749c ef3c 0f58 b23c e122 433d
00000380: 2472 cf3c 2308 193d 7149 15bc 682c 503e
00000390: 557b 8fbc 59b9 203e dac4 083e 29b8 b2b9
000003a0: bc97 053d 9bea 803c 2565 51bc affa 373d
000003b0: 4e4d a23c 3dfa 723e cc10 b43d 4eeb 4d3e
000003c0: 5327 dc3d cdfe 213e 7e27 553e ba7f 063e
000003d0: 51ba 0c3e 65d4 1e3d 0a37 223e b79a 6f3e
000003e0: ef00 8d3d b7c6 363e 5cc8 ad3d 57f3 663e
000003f0: f4db 473f 1ce5 a03d e79b f53d 6a2c a73d
11.453507 0.33214214 0.735708 0.43562958 1.8853663 0.29990944 0.3357715 0.49751794
18.342665 16.016792 0.70289403 0.64803684 0.2804474 1.3750285 0.34632006 0.41167417
0.39791313 0.69632936 3.1696258 0.93955815 23.379776 0.28815153 0.022654664 0.048753962
0.015539691 0.029908042 0.24178179 0.022824313 0.4032621 3.1793792 0.30257633 0.35069698
0.40443268 -0.018574549 -0.0318575 -0.009103722 -0.010742338 0.05396702 0.071817495 0.21220337
0.24429746 0.16005526 0.20550211 0.21276383 0.26016018 0.028225118 -0.026636636 -0.031388234
-0.016229475 0.7817044 0.60569465 -0.012504246 15.485981 0.3546528 0.22980018 0.029998546
-0.0022250377 -0.032399688 0.030532185 0.3486499 -0.012195922 0.027413988 0.010652489 0.038024653
-0.00397227 -0.026990881 0.053784095 0.10022383 0.12257614 0.17035143 -0.026128301 0.16877702
0.18075742 0.018708775 -0.024890887 -0.028675023 -0.011316149 -0.03658112 -0.032778412 -0.009364041
0.07567272 0.10498431 0.036123354 0.28994307 15.435335 0.92002463 -0.020629957 -0.012315611
-0.024449881 -0.012732102 0.0053706537 0.042806953 0.03227035 0.0064693275 -0.031907916 0.0073267403
-0.036000624 -0.013606963 -0.016693642 0.0007418007 0.02976138 -0.014125732 0.015011674 0.22514513
0.0032548062 3.0017018 -0.0284535 0.012747954 0.0043929685 0.20546679 -0.037785467 15.166149
-0.032941405 -0.03416681 -0.006530711 0.0056011677 0.021071443 -0.02904833 -0.005421447 0.02124778
-0.0041310405 0.06740056 -0.0031126484 0.17183025 0.016988348 0.1927776 -0.03606644 -4.889834e-05
-0.028209388 -0.010059762 0.01909394 -0.030594813 0.034787625 0.013807806 0.012569422 0.030172689
0.0367293 0.01931515 -0.007613021 -0.029032528 15.339404 -0.037055913 -0.033854164 0.032861717
0.018067736 0.01667787 0.006777195 -0.0014674201 -0.026681527 -0.023301257 -0.02483804 -0.011741543
0.022832902 0.023814388 0.02335862 0.027162658 -0.01104913 0.026006402 0.009770469 0.14565887
-0.030299256 -0.030931603 0.02578785 0.023933556 -0.019225897 0.3451493 -0.017088016 -0.034709565
0.020953588 -0.0060378425 0.024566725 -0.034437247 0.015858887 0.010061854 0.026493143 -0.030545458
-0.0012679765 -0.016566947 -0.0379654 -0.014658368 -0.030707803 -0.03284327 0.013357702 0.03601629
-0.010599425 0.0097307395 -0.03261282 0.03264193 -0.02211537 0.027312031 -0.010023908 -0.021839298
0.023186216 -0.009360564 0.24395387 -0.017002655 0.024008049 0.036407858 -0.010950242 -0.026351023
-0.00963387 0.1590552 -0.025219535 0.0289555 0.021049641 0.033196617 -0.03065242 -0.015037409
-0.013848447 -0.03273661 -0.0057318793 0.055279788 0.024823308 0.015384645 -0.004682448 0.018888434
-0.017714035 -0.0320856 -0.023081115 0.028489172 -0.017912725 0.029249407 0.021770505 0.047640685
0.025322981 0.037361275 -0.009111748 0.2032944 -0.017514864 0.15695705 0.13356343 -0.00034088016
0.03261541 0.015736869 -0.012780462 0.044916805 0.019812252 0.23728271 0.08792266 0.20109293
0.10749688 0.15819855 0.20815846 0.13134661 0.13742949 0.038776774 0.15841308 0.23398863
0.06884944 0.17849241 0.08485481 0.22553764 0.78069997 0.07856199 0.11992627 0.08162768
