catanatron_experimental/my_DQN_wyniki2/my_DQN2_350_steps.pth (torch, 268915 bytes, 8 tensors)

layer1.weight f4 [64, 614]
0.012031419 0.0050601717 -0.019637572 0.014014258 -0.018580565 -0.0010364196 -0.013413369 0.00084597344
-0.00770172 -0.012979496 0.008469547 0.007745113 0.018125752 0.011151577 0.009141216 -0.0063670026
-0.0047836965 0.016311169 -0.018981157 0.0011344353 -0.010672122 -0.004209168 -7.7535005e-06 0.005967901
0.01616242 0.016199008 0.015307486 0.0049226233 -0.0013908745 -0.009815117 0.006020438 0.012720843
-0.0019543173 0.0026917728 0.004972622 0.015923506 -0.018425748 0.0074149715 -0.00064260926 -0.010051851
-0.006698159 0.014130055 0.0014103891 -0.012223395 -0.002852642 0.014017125 0.008593385 -0.005309673
0.0007364348 -0.0023892508 0.016221453 -0.0019156025 0.0056486554 0.008964289 -0.004334692 0.0016639036
0.005118236 -0.0064317095 0.013650368 -0.0058001215 0.008688737 0.0039277296 0.00010884689 -0.00980961
-0.008731336 -0.01755842 0.012470993 0.008939415 -0.008253628 0.0032651823 0.010430052 0.013709564
-0.017944431 0.017911987 -0.0044640927 0.011401049 -0.011886369 -0.011144354 -0.015367873 -0.018053167
0.0019294792 0.009387152 0.005630357 -0.011862425 -0.015378917 0.0010503265 -0.005017253 -0.016784579
-0.0025472692 -0.013145842 -0.009773068 -0.0034417717 0.004309473 -0.004005786 -0.0053689987 0.006080627
0.015229106 0.0009268894 -0.01651807 0.010508506 0.0067465096 -0.012069421 -0.015100282 -0.010483879
0.010861546 -0.007971622 0.01727475 0.009248914 0.0010386979 0.0060688453 -0.012574123 0.009476619
0.009162629 -0.016270824 -0.011731072 -0.01211178 -0.012712159 -0.0062237834 -0.0074981665 0.014979115
0.0069222236 0.0013354892 -0.014319252 0.0155459745 -0.00018578928 -0.0006200743 0.0048879255 -0.0073213484
0.0064503294 -0.004749023 0.0009835885 0.0116041135 0.01718065 -0.0003423111 0.017716583 -0.00068738713
0.011967164 -0.0016406988 0.009285941 -0.010635582 -0.0139487 -0.000580387 -5.6235967e-05 0.0024066106
0.015315128 -0.008572821 -0.005431948 0.014541422 -0.0012167873 -0.0005937342 -0.005582416 0.011500794
0.017399559 -2.6241465e-05 0.013324664 0.0061139436 -0.007052057 -0.01713251 0.010604215 0.0039751376
-0.014934798 0.007519678 -0.010787343 -0.0015519768 -0.012290323 -0.0143468855 -0.008541022 0.0017572906
-0.00142426 0.0042903745 -0.0139442645 0.01749843 -0.01371163 0.017208958 -0.0023765534 -0.010057789
-0.009790015 -0.010848676 0.0022349884 0.005876158 0.003279699 0.012468511 -0.010104321 -0.016069582
0.009609448 -0.012070794 0.0074161184 -0.009212353 0.01453152 -0.012565431 -0.017259499 0.0060994327
-0.010374018 0.009144332 0.014193906 0.016253697 -0.0077384776 -0.009769972 -0.017622687 -0.0038335081
0.01324776 0.010452762 -0.011587543 0.0038987657 0.0015973517 -0.0020095427 -0.014614255 0.012698319
0.009221792 0.015919955 0.013131508 0.011880177 0.0071961116 -0.017153773 -0.010047098 -0.001007913
0.012205068 -0.0025106645 -0.009387453 0.010657111 0.017044902 -0.0016196878 -0.0135880895 -0.001206565
-0.0007761267 -0.01077454 0.0049892273 -0.005805983 -0.0116974795 -0.008144661 0.009026171 -0.008555062
-0.0075149727 -0.004187375 -0.007335075 0.018078985 0.00028546833 -0.005330573 -0.00071288954 -0.012965017
0.015535406 0.015612771 0.007067415 0.0054589626 0.008314678 -0.007698528 0.0052642683 -0.0062566707
0.016479634 -0.012662696 0.016738908 0.0024348814 -0.014956639 0.010402825 0.012324589 0.008498726
00000000: 6e1f 453c cccf a53b f9de a0bc 0f9c 653c
00000010: 4536 98bc 79d8 87ba bfc3 5bbc 51c4 5d3a
00000020: b65e fcbb f4a7 54bc dbc3 0a3c b8ca fd3b
00000030: 757c 943c 1bb5 363c 0ac5 153c 4aa2 d0bb
00000040: 8ec0 9cbb 009f 853c 5f7e 9bbc 55b1 943a
00000050: 20da 2ebc 0fed 89bb 0815 02b7 628e c33b
00000060: 0d67 843c c8b3 843c 40cc 7a3c f54d a13b
00000070: 014e b6ba 96cf 20bc 1847 c53b 156b 503c
00000080: 0114 00bb 7468 303b 60f1 a23b 0372 823c
00000090: 98f1 96bc 4af9 f23b c774 28ba 85b0 24bc
000000a0: 3b7c dbbb bf81 673c cedc b83a a244 48bc
000000b0: 64f3 3abb 15a8 653c 45cb 0c3c c4fc adbb
000000c0: 4e0d 413a fa94 1cbb dae2 843c f414 fbba
000000d0: 5b18 b93b f4de 123c 080a 8ebb 5717 da3a
000000e0: e0b6 a73b 17c1 d2bb cba5 5f3c f20e bebb
000000f0: 345b 0e3c 2fb4 803b bb44 e438 7db8 20bc
00000100: e10d 0fbc add6 8fbc 2353 4c3c a076 123c
00000110: 3a3a 07bc abfc 553b cfe2 2a3c 149e 603c
00000120: 3300 93bc 29bc 923c 8647 92bb 77cb 3a3c
00000130: 0cbf 42bc cf96 36bc 88c9 7bbc 3ce4 93bc
00000140: 94e6 fc3a 92cc 193c dc7e b83b 9e5a 42bc
00000150: daf7 7bbc 1cab 893a c567 a4bb d07f 89bc
00000160: 16f0 26bb a861 57bc 381f 20bc 598f 61bb
00000170: 7b36 8d3b f842 83bb 6dee afbb ff3f c73b
00000180: 8083 793c 7ffa 723a e750 87bc de2b 2c3c
00000190: d311 dd3b d2be 45bc 2c67 77bc 93c4 2bbc
000001a0: a0f4 313c 689b 02bc c783 8d3c c288 173c
000001b0: eb24 883a 2add c63b b203 4ebc d243 1b3c
000001c0: da1e 163c 644a 85bc af33 40bc 7d70 46bc
000001d0: a946 50bc e1f0 cbbb 2eb3 f5bb f66a 753c
000001e0: d2d3 e23b 950b af3a 4c9b 6abc 8bb4 7e3c
000001f0: 6ed0 42b9 7b8c 22ba e42a a03b ece7 efbb
00000200: 495d d33b b19d 9bbb c1eb 803a 2e1f 3e3c
00000210: 6fbe 8c3c 3878 b3b9 5e22 913c c531 34ba
00000220: ed11 443c b70c d7ba 0f24 183c dd40 2ebc
00000230: 1789 64bc 1d25 18ba e9de 6bb8 3ab8 1d3b
00000240: 4dec 7a3c 0475 0cbc 7cfe b1bb 253f 6e3c
00000250: 9b7c 9fba d4a4 1bba b3ec b6bb d46d 3c3c
00000260: 8589 8e3c 1e21 dcb7 b14f 5a3c 7a57 c83b
00000270: f114 e7bb 7a59 8cbc 4dbd 2d3c df41 823b
00000280: 15b1 74bc a267 f63b 65bd 30bc b36b cbba
00000290: 5a5d 49bc 330f 6bbc a5ef 0bbc e354 e63a
000002a0: 3cae baba 4596 8c3b 7c76 64bc de58 8f3c
000002b0: bfa6 60bc cdf9 8c3c f3bf 1bbb 6dc9 24bc
000002c0: 4d66 20bc a5be 31bc e278 123b c98c c03b
000002d0: 38f0 563b ba48 4c3c 988c 25bc 5ba4 83bc
000002e0: f270 1d3c 94c4 45bc e902 f33b 69ef 16bc
000002f0: 9d15 6e3c 3ddf 4dbc cb63 8dbc c0dd c73b
00000300: c9f7 29bc 1cd2 153c 8f8d 683c 7926 853c
00000310: 0e93 fdbb 3c12 20bc 745d 90bc 983b 7bbb
00000320: 220d 593c 1042 2b3c aed9 3dbc 6f82 7f3b
00000330: 3b5e d13a 88b2 03bb a170 6fbc 9c0c 503c
00000340: 0017 173c 916a 823c 8925 573c 13a5 423c
00000350: 5ccd eb3b 1286 8cbc 959c 24bc f31b 84ba
00000360: c4f7 473c f689 24bb d5cd 19bc 2a9b 2e3c
00000370: c0a1 8b3c b44b d4ba 94a0 5ebc 9a25 9eba
00000380: fb74 4bba b287 30bc ac7c a33b 1e40 bebb
00000390: c9a6 3fbc 2f71 05bc 81e2 133c 882a 0cbc
000003a0: 2940 f6bb 3f36 89bb 125b f0bb 611a 943c
000003b0: e9aa 9539 16ac aebb 35e1 3aba 396b 54bc
000003c0: 3788 7e3c b5cc 7f3c c695 e73b 19e1 b23b
000003d0: 4a3a 083c ef43 fcbb e27f ac3b c204 cdbb
000003e0: 4c00 873c 3277 4fbc 0920 893c 8892 1f3b
000003f0: b10c 75bc 9c70 2a3c 13ed 493c 3e3e 0b3c

layer1.bias f4 [64]
0.0116754295 0.00086826994 -0.00066207675 21.56095 -0.020371633 21.519848 -0.021162763 21.536242
0.012737166 21.560476 21.513927 21.55662 -0.021494031 -0.050351623 21.49472 21.404531
21.544361 21.521185 21.56183 0.01624559 21.425766 21.529993 21.514975 -0.0077458494
-0.00049624784 21.54101 -0.7712097 21.565855 0.003769399 0.015352438 -0.015281017 -0.012895481
21.533949 -0.011546217 0.01210083 21.553719 21.514671 21.537725 21.539022 0.0026959863
-0.7483617 -0.0035867796 21.538038 -0.6838646 -0.0016250515 -0.010130499 -0.013879281 -0.0067115743
21.527018 0.0071878196 -0.002672942 -0.019321809 21.5115 21.52636 21.52556 21.498571
0.0036519154 -0.008301521 -0.015062752 21.525808 21.543919 21.539175 21.535603 21.506311
00000000: 4d4a 3f3c 9c9c 633a 388f 2dba d37c ac41
00000010: 69e2 a6bc a628 ac41 885d adbc 394a ac41
00000020: 8caf 503c db7b ac41 861c ac41 f573 ac41
00000030: 4014 b0bc 813d 4ebd 30f5 ab41 7b3c ab41
00000040: da5a ac41 632b ac41 a17e ac41 7915 853c
00000050: f867 ab41 6d3d ac41 ab1e ac41 e5d0 fdbb
00000060: a116 02ba fd53 ac41 006e 45bf df86 ac41
00000070: 0508 773b cb88 7b3c 3b5d 7abc 9147 53bc
00000080: 8745 ac41 582c 3dbc 8f42 463c 046e ac41
00000090: 0c1e ac41 434d ac41 eb4f ac41 25af 303b
000000a0: a294 3fbf 2d10 6bbb e74d ac41 c011 2fbf
000000b0: aeff d4ba 64fa 25bc ec65 63bc c4ec dbbb
000000c0: 5537 ac41 cd87 eb3b 862c 2fbb c548 9ebc
000000d0: 8d17 ac41 fc35 ac41 5934 ac41 13fd ab41
000000e0: f954 6f3b 1a03 08bc c3c9 76bc db34 ac41
000000f0: f259 ac41 3b50 ac41 ea48 ac41 ed0c ac41

layer2.weight f4 [64, 64]
-0.0088879615 -0.001460543 0.004562988 0.032500315 -0.024358675 0.002403728 -0.046337113 0.045811094
-0.016745875 0.0020544962 -0.043256138 0.030106625 -0.031244624 0.037296716 0.00062393147 0.01980125
0.033192016 0.03179193 0.0037137372 0.0034792982 -0.047678843 -0.023683779 0.030443888 0.025177531
0.03670067 -0.023980753 0.02946815 -0.05788351 -0.05325417 0.009169298 -0.038759857 -0.055520397
-0.036509305 0.022183625 -0.031718113 -0.016699897 0.03516173 -0.030630074 -0.03471451 -0.028238235
0.04281575 0.037674095 0.051749013 0.01726791 -0.016496046 0.063318655 0.04849882 0.012520193
-0.05969524 0.03680463 -0.009253817 0.03632112 0.007860815 -0.014086907 -0.06727141 0.0026332324
-0.022918928 -0.050784245 0.048289698 0.040950548 -0.04948971 -0.04130774 0.017640006 -0.048612054
0.010556881 0.019920832 -0.012666758 -0.03784913 -0.004922481 -0.029050898 -0.0068441457 -0.032440487
-0.039077397 0.0057907565 0.039697826 0.05251958 -0.01062891 0.04355912 -0.018552506 0.042363755
-0.025780538 0.027047088 -0.022361703 0.046077393 -0.00046118334 -0.054300796 0.026596725 0.02927238
-0.0010339511 -0.019719785 -0.022652408 -0.017382953 0.030575912 -0.045067254 -0.017406188 -0.028248092
-0.018844794 -0.022509739 0.026097473 -0.0325489 -0.048126932 -0.055533405 -0.05736521 -0.009144811
-0.039293814 -0.042275812 0.047459554 0.046835177 -0.012709673 -0.051457696 -0.02675214 0.008852688
0.027822547 -0.004468428 -0.022312079 0.05017547 0.048961587 0.01775343 -0.016568884 -0.020242652
0.022313198 0.0025690892 -0.014726108 0.035558213 -0.03236642 0.051632095 0.0076830075 0.04604949
0.007340591 0.03956081 0.043734893 21.041502 -0.13327214 21.038641 -0.021675415 21.053778
-0.0023579977 21.078522 21.144531 21.051708 -0.020783896 -2.020548 21.099566 21.11403
21.15383 21.083324 21.052828 0.024460247 21.33848 21.080002 21.130617 -0.035959013
0.044026036 21.14654 -17.145943 21.056831 0.054602887 -0.022114512 -0.014539348 -0.013003318
21.182304 -0.020182887 0.036452103 21.065298 21.145773 21.173607 21.14611 -0.007774933
-17.944435 0.023363631 21.062813 -18.364664 -0.009207076 0.056444485 -0.0044751335 -0.0023514212
21.129936 -0.034297295 -0.054087486 0.032501224 21.167227 21.127575 21.032022 21.172606
-0.046316516 -0.00016565785 -0.06780527 21.094856 21.104635 21.178246 21.119019 21.148726
0.04186702 -0.05479947 -0.042452235 -0.022861153 0.5032046 0.07874269 0.014636647 -0.044270035
-0.009610854 0.018477099 0.03727598 -0.042960294 0.018263066 -0.021899533 0.025613273 0.18584679
0.039307855 -0.048327994 0.037677325 -0.041148223 -0.16591752 -0.15201464 0.0010427382 0.020096175
-0.04703741 -0.048743464 -0.123237684 0.0454288 0.027535163 0.037338596 0.023582166 -0.038486477
-0.14595728 0.012719639 0.019483522 0.03304498 -0.067655094 0.019319002 -0.021609796 -0.028824326
-0.05023513 0.006126626 -0.010185157 0.31844738 -0.05147183 0.19931202 -0.014970848 -0.055095036
-0.022656571 -0.018551245 -0.022378497 0.025005242 -0.11201778 0.03454012 -0.021252397 0.10394943
-0.040419668 0.044467878 -0.039174803 -0.039532375 -0.0031916467 0.03321518 -0.044407185 -0.064326055
00000000: d09e 11bc b16f bfba 1e85 953b 0d1f 053d
00000010: d88b c7bc dd87 1d3b fccb 3dbd 6aa4 3b3d
00000020: a52e 89bc baa4 063b 592d 31bd 2ba2 f63c
00000030: baf4 ffbc 71c4 183d 558f 233a 3b36 a23c
00000040: 5af4 073d 4138 023d 2c62 733b f004 643b
00000050: e44a 43bd 7c04 c2bc 7665 f93c 1c41 ce3c
00000060: 7153 163d 4973 c4bc 3167 f13c 4217 6dbd
00000070: 0b21 5abd d33a 163c a8c2 1ebd 5b69 63bd
00000080: c88a 15bd 6fba b53c daea 01bd 39ce 88bc
00000090: bf05 103d eceb fabc cd30 0ebd df53 e7bc
000000a0: 915f 2f3d 2750 1a3d c6f6 533d 6f75 8d3c
000000b0: b722 87bc 36ad 813d b3a6 463d 7f21 4d3c
000000c0: ff82 74bd 74c0 163d 529d 17bc 74c5 143d
000000d0: a6ca 003c c5cc 66bc 98c5 89bd 4f92 2c3b
000000e0: 7ac0 bbbc 2403 50bd 6bcb 453d c3bb 273d
000000f0: b9b5 4abd 4e32 29bd c681 903c 6f1d 47bd
00000100: c5f6 2c3c 0331 a33c 3c88 4fbc b007 1bbd
00000110: c34c a1bb 26fc edbc db44 e0bb 51e0 04bd
00000120: 9f0f 20bd 63c0 bd3b 309a 223d c51e 573d
00000130: e124 2ebc 0c6b 323d 6dfb 97bc 9e85 2d3d
00000140: b531 d3bc db91 dd3c e42f b7bc a6bb 3c3d
00000150: fbca f1b9 836a 5ebd 60e1 d93c a1cc ef3c
00000160: a485 87ba 638b a1bc 8b91 b9bc b266 8ebc
00000170: 567a fa3c 7198 38bd 6c97 8ebc 8b68 e7bc
00000180: 6660 9abc 5866 b8bc 5eca d53c ff51 05bd
00000190: bf20 45bd ff76 63bd c8f7 6abd 1ed4 15bc
000001a0: 8df2 20bd 6729 2dbd f364 423d 3ed6 3f3d
000001b0: 3b3c 50bc 4ec5 52bd 4e27 dbbc dd0a 113c
000001c0: 1cec e33c e46b 92bb d2c7 b6bc cb84 4d3d
000001d0: f28b 483d a46f 913c 78bb 87bc ebd3 a5bc
000001e0: 2bca b63c 2a5e 283b c645 71bc 7da5 113d
000001f0: a792 04bd 2d7c 533d bdc1 fb3b 649e 3c3d
00000200: 5789 f03b 840a 223d 5c23 333d ff54 a841
00000210: 7e78 08be 234f a841 a490 b1bc 236e a841
00000220: a388 1abb d0a0 a841 0028 a941 e669 a841
00000230: fd42 aabc a950 01c0 e9cb a841 89e9 a841
00000240: 0b3b a941 a6aa a841 316c a841 db60 c83c
00000250: 35b5 aa41 d8a3 a841 810b a941 c249 13bd
00000260: a554 343d 1d2c a941 e42a 89c1 6474 a841
00000270: 47a7 5f3d 7e29 b5bc 7236 6ebc de0b 55bc
00000280: 5c75 a941 9556 a5bc cd4e 153d bb85 a841
00000290: 8b2a a941 8c63 a941 3c2b a941 ddc4 febb
000002a0: 348e 8fc1 1665 bf3c a480 a841 d5ea 92c1
000002b0: 47d9 16bc 5532 673d 24a4 92bb 4d1a 1abb
000002c0: 1c0a a941 527b 0cbd d78a 5dbd 0120 053d
000002d0: 7b56 a941 4605 a941 9541 a841 7f61 a941
000002e0: 63b6 3dbd 71b4 2db9 7ddd 8abd 44c2 a841
000002f0: 4bd6 a841 0c6d a941 c0f3 a841 9730 a941
00000300: c17c 2b3d 6975 60bd 65e2 2dbd 5047 bbbc
00000310: 04d2 003f d943 a13d 8cce 6f3c 7f54 35bd
00000320: d876 1dbc 495d 973c b3ae 183d 22f7 2fbd
00000330: 6d9c 953c a666 b3bc edd2 d13c 9f4e 3e3e
00000340: 4601 213d 93f3 45bd 8a53 1a3d 0a8b 28bd
00000350: 48e6 29be baa9 1bbe 7dac 883a bca0 a43c
00000360: 4daa 40bd 3aa7 47bd 0a64 fcbd 8d13 3a3d
00000370: 6c91 e13c 5bf0 183d 632f c13c ffa3 1dbd
00000380: d375 15be 0866 503c e89b 9f3c 2c5a 073d
00000390: c18e 8abd e242 9e3c 0707 b1bc fe20 ecbc
000003a0: 5ac3 4dbd ddc1 c83b a5df 26bc 890b a33e
000003b0: 20d4 52bd 7318 4c3e 4a48 75bc 55ab 61bd
000003c0: 469a b9bc c8f8 97bc 1c53 b7bc cbd7 cc3c
000003d0: 9469 e5bd f179 0d3d 8219 aebc 70e3 d43d
000003e0: 188f 25bd f323 363d c275 20bd b3ec 21bd
000003f0: f22a 51bb a40c 083d 4fe4 35bd 61bd 83bd

layer2.bias f4 [64]
-0.03682441 0.04067478 25.604713 -0.004271431 25.587881 25.606512 -0.060170542 -0.05052069
25.654799 -0.02165465 25.626219 -0.043607853 25.596367 0.05266018 25.630014 25.55189
25.58757 25.657314 -0.011582403 25.62415 0.030137423 25.564499 0.012743737 -0.038629163
-0.06000339 -0.05092475 -0.035471436 25.559553 -0.05470822 25.664913 25.661749 0.03960771
0.028131187 -0.050011873 25.612036 25.549915 25.617224 0.029293358 -0.0025092743 -0.0053501585
25.545322 25.58233 25.626171 -0.0030632634 0.0013630901 -0.044714406 -0.05415276 25.60266
-0.050444074 -0.05298246 25.603188 0.0015181741 25.600695 25.608513 25.564922 25.607111
25.655478 25.569792 -0.022563752 25.628738 25.572584 25.63038 25.651438 25.636972
00000000: 31d5 16bd 999a 263d 74d6 cc41 5cf7 8bbb
00000010: fbb3 cc41 23da cc41 6375 76bd c8ee 4ebd
00000020: 073d cd41 1865 b1bc 7f02 cd41 269e 32bd
00000030: 5cc5 cc41 33b2 573d 450a cd41 456a cc41
00000040: 58b3 cc41 2e42 cd41 1fc4 3dbc 42fe cc41
00000050: c2e2 f63c 1884 cc41 1bcb 503c 9d39 1ebd
00000060: 1dc6 75bd 7896 50bd 7f4a 11bd f779 cc41
00000070: ba15 60bd be51 cd41 434b cd41 b23b 223d
00000080: 6073 e63c 40d9 4cbd 73e5 cc41 3a66 cc41
00000090: 13f0 cc41 a0f8 ef3c a372 24bb 6250 afbb
000000a0: d25c cc41 9da8 cc41 6602 cd41 08c1 48bb
000000b0: b7a9 b23a 7426 37bd 49cf 5dbd 3fd2 cc41
000000c0: 729e 4ebd 2304 59bd 54d3 cc41 78fd c63a
000000d0: 39ce cc41 3cde cc41 f684 cc41 5ddb cc41
000000e0: 6b3e cd41 ef8e cc41 9ed7 b8bc a807 cd41
000000f0: a794 cc41 050b cd41 2536 cd41 8518 cd41

layer3.weight f4 [64, 64]
0.027916437 -0.05743003 -0.06291176 -0.051390253 0.0022032051 -0.06159192 0.014383645 -0.019812612
-0.010488161 -0.014197258 -0.0001774969 -0.043652624 -0.05602008 0.015353972 0.0028597296 -0.01832317
0.007521993 0.032633454 0.03833989 -0.055636957 -0.03007608 0.0918566 -0.029989015 0.06111119
-0.04379516 -0.02141862 -0.051191393 0.05253637 0.0011500707 -0.044533197 0.017203312 0.043247465
0.01310793 -0.052206617 -0.048679326 0.017519604 0.020205846 -0.020396363 0.04407206 0.05218491
0.0440009 0.027988324 0.032647554 -0.035674054 0.04011904 0.01848903 -0.011160211 0.046002932
-0.009416451 0.03403087 0.024091577 -0.044723526 0.016477592 -0.027780574 0.030040668 -0.042638525
-0.055935163 0.045503527 -0.02309886 -0.052703608 -0.03130514 -0.038923077 0.036063284 -0.04215635
-0.0396153 -0.010523349 20.750278 0.35872045 20.757088 20.685974 -0.045763228 0.042773485
20.680847 -0.12687059 20.67897 -0.040064245 20.757454 -0.0063905674 20.73266 20.762842
20.702187 20.688528 0.060356528 20.706493 0.019376207 20.753845 0.038218793 -0.028379831
0.011796215 -0.041568875 0.050949678 20.755222 -0.0068506356 20.725159 20.735064 0.050433062
-0.045801304 0.030616285 20.67614 20.741964 20.709179 0.046698682 0.18058304 0.20783067
20.755102 20.76509 20.753225 -0.04424765 -0.013603989 0.027206192 0.0008722258 20.740108
-0.031014515 0.03682533 20.770844 0.04137613 20.688597 20.752146 20.768562 20.780155
20.656624 20.707298 -0.026874691 20.66965 20.719536 20.761433 20.675848 20.732841
-0.04285961 0.032271758 0.0015210119 -0.031829886 -0.0067392085 0.019051429 -0.011920694 0.047698915
0.040564954 -0.043489974 -0.01923477 -0.04353588 -0.016158024 -0.03175712 -0.025361046 0.042940263
0.008445162 -0.034353826 -0.0028017482 0.024933558 -0.00713934 -0.05041752 0.026647499 -0.060943417
-0.037361827 -0.029611276 0.021100495 0.046960525 0.03659411 -0.0012249748 0.0032681585 -2.6317795e-05
-0.0033065556 0.0031379394 0.0423608 0.018250281 0.0012022381 -0.027313856 0.044409256 -0.045790207
-0.05141766 -0.048860706 -0.05352131 0.04400462 -0.01967618 -0.053384624 -0.048380923 -0.013827348
0.02267849 -0.05175037 0.035527647 0.0075823106 -0.03620629 0.041240815 -0.061069522 0.018219361
0.015136121 0.0061917566 0.0436821 0.027147638 0.025813809 0.010542997 -0.03390064 -0.060161524
-0.02727287 -0.051623452 20.548527 0.31709102 20.555027 20.509365 -0.034079805 0.0097873565
20.521132 0.35152942 20.619955 -0.025272511 20.564852 -0.0003330269 20.539942 20.542564
20.52532 20.582973 -0.0062755914 20.551577 0.03278562 20.507421 -0.033618916 0.049235564
-0.0044181873 0.03607163 0.014102502 20.537441 0.01593028 20.536055 20.567177 0.009357759
-0.020702142 0.026241262 20.576767 20.539938 20.485868 0.050265715 0.57304716 0.25704798
20.47765 20.529224 20.571732 -0.024224238 -0.04851996 0.023806788 0.04552262 20.565695
-0.05567363 0.009624132 20.557373 -0.0128771225 20.541922 20.473917 20.553768 20.488504
20.507812 20.493689 -0.032812644 20.567593 20.531725 20.521769 20.554415 20.568151
00000000: 03b1 e43c c03b 6bbd e1d7 80bd 967e 52bd
00000010: a663 103b cf47 7cbd 61a9 6b3c 0f4e a2bc
00000020: 89d6 2bbc 9e9b 68bc 761e 3ab9 18cd 32bd
00000030: 5075 65bd 3a8f 7b3c 4d6a 3b3b 791a 96bc
00000040: 0d7b f63b a8aa 053d 4a0a 1d3d 94e3 63bd
00000050: 1c62 f6bc 501f bc3d 86ab f5bc ba4f 7a3d
00000060: 8e62 33bd 1a76 afbc 11ae 51bd 6030 573d
00000070: f8bd 963a 7168 36bd f6ed 8c3c 4124 313d
00000080: a5c2 563c 9bd6 55bd f963 47bd 4685 8f3c
00000090: bb86 a53c 4616 a7bc e884 343d d8bf 553d
000000a0: 4a3a 343d c547 e53c 71b9 053d f51e 12bd
000000b0: dd53 243d 4e76 973c 51d9 36bc 926d 3c3d
000000c0: 7547 1abc f463 0b3d b35b c53c 0430 37bd
000000d0: 04fc 863c 1694 e3bc d917 f63c bca5 2ebd
000000e0: 451c 65bd e861 3a3d d239 bdbc bddf 57bd
000000f0: d239 00bd ce6d 1fbd 18b7 133d 23ac 2cbd
00000100: a743 22bd 206a 2cbc 9200 a641 35aa b73e
00000110: 840e a641 e07c a541 3972 3bbd 4033 2f3d
00000120: 6072 a541 5dea 01be 886e a541 681a 24bd
00000130: 440f a641 f767 d1bb 7ddc a541 4d1a a641
00000140: 149e a541 1b82 a541 6838 773d e6a6 a541
00000150: daba 9e3c e007 a641 4f8b 1c3d d27c e8bc
00000160: e944 413c 2044 2abd 9cb0 503d b20a a641
00000170: 4c7b e0bb 20cd a541 69e1 a541 e692 4e3d
00000180: 269a 3bbd 01cf fa3c bc68 a541 8bef a541
00000190: 66ac a541 1e47 3f3d c3ea 383e 90d1 543e
000001a0: 730a a641 e81e a641 9b06 a641 063d 35bd
000001b0: 44e3 5ebc 85df de3c 15a6 643a beeb a541
000001c0: 2712 febc 28d6 163d b02a a641 047a 293d
000001d0: 3f82 a541 6504 a641 0426 a641 c23d a641
000001e0: c440 a541 8ca8 a541 5028 dcbc 715b a541
000001f0: 9cc1 a541 6a17 a641 2368 a541 dcdc a541
00000200: 8f8d 2fbd 642f 043d b15c c73a 0e60 02bd
00000210: 94d4 dcbb be11 9c3c 044f 43bc f05f 433d
00000220: 7027 263d 8b22 32bd 3d92 9dbc ae52 32bd
00000230: d55d 84bc c113 02bd f8c1 cfbc 21e2 2f3d
00000240: 945d 0a3c 99b6 0cbd 899d 37bb 7641 cc3c
00000250: 20f1 e9bb 9a82 4ebd db4b da3c ce9f 79bd
00000260: b708 19bd 5993 f2bc f2da ac3c ae59 403d
00000270: b5e3 153d 558f a0ba 9a2e 563b 09c5 dcb7
00000280: ccb2 58bb e3a5 4d3b 8582 2d3d 9d81 953c
00000290: 6b94 9d3a 4fc1 dfbc 7be6 353d 838e 3bbd
000002a0: 539b 52bd 2a22 48bd 2939 5bbd 303e 343d
000002b0: f12f a1bc d6a9 5abd 132b 46bd 1a8c 62bc
000002c0: 3ec8 b93c 32f8 53bd 7085 113d 0875 f83b
000002d0: 0c4d 14bd 21ec 283d 0924 7abd c540 953c
000002e0: 7efd 773c 38e4 ca3b 00ec 323d b964 de3c
000002f0: 7b77 d33c 89bc 2c3c 66db 0abd ee6b 76bd
00000300: 5b6b dfbc 1d73 53bd 6263 a441 c159 a23e
00000310: b270 a441 2e13 a441 4497 0bbd 265b 203c
00000320: 472b a441 aafb b33e abf5 a441 4c08 cfbc
00000330: d184 a441 1d9a aeb9 cd51 a441 2c57 a441
00000340: db33 a441 eea9 a441 7aa3 cdbb a169 a441
00000350: 374a 063d 330f a441 fdb3 09bd 3bab 493d
00000360: 71c6 90bb d8bf 133d 2e0e 673c ae4c a441
00000370: 3880 823c d749 a441 9489 a441 4951 193c
00000380: 8a97 a9bc eaf7 d63c 389d a441 cb51 a441
00000390: 0fe3 a341 6ce3 4d3d 38b3 123f cb9b 833e
000003a0: 3ad2 a341 da3b a441 e892 a441 e971 c6bc
000003b0: debc 46bd 7406 c33c ed75 3a3d 8b86 a441
000003c0: 080a 64bd 89ae 1d3c 8075 a441 91fa 52bc
000003d0: db55 a441 95ca a341 1e6e a441 75e8 a341
000003e0: 0010 a441 13f3 a341 8d66 06bd 6e8a a441
000003f0: f940 a441 952c a441 716f a441 938b a441

layer3.bias f4 [64]
-0.0029863785 22.566147 -0.025038658 22.72706 21.991962 -0.03762922 -0.0035167292 21.994642
22.246563 21.597008 -0.024019366 -0.04134663 21.890657 22.899338 -0.0136309005 0.037972867
-0.052247684 22.661623 23.008936 22.77999 -0.03969641 0.014003368 0.00641574 0.02427598
0.028973168 22.100786 -0.0019046806 0.004823983 0.017500913 0.028575234 22.823193 0.0010506478
-0.056314223 22.65168 0.014554994 21.142258 0.020700727 0.052062415 0.014668421 -0.039566662
0.008241412 22.071644 22.84058 22.45477 -0.012463882 0.007816912 -0.0003929091 22.892157
0.0007497297 22.693188 -0.0529545 0.04764057 -0.019592343 -0.04952704 -0.05234936 -0.049887512
0.054995347 -0.03898422 22.887888 -0.047289696 0.0105831865 0.028395245 22.516254 -0.009212649
00000000: 1eb7 43bb 7887 b441 df1d cdbc 05d1 b541
00000010: 8aef af41 1921 1abd ed78 66bb 07f5 af41
00000020: f6f8 b141 acc6 ac41 43c4 c4bc 155b 29bd
00000030: 1120 af41 d831 b741 2454 5fbc 7089 1b3d
00000040: ab01 56bd 014b b541 4d12 b841 6b3d b641
00000050: b498 22bd 626e 653c 213b d23b 6cde c63c
00000060: 2359 ed3c 69ce b041 7aa6 f9ba 8112 9e3b
00000070: 135e 8f3c 9c16 ea3c e695 b641 e4b5 893a
00000080: bea9 66bd a436 b541 1278 6e3c 5823 a941
00000090: 9294 a93c 663f 553d d153 703c a710 22bd
000000a0: fd06 073c ba92 b041 82b9 b641 5ea3 b341
000000b0: 4f35 4cbc 8112 003c 5eff cdb9 2323 b741
000000c0: 8289 443a a68b b541 d1e6 58bd c222 433d
000000d0: 1f80 a0bc dedc 4abd 486c 56bd d956 4cbd
000000e0: cd42 613d ebad 1fbd 651a b741 d7b2 41bd
000000f0: 1a65 2d3c 259d e83c 4a21 b441 a7f0 16bc

layer4.weight f4 [290, 64]
-0.011374086 8.317684 -0.019673899 8.302235 8.264195 -0.022464857 -0.05770178 8.285938
8.274568 8.259653 0.002498763 0.032860324 8.266038 8.343952 1.5616293e-05 0.30905572
-0.0010235049 8.286395 8.333539 8.313637 -0.013721307 0.049229477 0.054485667 0.04425929
0.0017193583 8.275578 0.026218025 -0.0038521092 0.025610993 -0.04747421 8.311282 -0.016742423
0.045930985 8.310641 0.053139873 8.244221 0.045424707 0.052671213 -0.0793754 -0.03048605
0.052781913 8.267516 8.344269 8.301698 -0.02201201 -0.16702521 -0.052653097 8.320755
-0.024051402 8.305277 -0.002700916 0.17437285 -0.030908601 0.01614313 0.012118268 -0.10453638
-0.0117264865 -0.024238424 8.341341 -0.021189552 -0.02081771 0.009775847 8.29034 0.029602516
0.02485358 0.5468448 -0.0087497495 0.57552916 0.45878962 -0.016402604 0.01829068 0.53593534
0.6068477 0.48111454 0.08620883 -0.04351166 0.523259 0.6028265 0.018976044 0.2854985
0.00042517332 0.4561117 0.61481464 0.5680204 -0.013660638 0.037605368 0.024346214 0.00907083
-0.008852266 0.5175812 -0.0034522524 0.033094857 0.04482845 0.029683907 0.52590525 -0.036079314
0.004678703 0.58404577 0.029918926 0.50302625 0.048120264 -0.02666482 0.055840176 -0.011452904
0.047057573 0.5833175 0.57235235 0.5642186 0.047851793 0.076588884 0.0032557782 0.58291876
-0.0413911 0.4990107 -0.016686149 0.24345078 0.0032804934 0.031810287 -0.022313189 0.11135548
-0.019555636 -0.006878766 0.5734182 0.013416402 0.019477421 0.035947893 0.5567218 0.0034108637
0.039931264 1.1989033 -0.002540368 1.2202021 1.2795011 -0.026567597 0.039967585 1.2329412
1.2234554 1.2869376 0.013338696 0.01581054 1.2925218 1.2472082 0.009749548 0.0044855503
0.039931327 1.2401958 1.2530645 1.2080525 -0.011977149 -0.005698594 0.040531997 -0.016564157
-0.0006223426 1.2526209 -0.035873152 0.03219318 -0.04068754 -0.0009686587 1.2640716 -0.025637023
-0.0314796 1.263422 0.03609811 1.4213697 -0.024777347 0.0074389842 -0.008369926 0.034189947
0.048297055 1.2237378 1.2486484 1.2520283 0.042274237 0.05982127 -0.035019554 1.3045168
-0.004214619 1.2547798 -0.023519723 0.043406453 0.05164346 0.0015405088 -0.031439167 0.01328777
0.0073843077 0.03223373 1.2857128 -0.022760253 0.042650636 0.050316393 1.2126882 0.044609707
-0.025897251 0.6355932 0.032144252 0.6553849 0.62274075 0.01138081 0.023324262 0.6283162
0.5804992 0.6311972 0.068793796 -0.02944302 0.5879194 0.6527318 0.04525761 0.026756708
-0.024616092 0.60738593 0.5818098 0.6041235 -0.0052883313 -0.00036628082 -0.010444319 0.0035221484
-0.019166524 0.5806433 0.053814363 0.042557504 0.04133548 -0.033904757 0.590224 0.00085148856
0.05693806 0.62616324 0.020539356 0.6610936 -0.033117518 0.0009025942 0.014302692 0.05451265
0.052151356 0.6014681 0.6725317 0.57087964 0.033588927 0.029742308 0.006119443 0.59583634
0.045066018 0.6512266 -0.0013387465 0.007053609 0.024780583 -0.046765357 0.044145837 0.026549568
0.046875477 -0.05076675 0.5783643 0.05600984 0.0269534 -0.052128844 0.6537279 -0.032489963
00000000: 605a 3abc 3c15 0541 282b a1bc f4d5 0441
00000010: 253a 0441 3808 b8bc b458 6cbd 3493 0441
00000020: a164 0441 8a27 0441 49c2 233b 8c98 063d
00000030: b141 0441 d480 0541 bcff 8237 8d3c 9e3e
00000040: 2027 86ba 1395 0441 2d56 0541 a804 0541
00000050: 55cf 60bc d9a4 493d 5d2c 5f3d 3b49 353d
00000060: 175c e13a c468 0441 2fc7 d63c ab73 7cbb
00000070: 25ce d13c 5174 42bd 03fb 0441 6827 89bc
00000080: 2122 3c3d 63f8 0441 32a9 593d 54e8 0341
00000090: 420f 3a3d c5bd 573d 928f a2bd e1bd f9bc
000000a0: d931 583d bf47 0441 2082 0541 c1d3 0441
000000b0: 8852 b4bc a808 2bbe c6aa 57bd d021 0541
000000c0: 7207 c5bc 6ae2 0441 da01 31bb cc8e 323e
000000d0: 0934 fdbc 993e 843c b38b 463c 2b17 d6bd
000000e0: 7320 40bc a98f c6bc 2276 0541 b695 adbc
000000f0: e789 aabc e02a 203c 3ca5 0441 fa80 f23c
00000100: bc99 cb3c 05fe 0b3f 1c5b 0fbc e155 133f
00000110: 79e6 ea3e c15e 86bc 56d6 953c 0f33 093f
00000120: 5f5a 1b3f a554 f63e 418e b03d 4839 32bd
00000130: 4df4 053f d652 1a3f a673 9b3c dc2c 923e
00000140: cce9 de39 7987 e93e 7e64 1d3f c969 113f
00000150: ded0 5fbc 1608 1a3d b671 c73c d29d 143c
00000160: 1809 11bc 3480 043f 2f3f 62bb 798e 073d
00000170: 099e 373d aa2b f33c baa1 063f e7c7 13bd
00000180: ce4f 993b 0684 153f 8918 f53c 54c6 003f
00000190: c119 453d 2e70 dabc abb8 643d f6a4 3bbc
000001a0: 71bf 403d 4c54 153f af85 123f a170 103f
000001b0: 3e00 443d a2da 9c3d e55e 553b 2a3a 153f
000001c0: b789 29bd 557e ff3e 64b1 88bc 294b 793e
000001d0: 8cfd 563b 814b 023d 26ca b6bc 580e e43d
000001e0: 2433 a0bc 4667 e1bb 89cb 123f 78d0 5b3c
000001f0: 1d8f 9f3c 193e 133d 5285 0e3f cc88 5f3b
00000200: f78e 233d aa75 993f 4d7c 26bb 952f 9c3f
00000210: b1c6 a33f 4aa4 d9bc 0db5 233d 04d1 9d3f
00000220: 309a 9c3f 5fba a43f 8c8a 5a3c 1b85 813c
00000230: 5b71 a53f 85a4 9f3f 91bc 1f3c 86fb 923b
00000240: 088f 233d bcbe 9e3f 6b64 a03f 77a1 9a3f
00000250: ce3b 44bc 45bb babb e104 263d 8eb1 87bc
00000260: b424 23ba e255 a03f baef 12bd ffdc 033d
00000270: faa7 26bd 96ed 7dba 19cd a13f bc04 d2bc
00000280: c1f0 00bd d0b7 a13f 9ddb 133d 71ef b53f
00000290: ddf9 cabc b9c2 f33b 0422 09bc c20a 0c3d
000002a0: 22d3 453d 71a3 9c3f b6d3 9f3f 7742 a03f
000002b0: c027 2d3d 2607 753d aa70 0fbd 68fa a63f
000002c0: c91a 8abb a09c a03f 6fac c0bc f7ca 313d
000002d0: 1888 533d e6ea c93a 5bc6 00bd f2b4 593c
000002e0: 10f8 f13b 8407 043d 3d92 a43f b673 babc
000002f0: 6fb2 2e3d 9018 4e3d 5e39 9b3f abb8 363d
00000300: 7926 d4bc 3cb6 223f b1a9 033d 4ec7 273f
00000310: f06b 1f3f 9476 3a3c 8612 bf3c 55d9 203f
00000320: 989b 143f 2496 213f c3e3 8c3d 7d32 f1bc
00000330: e381 163f 6e19 273f 0b60 393d e230 db3c
00000340: b0a7 c9bc a57d 1b3f 7df1 143f d6a7 1a3f
00000350: bd49 adbb 6109 c0b9 a61e 2bbc d8d3 663b
00000360: 1d03 9dbc 0aa5 143f 736c 5c3d c750 2e3d
00000370: 644f 293d b7df 0abd ec18 173f 6e36 5f3a
00000380: e237 693d 3c4c 203f 2742 a83c 6e3d 293f
00000390: 3ca6 07bd 129c 6c3a d755 6a3c a848 5f3d
000003a0: a99c 553d d0f9 193f 0a2b 2c3f 2b25 123f
000003b0: 8b94 093d 24a6 f33c 9c85 c83b bb88 183f
000003c0: 2597 383d c9b6 263f e178 afba f621 e73b
000003d0: a600 cb3c 088d 3fbd 44d2 343d 7b7e d93c
000003e0: 8000 403d ccf0 4fbd af0f 143f 936a 653d
000003f0: 60cd dc3c 0e85 55bd b65a 273f 3214 05bd

layer4.bias f4 [290]
9.690385 0.43222085 1.0827978 0.5588642 2.774731 0.4413294 0.4104877 0.6017528
8.330725 6.479259 0.97277653 0.8702517 0.41271022 2.0237317 0.5097109 0.5286433
0.45787925 1.024788 4.6336427 1.2773775 9.562865 0.42403105 0.033340428 0.07175259
0.022870367 0.044015355 0.35583323 0.033591215 0.4505409 1.6041868 0.44525948 -0.0047217114
0.5951654 -0.027335342 -0.046879098 -0.013397036 -0.015810302 0.07942692 0.10568327 0.31230608
0.35953888 0.23553482 0.3024456 0.31311834 0.3828404 0.041539494 -0.039199565 -0.04618985
-0.02388311 0.7379915 0.57015747 -0.018403495 7.716362 0.1743691 0.33818886 0.044148114
-0.0032742491 -0.04768002 0.044935115 0.29133025 -0.017949069 0.04034502 0.01567657 0.055956017
-0.0058453195 -0.039724376 0.07915593 0.1475082 0.1803899 0.25069353 -0.03845383 0.24837601
0.26601398 0.027530663 -0.036632933 -0.042199478 -0.016653681 -0.053830754 -0.0482333 -0.013779558
0.111357085 0.15450864 0.05315914 0.19701359 7.6042943 1.1557218 -0.030359596 -0.018124316
-0.035983413 -0.018738315 0.0079043815 0.06299948 0.04749189 0.0095206825 -0.046953138 0.010782305
-0.0529769 -0.02002498 -0.024565585 0.0010917227 0.043800242 -0.020789158 0.022092493 0.33134946
0.004790188 1.4933963 -0.04187605 0.018761935 0.0064649074 0.302394 -0.05560352 7.705939
-0.04847531 -0.050281104 -0.009611447 0.00824334 0.031009022 -0.042752218 -0.007979064 0.031268004
-0.0060792603 0.09918295 -0.0045810216 0.25289455 0.024998978 0.2837215 -0.053073797 -7.196801e-05
-0.04151631 -0.014804223 0.028099574 -0.045026015 0.051190175 0.020321667 0.01849866 0.04440534
0.05404701 0.028423004 -0.011204391 -0.0427292 7.533026 -0.05453217 -0.049817767 0.048356995
0.026588665 0.024542615 0.009974255 -0.0021596872 -0.039266083 -0.034290683 -0.036554713 -0.017280746
0.033603907 0.035047077 0.034376122 0.039975394 -0.016261978 0.03827343 0.014378528 0.21435164
-0.04459208 -0.045523275 0.03795198 0.035220936 -0.028292567 0.016705384 -0.025147473 -0.051074516
0.030834937 -0.008886196 0.036154713 -0.050677706 0.02333693 0.014807282 0.03899076 -0.04495438
-0.0018659026 -0.024380568 -0.055868685 -0.021571735 -0.045191187 -0.048329607 0.019658132 0.052999966
-0.015598018 0.014319449 -0.047990024 0.04803236 -0.032549053 0.040193014 -0.014751096 -0.032139543
0.0341224 -0.013774439 0.359038 -0.02502002 0.03533268 0.053577885 -0.016114272 -0.03878161
-0.01417686 0.226039 -0.0371144 0.042615354 0.030976737 0.04885426 -0.045109645 -0.022130463
-0.020381179 -0.04817123 -0.008435943 0.08135779 0.036532912 0.022641208 -0.006890409 0.027795427
-0.026066989 -0.04721605 -0.033970337 0.041928623 -0.026359504 0.043045323 0.032039486 0.07011152
0.03726618 0.054979865 -0.013408751 0.2991883 -0.025774937 0.17894253 0.13144024 -0.0005016585
0.047993787 0.023157716 -0.018810162 -0.008078368 0.02915473 0.15816686 0.047158565 0.029794572
0.15820618 0.15842049 0.22386725 0.073694326 0.112077914 0.05706037 0.23311254 0.3443529
0.101318896 0.20659494 0.09120064 0.33192793 1.1418021 0.045850318 0.03048427 0.045599718
00000000: d10b 1b41 0d4c dd3e 1e99 8a3f b911 0f3f
00000010: 3195 3140 edf5 e13e 722b d23e 790c 1a3f
00000020: a64a 0541 1756 cf40 e207 793f d1c8 5e3f
00000030: c14e d33e d284 0140 6a7c 023f 2b55 073f
00000040: 266f ea3e 412c 833f cd46 9440 1b81 a33f
00000050: 7f01 1941 991a d93e f98f 083d 06f3 923d
00000060: a35a bb3c 7249 343d c62f b63e f196 093d
00000070: 4cad e63e fe55 cd3f 0df9 e33e 96b8 9abb
00000080: c25c 183f 5eee dfbc 4c04 40bd 3e7f 5bbc
00000090: 9b84 81bc 95aa a23d 7870 d83d 95e6 9f3e
000000a0: 7b15 b83e 0a30 713e 26da 9a3e 0c51 a03e
000000b0: a803 c43e 5125 2a3d b98f 20bd 9131 3dbd
000000c0: 83a6 c3bc 03ed 3c3f d7f5 113f edc2 96bc
000000d0: 70ec f640 d08d 323e 1727 ad3e a7d4 343d
000000e0: c994 56bb 204c 43bd e20d 383d 3d29 953e
000000f0: ed09 93bc d240 253d 266c 803c 2332 653d
00000100: 188a bfbb 07b6 22bd 811c a23d 640c 173e
00000110: 21b8 383e e75a 803e c381 1dbd 4856 7e3e
00000120: fc32 883e fc87 e13c 6a0c 16bd 5cd9 2cbd
00000130: 4d6d 88bc a37d 5cbd 4890 45bd a8c3 61bc
00000140: 2f0f e43d 8337 1e3e 66bd 593d eebd 493e
00000150: 6156 f340 b1ee 933f b0b4 f8bc 7279 94bc
00000160: 5863 13bd 1881 99bc 6181 013c df05 813d
00000170: db86 423d a3fc 1b3c ef51 40bd 44a8 303c
00000180: 4efe 58bd 6d0b a4bc c43d c9bc 2318 8f3a
00000190: e267 333d 064e aabc 51fb b43c a3a6 a93e
000001a0: 02f7 9c3b 9c27 bf3f 3986 2bbd a1b2 993c
000001b0: 93d7 d33b 63d3 9a3e 84c0 63bd 0d97 f640
000001c0: 0c8e 46bd 8ff3 4dbd 5579 1dbc 130f 073c
000001d0: a206 fe3c f31c 2fbd 9fba 02bc e112 003d
000001e0: 8834 c7bb 6e20 cb3d 651c 96bb 657b 813e
000001f0: a8ca cc3c f243 913e e963 59bd 88ed 96b8
00000200: 020d 2abd 698d 72bc 1431 e63c 336d 38bd
00000210: caac 513d a079 a63c 808a 973c 60e2 353d
00000220: 6660 5d3d 5cd7 e83c 9f92 37bc d004 2fbd
00000230: 8d0e f140 205d 5fbd b70d 4cbd fc11 463d
00000240: 79d0 d93c 980d c93c 0f6b 233c 8a89 0dbb
00000250: 79d5 20bd 6374 0cbd 65ba 15bd 5a90 8dbc
00000260: 40a4 093d 868d 0f3d facd 0c3d 3dbd 233d
00000270: d737 85bc 9ac4 1c3d eb93 6b3c ff7e 5b3e
00000280: 2fa6 36bd 9d76 3abd 8973 1b3d d443 103d
00000290: d0c5 e7bc bbd9 883c 1302 cebc 8333 51bd
000002a0: 8d99 fc3c 6897 11bc f716 143d 6d93 4fbd
000002b0: 172d bf3c 3e9a 723c c6b4 1f3d 1522 38bd
000002c0: 4d91 f4ba c2b9 c7bc 90d6 64bd 35b7 b0bc
000002d0: 651a 39bd 44f5 45bd 170a a13c 7e16 593d
000002e0: d48e 7fbc 1f9c 6a3c 3091 44bd 94bd 443d
000002f0: 2852 05bd 6ea1 243d 95ae 71bc c1a4 03bd
00000300: eec3 0b3d 2fae 61bc d4d3 b73e c9f6 ccbc
00000310: 00b9 103d 7c74 5b3d 1402 84bc 77d9 1ebd
00000320: 1046 68bc c576 673e 4505 18bd 708d 2e3d
00000330: edc2 fd3c 681b 483d e4c4 38bd f24a b5bc
00000340: 6ef6 a6bc 324f 45bd e936 0abc ea9e a63d
00000350: 89a3 153d 0e7a b93c f1c8 e1bb 3cb3 e33c
00000360: 708a d5bc 9e65 41bd 7b24 0bbd 59bd 2b3d
00000370: e3ef d7bc 4b50 303d d63b 033d a196 8f3d
00000380: 6ca4 183d 9132 613d 61b0 5bbc 352f 993e
00000390: f625 d3bc b63c 373e 4598 063e bb81 03ba
000003a0: 2295 443d 40b5 bd3c c517 9abc 225b 04bc
000003b0: e6d5 ee3c 7ef6 213e 5729 413d bf13 f43c
000003c0: cd00 223e fb38 223e 753d 653e 0ded 963d
000003d0: 1b89 e53d 22b8 693d 0eb5 6e3e 064f b03e
000003e0: 4880 cf3d a08d 533e 67c7 ba3d 75f2 a93e
000003f0: 9226 923f 8bcd 3b3d 26ba f93c c5c6 3a3d
