catanatron_experimental/my_DQN_wyniki2/my_DQN2_150_steps.pth (torch, 268915 bytes, 8 tensors)

layer1.weight f4 [64, 614]
000000 ab e0 a0 3c 41 52 07 3c 4e 4b 03 bd b5 65 bb 3c
       0.01963838 0.008259357 -0.032054238 0.022875646
000010 47 70 f8 bc fb b7 dd ba 04 5b b3 bc 6a fc b4 3a
       -0.030326976 -0.0016915792 -0.021893986 0.0013808135
000020 40 f6 4d bc e4 8d ad bc d8 78 62 3c af 21 4f 3c
       -0.012570918 -0.021185823 0.013822757 0.012642308
000030 ad 5a f2 3c c7 1b 95 3c 7e 6f 74 3c 94 46 2a bc
       0.029584253 0.018201722 0.01491916 -0.010392804
000040 ba d8 ff bb eb 12 da 3c b9 c6 fd bc 68 b0 f2 3a
       -0.0078078182 0.026620349 -0.030978547 0.0018515708
000050 c3 b3 8e bc 0b 19 e1 bb 50 4c 54 b7 a4 98 1f 3c
       -0.017419701 -0.0068694404 -1.2653953e-05 0.009740982
000060 b3 1a d8 3c eb 95 d8 3c e6 ad cc 3c 1b a4 03 3c
       0.026379919 0.026438674 0.024985265 0.008034731
000070 01 c7 14 bb 00 3f 83 bc 0c 01 21 3c 1b 19 aa 3c
       -0.0022701623 -0.016021252 0.00982691 0.020763924
000080 c3 0b 51 bb fd f7 8f 3b bd fa 04 3c 67 e3 d4 3c
       -0.003189788 0.004393576 0.008116421 0.02598734
000090 06 59 f6 bc fb 4b 46 3c 67 7d 89 ba 05 6b 86 bc
       -0.030071747 0.012103076 -0.0010489643 -0.016408453
0000a0 be 20 33 bc ad ed bc 3c 67 e1 16 3b fb 71 a3 bc
       -0.010933099 0.023062551 0.0023022534 -0.019951811
0000b0 c1 90 98 bb 69 6f bb 3c fd c9 65 3c 97 ff 0d bc
       -0.004655928 0.022880273 0.014025209 -0.008666894
0000c0 c3 8f 9d 3a 56 92 7f bb 82 e1 d8 3c 86 e8 4c bb
       0.0012020994 -0.0038997135 0.026474718 -0.0031266524
0000d0 6a 11 17 3c 6c b4 6f 3c 1b d1 e7 bb f3 fd 31 3b
       0.00922046 0.014630418 -0.007074488 0.0027159422
0000e0 eb df 08 3c 91 ff 2b bc 5b 86 b6 3c fa 1c 1b bc
       0.008354167 -0.0104979435 0.022280863 -0.009467358
0000f0 4c 55 68 3c ed 0e d2 3b c6 4b 3a 39 85 2c 83 bc
       0.014180493 0.0064104707 0.0001776657 -0.01601244
000100 4a 78 69 bc 3f c4 ea bc 19 c2 a6 3c 75 09 6f 3c
       -0.014249871 -0.02865803 0.020356225 0.014589657
000110 d5 b3 5c bc 06 a5 ae 3b d9 75 8b 3c 7e 51 b7 3c
       -0.01347061 0.005329731 0.017023968 0.022377726
000120 eb ea ef bc 68 7b ef 3c 44 bc ee bb c7 6f 98 3c
       -0.029286822 0.02923365 -0.0072856266 0.018607987
000130 2d f0 9e bc df 02 95 bc 8b 7b cd bc a4 60 f1 bc
       -0.019401634 -0.018189846 -0.025083324 -0.029465027
000140 02 66 4e 3b f2 02 7b 3c 28 94 16 3c 94 9e 9e bc
       0.0031493907 0.015320526 0.009190597 -0.019362725
000150 a5 a1 cd bc 5b ae e0 3a 9e 2f 06 bc 50 68 e0 bc
       -0.025101492 0.0017141806 -0.008190064 -0.02739349
000160 12 3b 88 bb ab c6 af bc e1 af 82 bc c3 16 b8 bb
       -0.0041574324 -0.021457037 -0.015953006 -0.005617948
000170 95 78 e6 3b 47 3b d6 bb a9 94 0f bc 37 9d 22 3c
       0.0070334175 -0.006537828 -0.008763471 0.009925178
000180 74 a3 cb 3c f6 4c c6 3a f1 d8 dc bc 93 82 8c 3c
       0.024858214 0.0015129137 -0.026958914 0.017152106
000190 3a 6b 34 3c ca 62 a1 bc 8f e8 c9 bc 9d 2c 8c bc
       0.011011893 -0.019700427 -0.024647025 -0.017111117
0001a0 c4 3b 91 3c ac 26 55 bc 77 f6 e6 3c 3c 52 77 3c
       0.017728694 -0.013009708 0.028193695 0.01509529
0001b0 2d 37 de 3a 88 4c 22 3c 76 21 a8 bc 32 67 7d 3c
       0.00169537 0.009905942 -0.020523768 0.015466498
0001c0 24 01 75 3c 74 88 d9 bc 57 db 9c bc d1 f3 a1 bc
       0.014953885 -0.026554324 -0.019147558 -0.019769581
0001d0 1e fb a9 bc 84 71 26 bc f0 85 48 bc f4 4a c8 3c
       -0.020749625 -0.0101589 -0.012238964 0.024449803
0001e0 c1 1c 39 3c 06 dc 0e 3b 66 78 bf bc 90 df cf 3c
       0.011298359 0.0021798625 -0.02337284 0.025375158
0001f0 4d fe 9e b9 81 a7 84 ba 78 b9 02 3c d3 ca 43 bc
       -0.00030325577 -0.0010120721 0.0079787895 -0.0119502125
000200 ba 7d 2c 3c dc f9 fd bb 39 69 d2 3a 19 2a 9b 3c
       0.010528022 -0.007750733 0.0016053087 0.018940972
000210 14 b5 e5 3c e3 78 12 ba 82 df ec 3c b4 10 93 ba
       0.028040446 -0.00055874715 0.02891517 -0.0011220188
000220 84 03 a0 3c bd 81 2f bb 41 52 78 3c 04 37 8e bc
       0.019532926 -0.002678021 0.01515633 -0.017360218
000230 f1 83 ba bc 01 54 78 ba a2 7e c0 b8 45 b7 80 3b
       -0.022767993 -0.0009472967 -9.178861e-05 0.0039280974
000240 bb c7 cc 3c 11 3f 65 bc d4 43 11 bc 3e 71 c2 3c
       0.024997583 -0.013992087 -0.008866269 0.023735639
000250 76 2a 02 bb b6 05 7e ba 7e 49 15 bc 62 c9 99 3c
       -0.0019861734 -0.0009690182 -0.00911176 0.018772785
000260 bd a0 e8 3c 19 a7 33 b8 dc 2b b2 3c 5c 81 23 3c
       0.028396958 -4.2832547e-05 0.02174943 0.009979572
000270 df 95 3c bc 05 13 e5 bc f0 cb 8d 3c 29 95 d4 3b
       -0.011510341 -0.02796317 0.017309159 0.006487508
000280 23 b3 c7 bc 5f 17 49 3c 1e 3d 90 bc 51 04 26 bb
       -0.024377411 0.0122736385 -0.017607268 -0.0025332163
000290 36 56 a4 bc 4f d6 bf bc 9d 66 64 bc de fa 3b 3b
       -0.02006064 -0.02341762 -0.013940481 0.0028683464
0002a0 e3 57 18 bb 44 74 e5 3b a9 74 ba bc bd f3 e9 3c
       -0.0023245744 0.0070023853 -0.022760706 0.028558606
0002b0 98 58 b7 bc c1 15 e6 3c a9 32 7e bb 11 7f 86 bc
       -0.022381112 0.028086545 -0.003878752 -0.016418012
0002c0 36 ea 82 bc 9a 0f 91 bc 29 0d 6f 3b 49 25 1d 3c
       -0.015980821 -0.017707635 0.003647635 0.009591409
0002d0 a2 6a af 3b 8d b9 a6 3c 28 1c 87 bc 92 dc d6 bc
       0.005353288 0.02035215 -0.016492918 -0.026228223
0002e0 c9 7c 80 3c 7d 67 a1 bc d6 53 46 3c 67 55 76 bc
       0.015684502 -0.019702667 0.012104949 -0.01503501
0002f0 74 4f c2 3c 26 04 a8 bc 61 c2 e6 bc ff 1d 23 3c
       0.023719527 -0.02050979 -0.028168859 0.009955882
000300 96 b7 8a bc b3 84 74 3c 5d ca bd 3c 22 4e d9 3c
       -0.016933244 0.014924216 0.023167783 0.026526514
000310 e7 f3 4e bc 3c a5 82 bc 47 a2 eb bc ae 07 cd bb
       -0.012631393 -0.01594793 -0.028763903 -0.006257019
000320 ae 23 b1 3c f6 c2 8b 3c e9 f1 9a bc 35 86 d0 3b
       0.021623459 0.017060738 -0.01891418 0.006363655
000330 f4 e0 2a 3b 14 f4 56 bb c9 69 c3 bc 4c cb a9 3c
       0.0026074024 -0.003279929 -0.023854153 0.020726822
000340 ac 96 76 3c 4b d7 d4 3c e1 95 af 3c 12 db 9e 3c
       0.015050571 0.025981566 0.021433773 0.01939157
000350 69 70 40 3c 5f 5a e5 bc fb 5a 86 bc 10 a2 d7 ba
       0.011745551 -0.027997194 -0.016400805 -0.0016451497
000360 3a 33 a3 3c d2 4b 86 bb 05 05 7b bc 85 80 8e 3c
       0.019921888 -0.004098394 -0.015321021 0.017395267
000370 51 e6 e3 3c 9b 41 2d bb a4 b0 b5 bc 04 11 01 bb
       0.027819784 -0.002643681 -0.022178955 -0.001969398
000380 ec 0b a6 ba 6b 11 90 bc a8 6d 05 3c bb 44 1b bc
       -0.0012668348 -0.01758643 0.00814382 -0.009476836
000390 b7 66 9c bc f0 c7 59 bc cc 5d 71 3c 9d c7 64 bc
       -0.019091947 -0.013292298 0.014731836 -0.013963607
0003a0 aa f7 48 bc 4f f1 df bb 82 28 44 bc 62 b9 f1 3c
       -0.012266079 -0.006834186 -0.011972548 0.029507343
0003b0 21 45 f4 39 4a 8e 0e bc bc 81 98 ba ac 5b ad bc
       0.00046590812 -0.008700917 -0.0011635344 -0.021161877
0003c0 a9 bb cf 3c 58 c2 d0 3c 0c fe 3c 3c 3d fd 11 3c
       0.025358038 0.025483295 0.011535179 0.008910474
0003d0 bc 59 5e 3c 3a e0 4d bc 96 c8 0c 3c bd 53 27 bc
       0.013571199 -0.012565667 0.008592745 -0.010212836
0003e0 0b 55 dc 3c 40 50 a9 bc 63 cd df 3c 71 3c 82 3b
       0.02689602 -0.020668149 0.027319616 0.0039744903
0003f0 f4 fd c7 bc 67 19 8b 3c 90 ca a4 3c 6f 42 63 3c
       -0.024413086 0.016979886 0.02011612 0.0138708195

layer1.bias f4 [64]
000000 f2 1b 9c 3c b1 c1 b9 3a 6c a6 8d ba cd f4 31 40
       0.019056294 0.0014172104 -0.0010807044 2.7805665
000010 b9 2f 08 bd a1 66 2d 40 fb 7d 0d bd 0d 98 2f 40
       -0.033248637 2.709389 -0.034543972 2.7436554
000020 7c 51 aa 3c c9 9e 31 40 f9 1f 2d 40 e8 71 31 40
       0.020790808 2.7753165 2.7050765 2.7725773
000030 5a 9f b5 bc fd 1f 72 bc b3 50 2b 40 48 61 22 40
       -0.022170711 -0.014778134 2.6768005 2.5371876
000040 f0 57 30 40 30 cd 2d 40 b1 eb 31 40 d4 32 d9 3c
       2.7553673 2.7156487 2.7800105 0.026513495
000050 6b 2a 27 40 91 fe 2e 40 c4 46 2d 40 c1 26 4f bc
       2.611964 2.7342875 2.7074442 -0.012643517
000060 e5 4e 54 ba 2d ff 2f 40 e9 0c 33 be 70 32 32 40
       -0.00080989144 2.7499497 -0.17485394 2.7843285
000070 92 9a c9 3b 45 46 cd 3c 58 54 cc bc 30 6c ac bc
       0.0061524594 0.025057921 -0.024942562 -0.021047682
000080 89 62 2f 40 eb 7d b6 bb 53 ce a1 3c 6a 49 31 40
       2.740389 -0.00556921 0.019751703 2.7701058
000090 4c 6a 2d 40 be 75 2f 40 34 ea 2f 40 88 31 90 3b
       2.7096128 2.7415614 2.7486696 0.004400436
0000a0 5d 9a e0 bd 1a d7 bf bb 09 a4 2f 40 2f b6 98 3c
       -0.109669425 -0.0058544995 2.744387 0.01864156
0000b0 70 d6 2d bb 8a 74 87 bc c4 94 b9 bc 72 7c 33 bc
       -0.002652552 -0.016535062 -0.022653945 -0.010954963
0000c0 70 87 2e 40 0a 38 40 3c d5 f6 8e bb df 2d 01 bd
       2.7270164 0.011732111 -0.0043629208 -0.031537887
0000d0 0d f4 2c 40 67 69 2e 40 db 10 2e 40 8b 41 2c 40
       2.7023957 2.7251832 2.7197788 2.6915004
0000e0 49 53 c3 3b 05 ff 5d bc 84 67 c9 bc e6 41 2e 40
       0.005960856 -0.013549571 -0.024585493 2.7227721
0000f0 c0 fd 2f 40 b3 cc 2f 40 3b 5e 2f 40 42 8d 2c 40
       2.7498627 2.7468688 2.7401264 2.6961217

layer2.weight f4 [64, 64]
000000 02 a8 6d bc 2d 3a 1c bb d9 07 f4 3b 31 42 59 3d
       -0.014505388 -0.0023838386 0.0074472246 0.05304164
000010 22 db 22 bd 9a 8f 80 3b d7 e6 9a bd fe 22 99 3d
       -0.039759763 0.0039233686 -0.075635605 0.07477377
000020 05 e5 df bc 2e bf 5b 3b b8 98 90 bd 11 47 49 3d
       -0.027330885 0.00335307 -0.07060379 0.04914004
000030 c3 e2 50 bd 68 56 79 3d 0d 7d 85 3a 59 60 04 3d
       -0.050997507 0.06087342 0.0010184363 0.032318447
000040 74 e6 5d 3d 8c 85 54 3d a3 a1 c6 3b 61 17 ba 3b
       0.054174855 0.051885173 0.006061749 0.0056790565
000050 ce 61 9f bd 99 58 1e bd d2 8a 4b 3d d6 52 28 3d
       -0.07782327 -0.038658712 0.049692936 0.041094624
000060 6b 56 75 3d 9f 52 20 bd a2 02 45 3d 4b 7e c1 bd
       0.059896868 -0.039141294 0.048098214 -0.094479166
000070 d9 05 b2 bd 7e 2e 75 3c e1 91 81 bd 91 97 b9 bd
       -0.086925216 0.014964698 -0.06326652 -0.09062112
000080 04 11 74 bd c4 4d 14 3d be 07 54 bd 09 49 df bc
       -0.05958654 0.036206976 -0.051765196 -0.027256506
000090 3a 12 6b 3d 71 c7 4c bd 3f 10 68 bd a7 c8 3c bd
       0.05739043 -0.04999489 -0.05665612 -0.046089794
0000a0 62 20 8f 3d a3 d9 7b 3d 61 fb ac 3d 1e df e6 3c
       0.069885984 0.06148685 0.08446384 0.028182562
0000b0 5d 8d dc bc 95 a3 d3 3d 12 20 a2 3d 4e 6b a7 3c
       -0.026922876 0.10333935 0.07916273 0.020436909
0000c0 84 8d c7 bd 02 08 76 3d 24 74 77 bc 0d d1 72 3d
       -0.09743789 0.06006623 -0.015103374 0.059281398
0000d0 70 33 52 3c a1 5b bc bc 37 d9 e0 bd f0 d7 8c 3b
       0.0128296465 -0.02299291 -0.109789304 0.0042982027
0000e0 2c 3a 19 bd 82 c3 a9 bd 12 6d a1 3d f7 e3 88 3d
       -0.037408993 -0.08289243 0.07882132 0.06684106
0000f0 18 6f a5 bd bb 17 8a bd c6 dc eb 3c 01 81 a2 bd
       -0.0807783 -0.067428075 0.028791796 -0.07934762
000100 57 2a 8d 3c 3e 2f 05 3d 4b 5e a9 bc 16 05 7d bd
       0.017232103 0.032515757 -0.020674845 -0.06177243
000110 24 a3 03 bc c0 3a 42 bd 80 08 37 bc 75 dd 58 bd
       -0.008034501 -0.04741931 -0.01117146 -0.052945573
000120 18 a3 82 bd 75 dd 1a 3c ce b2 84 3d 65 90 af 3d
       -0.06378764 0.0094522135 0.06479417 0.08572463
000130 3d 20 8e bc a8 9c 91 3d 47 0f f8 bc 9c 9e 8d 3d
       -0.017349357 0.07109958 -0.030280722 0.06915018
000140 85 5a 2c bd 25 d3 34 3d bd 80 15 bd ab 09 9a 3d
       -0.042078514 0.044146676 -0.036499728 0.07521375
000150 17 55 45 ba 65 84 b5 bd fa d1 31 3d 9f b4 43 3d
       -0.0007527633 -0.08863143 0.04341314 0.047779676
000160 3c 2f dd ba 3e d5 03 bd e5 72 17 bd 04 68 e8 bc
       -0.0016875039 -0.032185785 -0.036974806 -0.028369911
000170 d4 6b 4c 3d 31 a9 96 bd 63 b7 e8 bc 53 d9 3c bd
       0.04990752 -0.073564894 -0.028407758 -0.046105694
000180 24 f4 fb bc 00 80 16 bd 37 7c 2e 3d e6 94 59 bd
       -0.030756064 -0.036743164 0.04259893 -0.053120516
000190 bf e1 a0 bd cb a2 b9 bd 57 c3 bf bd f1 87 74 bc
       -0.07855558 -0.090642534 -0.0936343 -0.014924989
0001a0 fb 5a 83 bd 8c 53 8d bd f9 a6 9e 3d ce 8d 9c 3d
       -0.064138375 -0.06900701 0.07746691 0.076442346
0001b0 85 f2 a9 bc f8 02 ac bd 8e db 32 bd a7 b9 6c 3c
       -0.020745525 -0.08399004 -0.043666415 0.01444856
0001c0 fb 02 3a 3d db f7 ee bb 2a 2b 15 bd 70 bb a7 3d
       0.045413 -0.0072927303 -0.036418118 0.08190048
0001d0 32 ac a3 3d 01 5c ed 3c a4 87 dd bc 90 55 07 bd
       0.07991828 0.028974535 -0.027042218 -0.033040583
0001e0 19 2d 15 3d a6 6a 89 3b 72 e7 c4 bc c3 b2 6d 3d
       0.03641996 0.0041936217 -0.024036143 0.05803181
0001f0 b6 60 58 bd ae 96 ac 3d 1e 75 4d 3c 7e f1 99 3d
       -0.052826606 0.08427177 0.01254013 0.07516764
000200 29 4e 44 3c 47 3c 84 3d 73 33 92 3d af 58 10 40
       0.011981525 0.064568095 0.071387194 2.2554128
000210 5f be 5e be f9 ec 0f 40 f5 e9 10 bd 24 82 11 40
       -0.21752308 2.2488387 -0.03537937 2.2735682
000220 ca 35 7c bb c3 3b 14 40 4e 07 1b 40 40 5d 11 40
       -0.003848421 2.3161476 2.4223208 2.2713165
000230 cd cb 3f bd 28 0c 19 c0 92 37 16 40 12 75 17 40
       -0.04682522 -2.391367 2.3471417 2.3665204
000240 93 fb 1b 40 9f aa 14 40 0b 86 11 40 04 89 23 3d
       2.4372299 2.322914 2.2738063 0.03992559
000250 9e fa 2e 40 1a 3e 14 40 49 94 19 40 77 63 70 bd
       2.7340465 2.3162904 2.3996756 -0.058688607
000260 3d 2d 93 3d ae 44 1b 40 ac 6f 8a bf 5e fc 11 40
       0.07186363 2.4260669 -1.081533 2.2810283
000270 91 87 b6 3d d0 d9 13 bd 2e 6a c2 bc 84 e0 ad bc
       0.08912576 -0.036096394 -0.023732271 -0.021225221
000280 94 e8 1e 40 01 51 3d bd c0 af 73 3d e9 c3 12 40
       2.4829454 -0.04621983 0.05949378 2.2932074
000290 a8 19 1b 40 eb 12 1e 40 3a 32 1b 40 c4 ec 4f bc
       2.423441 2.4699047 2.4249406 -0.012690727
0002a0 57 7d a7 bf 99 31 1c 3d b8 7d 12 40 d3 b5 aa bf
       -1.3085126 0.038133238 2.2889233 -1.3336738
0002b0 eb 30 76 bc 97 ad bc 3d 0b 54 ef bb cb 81 7b bb
       -0.015026311 0.09212797 -0.00730372 -0.0038376923
0002c0 49 8b 19 40 26 49 65 bd 86 cd b4 bd c0 43 59 3d
       2.3991263 -0.055977963 -0.08828263 0.053043127
0002d0 26 69 1d 40 52 4e 19 40 2e 4e 0f 40 c3 cb 1d 40
       2.4595428 2.3954053 2.2391467 2.4655616
0002e0 5f d5 9a bd b8 c4 8d b9 10 a3 e2 bd 4e de 15 40
       -0.075602286 -0.00027040183 -0.11066258 2.3416934
0002f0 1c ef 16 40 9b 8d 1e 40 47 5e 18 40 7c 72 1b 40
       2.358344 2.477393 2.3807542 2.4288626
000300 79 f2 8b 3d 3a 30 b7 bd 20 ea 8d bd 16 d6 18 bd
       0.06833357 -0.08944745 -0.069294214 -0.037313543
000310 69 3f 52 3f 02 9c 03 3e 2e b6 c3 3c 38 fc 93 bd
       0.82128006 0.12852481 0.023890581 -0.07225841
000320 a0 81 80 bc 93 0a f7 3c 7b 33 79 3d bf 9b 8f bd
       -0.01568681 0.03015641 0.06084011 -0.07012128
000330 a2 2d f4 3c 82 6a 12 bd 33 3f 2b 3d 75 50 9b 3e
       0.029806916 -0.035746105 0.04180832 0.3033482
000340 c0 66 83 3d db 8d a1 bd 2a df 7b 3d dd 8f 89 bd
       0.064160824 -0.07888385 0.061492123 -0.06716893
000350 6d a9 8a be d5 0d 7e be 77 12 df 3a 50 5e 06 3d
       -0.27082387 -0.24809964 0.0017019053 0.032804787
000360 c7 3d 9d bd 7d f1 a2 bd a4 fa 4d be 77 db 97 3d
       -0.07677799 -0.079562165 -0.20115143 0.074149065
000370 6f 18 38 3d e0 9c 79 3d 75 ab 1d 3d ac a6 80 bd
       0.044945177 0.060940623 0.038493592 -0.0628179
000380 08 ef 73 be f1 14 aa 3c 23 44 02 3d 1d e8 5c 3d
       -0.23821652 0.020761939 0.03180326 0.053932298
000390 61 21 e2 bd 0b 29 01 3d 5f 79 10 bd 31 b4 40 bd
       -0.11041523 0.031533282 -0.035272 -0.047046844
0003a0 bd ed a7 bd 36 d8 23 3c 6f 2d 88 bc 51 10 05 3f
       -0.08199642 0.010000279 -0.016623227 0.5197802
0003b0 ef 0e ac bd f8 91 a6 3e a4 2e c8 bc 3f 2d b8 bd
       -0.08401286 0.3253324 -0.024436302 -0.08993005
0003c0 ea 79 17 bd ed 0a f8 bc b1 9d 15 bd df 2e 27 3d
       -0.0369815 -0.030278647 -0.03652734 0.040816184
0003d0 56 3c 3b be 71 e6 66 3d fc 16 0e bd 14 bf 2d 3e
       -0.18284735 0.05637211 -0.03468989 0.16967422
0003e0 2d 1e 87 bd 6f a4 94 3d e3 f6 82 bd b0 23 84 bd
       -0.065975524 0.07257926 -0.06394746 -0.06452119
0003f0 1d b7 aa bb eb 0e 5e 3d 1a 70 94 bd 08 06 d7 bd
       -0.005209817 0.054213446 -0.07247944 -0.10499197

layer2.bias f4 [64]
000000 2e 2a 76 bd 7a f5 87 3d 14 d1 24 40 57 73 e4 bb
       -0.06009882 0.06638618 2.575261 -0.0069717574
000010 4b 0f 23 40 82 d0 24 40 67 22 c9 bd ec df a8 bd
       2.5478084 2.5752263 -0.09821015 -0.08245835
000020 65 d7 29 40 55 c6 10 bd 27 d9 26 40 76 c6 91 bd
       2.6537716 -0.035345394 2.607004 -0.071179315
000030 f0 c5 23 40 04 08 b0 3d b9 61 27 40 69 4c 1f 40
       2.5589561 0.08595279 2.6153395 2.4890387
000040 57 0e 23 40 bc 15 2a 40 7a e0 9a bc cc 9f 26 40
       2.5477502 2.6575766 -0.018905867 2.6035032
000050 02 7c 49 3d 75 00 21 40 2f 68 aa 3c 6e 21 81 bd
       0.04919053 2.515653 0.020801632 -0.06305204
000060 61 95 c8 bd d6 3c aa bd 2a 20 6d bd 9e 38 20 40
       -0.09794117 -0.08312385 -0.057892002 2.5034556
000070 f0 e1 b6 bd c3 c3 2a 40 d0 7c 2a 40 db 64 84 3d
       -0.08929813 2.6681983 2.663868 0.06464549
000080 78 13 3c 3d 10 30 a7 bd be 86 25 40 6b 15 1f 40
       0.045917004 -0.08163464 2.586349 2.4856822
000090 52 06 26 40 6c d8 43 3d 97 38 86 bb 05 14 0f bc
       2.5941358 0.047813818 -0.0040961015 -0.0087328
0000a0 af a1 1e 40 14 3c 22 40 30 e8 26 40 87 d7 a3 bb
       2.4786184 2.5349169 2.6079216 -0.005000058
0000b0 ee cf 11 3b fa 78 95 bd 65 05 b5 bd ad 3f 24 40
       0.002224918 -0.07298465 -0.088389196 2.5663865
0000c0 df 9d a8 bd 36 1c b1 bd 1a a4 24 40 e8 66 22 3b
       -0.082332365 -0.08647959 2.572516 0.0024780575
0000d0 d6 4c 24 40 56 2d 25 40 a7 af 20 40 6c 57 25 40
       2.5671897 2.580892 2.510721 2.5834608
0000e0 89 e3 29 40 3b 05 21 40 21 dd 16 bd 26 14 27 40
       2.6545126 2.5159442 -0.03683198 2.6106048
0000f0 f0 2d 21 40 fd 8f 27 40 d2 60 29 40 ac 04 28 40
       2.5184288 2.6181633 2.6465344 2.6252851

layer3.weight f4 [64, 64]
000000 b8 a4 3a 3d 6b fa bf bd ee 48 d2 bd d8 c9 ab bd
       0.045567244 -0.09373935 -0.102678165 -0.08388108
000010 41 ac 6b 3b 6a e3 cd bd 43 53 c0 3c 02 74 04 bd
       0.0035960826 -0.100531414 0.023477202 -0.032337196
000020 76 3b 8c bc f5 d5 bd bc 3d e4 97 b9 de ec 91 bd
       -0.017118197 -0.023173312 -0.00028971015 -0.07125257
000030 f9 45 bb bd 95 4b cd 3c fc f2 98 3b 09 fa f4 bc
       -0.091442056 0.025060454 0.004667638 -0.029904382
000040 03 27 49 3c fa 25 5a 3d 8d 28 80 3d f9 fb b9 bd
       0.0122773675 0.053258874 0.062577344 -0.09081263
000050 ea 12 49 bd 85 88 19 3e ac 7f 48 bd 79 49 cc 3d
       -0.049090303 0.14993484 -0.048949882 0.09974951
000060 2a 67 92 bd b9 32 0f bd 70 21 ab bd af 9e af 3d
       -0.07148583 -0.034960482 -0.08355987 0.08575188
000070 e5 03 f6 3a bf dc 94 bd 7f 02 e6 3c 48 91 90 3d
       0.0018769471 -0.072686665 0.028077362 0.0705896
000080 a8 45 af 3c 25 86 ae bd 96 ba a2 bd 56 3d ea 3c
       0.02139552 -0.0852168 -0.07945745 0.0285937
000090 6f 17 07 3d bd 5a 08 bd b7 54 93 3d ad 73 ae 3d
       0.032981332 -0.03328966 0.071938924 0.08518157
0000a0 ab 17 93 3d 8f 20 3b 3d 2f 3e 5a 3d c3 79 6e bd
       0.07182249 0.045685347 0.05328196 -0.05822159
0000b0 33 1f 86 3d d0 33 f7 3c 8d 39 95 bc 2a c9 99 3d
       0.065489195 0.030176073 -0.018215919 0.07509072
0000c0 73 cb 7b bc 8d 80 63 3d df 11 21 3d d8 80 95 bd
       -0.01536833 0.055542517 0.039323684 -0.072999656
0000d0 06 4e dc 3c b0 ba 39 bd 47 d7 48 3d 1e 89 8e bd
       0.026892673 -0.045344055 0.04903343 -0.06959747
0000e0 d3 fc ba bd 7e 1a 98 3d a9 70 1a bd f6 2c b0 bd
       -0.09130254 0.07426928 -0.037705097 -0.086023256
0000f0 14 48 51 bd 4e 1e 82 bd a7 16 71 3d 75 ed 8c bd
       -0.05109413 -0.063534364 0.058859494 -0.06881229
000100 6c 6b 84 bd 74 b6 8c bc d2 25 0d 40 4f e5 15 3f
       -0.064658016 -0.017176844 2.2054334 0.5855302
000110 64 e0 0d 40 9f 7d 06 40 88 f9 98 bd 4e fc 8e 3d
       2.2168207 2.1014173 -0.07469469 0.06981717
000120 e9 f4 05 40 f6 06 54 be bb bd 05 40 ca ef 85 bd
       2.0930731 -0.2070578 2.0897052 -0.06539877
000130 85 ea 0d 40 cf e8 2a bc ac 51 0b 40 b9 7a 0e 40
       2.217439 -0.010431482 2.1768599 2.2262404
000140 11 2a 08 40 cb ba 06 40 3c c2 c9 3d dc 9b 08 40
       2.1275675 2.105151 0.098515004 2.134513
000150 7c 8b 01 3d 0d 79 0d 40 ba 82 7f 3d 90 bc 3d bd
       0.031627163 2.2105134 0.06238053 -0.046322405
000160 f1 bc 9d 3c 65 f5 8a bd 5d 52 aa 3d b8 aa 0d 40
       0.019255133 -0.067850865 0.08316491 2.2135448
000170 08 35 37 bc b5 8b 0a 40 c3 93 0b 40 97 94 a8 3d
       -0.011182077 2.164777 2.1808937 0.08231466
000180 83 1a 99 bd 1b b0 4c 3d 3a 70 05 40 22 4b 0c 40
       -0.0747576 0.049972635 2.0849748 2.1920857
000190 36 e5 08 40 5f 19 9c 3d bd ec 96 3e 4e b0 ad 3e
       2.13899 0.07622027 0.29477492 0.33923572
0001a0 09 ac 0d 40 46 bc 0e 40 7b 7c 0d 40 70 e9 93 bd
       2.2136252 2.2302413 2.2107227 -0.07222259
0001b0 32 e7 b5 bc 24 e4 35 3d bd 9b ba 3a 02 1b 0c 40
       -0.02220497 0.044407025 0.0014237087 2.1891484
0001c0 1a 5c 4f bd ca 2b 76 3d 26 53 0f 40 c8 51 8a 3d
       -0.050624944 0.060100354 2.23945 0.0675388
0001d0 27 c1 06 40 18 5b 0d 40 62 19 0f 40 fb 4c 10 40
       2.105539 2.208685 2.2359242 2.2546985
0001e0 34 62 03 40 e0 b3 08 40 f5 ac 33 bd 5d c8 04 40
       2.0528688 2.1359787 -0.043866117 2.0747292
0001f0 12 ed 09 40 a8 56 0e 40 7a 6d 05 40 c6 58 0b 40
       2.1550946 2.224039 2.084807 2.1772933
000200 d2 45 8f bd 4b c1 57 3d a4 b4 22 3b 38 c6 54 bd
       -0.06995739 0.052674573 0.0024826908 -0.05194685
000210 55 39 34 bc 44 ba fe 3c 27 65 9f bc e7 72 9f 3d
       -0.010999997 0.031094678 -0.019457413 0.07785588
000220 c9 98 87 3d 55 61 91 bd 1c 98 00 bd b7 88 91 bd
       0.06620938 -0.07098643 -0.031395063 -0.071061544
000230 e1 0b d8 bc 3a 4a 54 bd d8 8d 29 bd a7 8a 8f 3d
       -0.026372852 -0.0518286 -0.04139504 0.07008868
000240 62 d0 61 3c 56 a8 65 bd e4 da 95 bb 99 b3 26 3d
       0.0137825925 -0.05606874 -0.004573213 0.04069862
000250 7f ee 3e bc 7d 87 a8 bd bc 28 32 3d a3 ba cb bd
       -0.011653542 -0.08228967 0.04349588 -0.099477075
000260 00 c4 79 bd ba f8 45 bd b0 13 0d 3d df fa 9c 3d
       -0.060977936 -0.048332907 0.034442604 0.07665037
000270 39 a1 74 3d 9b 0b 03 bb 89 cd ae 3b a8 2c 34 b8
       0.059724066 -0.001999593 0.0053345603 -4.2956934e-05
000280 ae d8 b0 bb 0d d6 a7 3b 17 9c 8d 3d 2b 02 f4 3c
       -0.005396924 0.0051219524 0.069145374 0.02978619
000290 e4 99 00 3b e0 9c 36 bd e4 71 94 3d e6 10 99 bd
       0.0019622976 -0.0445832 0.072482854 -0.07473926
0002a0 11 e1 ab bd d7 55 a3 bd 17 ea b2 bd dd 1a 93 3d
       -0.083925374 -0.07975357 -0.08736055 0.07182858
0002b0 18 8c 03 bd 50 75 b2 bd 29 bb a1 bd e0 e1 b8 bc
       -0.032116026 -0.08713782 -0.07897026 -0.022568643
0002c0 e5 9e 17 3d 8e fc ac bd 20 7f 6d 3d bd c5 4a 3c
       0.037016768 -0.084466085 0.057982564 0.012376246
0002d0 99 0d 72 bd eb de 89 3d 39 26 cc bd 01 99 f3 3c
       -0.059095 0.06731971 -0.09968228 0.029736044
0002e0 c6 63 ca 3c 38 95 25 3c 29 06 92 3d a9 7f 35 3d
       0.024705779 0.010106377 0.07130081 0.0443112
0002f0 e2 92 2c 3d f0 fa 8c 3c a1 9f 62 bd d2 1a c9 bd
       0.042132266 0.0172095 -0.055328015 -0.09819569
000300 8b 56 36 bd 5a 8f ac bd b8 3f 04 40 a8 7d 04 3f
       -0.044516128 -0.0842578 2.066389 0.51754236
000310 a2 ed 04 40 8d 3a 00 40 0c d5 63 bd 0d e1 82 3c
       2.077004 2.0035737 -0.0556231 0.015976453
000320 9d 74 01 40 6e e4 12 3f 31 be 0b 40 f0 f4 28 bd
       2.0227425 0.57379806 2.1834834 -0.041249216
000330 08 f2 05 40 aa 7f 0e ba 43 60 03 40 62 a5 03 40
       2.0928974 -0.00054358935 2.0527503 2.0569692
000340 4f dc 01 40 a7 e0 07 40 1d d4 27 bc 0e 94 04 40
       2.0290716 2.1230867 -0.010243443 2.0715365
000350 14 2b 5b 3d 12 ab ff 3f b9 bc 60 bd 91 94 a4 3d
       0.05350788 1.9974082 -0.05486748 0.08036149
000360 6a 4b ec bb 04 25 71 3d 69 90 bc 3c 0d 16 03 40
       -0.0072111385 0.05887319 0.023018079 2.0482209
000370 78 fa d4 3c 90 f8 02 40 8d 33 06 40 cd 39 7a 3c
       0.025998339 2.046421 2.0968964 0.01527257
000380 af 69 0a bd df 70 2f 3d a2 36 07 40 22 61 03 40
       -0.033792194 0.04283225 2.1127095 2.0528035
000390 15 77 fb 3f 85 07 a8 3d c1 6c 6f 3f 6a ce d6 3e
       1.9645716 0.08204559 0.9352532 0.41954356
0003a0 77 c6 f9 3f c3 46 02 40 81 b4 06 40 fc f4 21 bd
       1.9513692 2.035569 2.104767 -0.039540276
0003b0 2a 32 a2 bd 33 2a 1f 3d 99 2a 98 3d e2 0f 06 40
       -0.07919724 0.038858604 0.0743 2.0947194
0003c0 91 1b ba bd 53 af 80 3c 51 2b 05 40 fe 2d ac bc
       -0.09087289 0.015708601 2.0807688 -0.021018025
0003d0 e4 9e 03 40 44 fa f8 3f ca d1 04 40 87 f7 fb 3f
       2.056573 1.9451375 2.0753045 1.9684914
0003e0 63 00 00 40 12 1d fd 3f 75 59 5b bd cb 44 06 40
       2.0000236 1.9774497 -0.05355211 2.0979488
0003f0 53 71 02 40 98 79 01 40 59 e8 04 40 23 50 06 40
       2.0381668 2.0230465 2.0766814 2.0986412

layer3.bias f4 [64]
000000 bc b9 9f bb b6 05 c1 3f 57 68 27 bd 40 cd d4 3f
       -0.004874436 1.5079868 -0.04087099 1.6625137
000010 bf 73 4a 3f db 8c 7b bd f4 17 bc bb d7 22 85 3f
       0.79082865 -0.061413627 -0.00574016 1.0401257
000020 f9 90 7b 3f c3 51 14 3f e4 94 20 bd bd 38 8a bd
       0.98268086 0.5793726 -0.039204493 -0.06749103
000030 55 7d 24 3f 58 b8 f5 3f 8b 43 b6 bc c8 d8 7d 3d
       0.6425374 1.9196882 -0.022249004 0.061974317
000040 15 a9 ae bd 97 93 aa 3f 85 7e 05 40 16 32 d8 3f
       -0.085283436 1.3326291 2.0858471 1.6890285
000050 97 b1 84 bd 49 40 bb 3c 5d 93 2b 3c 91 4d 22 3d
       -0.06479185 0.022857802 0.010472146 0.039624754
000060 ce b4 41 3d 33 22 81 3f 1a c0 4b bb 5b 01 01 3c
       0.04729157 1.0088562 -0.0031089843 0.007873858
000070 65 fc e9 3c df 0c 3f 3d ee 88 e2 3f cf bf e0 3a
       0.028562734 0.046643134 1.7698038 0.0017147007
000080 5a 3f bc bd f2 6c ce 3f 8e 9f c2 3c c8 c8 63 3e
       -0.09191771 1.6126997 0.023757722 0.2224456
000090 48 67 0a 3d 22 0b ae 3d 9d 22 c4 3c 59 41 84 bd
       0.033789903 0.08498217 0.023942286 -0.064577766
0000a0 fb 5f 5c 3c a0 d3 56 3f 7c 5a f3 3f 50 28 c9 3f
       0.013450618 0.83916664 1.9011989 1.5715427
0000b0 a3 a9 a6 bc 5c 09 51 3c fc 1d 28 ba 81 0e e9 3f
       -0.020344561 0.012758579 -0.00064131594 1.8207551
0000c0 ad 64 a0 3a 57 94 c7 3f dd 03 b1 bd 32 41 9f 3d
       0.0012237035 1.5592145 -0.08643315 0.07776107
0000d0 64 ff 02 bd 32 8f a5 bd 95 ff ae bd 23 c5 a6 bd
       -0.03198184 -0.08083953 -0.08544842 -0.081430696
0000e0 46 d8 b7 3d eb 52 82 bd 33 42 01 40 43 16 9e bd
       0.08976798 -0.063634716 2.0196655 -0.0771909
0000f0 25 84 8d 3c 38 d7 3d 3d 84 46 b6 3f 74 57 76 bc
       0.017274925 0.046347827 1.424027 -0.015035499

layer4.weight f4 [290, 64]
000000 6f 14 98 bc 34 c4 b3 3d 41 88 03 bd dd f4 7f 3d
       -0.018564431 0.08777657 -0.032112364 0.06248938
000010 32 9c b5 39 9c 32 16 bd 56 e1 c0 bd 66 be 12 3d
       0.00034639385 -0.03666936 -0.094179794 0.03582611
000020 b7 ee 8d 3c 84 6c e2 bb 17 a7 85 3b 47 ab 5b 3d
       0.017325742 -0.0069099087 0.0040787566 0.05363014
000030 8a 72 5f 3b 52 b9 05 3e ee cb d5 37 db 23 01 3f
       0.003409537 0.13058975 2.548654e-05 0.50445336
000040 ab f1 da ba f6 0e 16 3d e1 81 e8 3d 27 4d a6 3d
       -0.0016704103 0.03663536 0.113528974 0.081201844
000050 cb 79 b7 bc 68 8f a4 3d 01 23 b6 3d 33 f3 93 3d
       -0.022396943 0.08035165 0.08893395 0.07224121
000060 f9 ec 37 3b ce 12 9b 3c 54 49 2f 3d 7c 07 ce bb
       0.002806483 0.018929865 0.04279454 -0.0062875133
000070 58 3b 2b 3d 75 b3 9e bd f2 f2 9d 3d 52 d9 df bc
       0.04180464 -0.077490725 0.07712354 -0.027325306
000080 d9 8a 99 3d a7 1b 9c 3d 32 a4 b1 3d e6 94 02 bd
       0.07497186 0.07622462 0.08673896 -0.031880282
000090 04 d8 97 3d 66 11 b0 3d 0d aa 04 be 4e d3 4b bd
       0.074142486 0.085970685 -0.12955494 -0.049762063
0000a0 91 6f b0 3d 38 17 bf 3b 12 54 06 3e 61 ad 7b 3d
       0.086150296 0.0058316253 0.13118008 0.061444644
0000b0 81 2b 13 bd 7e 94 8b be fc 01 b0 bd b3 2d be 3d
       -0.03593016 -0.27261728 -0.085941285 0.0928606
0000c0 e1 cc 20 bd a6 3a 8a 3d 22 75 90 bb e8 b9 91 3e
       -0.039257888 0.067494676 -0.0044084946 0.28462148
0000d0 b7 a5 4e bd b8 d9 d7 3c 08 0a a2 3c 86 ba 2e be
       -0.050451007 0.026348934 0.019780174 -0.1706334
0000e0 62 cb 9c bc 45 0d 22 bd 93 51 01 3e b5 ab 0d bd
       -0.01913995 -0.039563436 0.12628774 -0.03458758
0000f0 e1 2d 0b bd 71 b9 82 3c 8b 4c 30 3d bb e9 45 3d
       -0.0339793 0.015957566 0.043041747 0.048318606
000100 10 2a 26 3d 2f c7 69 3d 77 f7 69 bc ba 05 d7 3d
       0.040567458 0.057074722 -0.014280192 0.10499139
000110 87 a6 be bd b0 4c db bc 8f 8b f4 3c 4d a8 26 3d
       -0.09309106 -0.026769966 0.029851703 0.040687848
000120 de aa 1b 3e e5 1e 7f bd c1 16 10 3e ee 73 91 bd
       0.152019 -0.062285323 0.1407118 -0.0710219
000130 97 89 74 3c d1 a0 18 3e 3c b5 fd 3c 8d 90 ee 3e
       0.014925382 0.14905097 0.030970208 0.46594658
000140 8a ec 35 3a e1 9c bf bd 2b 09 2d 3e 2b 46 bc 3d
       0.0006939849 -0.09356094 0.16898029 0.09193071
000150 98 a9 b6 bc 0c 64 7b 3d cd c5 22 3d c2 90 72 3c
       -0.022297665 0.06137471 0.03973942 0.014805021
000160 cc b6 6c bc 25 42 a3 3b 0d a4 b8 bb af 3d 5d 3d
       -0.014447879 0.0049822503 -0.0056347908 0.054013904
000170 4d db 95 3d 20 75 46 3d 9e 11 c7 3c 34 32 71 bd
       0.07317219 0.048451543 0.024300393 -0.058885768
000180 65 37 fa 3b b3 de ef 3d a4 07 48 3d 6c d2 69 bd
       0.007635998 0.117123984 0.04883541 -0.05708544
000190 0b dc a0 3d 56 46 32 bd 02 ab ba 3d 72 23 99 bc
       0.0785447 -0.04352411 0.091146484 -0.01869366
0001a0 50 4f 9d 3d 09 69 e6 3d e4 03 cc 3d 72 31 b3 3d
       0.07681143 0.112505026 0.099616796 0.08749665
0001b0 27 f5 9f 3d 75 01 00 3e 05 25 ae 3b d8 7c ef 3d
       0.07810431 0.12500556 0.0053144717 0.11693734
0001c0 7d 5e 8a bd 32 e1 ae bc 66 1a df bc 43 75 cb 3e
       -0.067563035 -0.021347616 -0.027234267 0.397379
0001d0 70 75 af 3b d1 a4 54 3d 15 2d 15 bd 1b 1f 3a 3e
       0.005354576 0.051914994 -0.036419947 0.18175928
0001e0 3c c0 02 bd 1f f6 37 bc 3e d7 cf 3d 64 65 b3 3c
       -0.03192161 -0.011228113 0.10148476 0.021898933
0001f0 a4 39 02 3d 5c 50 70 3d 24 85 98 3d a4 6e b6 3b
       0.03179325 0.058670387 0.074472696 0.0055673886
000200 c2 7c 85 3d 4d 0c e4 bb 18 dd 87 bb c7 4e e6 3c
       0.06517936 -0.006959474 -0.0041462295 0.028113736
000210 47 a5 f3 3d 34 a0 31 bd 2c 9c 85 3d 96 3f 47 3d
       0.118967585 -0.043365672 0.06523928 0.048644625
000220 0e 0b 0b 3d d9 be db 3d d1 5b b2 3c 68 62 d3 3c
       0.03394609 0.10729761 0.021772297 0.02580376
000230 5e 2f 16 3e b8 01 94 3d ef 5e 82 3c 44 e3 ef 3b
       0.14666507 0.0722689 0.015914408 0.0073207933
000240 cd 7c 85 3d 5b e2 79 3d ee 8c a7 3d 97 9f 01 3c
       0.065179445 0.061006885 0.08181177 0.007911584
000250 8b 25 a0 bc 65 62 18 bc fa 7c 87 3d 22 77 dd bc
       -0.019549152 -0.009300803 0.06615634 -0.027034346
000260 17 25 85 ba 0d 0f a6 3d ee cf 6f bd 63 3a 57 3d
       -0.0010158148 0.081083395 -0.058547907 0.052545916
000270 40 00 88 bd 5a 3e cf ba 43 1a cc 3d 6e 67 2b bd
       -0.06640673 -0.0015811429 0.099659465 -0.041846685
000280 5c 71 52 bd 37 f6 c9 3d 81 52 71 3d 73 86 4a 3e
       -0.05137764 0.09861415 0.058916572 0.19777851
000290 f8 a6 25 bd 7b f0 46 3c 95 d0 5f bc 49 93 64 3d
       -0.040442437 0.012142296 -0.01366057 0.055804525
0002a0 5e 73 a1 3d 9a c0 0e 3d dc e6 97 3d 69 95 a3 3d
       0.07883333 0.034851648 0.0741708 0.07987482
0002b0 34 52 8d 3d 70 f9 c7 3d 31 1b 6a bd ae 3e 29 3e
       0.069004446 0.09764373 -0.057154838 0.16527817
0002c0 03 63 e1 bb 38 b4 ac 3d 8a 3f 1d bd af 19 91 3d
       -0.006878258 0.084328115 -0.038390674 0.07084977
0002d0 4b a0 ac 3d c6 c8 24 3b 72 2c 52 bd c7 ad b1 3c
       0.08429011 0.0025144084 -0.051311918 0.021689309
0002e0 ec 79 45 3c d5 80 57 3d 87 a5 0a 3e d0 28 18 bd
       0.012052994 0.0526131 0.13539706 -0.037148297
0002f0 75 93 8e 3d 3b 32 a8 3d 0f 22 81 3c b6 1e 95 3d
       0.06961719 0.08212706 0.01576331 0.07281248
000300 d2 22 2d bd 25 e5 c4 3d 6c e5 56 3d 19 c3 04 3e
       -0.042269535 0.09614018 0.052464887 0.12965049
000310 af a1 8e 3d 1e 2b 98 3c d8 ee 1b 3d f3 17 af 3d
       0.069644324 0.018575247 0.038069576 0.0854949
000320 91 54 75 3b 2c 68 a9 3d de f1 e5 3d c5 d7 44 bd
       0.0037434439 0.08271822 0.11227773 -0.048057336
000330 a0 c3 6f 3c 98 1b 00 3e 14 4b 97 3d 59 e3 32 3d
       0.014634043 0.12510526 0.07387367 0.043673847
000340 ad 91 24 bd c9 3c 43 3d d1 b0 18 3c 7e 32 38 3d
       -0.04017799 0.04766539 0.0093195 0.044970028
000350 e0 6d 0d bc 3d b8 1c ba 4b a6 8b bc 55 61 bc 3b
       -0.008632153 -0.00059783814 -0.017047068 0.0057489076
000360 ab 22 00 bd 01 3b 17 3b 7a e4 b3 3d fa 43 8e 3d
       -0.031283062 0.002307594 0.08783813 0.06946559
000370 46 2f 8a 3d ba a6 62 bd 18 44 c0 3c 3c 2b b6 3a
       0.06747298 -0.055334784 0.02346997 0.0013898383
000380 cd 56 be 3d 36 94 a4 3d 6b 53 09 3d 71 54 f8 3d
       0.092939 0.080360815 0.03352682 0.12125481
000390 93 64 5d bd 59 18 c1 3a 1b 40 bf 3c 26 3a b6 3d
       -0.054050993 0.0014731988 0.023345998 0.0889781
0003a0 24 57 ae 3d 88 8f 14 3d 35 fc 20 3e 61 0c 04 bc
       0.085127145 0.036269695 0.1572121 -0.008059592
0003b0 dd 89 60 3d 25 d9 46 3d 06 a7 23 3c 30 8e 03 3d
       0.054818977 0.04854693 0.009988552 0.032118022
0003c0 20 a8 96 3d f7 6b f8 3d fa 34 0f bb 5d a0 3c 3c
       0.07356286 0.12129968 -0.0021851645 0.011512843
0003d0 89 ac 25 3d e6 51 9c bd 04 94 93 3d 67 81 31 3d
       0.040447745 -0.076328084 0.07205966 0.0433363
0003e0 df b0 9c 3d 68 b4 a9 bd 79 65 7a 3b 25 3d bb 3d
       0.07650923 -0.08286363 0.0038207455 0.09142522
0003f0 77 33 34 3d fc 43 ae bd 93 16 02 3e c5 30 59 bd
       0.043994393 -0.08509061 0.12703924 -0.053025026

layer4.bias f4 [290]
000000 6e 94 18 40 e9 57 9d 3d 1d 62 5e 3d 87 50 0f 3e
       2.3840594 0.07682783 0.054292787 0.13995562
000010 4e bd a1 3d af 77 f5 bb 4d 5b b7 bb c5 41 28 3c
       0.07897435 -0.007491074 -0.0055956007 0.010269587
000020 26 f7 2b 3e 5b 5d 12 bd 53 23 5b 3c ce 0c 72 3d
       0.16793498 -0.035733562 0.013375121 0.059094243
000030 96 ce 86 3d 27 07 0d 3d 40 5c 4e bd 95 6c c5 3c
       0.06582372 0.03443065 -0.050380945 0.024099628
000040 d6 3e d3 3d de 4c 6a 3d de cb 1e 3e f9 93 37 3d
       0.103147194 0.057202213 0.15507457 0.044818852
000050 96 f3 16 bf e9 fb 9e 3d ac 80 13 3d 33 c4 c1 3d
       -0.5896543 0.07762892 0.036011383 0.0946125
000060 0b e6 18 3d 11 24 93 3d 4d d0 67 bd c3 a3 16 3d
       0.03732876 0.071846135 -0.056595135 0.03677727
000070 6c 3b 80 3d 89 f9 e6 3d 79 7a 09 3d 06 84 fc bb
       0.06261334 0.11278064 0.033564065 -0.007706168
000080 d5 34 35 3e bb c1 36 bd 06 b4 9c bd 35 23 b3 bc
       0.17695935 -0.04461835 -0.07651524 -0.021867374
000090 98 61 d3 bc 55 c0 04 3e 3d af fd 3d 0f 65 af bc
       -0.025803372 0.12963994 0.1238694 -0.021410493
0000a0 cb 97 a7 3d ca 30 14 3c ce ed 84 bc 86 c6 e7 3c
       0.08183249 0.009044835 -0.016226675 0.028292906
0000b0 3a 7f 05 3e 73 dc 8a 3d e9 0b 83 bd fe 69 9a bd
       0.13036814 0.067803286 -0.06398756 -0.07539748
0000c0 3d ac 1f bd a0 a8 82 bd 2f d9 72 3b 17 0c f6 bc
       -0.03898262 -0.06379819 0.003705572 -0.030035062
0000d0 60 e4 97 3c 67 23 18 3d f6 75 06 3e 73 ca 74 3d
       0.018541515 0.037143137 0.13130936 0.059763383
0000e0 71 20 af bb cd 62 9f bd c1 24 8b 3d 3b cb e5 3d
       -0.0053444435 -0.07782517 0.067941196 0.11220404
0000f0 db fa ef bc 2b df 86 3d e0 99 d1 3c c9 0e bb 3d
       -0.029294422 0.06585535 0.025586069 0.091336794
000100 84 4f 1c bc c7 c9 84 bd 21 4b 04 3e a8 99 0f 3e
       -0.009540442 -0.064837985 0.12919284 0.14023459
000110 12 9d 5f bb e9 1b ef 3d 98 8a 80 bd a3 92 ec 3d
       -0.003412072 0.11675245 -0.06276435 0.11551406
000120 89 76 53 3d da 10 38 3d 3d e3 74 bd 66 12 8d bd
       0.051626716 0.044937946 -0.059787024 -0.06888275
000130 40 ac de bc 7e f2 b3 bd cc 3c a1 bd cc 40 b8 bc
       -0.027181745 -0.08786486 -0.07872924 -0.022491835
000140 33 82 ef 3d d4 1c 04 3e a9 b4 b1 3d 96 4d 17 3d
       0.116947554 0.12901622 0.08677036 0.036939226
000150 67 2f 03 3e 6a bf af 3d 1b b5 65 bd c9 55 f2 bc
       0.12811051 0.08581431 -0.05608092 -0.029581921
000160 67 8d 70 bd d1 87 fa bc 5e 5c 53 3c a9 93 d2 3d
       -0.0587286 -0.03058234 0.01290044 0.1028207
000170 86 c2 9e 3d 77 e7 39 3d 71 f4 9c bd ee 2b 90 3c
       0.07751946 0.045386758 -0.07663811 0.017599072
000180 5f 17 b1 bd 6e e3 05 bd f0 3c 24 bd fe 88 e9 3a
       -0.08647036 -0.032687597 -0.040097177 0.0017817316
000190 86 6b 92 3d 68 fd 0a bd e0 b4 13 3d f1 84 9e 3d
       0.07149415 -0.033933073 0.036061168 0.077402
0001a0 bd 18 00 3c 2a dc 3f 3d 23 fa 8b bd a0 d8 fa 3c
       0.007818398 0.046840824 -0.06834819 0.030620873
0001b0 97 e1 2c 3c 44 3c 90 bc 2e df b9 bd 8e 57 8a 3d
       0.010551832 -0.017606862 -0.09075771 0.06754981
0001c0 f4 0b a2 bd 7e 14 a8 bd ab 83 80 bc 35 6d 5c 3c
       -0.07912436 -0.082070336 -0.015687784 0.013453771
0001d0 c5 52 4f 3d 28 ea 8e bd 75 59 55 bc f6 09 51 3d
       0.050616045 -0.069782555 -0.0130218165 0.05103489
0001e0 da 93 22 bc 9d 1f 33 3d 28 fd f4 bb b0 1f c1 3d
       -0.009922946 0.04373132 -0.0074764676 0.09429872
0001f0 1a 24 27 3d fb 99 4c bd ba 6b b1 bd 52 52 f6 b8
       0.040805914 -0.049951535 -0.08663125 -0.000117455274
000200 c6 c8 8a bd e4 f3 c5 bc f9 dd 3b 3d a3 85 96 bd
       -0.06776576 -0.024164148 0.045865986 -0.07349708
000210 65 20 ab 3d f1 da 07 3d 1c 55 f7 3c 83 6e 94 3d
       0.08355788 0.033167783 0.03019195 0.07247641
000220 52 6e 8a 3d 3a 07 3e 3d eb d1 95 bc 83 d6 8e bd
       0.06759323 0.04639361 -0.018288573 -0.069745086
000230 73 0c 40 3d e4 4a b6 bd 2a 89 a6 bd ad a6 a1 3d
       0.046886873 -0.08901003 -0.08131631 0.07893119
000240 35 c4 31 3d 07 16 24 3d 22 5f 85 3c dd ff 66 bb
       0.04340001 0.04006007 0.016280714 -0.0035247721
000250 b8 43 83 bd 0f 3e 65 bd 3c 5e 74 bd f1 0a e7 bc
       -0.06409401 -0.055967387 -0.05966018 -0.02820346
000260 46 a3 60 3d 05 4b 6a 3d 69 ce 65 3d ef a2 85 3d
       0.05484321 0.05720045 0.05610505 0.06525218
000270 1b 6a d9 bc 45 df 7f 3d dd 41 c0 3c da 9e b9 3d
       -0.026539853 0.062468786 0.023468906 0.09063502
000280 83 0f 95 bd 24 2b 98 bd 0f b5 7d 3d f9 78 6b 3d
       -0.07278349 -0.074301034 0.06194025 0.057488415
000290 a9 25 3d bd aa 5b df 3c 29 20 28 bd 2c be aa bd
       -0.046178494 0.027265389 -0.041046295 -0.08337054
0002a0 a3 26 4e 3d 14 9c 6d bc c6 b3 71 3d 81 67 a9 bd
       0.050329816 -0.014502544 0.059009336 -0.08271695
0002b0 53 04 1c 3d 5c fe c5 3c 8b 58 82 3d e0 47 96 bd
       0.03809006 0.02416914 0.063645445 -0.07337928
0002c0 33 99 47 bb 9c 00 23 bd 93 c3 ba bd 17 38 10 bd
       -0.0030456304 -0.039795503 -0.09119334 -0.03520974
0002d0 0f 13 97 bd 3a 8f a1 bd cd 6d 03 3d 75 2b b1 3d
       -0.07376682 -0.078886464 0.032087136 0.08650867
0002e0 45 90 d0 bc 0e 79 bf 3c eb 6a a0 bd 52 8f a0 3d
       -0.025459418 0.023373153 -0.07832893 0.07839836
0002f0 2d 95 59 bd e2 5e 86 3d 8e 3d c5 bc 40 dd 56 bd
       -0.05312078 0.06561066 -0.024077203 -0.052457094
000300 9c 1e 64 3d 8a 2f b8 bc 22 5e 58 bd 48 48 27 bd
       0.055693254 -0.022483606 -0.052824147 -0.040840417
000310 c5 35 6c 3d 70 1a b3 3d cf 77 d7 bc 9b a4 81 bd
       0.057668466 0.08745277 -0.026302246 -0.06330224
000320 69 8f bd bc 0c 12 0d 3e 5f cb 5d be 59 75 8e 3d
       -0.023139672 0.13776416 -0.21659611 0.06955976
000330 41 1b 4f 3d 5e 9d d4 bc bb cd 96 bd 94 f4 13 bd
       0.0505631 -0.025953945 -0.07363459 -0.03612192
000340 53 40 08 bd aa 07 a1 bd b2 90 61 bc f3 f8 07 3e
       -0.03326447 -0.0786279 -0.013767408 0.1327856
000350 2b 39 74 3d 00 60 17 3d 0d 45 38 bc d4 1d c7 bb
       0.059624832 0.036956787 -0.011246932 -0.006076554
000360 59 48 2e bd 85 d7 9d bd 01 18 63 bd c3 26 8c 3d
       -0.042549465 -0.07707123 -0.055442814 0.06843331
000370 10 3a 30 bd 51 e4 8f 3d 77 2f 56 3d 4a d1 eb 3d
       -0.043024123 0.0702597 0.05229136 0.11514528
000380 fb 22 79 3d 1b 11 a1 3d 3c 4b b3 bc 71 5e cf 3d
       0.060824376 0.07864591 -0.02188646 0.10125435
000390 08 51 2c bd 1f 14 d4 3d 2c 66 85 3d f4 88 3a bd
       -0.042069465 0.103554 0.06513628 -0.045540765
0003a0 da 8b 2d 3d 69 d8 f4 bc 24 99 57 bd da 8e 34 3c
       0.0423697 -0.029888349 -0.05263628 0.011020387
0003b0 e5 eb 42 3d b2 f2 8a 3d 7c 6e 86 3c a7 6a bc bd
       0.047588248 0.06784572 0.016410105 -0.0920003
0003c0 61 84 da 3d fc 46 6d 3d 12 af 21 3e 27 00 81 bc
       0.106697805 0.057929024 0.1578944 -0.015747143
0003d0 ea d8 db 3c a8 9c 8f 3d ca e1 0f 3e c5 0e d3 bc
       0.026836831 0.07012302 0.14050975 -0.025763879
0003e0 f4 30 96 3d 86 c2 fe 3d 7d d9 97 3d e2 ce 6d 3d
       0.07333556 0.12439446 0.074145295 0.058058627
0003f0 2f ec 2d bd 0d 81 38 bd db 0f 11 bd 7e d9 f0 38
       -0.04246157 -0.045044947 -0.03541551 0.00011484603
