catanatron_experimental/my_DQN_wyniki2/my_DQN2_750_steps.pth (torch, 268915 bytes, 8 tensors)

layer1.weight f4 [64, 614]
00000000: 4833 893b fcc7 e63a 33ea dfbb 7dce 9f3b
00000010: a7dd d3bb 8c13 bdb9 87f2 98bb 3c5a 9a39
00000020: e3a4 2fbb 1100 94bb 4720 413b 58a1 303b
00000030: 26ae ce3b 904a 7e3b 0d73 503b 0335 11bb
00000040: 042e daba 0df9 b93b c76b d8bb 0af7 ce39
00000050: db5c 73bb c8f6 bfba fd09 35b6 a317 083b
00000060: a049 b83b 42b2 b83b be8d ae3b cd82 e03a
00000070: 35bb fdb9 0cd5 5fbb d14e 093b 0c0e 913b
00000080: 6047 32ba ad88 753a 48c9 e23a bf8c b53b
00000090: 5815 d2bb bd19 293b c778 6ab9 403a 65bb
000000a0: 35c0 18bb bc1e a13b 21aa 003a ff61 8bbb
000000b0: 1f1e 82ba b7d6 9f3b 5bf7 433b fe27 f2ba
000000c0: e85e 8639 aef1 59ba c4f2 b83b 2ec0 2eba
000000d0: a8d3 003b 126a 4c3b aeaf c5ba 2dc9 173a
000000e0: 266d e93a 01af 12bb e5a6 9b3b f444 04bb
000000f0: 4e21 463b 9d23 b33a 75df 1e38 45b5 5fbb
00000100: 771b 47bb 9334 c8bb 1136 8e3b 29d9 4b3b
00000110: 4936 3cbb fced 943a d8d5 6d3b 6d52 9c3b
00000120: 4098 ccbb bb39 cc3b bd97 cbba 5802 823b
00000130: 1889 87bb 2420 7ebb 6b3d afbb 2ad8 cdbb
00000140: 1e03 303a bb0e 563b 5267 003b 0c44 87bb
00000150: 895d afbb 9d9b bf39 6ad5 e4ba c35f bfbb
00000160: ca58 68ba 36e7 95bb 10df 5ebb 90fc 9cba
00000170: 5e8a c43a 93b2 b6ba 65de f4ba 25ad 0a3b
00000180: 9da8 ad3b 911a a939 e155 bcbb 14a4 6f3b
00000190: a2dd 193b e3a1 89bb de2e acbb fb12 6fbb
000001a0: 82af 773b f4c6 35bb 63f4 c43b cde9 523b
000001b0: 3c80 bd39 9368 0a3b 0762 8fbb 1b1a 583b
000001c0: ddee 503b 1e83 b9bb 3cc6 85bb 281d 8abb
000001d0: 54f4 90bb 4cf1 0dbb 4002 2bbb b5cf aa3b
000001e0: 8ade 1d3b e1a1 f339 a448 a3bb 5d44 b13b
000001f0: 0e95 87b8 023c 62b9 83ef de3a aef8 26bb
00000200: 241b 133b 7697 d8ba 0870 b339 5a50 843b
00000210: bee5 c33b dbc8 f9b8 9700 ca3b d3cd 7ab9
00000220: 8c74 883b e8ab 15ba 0fc4 533b 0587 72bb
00000230: 120f 9fbb 88c5 53b9 d527 a4b7 f284 5b3a
00000240: f9a3 ae3b 0e81 43bb 30bd f7ba 7cd1 a53b
00000250: b9f9 ddb9 68a1 58b9 6698 feba 6125 833b
00000260: 2c62 c63b 4134 19b7 ccef 973b 156f 0b3b
00000270: 5fd2 20bb 495b c3bb 6fcf 713b 0e49 b53a
00000280: 974d aabb ed7e 2b3b dcff 75bb 1094 0dba
00000290: fe23 8cbb 9298 a3bb 87c7 42bb f14c 203a
000002a0: 01ee 01ba a4ae c33a 1d02 9fbb 7484 c73b
000002b0: 6d58 9cbb 2437 c43b 38c7 58ba 435c 65bb
000002c0: 4b43 5fbb b064 77bb 4bdc 4b3a cd04 063b
000002d0: 0598 953a c72e 8e3b 8c6a 66bb 873b b7bb
000002e0: 3f22 5b3b e1a5 89bb 7720 293b 4912 52bb
000002f0: 9fb4 a53b 0249 8fbb 87c8 c4bb 9d1a 0b3b
00000300: c290 6cbb 1485 503b a7da a13b 0b51 b93b
00000310: b97a 30bb c2cc 5ebb 27f0 c8bb f9da aeba
00000320: a211 973b a45b 6e3b 8d1f 84bb 24d4 b13a
00000330: 55b9 113a 794f 37ba c6a5 a6bb 59cb 903b
00000340: ec49 523b 4882 b53b 3cbd 953b 3d77 873b
00000350: b91b 243b 7398 c3bb 031f 65bb 34e3 b7b9
00000360: aa2c 8b3b 4d05 65ba 7e10 56bb 0205 733b
00000370: 8e59 c23b 31c0 13ba 69f2 9abb 641c dcb9
00000380: 8f9a 8db9 45b4 75bb 4b8c e33a 7967 04bb
00000390: 4f63 85bb 2eb9 39bb b1d5 4d3b ab1a 43bb
000003a0: bc63 2bbb 12fa beba b048 27bb dd24 ce3b
000003b0: 0b4f d038 9d1c f3ba 7811 82b9 05d6 93bb
000003c0: 6825 b13b 0808 b23b c92c 213b 5ff7 f83a
000003d0: c69d 3d3b 4f92 2fbb 1c1a f03a 69b2 0ebb
000003e0: 89e5 bb3b e161 90bb 59db be3b a718 5e3a
000003f0: b28d aabb 9b37 6d3b 3988 8c3b 13cd 413b
0.0041870214 0.0017607207 -0.0068333386 0.0048769102 -0.006465632 -0.00036063453 -0.0046675834 0.000294404
-0.002680116 -0.0045166095 0.0029468702 0.0026951637 0.006307381 0.0038801767 0.0031806857 -0.0022156842
-0.0016645794 0.005675441 -0.006604645 0.0003947544 -0.0037134204 -0.001464569 -2.6976916e-06 0.0020766042
0.005624011 0.0056364844 0.0053269556 0.0017128825 -0.000483954 -0.0034154085 0.002095152 0.0044267233
-0.0006800797 0.00093663746 0.0017302418 0.00554046 -0.006411236 0.0025802695 -0.00022360972 -0.0034977347
-0.0023307924 0.004916994 0.00049081637 -0.0042536254 -0.000992719 0.004877891 0.0029902074 -0.0018475053
0.00025629182 -0.0008313906 0.0056441743 -0.000666621 0.0019657407 0.0031191153 -0.0015082264 0.00057901704
0.0017809018 -0.0022382142 0.00475012 -0.00201827 0.0030232253 0.001366723 3.7878246e-05 -0.0034135145
-0.003038136 -0.006109783 0.0043399413 0.003110478 -0.002871888 0.0011362429 0.003629079 0.004770568
-0.0062437356 0.006232468 -0.0015532892 0.0039675646 -0.004136216 -0.0038776482 -0.0053478978 -0.0062818723
0.00067143317 0.0032662589 0.0019592834 -0.004127985 -0.0053517264 0.000365463 -0.0017458622 -0.005840273
-0.0008863328 -0.0045746816 -0.0034007467 -0.0011977125 0.001499485 -0.0013938717 -0.0018682001 0.002116033
0.0052996413 0.00032253985 -0.0057475423 0.0036566304 0.002347805 -0.0042002066 -0.0052546104 -0.003647982
0.003779382 -0.0027736994 0.0060105785 0.0032182813 0.0003614443 0.002111946 -0.0043756994 0.0032974544
0.0031880655 -0.0056613823 -0.0040824693 -0.0042149015 -0.0044236574 -0.0021658717 -0.002609387 0.005212749
0.0024088942 0.0004646918 -0.0049830247 0.005409761 -6.465065e-05 -0.00021575394 0.0017008636 -0.0025477814
0.0022446597 -0.0016524631 0.0003422501 0.004037899 0.005978315 -0.000119106575 0.006164621 -0.00023918533
0.004164284 -0.0005709515 0.0032312905 -0.0037006747 -0.0048540914 -0.00020196114 -1.9568872e-05 0.00083739974
0.0053296057 -0.0029831561 -0.0018900987 0.005060373 -0.00042338463 -0.00020659494 -0.001942408 0.0040022586
0.0060541835 -9.131677e-06 0.0046367403 0.0021275927 -0.0024539453 -0.00596181 0.0036897322 0.0013830976
-0.0051972377 0.0026168183 -0.0037536537 -0.0005400786 -0.0042767515 -0.004992553 -0.0029720978 0.0006114981
-0.0004956425 0.0014929366 -0.004852547 0.0060887877 -0.0047712834 0.0059880186 -0.0008269432 -0.003499762
-0.003406721 -0.0037749223 0.00077766617 0.0020449639 0.0011413103 0.0043390724 -0.0035158722 -0.005591813
0.003343716 -0.0042006825 0.0025806704 -0.0032054356 0.005056932 -0.004372717 -0.00600535 0.002122558
-0.0036097025 0.0031817602 0.0049393955 0.005655413 -0.0026928617 -0.0033996557 -0.006132144 -0.0013340405
0.0046102563 0.003637054 -0.0040320815 0.0013567251 0.00055589277 -0.00069927383 -0.0050856797 0.004418772
0.0032087518 0.0055392124 0.0045696776 0.0041340874 0.0025040938 -0.005969101 -0.0034961111 -0.0003507376
0.0042472677 -0.00087364466 -0.0032663639 0.0037081842 0.005931086 -0.0005636244 -0.0047286046 -0.00041982823
-0.0002700877 -0.0037491482 0.0017360536 -0.0020203276 -0.0040706764 -0.0028339135 0.0031407888 -0.0029770534
-0.0026151976 -0.0014570376 -0.0025525503 0.0062910155 9.932936e-05 -0.0018547956 -0.00024808547 -0.004511597
0.0054060705 0.0054330863 0.0024593344 0.0018994621 0.0028933152 -0.0026790088 0.0018318328 -0.0021773821
0.00573415 -0.0044061993 0.005824488 0.00084723014 -0.0052048797 0.0036196474 0.0042887 0.0029571697

layer1.bias f4 [64]
00000000: 6022 853b 616a 9e39 0f90 71b9 52f3 8842
00000010: c045 e8bb 29ec 8842 e44b f1bb 03ef 8842
00000020: b493 ddbb 3cf3 8842 1feb 8842 8ff2 8842
00000030: 2e13 f5bb 1506 96bc c3e7 8842 14d8 8842
00000040: 68f0 8842 63ec 8842 7af3 8842 5b39 b93b
00000050: c7db 8842 eced 8842 4eeb 8842 9fa5 30bb
00000060: 400c 35b9 d4ef 8842 2896 75c0 2ff4 8842
00000070: 58ed ab3a 7f10 af3b bc40 aebb 1b0c 93bb
00000080: 9cee 8842 12a9 83bb 4afd 893b 0ef2 8842
00000090: 3feb 8842 45ef 8842 7fef 8842 a5eb 753a
000000a0: 9aa5 75c0 4199 a3ba 53ef 8842 20e7 75c0
000000b0: cc3c 14ba 3203 67bb 4b44 9ebb 670f 19bb
000000c0: 66ed 8842 c1eb 233b d9cf 73ba 1b4d dcbb
000000d0: b4ea 8842 48ed 8842 22ed 8842 6de8 8842
000000e0: 8e92 a63a 3c50 3dbb 76c2 abbb 2eed 8842
000000f0: 56f0 8842 84ef 8842 e8ee 8842 c8e9 8842
0.0040629357 0.00030215367 -0.00023037217 68.475235 -0.007088393 68.46125 -0.007363783 68.46682
-0.0067619924 68.47507 68.45922 68.47375 -0.007479093 -0.018313447 68.45266 68.42203
68.46954 68.46169 68.47554 0.0056525893 68.42925 68.46469 68.45958 -0.0026954187
-0.00017266069 68.468414 -3.8372898 68.47692 0.0013116999 0.0053425427 -0.0053177755 -0.004487527
68.466034 -0.0040179575 0.0042111026 68.47276 68.459465 68.46732 68.467766 0.0009381122
-3.8382325 -0.0012481586 68.46743 -3.8422318 -0.00056548114 -0.0035249707 -0.0048299185 -0.0023355128
68.46367 0.0025012346 -0.0009300686 -0.006723059 68.458405 68.46344 68.46315 68.45396
0.0012708472 -0.0028886935 -0.0052416874 68.46324 68.469406 68.467804 68.46661 68.456604

layer2.weight f4 [64, 64]
00000000: 6ead 4abb 9f3c 05ba f41a d03a ae46 393c
00000010: c7e1 0abc fe41 5b3a f015 84bc 4399 823c
00000020: 8bef bebb de65 3b3a 3e9b 76bc 35a7 2b3c
00000030: fb23 32bc cba1 543c 6da6 6339 42c3 e13b
00000040: 3f3b 3d3c 893b 353c 2963 a93a 0bb3 9e3a
00000050: 3de9 87bc d508 07bc 6f93 2d3c 2a8c 0f3c
00000060: 5637 513c 82b9 08bc 0503 283c f601 a5bc
00000070: d3cf 97bc 6a15 513b def5 5cbc ab46 9ebc
00000080: c422 50bc e2ef fc3b c2ce 34bc 416a bebb
00000090: 7c76 483c baa3 2ebc f6e5 45bc 89fe 20bc
000000a0: 1117 743c 43c6 563c 6585 933c b7e0 c43b
000000b0: 8315 bcbb 027a b43c c842 8a3c 85c6 8e3b
000000c0: 522d aabc 48d0 513c b406 53bb c412 4f3c
000000d0: 7f42 333b b99f a0bb 38c0 bfbc fd33 703a
000000e0: c8ac 02bc acc4 90bc a0aa 893c f073 693c
000000f0: b014 8dbc 0b80 6bbc 9a21 c93b 2a95 8abc
00000100: e5be 703b 5a22 e33b ea6d 90bb 3fc6 57bc
00000110: 2681 e0ba eea2 25bc c914 1cbb 41ef 38bc
00000120: 0ec9 5ebc df0d 043b 384f 623c 86b8 953c
00000130: f55f 72bb af53 783c f28a d3bb e282 713c
00000140: fafc 12bc 5e37 1a3c 79f6 febb 835b 833c
00000150: 4e48 28b9 10cd 9abc 35a4 173c b6e5 263c
00000160: 679f bcb9 44d7 e0bb f627 01bc 6431 c6bb
00000170: f354 2e3c 8379 80bc 9f75 c6bb 070d 21bc
00000180: ecdc d6bb e355 00bc dfca 143c b88d 39bc
00000190: 3234 89bc 2f50 9ebc 6d88 a3bc d987 50bb
000001a0: 1e05 60bc 5b04 71bc 274b 873c a184 853c
000001b0: f8ec 90bb ecb1 92bc 7484 18bc f0df 493b
000001c0: c0a1 1e3c 3eca cbba c664 febb f00a 8f3c
000001d0: 7b93 8b3c ea6b ca3b 71ea bcbb b6cd e6bb
000001e0: 0a68 fe3b c958 6a3a cceb a7bb b3b6 4a3c
000001f0: 1585 38bc 8730 933c 0038 2f3b 2847 833c
00000200: d868 273b 1386 613c 3853 793c 3b09 8942
00000210: c2f3 3dbd bb08 8942 e524 f7bb 5d0b 8942
00000220: 5af8 293c a30f 8942 261b 8942 000b 8942
00000230: 9df8 ecbb 3387 33bf 4c13 8942 b615 8942
00000240: c31c 8942 7a10 8942 320b 8942 9775 0b3c
00000250: 323d 8942 e70f 8942 b718 8942 69fe 4cbc
00000260: f5fe 7a3c 7e1b 8942 a8f8 06c2 e20b 8942
00000270: e8a7 9b3c 2f28 fcbb 71cb a5bb 3c45 94bb
00000280: bd21 8942 771f e6bb 17d0 4f3c 570d 8942
00000290: 5a1b 8942 2f20 8942 6a1b 8942 c54f 31bb
000002a0: 8aa6 08c2 2f35 053c e10c 8942 01ec 08c2
000002b0: 2af3 51bb ffe6 a03c 5e18 ccba 267b 56ba
000002c0: 9918 8942 b089 43bc 8732 9abc 0748 393c
000002d0: 1c1f 8942 2c18 8942 9507 8942 0d20 8942
000002e0: 0f07 84bc 26c3 71b8 7744 c1bc 7c12 8942
000002f0: 2b14 8942 0921 8942 aa16 8942 df1b 8942
00000300: 15ae 6e3c 5536 9cbc 3203 72bc 8158 02bc
00000310: a14c 333e e774 e03c 09e7 a63b 6f63 7cbc
00000320: 6f2a 5bbb b2ac d23b 0784 543c 8aea 74bc
00000330: 123b d03b 84b0 f9bb 1f0a 123c a871 843d
00000340: 5e19 603c 7dc6 89bc f9ca 563c 4598 6abc
00000350: 9578 6cbd 3da8 58bd 9f3b be39 ae24 e53b
00000360: 8719 86bc c6f4 8abc 95a8 2fbd 6682 813c
00000370: 04fe 1c3c e5dd 543c 5476 063c f068 5bbc
00000380: e105 50bd 790a 913b de25 de3b cd62 3c3c
00000390: 4cd6 c0bc ee44 dc3b 1f66 f6bb 6555 24bc
000003a0: de35 8fbc e5b8 0b3b e941 68bb e6ed e23d
000003b0: 2dbc 92bc fd0c 8e3d 6eb7 aabb 0c10 9dbc
000003c0: 082e 01bc 3a87 d3bb c327 ffbb ed92 0e3c
000003d0: 69ab 1fbd e7e6 443c 1750 f2bb 3d29 143d
000003e0: 086e 66bc 4181 7d3c 1859 5fbc 115d 61bc
000003f0: 7995 91ba d25d 3d3c 9129 7dbc be5e b7bc
-0.0030926126 -0.00050825806 0.0015877173 0.011308355 -0.008476681 0.00083640206 -0.016123742 0.015942222
-0.0058268956 0.0007148663 -0.015051661 0.010476877 -0.010872836 0.012978028 0.00021710405 0.0068897316
0.01154977 0.011061558 0.0012923229 0.0012107802 -0.016590709 -0.008241852 0.010594233 0.008761445
0.012769541 -0.00834501 0.010254626 -0.020142537 -0.018531715 0.0031903633 -0.013486354 -0.019320806
-0.012703601 0.007719026 -0.011035623 -0.0058110063 0.01223528 -0.010659153 -0.012078753 -0.009826311
0.014898078 0.013108793 0.018007943 0.0060082334 -0.005739869 0.022030834 0.016877547 0.0043571615
-0.020773564 0.012806006 -0.003220004 0.012638751 0.0027352867 -0.004901853 -0.023407087 0.00091630203
-0.007975765 -0.017671905 0.016804993 0.014248833 -0.017221779 -0.01437379 0.006138039 -0.01691683
0.0036734876 0.0069315853 -0.004407634 -0.013169824 -0.0017128333 -0.010109646 -0.00238161 -0.011287511
-0.01359774 0.002014987 0.0138128325 0.018276464 -0.0036983464 0.0151566705 -0.0064557726 0.014740678
-0.008971447 0.009412615 -0.0077808467 0.016034847 -0.00016048664 -0.01889661 0.009255459 0.010186603
-0.00035976918 -0.006861599 -0.007883063 -0.0060483683 0.010640371 -0.015682941 -0.006056502 -0.009829766
-0.0065570977 -0.007832977 0.009081571 -0.011325292 -0.016748521 -0.019325344 -0.019962514 -0.0031819253
-0.013673095 -0.014710511 0.016515328 0.016298594 -0.00442278 -0.017907105 -0.009308923 0.0030803643
0.009682119 -0.0015547944 -0.007763478 0.01746127 0.017038098 0.006177415 -0.0057652523 -0.0070435656
0.0077638673 0.00089396216 -0.0051245447 0.01237266 -0.011262198 0.017967476 0.002673626 0.01602514
0.002554467 0.013764876 0.015217595 68.51803 -0.046375044 68.51705 -0.00754224 68.522194
0.010374153 68.53054 68.553024 68.521484 -0.0072317855 -0.7012817 68.53769 68.542404
68.556175 68.53218 68.521866 0.008511922 68.61952 68.53106 68.54827 -0.012511828
0.015319576 68.553696 -33.74283 68.52321 0.019000962 -0.00769522 -0.0050596525 -0.004524855
68.565895 -0.007022794 0.01268389 68.526054 68.55342 68.56286 68.55354 -0.0027055603
-34.162636 0.008130356 68.525154 -34.230473 -0.0032035806 0.019641398 -0.0015571227 -0.00081818027
68.54804 -0.011934683 -0.018822921 0.011308677 68.56076 68.54721 68.51481 68.5626
-0.016116647 -5.7640624e-05 -0.023592217 68.5361 68.53939 68.56452 68.544266 68.554436
0.014567872 -0.019068876 -0.01477127 -0.007955671 0.175097 0.027399493 0.0050934595 -0.015404566
-0.003344204 0.0064292783 0.012970931 -0.014948497 0.006354698 -0.0076199193 0.008913546 0.06466991
0.013677923 -0.01681828 0.013109916 -0.01431853 -0.057732183 -0.05289482 0.00036284045 0.006992898
-0.016369594 -0.01696242 -0.04288538 0.01580925 0.009582046 0.012992357 0.008206923 -0.013391718
-0.050786857 0.0044262973 0.0067794165 0.011498165 -0.023539685 0.0067220842 -0.007519498 -0.010030125
-0.01748174 0.0021319923 -0.0035439676 0.11080532 -0.017911995 0.06936071 -0.005209855 -0.01917269
-0.00788451 -0.0064553292 -0.0077867224 0.008702022 -0.03898183 0.012017942 -0.0073948014 0.03617214
-0.014064319 0.015472711 -0.013632081 -0.013755099 -0.0011107168 0.011558013 -0.015451805 -0.022384044

layer2.bias f4 [64]
00000000: 6bed 51bc efe1 673c 6448 8c42 69d2 c2ba
00000010: 8045 8c42 b948 8c42 5e88 abbc 5b03 90bc
00000020: ff50 8c42 8be8 f6bb 134c 8c42 879a 78bc
00000030: fb46 8c42 711f 963c b74c 8c42 5e3f 8c42
00000040: 7445 8c42 7251 8c42 6a10 84bb bc4b 8c42
00000050: acd3 2b3c 7541 8c42 d451 913b 1c38 5cbc
00000060: 830f abbc a92c 91bc 4f38 4abc 9e40 8c42
00000070: 3bf4 9bbc c352 8c42 3d52 8c42 eaca 613c
00000080: ce61 203c f193 8ebc a649 8c42 003f 8c42
00000090: 894a 8c42 4a04 273c a3e4 64ba e101 f4ba
000000a0: 3d3e 8c42 9644 8c42 114c 8c42 51b8 8bba
000000b0: 93aa f839 3de9 7ebc d161 9abc 1348 8c42
000000c0: 37cc 8fbc 5e0b 97bc 1e48 8c42 fc7e 0a3a
000000d0: b747 8c42 0b49 8c42 9441 8c42 c648 8c42
000000e0: 1f51 8c42 6e42 8c42 71a6 00bc 834c 8c42
000000f0: ec42 8c42 c64c 8c42 7150 8c42 ed4d 8c42
-0.0128129525 0.014152988 70.14139 -0.0014863733 70.13574 70.14204 -0.020939048 -0.017579725
70.158195 -0.0075350455 70.14858 -0.015173561 70.13863 0.01832554 70.14983 70.123764
70.13565 70.15907 -0.004030277 70.14792 0.010487478 70.127846 0.0044348035 -0.013441112
-0.02088142 -0.017721491 -0.012342527 70.126205 -0.019037357 70.161644 70.16062 0.013781289
0.009788943 -0.017404528 70.143845 70.12305 70.14558 0.010193894 -0.00087315793 -0.0018616283
70.12156 70.13396 70.14857 -0.0010659789 0.00047429334 -0.015558538 -0.01884547 70.14077
-0.017553432 -0.018438037 70.140854 0.00052832044 70.14007 70.14266 70.12808 70.142136
70.15844 70.129745 -0.007852183 70.14944 70.13071 70.14995 70.15711 70.1522

layer3.weight f4 [64, 64]
00000000: de2a 1f3c 4db7 a3bc b454 b3bc f580 92bc
00000010: 99f8 483a ff94 afbc e702 a43b a5e4 e1bb
00000020: 372c 6fbb 89e4 a1bb ff89 81b8 9fdb 78bc
00000030: 97b3 9fbc f914 af3b d670 823a cee8 d0bb
00000040: 4b8c 2b3b 4809 3a3c 1c94 5a3c cf9b 9ebc
00000050: 187b 2bbc c1ee 023d e7fc 2abc 6337 ae3c
00000060: d3aa 79bc 8436 f4bb 9bf0 91bc cfc4 953c
00000070: cccc d139 9edf 7dbc eb26 c43b a58e 763c
00000080: 3578 953b 6ad3 94bc 1dc6 8abc 9dc2 c73b
00000090: 6862 e63b db8d e8bb f842 7b3c 88c3 943c
000000a0: d0d9 7a3c da93 1f3c eb1d 3a3c 635f 4bbc
000000b0: 8fb9 643c dccf d23b 427d 7ebb 3225 833c
000000c0: 24ba 56bb 4e02 423c 1a5d 093c a3f6 7ebc
000000d0: 8bdf bb3b 7264 1ebc fa47 2b3c c213 73bc
000000e0: 9375 9fbc e8b8 813c 41b2 03bc 3b3f 96bc
000000f0: 5c7b 32bc dbe4 5dbc 3798 4d3c 4558 70bc
00000100: 0cd6 61bc 8afb 6fbb 92d1 8842 b6a1 ff3d
00000110: c3d2 8842 55c6 8842 5b76 82bc 3cd9 733c
00000120: 72c5 8842 1ace 34bd 1dc5 8842 2069 64bc
00000130: d4d2 8842 14c0 11bb 7fce 8842 cad3 8842
00000140: 2ac9 8842 cac6 8842 a80e ac3c e9c9 8842
00000150: 11eb dc3b 33d2 8842 4de4 593c eace 21bc
00000160: 2085 863b 2dfa 6cbc 203f 913c 71d2 8842
00000170: 633a 1cbb 30cd 8842 edce 8842 4cc4 8f3c
00000180: 2192 82bc a68f 2e3c a0c4 8842 24d0 8842
00000190: 63ca 8842 2220 853c f1b3 803d dd1c 943d
000001a0: 68d2 8842 2ad4 8842 16d2 8842 1a43 7cbc
000001b0: 7c20 9bbb e61d 1b3c 4123 9f39 d1cf 8842
000001c0: f1d2 30bc ccee 513c 2ed5 8842 13e3 6b3c
000001d0: cdc6 8842 e3d1 8842 c9d4 8842 ced6 8842
000001e0: 36c1 8842 10ca 8842 5039 19bc 7cc3 8842
000001f0: 39cc 8842 85d3 8842 91c4 8842 87ce 8842
00000200: 3b57 74bc bbfd 373c 0ec1 0a3a 8173 35bc
00000210: 87b2 19bb 4f39 d93b 13ec 87bb b5f7 873c
00000220: d541 673c 2bef 77bc 5f50 dbbb e631 78bc
00000230: 0c3d b8bb 3508 35bc ab96 10bc 3ccd 743c
00000240: 4d92 403b feda 43bc f88f 7fba b229 0e3c
00000250: 49d3 22bb 1eb9 8fbc 28ed 173c 8bbc adbc
00000260: 38ff 54bc 5fd2 28bc b498 f03b e9e0 853c
00000270: 529d 503c b17c dfb9 db10 953a 9aa7 19b7
00000280: 94d2 96ba a421 8f3a a57e 713c 1e16 d03b
00000290: 5e53 db39 e6b9 1bbc 922c 7d3c 068a 82bc
000002a0: dc94 92bc 154a 8bbc 0191 98bc 54df 7a3c
000002b0: 8659 e0bb 8e2d 98bc ffec 89bc 98ac 9dbb
000002c0: 034e 013c 6186 93bc 308a 4a3c f4e9 2c3b
000002d0: a46c 4ebc 241f 6b3c 1219 aebc c1bc cf3b
000002e0: 5c96 ac3b 3b35 0d3b 7606 793c 0ec9 1a3c
000002f0: 482d 133c fd6e 703b 8741 41bc e181 abbc
00000300: 857e 1bbc 422a 93bc 99b2 8842 fff4 e13d
00000310: b9b3 8842 e3ab 8842 be4a 42bc 8f33 5f3b
00000320: e3ad 8842 9781 fa3d 03bf 8842 dd14 10bc
00000330: 6ab5 8842 8903 f3b8 20b1 8842 94b1 8842
00000340: 9cae 8842 90b8 8842 fe1f 0fbb 1fb3 8842
00000350: b8e7 3a3c 8cab 8842 dfa7 3fbc 235a 8c3c
00000360: e880 c9ba 9aa4 4d3c a1cd a03b b4b0 8842
00000370: b5a0 b53b 75b0 8842 d0b5 8842 ca62 553b
00000380: db0b ecbb 649d 153c 7fb7 8842 20b1 8842
00000390: cfa7 8842 e14b 8f3c 542d 4c3e 7f2f b73d
000003a0: 64a6 8842 49af 8842 9db6 8842 261e 0abc
000003b0: 2852 8abc 30ba 073c d6c6 813c 8fb5 8842
000003c0: 94b6 9ebc 8b77 5b3b 21b4 8842 ccd6 92bb
000003d0: 77b1 8842 bea5 8842 81b3 8842 44a8 8842
000003e0: 9dab 8842 2aa9 8842 350f 3bbc e4b5 8842
000003f0: b7af 8842 01ae 8842 9eb3 8842 fcb5 8842
0.00971481 -0.019984866 -0.021890976 -0.017883757 0.00076664385 -0.021433352 0.005005229 -0.0068937116
-0.003649486 -0.0049405736 -6.176903e-05 -0.0151890805 -0.019494815 0.0053430763 0.0009951841 -0.0063754087
0.002617615 0.011354752 0.013340976 -0.019361405 -0.01046636 0.031965975 -0.010436273 0.021266645
-0.015238482 -0.007452788 -0.017814925 0.018282322 0.00040016172 -0.015495209 0.0059860847 0.015048658
0.004561449 -0.018167216 -0.01694017 0.0060961978 0.007030774 -0.0070969886 0.015335791 0.018159643
0.01531072 0.00973984 0.011359672 -0.012412879 0.013960256 0.00643347 -0.0038831984 0.016008947
-0.0032764757 0.01184137 0.008384014 -0.015561732 0.0057334355 -0.009667503 0.010454172 -0.014836254
-0.019465243 0.01583524 -0.0080381045 -0.018340698 -0.010893669 -0.013543333 0.012548498 -0.014669483
-0.013783943 -0.0036618435 68.40932 0.12482016 68.411644 68.38737 -0.015925577 0.014883336
68.385635 -0.044141866 68.38499 -0.013941079 68.41177 -0.0022239732 68.40331 68.41365
68.3929 68.38826 0.021003082 68.394356 0.0067418893 68.410545 0.01329906 -0.009875992
0.004105225 -0.014463943 0.017730296 68.41102 -0.0023838512 68.40076 68.40415 0.017549656
-0.01593882 0.010654366 68.38403 68.406525 68.39529 0.016250674 0.06284321 0.07232068
68.41095 68.41438 68.410324 -0.015396858 -0.004734097 0.009467578 0.0003035311 68.40589
-0.01079248 0.012813281 68.41637 0.0143974 68.38828 68.409935 68.415596 68.41954
68.377365 68.39465 -0.009352043 68.381805 68.39887 68.413124 68.38392 68.40337
-0.0149133755 0.011229928 0.00052930496 -0.011074902 -0.0023452358 0.006629146 -0.0041480153 0.016597608
0.014114817 -0.015132706 -0.0066929306 -0.015148615 -0.0056225117 -0.01104932 -0.008824985 0.01494151
0.0029384077 -0.011954067 -0.0009748931 0.008676933 -0.0024845174 -0.017544325 0.009272851 -0.021208068
-0.013000302 -0.010304063 0.0073424224 0.016342597 0.012732821 -0.00042626777 0.0011372821 -9.158533e-06
-0.0011506849 0.001092006 0.014739667 0.006350293 0.00041833048 -0.009504771 0.015452521 -0.015934955
-0.017893247 -0.017003099 -0.01862383 0.015312035 -0.0068466095 -0.01857641 -0.016836641 -0.0048118345
0.007892135 -0.018008413 0.012362048 0.0026384564 -0.012599144 0.014350686 -0.021252189 0.00633964
0.0052669477 0.002154662 0.015199294 0.009447349 0.008982964 0.0036687248 -0.011795408 -0.020935955
-0.009490614 -0.017964486 68.34882 0.110330574 68.35102 68.33572 -0.01185864 0.003405783
68.33962 0.122317486 68.37307 -0.008794037 68.354324 -0.000115878014 68.34595 68.34683
68.341034 68.36047 -0.0021839137 68.349846 0.011407785 68.33505 -0.011697738 0.017132824
-0.00153735 0.012551451 0.0049073254 68.34512 0.0055428394 68.34464 68.3551 0.0032560104
-0.0072035617 0.009131763 68.35839 68.34595 68.32775 0.017492237 0.19939166 0.08944606
68.32498 68.342354 68.35667 -0.0084300395 -0.016884878 0.008284137 0.015841883 68.35461
-0.01937417 0.0033488001 68.351814 -0.004481172 68.34661 68.323715 68.35059 68.32864
68.33518 68.3304 -0.0114172 68.355255 68.34319 68.33985 68.350815 68.35544

layer3.bias f4 [64]
00000000: 3a34 88ba 18ca 8642 fbc3 0ebc 01eb 8642
00000010: 9d65 8642 a284 56bc 9c65 a0ba 896a 8642
00000020: 5194 8642 8c1e 8642 def2 08bc 58b8 6bbc
00000030: e054 8642 0909 8742 7a6e 9bbb 347b 583c
00000040: 7af1 94bc 1cde 8642 2b1d 8742 b7f1 8642
00000050: 234d 62bc c1ae 9f3b 4352 123b 7169 0a3c
00000060: 8730 253c ba76 8642 3fc1 2dba f501 dc3a
00000070: bc8b c73b 25ed 223c 8cfc 8642 83aa bf39
00000080: 2387 a0bc 92db 8642 0bf9 a53b 47ce 8542
00000090: bd07 ec3b 9369 943c a643 a73b ad8e 61bc
000000a0: dcee 3b3b 4b75 8642 0cfd 8642 a9bc 8642
000000b0: 3121 8ebb 5045 323b 0c5f 0fb9 c107 8742
000000c0: 42c9 8839 46e4 8642 e2f6 96bc a5cd 873c
000000d0: b467 dfbb 1530 8dbc e83b 95bc aa38 8ebc
000000e0: 69c6 9c3c 423f 5ebc 1c08 8742 b4d0 86bc
000000f0: 4656 713b 97e5 213c fac6 8642 0314 52bb
-0.0010391541 67.394714 -0.008713718 67.45899 67.19846 -0.013093146 -0.0012237313 67.20808
67.28968 67.05966 -0.008358685 -0.014387213 67.16577 67.51765 -0.0047433944 0.013212968
-0.018181551 67.43381 67.55697 67.4721 -0.013812336 0.004873127 0.0022326864 0.008447991
0.010082371 67.23189 -0.0006628222 0.0016785251 0.0060896557 0.009944235 67.493256 0.000365574
-0.019595688 67.42885 0.0050650886 66.902885 0.007203071 0.018116748 0.0051045 -0.013766927
0.0028676307 67.22909 67.49423 67.36848 -0.004337453 0.0027201958 -0.0001367295 67.515144
0.0002608989 67.44585 -0.01842827 0.016577551 -0.0068177823 -0.017234841 -0.018217042 -0.017361004
0.019137578 -0.0135648865 67.51584 -0.01645694 0.0036825105 0.009881399 67.388626 -0.0032055385

layer4.weight f4 [290, 64]
00000000: abb3 81bb 5617 6d42 f552 e0bb bd11 6d42
00000010: f703 6d42 f412 00bc d47b a4bc db0b 6d42
00000020: c607 6d42 4d02 6d42 c0ed 633a e754 3b3c
00000030: 9d04 6d42 cb20 6d42 0a54 b636 2d3c dc3d
00000040: cdb6 bab9 070c 6d42 061d 6d42 d415 6d42
00000050: 8774 9cbb aa55 8c3c fb52 9b3c ea53 7c3c
00000060: 58d8 1c3a 2708 6d42 607b 153c 69b3 afba
00000070: d006 123c b755 87bc 0215 6d42 8de5 bebb
00000080: b8f0 823c ca14 6d42 b67d 973c aafc 6c42
00000090: 6a7f 813c 8627 963c 5840 e2bc c4d1 2dbc
000000a0: 8c78 963c 3005 6d42 e520 6d42 9011 6d42
000000b0: fafb fabb ff0a 6ebd 421a 96bc 6a18 6d42
000000c0: 7522 09bc d112 6d42 f15e 76ba 3f85 783d
000000d0: cf38 30bc 7912 b83b 0a30 8a3b 7c00 15bd
000000e0: bcb8 85bb cb32 0abc dd1f 6d42 fc98 f1bb
000000f0: 885a edbb 7fef 5e3b 680d 6d42 82c5 283c
00000100: 4ab4 0d3c 2feb b63e 9987 47bb 39eb bb3e
00000110: 7fde a73e 5704 bbbb ea8a d03b 6fde b43e
00000120: 87e4 c13e 80f7 ab3e 6bbd f53c b30e 78bc
00000130: a70b b33e 69d3 c03e ce5c d83b b572 cb3d
00000140: 0025 1b39 cdfe a63e adf9 c23e f9af ba3e
00000150: a8c4 9bbb c061 563c a5cf 0a3c 25dc 4e3b
00000160: 78dd 49bb c726 b23e 0477 9dba b7ab 3c3c
00000170: a990 7f3c 003d 293c 0609 b33e 06b0 4dbc
00000180: b860 d53a 679f bd3e 0096 2a3c 2d06 b03e
00000190: 592f 893c 0e06 18bc 3330 9f3c a499 82bb
000001a0: 5e28 863c aed9 bd3e 4967 bb3e 2add b93e
000001b0: 0668 883c 2252 da3c d87f 943a 6944 bd3e
000001c0: c1f8 6bbc 2b74 ae3e 6542 bebb e280 ad3d
000001d0: 54a1 953a 9b56 353c 0268 febb 98b9 1e3d
000001e0: 2afb debb 46e0 1cbb 16a4 bb3e 7efb 983b
000001f0: d213 de3b 33ee 4c3c fc8c b83e db92 9b3a
00000200: e5a5 633c 8595 d53e cfb7 67ba ec62 d93e
00000210: e7f3 e33e 5a7a 17bc 36db 633c 49a7 db3e
00000220: e7f8 d93e b347 e53e 1f18 983b dd42 b43b
00000230: af44 e63e 0332 de3e ee53 5e3b bd91 cc3a
00000240: 00a6 633c 6cf0 dc3e a140 df3e a637 d73e
00000250: 3992 88bb 13f7 01bb c511 673c 9ddc bcbb
00000260: 2311 63b9 262c df3e 5e81 4cbc 338b 373c
00000270: 86f4 67bc 84b9 b0b9 9f31 e13e 992c 12bc
00000280: e876 33bc 5814 e13e eecb 4d3c ec38 fd3e
00000290: 6044 0dbc bda6 293b 15de 3ebb cbed 423c
000002a0: faaf 893c b405 da3e 8e74 de3e bf10 df3e
000002b0: 1702 713c d489 aa3c c2a5 47bc 1d67 e83e
000002c0: f935 c0ba fa8e df3e 061b 06bc c375 773c
000002d0: c538 933c b586 0c3a 953c 33bc c385 973b
000002e0: 2167 283b fdc6 373c e510 e53e 4bc5 01bc
000002f0: 7825 733c 5570 8f3c 890b d83e 8e4f 7e3c
00000300: 6ea6 13bc 7bce c23e 0d43 373c 8e3d c63e
00000310: 9c0e c13e 4ac7 813b 35fb 043c 776a c13e
00000320: ab49 b93e f9a7 c23e ee18 c43c 64de 27bc
00000330: ddb4 ba3e 89cc c53e 8605 813c 328b 183c
00000340: a857 0cbc 2f09 be3e ec34 b93e 183a bd3e
00000350: bb30 f1ba 88a8 05b9 e529 6ebb b1a4 a03a
00000360: 2c8a dabb 8a77 b93e 4269 993c 379d 723c
00000370: 36a8 6b3c 9e47 41bc 24a8 ba3e f159 9b39
00000380: 2d52 a23c c72e c13e 2731 ea3b 051e c83e
00000390: d5cc 3cbc e1aa a439 c018 a33b 8c66 9b3c
000003a0: f9aa 943c a029 bd3e a64c c93e 5535 b73e
000003b0: 6c7c 3f3c bd92 293c 178f 0b3b 67b5 bb3e
000003c0: 9878 803c 09a9 c53e 623a f4b9 7fdb 203b
000003d0: 2249 0d3c 3c51 85bc f9af 7b3c 7260 173c
000003e0: 4ea2 853c b8b7 90bc 519d b83e 19ac 9f3c
000003f0: 77ad 193c 7f9a 94bc 43f1 c53e 9237 39bc
-0.0039581857 59.27279 -0.0068458267 59.267323 59.253872 -0.007817019 -0.020078577 59.261578
59.25759 59.252247 0.00086947903 0.0114338165 59.254505 59.282024 5.433806e-06 0.10753665
-0.00035612882 59.261745 59.278343 59.271317 -0.0047746333 0.017130692 0.018960467 0.015400866
0.00059831655 59.25796 0.009123653 -0.0013404909 0.008912757 -0.016520364 59.270515 -0.0058257044
0.015983924 59.2703 0.01849256 59.246742 0.015807826 0.018329393 -0.027618572 -0.010609094
0.018368028 59.255066 59.282124 59.26715 -0.0076594325 -0.058115955 -0.018323068 59.27384
-0.008370032 59.268375 -0.00093983026 0.06067395 -0.010755732 0.0056174365 0.0042171525 -0.036377415
-0.00408086 -0.008434962 59.281116 -0.0073729735 -0.007243458 0.0034017263 59.263092 0.010300996
0.008648941 0.35726306 -0.0030445813 0.36702898 0.3278694 -0.0057073045 0.006364216 0.35325953
0.37869665 0.33587265 0.029997548 -0.015140223 0.34969828 0.37661293 0.00660286 0.09933988
0.00014795735 0.32616273 0.38081113 0.3646238 -0.004753668 0.013084829 0.008472358 0.0031564322
-0.0030802172 0.3479521 -0.0012013619 0.011515549 0.0155984545 0.010329485 0.34967822 -0.012554174
0.0016279435 0.37035677 0.010411739 0.34379712 0.01674621 -0.009278787 0.019432163 -0.0039856005
0.01637667 0.3708014 0.36602238 0.36301547 0.016651165 0.026650492 0.0011329604 0.36966255
-0.014402569 0.34073004 -0.0058062547 0.08471848 0.0011415877 0.011068012 -0.0077638635 0.038751215
-0.0068048434 -0.0023937388 0.36648625 0.004668652 0.006777265 0.012507963 0.36045063 0.0011869328
0.013894533 0.41715637 -0.00088393403 0.42458284 0.4452202 -0.0092454795 0.013907244 0.42901066
0.4257271 0.44781265 0.0046415473 0.005501135 0.44974276 0.4339753 0.0033924538 0.0015607398
0.013894558 0.43152177 0.43603995 0.42034644 -0.0041678217 -0.0019831106 0.014103358 -0.005763604
-0.00021654791 0.4358837 -0.012482015 0.011202621 -0.01415742 -0.00033707556 0.4398317 -0.008921766
-0.010953642 0.43960834 0.012560828 0.4945749 -0.008622259 0.0025886737 -0.002912407 0.011897515
0.016807545 0.42582476 0.434483 0.43567464 0.014709971 0.020817675 -0.012185516 0.4539117
-0.0014664523 0.4366377 -0.008185154 0.01510376 0.017971406 0.0005360649 -0.010939737 0.0046241
0.0025696235 0.011216876 0.44739452 -0.007920573 0.014840476 0.017509619 0.421963 0.015521897
-0.009011848 0.38048157 0.01118542 0.38718837 0.3770646 0.0039605247 0.008116533 0.3777654
0.36189017 0.38018778 0.023937669 -0.010245893 0.36466113 0.3863261 0.015749704 0.0093105305
-0.008565821 0.37116382 0.3617319 0.36958385 -0.0018401364 -0.00012746651 -0.003634089 0.0012256113
-0.0066693034 0.36224014 0.018726949 0.014807991 0.014383366 -0.01179686 0.36456406 0.00029630915
0.019814575 0.37731 0.0071469727 0.39085403 -0.011523445 0.00031407832 0.0049773157 0.018969797
0.018147932 0.3694582 0.3931629 0.35782877 0.011687379 0.010349927 0.0021295005 0.36661837
0.015682504 0.38605526 -0.00046582805 0.0024544892 0.008623393 -0.016274087 0.015361779 0.009239303
0.016312744 -0.017665729 0.36057523 0.019491242 0.009379736 -0.018140076 0.3866063 -0.011304753

layer4.bias f4 [290]
00000000: 0082 4c42 a53a 813e a2e4 c03e 886a 983e
00000010: a5f7 873f ff43 1d3e fa40 823e ba23 af3e
00000020: 2bfb 4942 8845 4142 a74a b83e 2e8a bd3e
00000030: a96c 303e da1f 403f 609b 353e ce35 9f3e
00000040: d8a7 503e 4653 c33e 3dc3 cf3f eebf 073f
00000050: 196c 4d42 081b 173e 3614 3e3c ed85 cc3c
00000060: f165 023c 2def 7a3c 8e91 fd3d ba7f 3f3c
00000070: 4b77 533e f17c 8c40 c0aa 1e3e 1ce6 373e
00000080: bc13 543e 05d9 1bbc f7a4 85bc 57c2 98bb
00000090: 2d42 b4bb 2d66 e23c 45a4 163d 2b8f de3d
000000a0: 621c 003e aedc a73d b786 d73d 5125 df3d
000000b0: 716a 083e a3cf 6c3c 377d 5fbc a1ac 83bc
000000c0: 7628 08bc fc77 a53f 54f9 0c3f c2d3 d1bb
000000d0: 5bd4 a841 dfe4 ff3e 5b0d b23e 48b3 7b3c
000000e0: 3258 95ba 16ea 87bc fc16 803c 4a56 dd3e
000000f0: bda5 ccbb 3801 663c 8fc0 b23b cb84 9f3c
00000100: 2c4f 05bb 2c76 62bc 3f9f e13c 033b 523d
00000110: 0b90 803d d9a8 b23d 8b39 5bbc 8802 b13d
00000120: ad93 bd3d 71f7 1c3c 74d5 50bc 8896 70bc
00000130: 4be4 bdbb 5b75 99bc 9781 89bc 0221 9dbb
00000140: 2aba 1e3d 3435 5c3d 918b 973c 091c a53e
00000150: 5339 b941 83e6 393f d216 2dbc 00aa cebb
00000160: f221 4dbc 6c54 cd3e c43d 343b f093 b33c
00000170: 7762 873c de1b 593b 7adb 85bc e4e1 753b
00000180: 4a07 97bc 2254 e4bb 850e 0cbc d229 c739
00000190: 36b2 793c d607 edbb 8ce8 fb3b b320 ec3d
000001a0: 6d79 da3a 4924 8240 67bb 6ebc 89ea d53b
000001b0: cd6f 133b f4a8 413e 6283 9ebc 7395 a341
000001c0: ac31 8abc f456 8fbc dc2d 5bbb 1cfa 3b3b
000001d0: e9ca 303c 1aba 73bc dcf2 35bb d445 323c
000001e0: 32a5 0abb 5e5f 0d3d 7aeb d0ba 8735 b43d
000001f0: bd89 0e3c 3a2f ca3d 394e 97bc a50f d2b7
00000200: 13ae 6cbc 36ce a8bb 7634 203c c35a 80bc
00000210: b8ef 913c 14b4 e73b 3dec d23b e726 7d3c
00000220: ed14 9a3c 750e 223c ae80 7fbb 6e98 73bc
00000230: 1f99 b941 ab74 9bbc 7905 8ebc ee79 d53e
00000240: a098 173c 71ed 0b3c a573 633b 49fc 44ba
00000250: 21dd 5fbc 3280 43bc 6464 50bc a205 c5bb
00000260: 2192 3f3c 29ce 473c 0efb 433c afe6 633c
00000270: 4369 b9bb a333 5a3c 1df4 a33b 28c2 983d
00000280: ab35 7ebc 51c7 81bc aa5c 583c 4acd 483c
00000290: 7b4e 21bc e44f 2e3f e760 0fbc 859b 91bc
000002a0: b0cd 2f3c 20a3 4abb 0220 4e3c d275 90bc
000002b0: de0d 053c 33d7 a83b ed48 5e3c 5b25 80bc
000002c0: 5637 2aba a501 0bbc 0545 9fbc 15f7 f5bb
000002d0: 13d5 80bc aac7 89bc 7925 e03b 2c18 973c
000002e0: d1dc b1bb 3349 a33b b1ce 88bc 23ee 883c
000002f0: ef8d 39bc a525 653c 9c34 a8bb 1d3c 37bc
00000300: cc89 423c 0a12 9dbb 9662 813f a0a8 0ebc
00000310: 3c6e 493c c5ba 983c 54bf b7bb 7115 5dbc
00000320: 7ba8 a1bb 883f 683e 0c94 0e3d ddf1 723c
00000330: e99b 303c 6445 8b3c 2199 80bc 4256 fcbb
00000340: 9561 e8bb 6e54 89bc dc5c 40bb efe7 e73c
00000350: de44 503c a117 013c ae24 1dbb 247a 1e3c
00000360: 419e 14bc 9f9b 86bc b3a8 41bc d708 6f3c
00000370: 814a 16bc f866 753c 8ca8 363c e5da c73c
00000380: fc75 543c e3ba 9c3c eae4 98bb e833 d53d
00000390: d5f4 12bc 319c a43d 720f 263e 1852 9c3d
000003a0: 1693 c23d 4806 043c 9e77 d6bb 4c6d bc3c
000003b0: 863e 8e3e 459d 613e ff52 2b3e 78e7 d23d
000003c0: 39f1 a93d c9e9 a53d 0106 143e deeb 133e
000003d0: 19f2 1e3e fdab a23c 6f23 a63d 3165 f53d
000003e0: 4b2e 9b3d 74bb f03d bf0b cc3d 6789 ec3d
000003f0: 7fb0 cc3e ec1e c83d 808e 7b3d 9747 ee3d
51.126953 0.25240055 0.37674433 0.29768777 1.062245 0.1535797 0.25440198 0.34206945
50.49528 48.3179 0.35994455 0.37019485 0.1722895 0.750486 0.17735052 0.31095737
0.20376527 0.3814947 1.6231457 0.53027236 51.355564 0.14756405 0.011601498 0.024966205
0.007958875 0.015315813 0.12381278 0.011688167 0.20650975 4.3902516 0.15494823 0.17958874
0.20710653 -0.009512191 -0.016314013 -0.004661839 -0.005501053 0.027636612 0.036777753 0.10867151
0.12510827 0.08196388 0.10523742 0.108957894 0.13321854 0.014453801 -0.013640693 -0.016073527
-0.008310428 1.2927241 0.55067945 -0.0064034173 21.10369 0.49979302 0.34775814 0.015362568
-0.0011394082 -0.016591113 0.01563596 0.43229896 -0.0062453435 0.0140383765 0.0054550837 0.0194725
-0.002034138 -0.01382212 0.027541755 0.05132581 0.06277474 0.087236114 -0.0133804185 0.08643061
0.092566825 0.009580479 -0.012746204 -0.014684327 -0.005795037 -0.018732717 -0.016785426 -0.0047951946
0.03875176 0.053761676 0.018499168 0.32247952 23.15299 0.7261736 -0.010564523 -0.0063068867
-0.0125203 0.4010347 0.0027502635 0.021921128 0.016526444 0.0033128182 -0.016340006 0.0037518675
-0.018436093 -0.006968037 -0.008548384 0.00037987396 0.015240243 -0.0072336 0.007687634 0.115296744
0.0016668268 4.0669293 -0.014571047 0.006528203 0.0022497058 0.18912107 -0.019349758 20.447973
-0.016869389 -0.017497517 -0.0033444082 0.0028683012 0.010790565 -0.014875913 -0.0027763164 0.010880906
-0.0021155593 0.034514777 -0.0015939318 0.08799272 0.008699832 0.09872289 -0.018469917 -2.5041236e-05
-0.014445799 -0.0051515354 0.009778133 -0.015668279 0.017814502 0.0070710275 0.006436853 0.01545117
0.018808806 0.009891142 -0.0038986611 -0.014867885 23.199766 -0.01897653 -0.017336594 0.41694587
0.009252697 0.008540497 0.003470638 -0.00075144 -0.013663561 -0.01193242 -0.0127192475 -0.0060126344
0.011692555 0.0121951485 0.011961712 0.01390998 -0.0056583 0.013317975 0.005003466 0.07458907
-0.015515725 -0.015842112 0.013205687 0.012255976 -0.009845371 0.68090653 -0.008751131 -0.017774353
0.010730192 -0.0030919984 0.012580873 -0.017634306 0.008120982 0.005152607 0.013567192 -0.015642812
-0.0006493231 -0.008484279 -0.01944209 -0.007506261 -0.015726602 -0.01681884 0.0068404046 0.018444143
-0.0054279347 0.0049830913 -0.01670012 0.016715115 -0.0113253435 0.013986026 -0.0051332247 -0.011183766
0.011873674 -0.00479341 1.0108211 -0.0087071955 0.012294348 0.018643746 -0.005607525 -0.013493882
-0.0049334145 0.22680485 0.034809157 0.0148281725 0.010779359 0.017000861 -0.015698018 -0.0077007124
-0.007091711 -0.016763892 -0.0029352224 0.028308837 0.012711732 0.007879169 -0.0023978162 0.009672675
-0.009070934 -0.016431628 -0.011820006 0.01458951 -0.009173037 0.014978163 0.011148583 0.02439637
0.012967583 0.019132083 -0.0046659606 0.10410291 -0.008969505 0.08037604 0.1621683 0.07632846
0.09500711 0.008058138 -0.006545021 0.023001336 0.27782077 0.2203265 0.16730879 0.102980554
0.08297963 0.081012316 0.14455415 0.14445445 0.1552204 0.019857401 0.08112227 0.11982191
0.07577189 0.11754504 0.09963178 0.11549645 0.39978406 0.09771523 0.061415195 0.116347484
