catanatron_experimental/my_DQN_wyniki2/my_DQN2_600_steps.pth (torch, 268915 bytes, 8 tensors)

layer1.weight f4 [64, 614]
00000000: 5d5e d73b cd24 353b 2ec2 2fbc 7adb fa3b
00000010: ce4d 26bc 2469 14ba 2318 f0bb c948 f239
00000020: c7df 89bb ea54 e8bb d598 973b 65a7 8a3b
00000030: d53b 223c b39b c73b 0d9f a33b 4bf0 63bb
00000040: ee42 2bbb 40fb 113c 13e1 29bc 0075 223a
00000050: cc06 bfbb 18af 16bb 471d 8eb6 d0a3 553b
00000060: f0a6 103c a4fa 103c 1203 093c 7b39 303b
00000070: 6f2b 47ba a3b1 afbb 4989 573b abb3 e33b
00000080: 1dee 8bba 2eba c03a a803 323b fa82 0e3c
00000090: 06e6 24bc 38bc 843b d40b b8b9 b4ee b3bb
000000a0: 02ca 6fbb c9eb fc3b aff8 493a f2cb dabb
000000b0: ea3d ccba 8ee8 fa3b 02d3 993b d914 3ebb
000000c0: d5eb d239 0014 abba fc2d 113c f22a 89ba
000000d0: 9439 4a3b 1872 a03b 172d 1bbb 1144 6e3a
000000e0: 693b 373b 3e3f 66bb 0a56 f43b 51a4 4fbb
000000f0: 3685 9b3b 5a9b 0c3b ac61 7938 ce98 afbb
00000100: 3547 9cbb d525 1dbc b53a df3b 1101 a03b
00000110: ddbb 93bb 7bc7 e93a 89b1 ba3b e264 f53b
00000120: a196 20bc 654c 203c 0ace 1fbb 8212 cc3b
00000130: b8c1 d4bb b57a c7bb f88d 09bc 0094 21bc
00000140: 492a 8a3a 6f05 a83b 4a90 493b e754 d4bb
00000150: 5fa7 09bc 5367 163a 7b9f 33bb 3538 16bc
00000160: 3961 b6ba 2b4e ebbb 54f1 aebb 616e f6ba
00000170: 6647 1a3b 8267 0fbb cd34 40bb b6ac 593b
00000180: e44d 083c dfbc 043a 98d4 13bc ec19 bc3b
00000190: 2a85 713b c90a d8bb 3f28 07bc cda8 bbbb
000001a0: 196b c23b 40b0 8ebb 549b 1a3c 898d a53b
000001b0: b4be 143a 8140 593b 0f12 e1bb 5ba0 a93b
000001c0: 2800 a43b f39e 11bc 41fb d1bb efca d8bb
000001d0: af8b e3bb a0ce 5ebb 0e3c 86bb 5614 063c
000001e0: d9cf 773b db3c 3f3a 9328 00bc fa25 0b3c
000001f0: 8dd4 d4b8 a994 b1b9 30fe 2e3b ce0f 83bb
00000200: 75ea 663b b103 2abb 22d8 0c3a f3b5 cf3b
00000210: 11c5 193c ee11 44b9 7690 1e3c 57dc c4b9
00000220: 0c35 d63b 32f1 6aba a039 a63b 495f bebb
00000230: 28ac f9bb ca3a a6b9 1fdb 00b8 a84d ac3a
00000240: a514 093c 5b75 99bb db75 42bb 6a29 023c
00000250: 063e 2eba 930b aab9 3ad8 47bb 8ddc cd3b
00000260: 82b7 1b3c 307e 70b7 a681 ee3b b9e0 5a3b
00000270: 7175 7cbb 7557 19bc 79cf bd3b 524e 0e3b
00000280: 19ae 05bc 019e 863b 6e17 c1bb 213c 5eba
00000290: 1300 dcbb 8368 00bc 7ae2 98bb 82a4 7b3a
000002a0: bff2 4bba 7399 193b e397 f9bb a699 1c3c
000002b0: 5a6e f5bb 8305 1a3c 8c29 aaba 6c09 b4bb
000002c0: b03f afbb 3730 c2bb 8303 a03a da5d 523b
000002d0: 0bd2 ea3a 3d2f df3b 0cdb b4bb 07d2 0fbc
000002e0: e400 ac3b 0111 d8bb 81c1 843b 9ce3 a4bb
000002f0: e312 023c beea e0bb 9a78 1abc 935a 5a3b
00000300: 21b0 b9bb 30ad a33b 720f fe3b c477 113c
00000310: de88 8abb 02e3 aebb 21bb 1dbc 2140 09bb
00000320: f621 ed3b da19 bb3b 836a cfbb 1495 0b3b
00000330: 1fbe 643a 8be1 8fba 1ccf 02bc ea4b e33b
00000340: 7b0f a53b d67a 0e3c 5c0c eb3b 90a5 d43b
00000350: 6fd1 803b e087 19bc 4cd9 b3bb 0055 10ba
00000360: 3d77 da3b 18c5 b3ba cc06 a8bb fac1 be3b
00000370: 6b8b 183c c8ef 67ba 1739 f3bb d8c3 2cba
00000380: 5346 deb9 54dc c0bb e09c 323b abd9 4fbb
00000390: 645f d1bb 44c9 91bb 1192 a13b 4c24 99bb
000003a0: a688 86bb 26e8 15bb 414e 83bb 28d0 213c
000003b0: cf82 2339 7ad4 3ebb 242a ccb9 5812 e8bb
000003c0: 0d0e 0b3c 2dbd 0b3c 9001 7d3b 126d 433b
000003d0: f6d5 943b 18d1 89bb f175 3c3b 18fe 5fbb
000003e0: aa7c 133c daa7 e2bb f8cf 153c 3456 ae3a
000003f0: 7ae0 05bc 7434 ba3b 499b dc3b 071e 983b
0.0065725283 0.0027640343 -0.010727448 0.007655558 -0.010150386 -0.0005661419 -0.007327096 0.00046212066
-0.0042075845 -0.0070902007 0.0046263733 0.0042313808 0.00990196 0.006091559 0.0049933256 -0.0034780677
-0.0026132422 0.00891 -0.010368603 0.0006197244 -0.0058296677 -0.0022992548 -4.235338e-06 0.003259886
0.0088288635 0.00884882 0.008362548 0.002688973 -0.00075977197 -0.005361752 0.0032888225 0.0069489083
-0.0010675822 0.0014703923 0.0027162824 0.008698219 -0.0100646075 0.0040507577 -0.00035104027 -0.005491102
-0.0036588912 0.0077185375 0.0007704598 -0.006677144 -0.0015582417 0.007657117 0.0046943435 -0.0029004125
0.0004023003 -0.0013052225 0.008861061 -0.0010465069 0.0030857073 0.0048964135 -0.0023677999 0.0009089122
0.0027958995 -0.003513291 0.0074565457 -0.0031683634 0.0047461046 0.0021454901 5.945719e-05 -0.005358792
-0.0047692307 -0.009591539 0.0068124183 0.0048829396 -0.004508479 0.0017835939 0.0056974334 0.007488833
-0.009801538 0.009783839 -0.0024384283 0.0062277922 -0.0064928196 -0.006087626 -0.008395664 -0.009861946
0.0010541166 0.005127601 0.003075617 -0.0064798477 -0.008401721 0.00057374424 -0.002740829 -0.009168674
-0.0013914473 -0.007180949 -0.005338827 -0.0018801206 0.0023541092 -0.0021881764 -0.0029328347 0.0033214516
0.008319352 0.00050635444 -0.009022854 0.005740395 0.0036853054 -0.0065930826 -0.0082493415 -0.0057269097
0.005933177 -0.0043545067 0.009436447 0.0050522727 0.0005674169 0.003315002 -0.006868608 0.0051765866
0.0050049014 -0.008887994 -0.0064081256 -0.0066159884 -0.006944142 -0.003399767 -0.0040965145 0.008183559
0.0037813096 0.000729514 -0.007822174 0.008492941 -0.000101485384 -0.0003387083 0.00267018 -0.003999687
0.0035234962 -0.0025942142 0.00053727825 0.0063388287 0.009385363 -0.00018698696 0.009677997 -0.000375482
0.0065370854 -0.00089623325 0.0050727874 -0.0058096987 -0.0076193996 -0.0003170579 -3.072165e-05 0.0013145702
0.008366738 -0.0046831793 -0.0029672298 0.007944444 -0.00066468155 -0.0003243355 -0.0030493871 0.006282395
0.009504201 -1.4334495e-05 0.007278639 0.0033398105 -0.003852215 -0.00935923 0.005792555 0.0021714163
-0.008159184 0.004108191 -0.0058926856 -0.0008477588 -0.006713876 -0.007837418 -0.00466567 0.0009599404
-0.00077800074 0.002343741 -0.0076169833 0.009558117 -0.0074899616 0.009400728 -0.0012982353 -0.0054942872
-0.0053481683 -0.005926158 0.0012208078 0.0032099397 0.0017915381 0.006811051 -0.0055192765 -0.008778102
0.0052491296 -0.006593824 0.004051388 -0.005032016 0.007939073 -0.006863921 -0.009428168 0.0033318147
-0.005666748 0.004995011 0.007753306 0.008878652 -0.0042277416 -0.00533712 -0.009627135 -0.0020942765
0.0072367145 0.005709869 -0.006329836 0.0021298574 0.000872584 -0.0010977251 -0.007983949 0.00693654
0.005037246 0.008696279 0.007173104 0.006489463 0.0039312164 -0.009370774 -0.0054885503 -0.000550583
0.0066670463 -0.0013715355 -0.0051277634 0.0058214637 0.009310584 -0.0008847681 -0.007422577 -0.0006590462
-0.00042395535 -0.00588564 0.002725415 -0.0031715434 -0.0063895453 -0.0044490416 0.0049307426 -0.0046735164
-0.004105645 -0.0022873967 -0.0040071313 0.0098762885 0.00015593621 -0.0029118345 -0.0003894131 -0.007082265
0.008487237 0.00852899 0.0038605668 0.002981965 0.0045421077 -0.004205834 0.0028756822 -0.0034178551
0.00900189 -0.006916982 0.009143822 0.0013300837 -0.008171195 0.0056825224 0.0067323786 0.0046422514

layer1.bias f4 [64]
00000000: 85fa d03b 8faa f839 1c9d bdb9 3d22 4b42
00000010: 3452 36bc 530b 4b42 cd66 3dbc 7714 4b42
00000020: d4fe e33b f921 4b42 0408 4b42 cd1f 4b42
00000030: 255e 40bc 6850 e1bc 40fd 4a42 14cb 4a42
00000040: f018 4b42 0f0c 4b42 be22 4b42 3965 113c
00000050: ebd6 4a42 f510 4b42 9908 4b42 c9aa 8abb
00000060: 071f 8eb9 1517 4b42 1f06 29c0 0025 4b42
00000070: c5f4 063b 746a 093c 2ec6 08bc a8d2 e6bb
00000080: 2d13 4b42 6eae cebb 4299 d83b 351e 4b42
00000090: 6f08 4b42 4515 4b42 0116 4b42 8407 c13a
000000a0: 2856 29c0 0e69 00bb 7215 4b42 2a79 29c0
000000b0: 12b5 68ba 8c53 b5bb fd6e f8bb fe44 70bb
000000c0: 4a0f 4b42 0eab 803b de60 bfba a0ea 2cbc
000000d0: a906 4b42 ea0e 4b42 760e 4b42 5fff 4a42
000000e0: 1cc0 023b ec98 94bb 14d3 06bc 990e 4b42
000000f0: b318 4b42 1316 4b42 1e14 4b42 bc03 4b42
0.0063775205 0.00047429322 -0.00036165945 50.783436 -0.011127997 50.76106 -0.011560154 50.769985
0.006957868 50.783176 50.757828 50.781055 -0.011741196 -0.027504161 50.747314 50.69832
50.774353 50.761776 50.783928 0.008874231 50.70988 50.76656 50.758396 -0.004231785
-0.00027107468 50.77254 -2.6409986 50.786133 0.0020592671 0.008387197 -0.008348031 -0.007044155
50.768726 -0.0063074147 0.0066100666 50.7795 50.758236 50.77077 50.77149 0.0014726971
-2.6458836 -0.0019593867 50.770943 -2.6480203 -0.0008877079 -0.005533641 -0.00758159 -0.0036662216
50.76493 0.0039266413 -0.0014601012 -0.010553986 50.756504 50.764565 50.764122 50.749386
0.0019950932 -0.0045348313 -0.008229036 50.764256 50.77412 50.771557 50.769646 50.753647

layer2.weight f4 [64, 64]
00000000: 4617 9fbb 1823 51ba f359 233b a86f 913c
00000010: 5000 5abc 9219 ac3a ab5b cfbc 55fe cc3c
00000020: dedf 15bc c318 933a b291 c1bc a9bd 863c
00000030: c6d2 8bbc 74e8 a63c 68b1 b239 c935 313c
00000040: 6688 943c ce43 8e3c e7f5 043b 321c f93a
00000050: 4b59 d5bc 9cf7 53bc 253d 883c 4c54 613c
00000060: 0139 a43c 8ca0 56bc aedf 833c 7387 01bd
00000070: ab4e eebc 641e a43b 0471 adbc b372 f8bc
00000080: 1460 a3bc c08a 463c 21ef 8dbc f076 15bc
00000090: 4a5a 9d3c 7114 89bc 2f57 9bbc e1b9 7cbc
000000a0: a798 bf3c 6993 a83c b092 e73c c18b 1a3c
000000b0: 36a2 13bc b7ab 0d3d 9605 d93c b11d e03b
000000c0: c194 05bd 92af a43c 52a4 a5bb bf8a a23c
000000d0: ecb3 8c3b f126 fcbb 2484 16bd 218a bc3a
000000e0: d61c 4dbc 8d41 e3bc 6a18 d83c c440 b73c
000000f0: ff73 ddbc 16d8 b8bc 7ce2 1d3c a386 d9bc
00000100: 7af6 bc3b a549 323c 97ba e2bb e55d a9bc
00000110: 3338 30bb 1605 82bc 9103 75bb 3b2b 91bc
00000120: 1fe0 aebc 144f 4f3b c0a3 b13c f904 eb3c
00000130: b140 bebb 49ec c23c 980c 26bc 9f92 bd3c
00000140: b1ba 66bc bf11 723c 6821 48bc d532 ce3c
00000150: f015 84b9 18fe f2bc 1e09 6e3c 0101 833c
00000160: 210e 14ba 857b 30bc 49bd 4abc af91 1bbc
00000170: 27d6 883c b9ac c9bc 99c6 1bbc 5ad0 7cbc
00000180: ffa4 28bc 0f75 49bc d190 693c 3fa7 91bc
00000190: cb5f d7bc 9781 f8bc 9b5b 00bd 5daf a3bb
000001a0: 38d7 afbc d42d bdbc 1860 d43c e093 d13c
000001b0: 3680 e3bb da43 e6bc 3e6d 6fbc fe76 9e3b
000001c0: 2701 793c 6ff5 1fbb 14b0 47bc 3489 e03c
000001d0: 8c1a db3c 2ce4 1e3c da48 14bc 5429 35bc
000001e0: a2b2 473c 02f3 b73a 8ecd 03bc 821e 9f3c
000001f0: 80d6 90bc 530c e73c b089 893b 6512 ce3c
00000200: 5c67 833b b405 b13c 5bb5 c33c 5968 4b42
00000210: a719 95bd c566 4b42 05fe 41bc 326f 4b42
00000220: 79d1 a8ba e07c 4b42 b1a1 4b42 056e 4b42
00000230: 7e02 3abc 8046 8dbf 9188 4b42 4990 4b42
00000240: e0a6 4b42 8b7f 4b42 a76e 4b42 0feb 5a3c
00000250: a30e 4c42 b37d 4b42 ea99 4b42 5ce8 a0bc
00000260: 6202 c53c cca2 4b42 9e5b dec1 db70 4b42
00000270: a557 f43c eaec 45bc b424 02bc 6ec2 e8bb
00000280: ccb6 4b42 e8a0 34bc 3c1f a33c 7f75 4b42
00000290: 5ca2 4b42 cfb1 4b42 91a2 4b42 ca2e 8bbb
000002a0: 58cd e2c1 9817 513c 0f74 4b42 0134 e4c1
000002b0: 14cb a4bb 6995 fc3c 5f32 20bb 4d59 a8ba
000002c0: 8f99 4b42 327c 99bc 190a f2bc b570 913c
000002d0: 64ae 4b42 2a98 4b42 1363 4b42 65b1 4b42
000002e0: 3b44 cfbc cdc5 bdb8 bab4 17bd f685 4b42
000002f0: 5c8b 4b42 8ab4 4b42 5e93 4b42 04a4 4b42
00000300: 235a bb3c 8938 f5bc 06f8 bdbc 2499 4cbc
00000310: fbbb 8c3e 9f2e 303d 0a02 033c bf1b c6bc
00000320: 3f07 acbb 5b5d 253c fed0 a63c 533e c0bc
00000330: 2573 233c c3fe 43bc c93b 653c 68e9 cf3d
00000340: 0de7 af3c d943 d8bc 0f97 a83c 4324 b8bc
00000350: f39c b9bd fd10 aabd 3a52 153a c1dd 333c
00000360: 807e d2bc 7d1e dabc b3e2 89bd 9e4a cb3c
00000370: a970 763c d717 a73c bc10 533c de37 acbc
00000380: 6c49 a3bd 1cae e33b 8a60 2e3c b5de 933c
00000390: 0e5f 17bd 20e4 2c3c e467 41bc 94ff 80bc
000003a0: abcc e0bc f455 5b3b 2d4f b6bb 6d20 323e
000003b0: 1754 e6bc 24fa de3d 4401 06bc db8c f6bc
000003c0: cac6 4abc aa09 26bc bf47 48bc a3cc 5f3c
000003d0: b9a3 7abd a690 9a3c 4234 3ebc 1b96 683d
000003e0: c9dd b4bc a1fd c63c bc50 afbc e6e4 b0bc
000003f0: 5786 e4ba 9ea3 943c 55b8 c6bc 69ed 0fbd
-0.0048550693 -0.00079779467 0.002492544 0.017753437 -0.013305739 0.0013130179 -0.025312265 0.025023619
-0.009147612 0.001122259 -0.023629043 0.016447859 -0.017068278 0.020374514 0.00034082984 0.010816046
0.018131446 0.017366316 0.002028817 0.0019005595 -0.026043555 -0.012937453 0.016630718 0.013753008
0.020046713 -0.013099801 0.01609787 -0.031623315 -0.029090246 0.0050085057 -0.021172054 -0.03032813
-0.019943275 0.0121180415 -0.01732594 -0.009122595 0.019208092 -0.01673338 -0.01896247 -0.015425176
0.02338822 0.020578103 0.028268188 0.009432734 -0.009010842 0.03458759 0.026491921 0.006839477
-0.032612566 0.02010325 -0.005054989 0.01984155 0.0042939093 -0.007695072 -0.036747113 0.0014384427
-0.012519082 -0.027741218 0.026378829 0.02236975 -0.02703285 -0.022563975 0.009636518 -0.026553458
0.005766687 0.010881816 -0.006919216 -0.020674655 -0.0026888966 -0.015871566 -0.003738616 -0.01772081
-0.021347104 0.0031632828 0.021684527 0.028688895 -0.0058060517 0.02379431 -0.0101348385 0.023141203
-0.014082597 0.014774739 -0.012214996 0.025170723 -0.00025193347 -0.029662177 0.014528541 0.01599169
-0.00056478573 -0.010771637 -0.012374231 -0.009495183 0.016703678 -0.024618493 -0.009507799 -0.015430534
-0.010293244 -0.012295975 0.014255718 -0.017779944 -0.026290795 -0.03033523 -0.03133736 -0.00499527
-0.021464929 -0.023093142 0.025924727 0.025583208 -0.006942774 -0.028108526 -0.014613448 0.0048359623
0.015198029 -0.0024407764 -0.012187976 0.027409174 0.026746057 0.009697955 -0.009050572 -0.011057217
0.0121885855 0.0014034214 -0.0080446135 0.019423727 -0.017680407 0.028204119 0.004197322 0.025155256
0.004010124 0.021609165 0.023890188 50.851902 -0.072802834 50.85036 -0.011840348 50.85859
-0.001287981 50.87195 50.9079 50.85744 -0.011353133 -1.103714 50.883366 50.890903
50.912964 50.874554 50.85806 0.013361706 51.014294 50.872753 50.900307 -0.019642048
0.024048988 50.90898 -27.794735 50.86021 0.029826948 -0.0120804105 -0.007943321 -0.007103256
50.928513 -0.011024691 0.019912355 50.864742 50.908554 50.92364 50.908756 -0.004247521
-28.350266 0.012761973 50.86334 -28.525393 -0.0050290916 0.030832963 -0.0024444086 -0.0012843997
50.89996 -0.018735979 -0.02954583 0.017753938 50.920303 50.898598 50.846752 50.923237
-0.02530109 -9.0490656e-05 -0.03703759 50.88082 50.886093 50.926308 50.893913 50.91017
0.022870129 -0.029934185 -0.023189556 -0.012487683 0.27487168 0.04301321 0.007996092 -0.024183152
-0.0052498872 0.010093058 0.020363327 -0.023467219 0.009976183 -0.011962595 0.013991305 0.101519406
0.021472478 -0.02639954 0.020579843 -0.022478228 -0.09063139 -0.083040215 0.00056961516 0.010978163
-0.025695086 -0.026625866 -0.067326926 0.024815854 0.015041509 0.02039711 0.012882408 -0.021022733
-0.079729885 0.0069482457 0.010643134 0.01805053 -0.036955886 0.010552436 -0.011804555 -0.01574687
-0.027441343 0.003346798 -0.0055636377 0.17395182 -0.028116269 0.10887554 -0.008179013 -0.030096462
-0.012376497 -0.01013414 -0.012224137 0.013659629 -0.061191294 0.018867802 -0.011609139 0.056783777
-0.022078412 0.024290862 -0.021400802 -0.021593522 -0.0017435056 0.018144425 -0.024257818 -0.03513852

layer2.bias f4 [64]
00000000: 8cc6 a4bc 6603 b63c 8d8a 5542 19eb 18bb
00000010: 4481 5542 a08b 5542 6ea5 06bd 1512 e2bc
00000020: 3ba6 5542 87ce 41bc 6d96 5542 0724 c3bc
00000030: 0886 5542 51a6 eb3c 7598 5542 8b6d 5542
00000040: 1e81 5542 aea7 5542 2353 cfbb 4e95 5542
00000050: 99e0 863c 4874 5542 1b1d e43b e9d9 acbc
00000060: 7746 06bd 4ae3 e3bc edbb 9ebc 9371 5542
00000070: 26d0 f4bc e8ab 5542 35aa 5542 cd3b b13c
00000080: acc5 7b3c 36ce dfbc 9a8e 5542 616c 5542
00000090: 7591 5542 df18 833c 6eab b3ba 1088 3fbb
000000a0: ec69 5542 597e 5542 6296 5542 0c55 dbba
000000b0: a430 433a 1f17 c8bc c254 f2bc 8d89 5542
000000c0: dab9 e1bc 2318 edbc af89 5542 7363 593a
000000d0: 6588 5542 a68c 5542 ae74 5542 ca8b 5542
000000e0: a2a6 5542 6777 5542 ebf2 49bc d397 5542
000000f0: fb78 5542 a698 5542 6fa4 5542 5b9c 5542
-0.020114206 0.022218417 53.385303 -0.0023333488 53.376236 53.386353 -0.03287261 -0.027596513
53.412334 -0.011829025 53.3969 -0.02382089 53.38089 0.02876583 53.398884 53.356976
53.37609 53.41375 -0.0063270493 53.395805 0.016464518 53.363556 0.0069614775 -0.021100001
-0.032782044 -0.02781834 -0.01937672 53.360912 -0.02988441 53.417877 53.416218 0.02163496
0.015366953 -0.027320009 53.38926 53.35584 53.392048 0.01600307 -0.0013707706 -0.0029225387
53.35344 53.373386 53.39686 -0.001673372 0.00074459077 -0.024425087 -0.029581431 53.384327
-0.027554441 -0.028942173 53.384457 0.0008292712 53.383198 53.387352 53.363945 53.386513
53.412727 53.366604 -0.012325983 53.398266 53.368145 53.39907 53.41058 53.40269

layer3.weight f4 [64, 64]
00000000: 9fd7 793c 1b81 00bd 65c2 0cbd 54f6 e5bc
00000010: d8c1 9d3a 38d3 09bd 96bd 003c 0150 31bc
00000020: 78bc bbbb ff1e febb 7856 cbb8 3e57 c3bc
00000030: b5b0 fabc ff6d 093c 27bf cc3a 69fb 23bc
00000040: 83a8 863b f407 923c 5692 ab3c dcf7 f8bc
00000050: 019b 86bc 8085 4d3d d937 86bc c9be 083d
00000060: 4bfa c3bc 4cb1 3fbc 1b14 e5bc 3d18 eb3c
00000070: d3ac 243a 3848 c7bc abf8 193c c787 c13c
00000080: 28a0 ea3b fc9d e9bc 5cd4 d9bc 20cb 1c3c
00000090: 9cd4 343c 228b 36bc c537 c53c 8385 e93c
000000a0: a3e5 c43c 447e 7a3c 1918 923c 16a2 9fbc
000000b0: 9589 b33c 1579 253c 21c3 c7bb 41dc cd3c
000000c0: 088a a8bb 1047 983c 8f9f 573c 8621 c8bc
000000d0: fc77 133c 48a1 78bc d772 863c 89cd bebc
000000e0: 1e4e fabc c89f cb3c 11bd 4ebc 25d8 ebbc
000000f0: 4b16 8cbc b62d aebc d861 a13c 6aa6 bcbc
00000100: 8d44 b1bc 1f5e bcbb 3cb6 4a42 95a6 483e
00000110: 14ba 4a42 4c92 4a42 c6c7 ccbc 3a68 bf3c
00000120: 748f 4a42 9bee 8dbd 658e 4a42 644a b3bc
00000130: 47ba 4a42 9bc8 64bb 69ac 4a42 56bd 4a42
00000140: 599b 4a42 bd93 4a42 f20e 073d c09d 4a42
00000150: 6868 2d3c 41b8 4a42 9709 ab3c f3fc 7dbc
00000160: 0f28 d33b bb03 babc 0300 e43c 06b9 4a42
00000170: ee3e 75bb 3ca8 4a42 c8ad 4a42 2ead e13c
00000180: 2ef3 ccbc 9304 893c cf8c 4a42 abb1 4a42
00000190: 459f 4a42 11f7 d03c 0308 ca3d 8382 e83d
000001a0: f1b8 4a42 91be 4a42 e4b7 4a42 3202 c6bc
000001b0: d081 f3bb bf7d 733c b7cb f939 a0b0 4a42
000001c0: 56ce 8abc a0c7 a43c cdc1 4a42 6026 b93c
000001d0: c793 4a42 45b7 4a42 86c0 4a42 04c7 4a42
000001e0: e381 4a42 389e 4a42 0986 70bc 2c89 4a42
000001f0: 21a5 4a42 81bc 4a42 a48c 4a42 82ac 4a42
00000200: ebca bfbc 386a 903c 54cc 593a 576f 8ebc
00000210: 4342 71bb f483 2a3c d95d d5bb 8870 d53c
00000220: ff84 b53c 319d c2bc c024 2cbc b3d1 c2bc
00000230: e09c 10bc e21b 8ebc fbf9 62bc 5d27 c03c
00000240: 8729 973b 8fbc 99bc c898 c8ba 4127 5f3c
00000250: 0997 7fbb 4c9b e1bc 717d 6e3c a85d 08bd
00000260: 1e32 a7bc 2584 84bc a9d8 3c3c 4b25 d23c
00000270: 35c0 a33c 8f6c 2fba 24fe e93a 4631 71b7
00000280: 1cbf ecba e5ac e03a 3a8f bd3c 2a56 233c
00000290: 1827 2c3a 0f74 74bc b6ba c63c 88e6 ccbc
000002a0: dc15 e6bc f8a5 dabc b880 efbc e7e9 c43c
000002b0: 3719 30bc 27e4 eebc e07f d8bc b981 f7bb
000002c0: c1f8 4a3c 3f94 e7bc c9fb 9e3c 3bba 873b
000002d0: 7308 a2bc e98c b83c d1a6 08bd 1110 233c
000002e0: 9279 073c 1aa7 5d3b f578 c33c c4f7 723c
000002f0: 2c07 673c 21b8 bc3b 76b2 97bc 54a0 06bd
00000300: 4a16 74bc 6302 e7bc 2553 4a42 dc5c 313e
00000310: bc56 4a42 a73d 4a42 b27f 98bc 6433 af3b
00000320: 0e44 4a42 53a1 443e e07a 4a42 1b2e 62bc
00000330: 285c 4a42 d5c0 3eb9 704e 4a42 dd4f 4a42
00000340: 6446 4a42 3d66 4a42 4baa 60bb d354 4a42
00000350: 08b6 923c 943c 4a42 fa70 96bc 2b54 dc3c
00000360: de2c 1ebb 8f6b a13c 136e fc3b 0f4d 4a42
00000370: 8092 0e3c 464c 4a42 705d 4a42 6c80 a73b
00000380: b746 39bc 75da 6a3c cd62 4a42 704e 4a42
00000390: a030 4a42 41ef e03c b742 a03e acc8 0f3e
000003a0: 112c 4a42 8648 4a42 f95f 4a42 80cc 58bc
000003b0: 8d1d d9bc 130f 553c 87b5 cb3c 9a5c 4a42
000003c0: c121 f9bc 3943 ac3b 0a58 4a42 3f7e e6bb
000003d0: 834f 4a42 fe29 4a42 0756 4a42 1432 4a42
000003e0: cd3c 4a42 f534 4a42 f0d4 92bc ab5d 4a42
000003f0: e949 4a42 6c44 4a42 6356 4a42 f95d 4a42
0.015249162 -0.031373125 -0.034365077 -0.02807156 0.0012035919 -0.0336487 0.007857701 -0.010822297
-0.0057292543 -0.00775516 -9.6959004e-05 -0.023845311 -0.030601839 0.0083880415 0.0015620933 -0.010008671
0.0041094436 0.017826058 0.020943802 -0.030391626 -0.016431333 0.050176144 -0.016384052 0.033385072
-0.02392306 -0.011699986 -0.027963689 0.028698081 0.00062818563 -0.024326429 0.009397666 0.023624314
0.0071602054 -0.028517716 -0.026590519 0.009569913 0.011037018 -0.01114157 0.024074445 0.028506046
0.02403528 0.015288893 0.017833756 -0.019486468 0.02191619 0.010099669 -0.006096259 0.02512944
-0.0051434077 0.018588573 0.0131606 -0.024430048 0.0090007745 -0.015175171 0.016412182 -0.023291366
-0.030554827 0.024856463 -0.012618319 -0.02878959 -0.017100474 -0.021262031 0.019699976 -0.023028571
-0.021639133 -0.005748525 50.677963 0.19594796 50.681717 50.642868 -0.024997603 0.023365129
50.64009 -0.06930276 50.639057 -0.021886058 50.68191 -0.003490961 50.66837 50.6849
50.651707 50.644276 0.032973237 50.654053 0.010583974 50.679935 0.020878596 -0.015502202
0.0064439843 -0.022706857 0.027832037 50.680687 -0.0037421542 50.66429 50.66971 0.027548399
-0.0250183 0.016725814 50.63751 50.673504 50.655537 0.025508435 0.09864809 0.11353018
50.680607 50.6861 50.67958 -0.024170969 -0.0074312463 0.014861523 0.0004764476 50.672485
-0.016944092 0.02011472 50.68926 0.022601306 50.644314 50.678974 50.68801 50.69435
50.626842 50.65451 -0.014680394 50.633957 50.66126 50.684086 50.637344 50.668465
-0.023412189 0.017628774 0.00083083403 -0.017387075 -0.0036813177 0.010407437 -0.0065114317 0.026054636
0.022158144 -0.023756595 -0.010506809 -0.023781633 -0.008826464 -0.01734728 -0.013853545 0.02345627
0.0046131047 -0.01876667 -0.0015304321 0.013620199 -0.0038999936 -0.027539872 0.014556275 -0.033292443
-0.02040964 -0.016176293 0.011526265 0.025652548 0.019989112 -0.00066918967 0.0017852229 -1.4376192e-05
-0.0018062326 0.001714137 0.023139585 0.009969274 0.0006567105 -0.014920249 0.024258953 -0.02501227
-0.028086595 -0.026690468 -0.029236183 0.024037315 -0.010748199 -0.029161526 -0.026428163 -0.007553306
0.012388409 -0.028268931 0.01940717 0.0041420734 -0.01977942 0.022528129 -0.033362214 0.009952561
0.008268731 0.0033821524 0.023861388 0.01482958 0.014100831 0.0057592546 -0.018517714 -0.032867745
-0.014897892 -0.02819938 50.581196 0.1732058 50.5847 50.560207 -0.018615577 0.0053467024
50.56646 0.19202165 50.619995 -0.013804938 50.589996 -0.00018191648 50.5766 50.57799
50.56874 50.599842 -0.003428119 50.582836 0.017909065 50.55916 -0.018364418 0.026895603
-0.002413563 0.019704608 0.0077035516 50.575253 0.0087019205 50.574486 50.591248 0.0051117446
-0.011308364 0.014334311 50.596485 50.5766 50.547485 0.027457835 0.313009 0.14041394
50.543034 50.570824 50.593723 -0.01323235 -0.026503349 0.013004082 0.024866832 50.59043
-0.030411603 0.005257037 50.585976 -0.0070340927 50.57765 50.541008 50.58401 50.548904
50.559376 50.551716 -0.017923802 50.591473 50.572178 50.56682 50.584362 50.59177

layer3.bias f4 [64]
00000000: cbd0 d5ba cf21 4842 b719 60bc bf87 4842
00000010: 81e7 4642 a460 a8bc b8cb fbba 11f6 4642
00000020: 8679 4742 ee09 4642 f4f9 56bc 7f04 b9bc
00000030: 5cb2 4642 65e5 4842 f5fc f3bb 4ded a93c
00000040: f6cc e9bc c95f 4842 c422 4942 669d 4842
00000050: 1ca2 b1bc 0ba9 fa3b 65ac 653b dd41 593c
00000060: caab 813c 681d 4742 6061 88ba e0ae 2c3b
00000070: 739f 1c3c c4bf 7f3c 8cbe 4842 0e73 163a
00000080: d200 fcbc 4a58 4842 4a48 023c 5d11 4542
00000090: 7443 393c edfa e83c 544a 033c 750c b1bc
000000a0: f783 933b 6e18 4742 bcc0 4842 c6f6 4742
000000b0: e719 dfbb 85ec 8b3b 660d 61b9 6ee1 4842
000000c0: 1bb9 d639 3573 4842 06f8 ecbc bc2d d53c
000000d0: 295c 2fbc 009f ddbc a241 eabc ca3e dfbc
000000e0: b019 f63c 6574 aebc 0ee2 4842 269f d3bc
000000f0: 126f bd3b ac20 7e3c 2617 4842 fae4 a4bb
-0.0016312836 50.033016 -0.013678006 50.132565 49.726078 -0.020553894 -0.0019210493 49.7403
49.868675 49.509697 -0.013121117 -0.022585152 49.67418 50.22402 -0.0074459263 0.020743037
-0.028540116 50.09354 50.28395 50.15371 -0.021683745 0.007649546 0.0035045382 0.013260332
0.015828986 49.778717 -0.0010404997 0.002634935 0.0095595 0.015609685 50.18608 0.00057391904
-0.03076211 50.08622 0.007951805 49.266956 0.011307586 0.028439963 0.008013327 -0.021612385
0.0045018154 49.773857 50.188217 49.99099 -0.0068085077 0.0042701387 -0.00021462663 50.220146
0.00040955175 50.112507 -0.02892686 0.026022784 -0.010703125 -0.027053356 -0.02859575 -0.02725162
0.030041546 -0.021295736 50.220757 -0.025832724 0.005781063 0.015510719 50.022606 -0.005032179

layer4.weight f4 [290, 64]
00000000: 9897 cbbb b848 1142 1514 30bc 0e40 1142
00000010: b22a 1142 f20c 49bc 511e 01bd f136 1142
00000020: 9b30 1142 2028 1142 74e9 b23a 7b0b 933c
00000030: b62b 1142 6457 1142 fa1d 0f37 25dd 2c3e
00000040: c08f 12ba 3337 1142 8b51 1142 6346 1142
00000050: 9d9a f5bb 494d dc3c 8dd1 f33c 7c0f c63c
00000060: bc35 763a 2d31 1142 1ea5 6a3c 45eb 09bb
00000070: a536 653c bd70 d4bc 2045 1142 00d8 15bc
00000080: 9d88 cd3c c644 1142 bbcb ed3c 621f 1142
00000090: f245 cb3c f9b2 eb3c 1098 31bd 6e6e 88bc
000000a0: fc31 ec3c 942c 1142 8c57 1142 c53f 1142
000000b0: 1500 45bc fada babd 339e ebbc 624a 1142
000000c0: 2744 57bc ba41 1142 3f62 c1ba 4913 c33d
000000d0: c054 8abc d07a 103c 60e8 d83b 7be4 69bd
000000e0: fde5 d1bb aaec 58bc f355 1142 38a4 3dbc
000000f0: 2950 3abc 2cfe ae3b 5739 1142 0b7a 843c
00000100: c16e 5e3c 2fd4 b23e 279c 9cbb 25ce ba3e
00000110: 4d67 9a3e 6ecc 12bc c2b1 233c 32b7 af3e
00000120: e9b1 c33e 67ad a03e 7fe3 403d feb5 c2bc
00000130: a74a ac3e ae75 c23e 38d5 293c 27b1 1f3e
00000140: f288 7339 2888 993e 7acc c53e 35bf b83e
00000150: 0885 f4bb a845 a83c 80e3 593c e85f a23b
00000160: 1275 9ebb 3dc3 aa3e e82d f7ba c417 943c
00000170: 5399 c83c ecd7 843c 6de4 ac3e 8474 a1bc
00000180: d27e 273b 613d bd3e 00e7 853c c8d3 a63e
00000190: 3f58 d73c 25a5 6ebc f6df f93c eefe ccbb
000001a0: e595 d23c 0624 bd3e 9fee b93e d0a1 b73e
000001b0: 8921 d63c 045f 2b3d 3c1d e93a bede bc3e
000001c0: 9237 b9bc e272 a53e 8f57 15bc 7b2e 083e
000001d0: 9ce0 ea3a dc58 8e3c 9cb2 47bc 7126 793d
000001e0: 4a07 2fbc 2442 76bb ed3e ba3e 1026 f03b
000001f0: 6f52 2e3c 65db a03c 8982 b53e 6936 f43a
00000200: feb0 b23c aba7 273f 23e2 b5ba eea4 2a3f
00000210: 4bee 323f 63c6 6dbc e3da b23c 5b68 2c3f
00000220: 9d19 2b3f 44f9 333f f4c1 ee3b d97f 0d3c
00000230: a4bd 343f 086a 2e3f 8d84 ae3b 6d91 203b
00000240: 14b1 b23c af6c 2d3f 9d3d 2f3f e8ec 283f
00000250: 4d63 d6bb e700 4cbb 115f b53c 093e 14bc
00000260: 1c3c b2b9 972d 2f3f 5284 a0bc fd0f 903c
00000270: 1212 b6bc 83ba 0aba 2ac2 303f 6a71 65bc
00000280: 9add 8cbc 48ab 303f 698a a13c 79c4 463f
00000290: eabe 5dbc 002b 853b 1fd2 95bb c700 993c
000002a0: bf20 d83c 9423 2b3f 0f9e 2e3f 2c18 2f3f
000002b0: 042c bd3c 70dd 053d 2ab4 9cbc 8c6c 363f
000002c0: d8e0 16bb db7a 2f3f e080 52bc a43d c23c
000002d0: 5d19 e73c ee98 5c3a 37af 8cbc 96d8 ed3b
000002e0: be2e 843b 7f3e 903c 34ce 333f 22b3 4bbc
000002f0: 6bdb be3c 8a28 e13c ce94 293f 929f c73c
00000300: fec6 67bc c410 db3e e1d7 8f3c 0b8f e03e
00000310: bdc4 d73e 40b6 cb3b fbbd 503c 4e04 d93e
00000320: 2dd4 cb3e ee26 da3e 97ed 193d 1bc3 83bc
00000330: 09ef cd3e 5dd5 df3e 8087 ca3c b277 6f3c
00000340: 5650 5cbc e84b d33e 0409 cc3e c847 d23e
00000350: 2951 3dbb 78cc 51b9 10f3 babb 9f2e fc3a
00000360: 9c8a 2bbc b0f2 cb3e 7ad0 f03c ab70 be3c
00000370: b3f7 b83c 27b7 97bc 4958 ce3e 8adc f339
00000380: b1cb fe3c 967f d83e 43d4 373c a499 e23e
00000390: b031 94bc 7c43 013a 4102 003c 70f0 f33c
000003a0: ae5f e93c a1be d13e cf64 e53e 9df0 c83e
000003b0: c44e 963c 491b 853c 9013 5b3b 28f6 cf3e
000003c0: 46ab c93c 7f7c df3e 52b4 3fba 9483 7c3b
000003d0: 5fc6 5d3c ef42 d1bc ea8d c53c 839d 6d3c
000003e0: a4c2 d13c 672d e3bc 3014 cb3e cea4 fa3c
000003f0: 633a 713c 4b46 e9bc 7017 e03e d463 91bc
-0.0062131397 36.321014 -0.010746975 36.312553 36.291695 -0.012271153 -0.031523053 36.303654
36.297466 36.289185 0.0013649897 0.01794981 36.292686 36.335342 8.530444e-06 0.16881235
-0.00055908784 36.303905 36.32963 36.318737 -0.007495238 0.026892321 0.029763008 0.024177305
0.00093921623 36.298023 0.014321594 -0.0021044773 0.013990079 -0.025932664 36.317505 -0.009145737
0.025089556 36.31716 0.02902781 36.280647 0.024813626 0.028771864 -0.04335791 -0.01665422
0.028832428 36.293533 36.335495 36.312275 -0.012023945 -0.09123798 -0.028761959 36.32264
-0.013138807 36.314186 -0.0014754011 0.09525163 -0.016886115 0.008818343 0.006619498 -0.05710266
-0.0064055906 -0.013240019 36.333935 -0.011574797 -0.011371651 0.0053403582 36.305996 0.016171476
0.0135762105 0.34927508 -0.004779357 0.364854 0.30156937 -0.008959873 0.009991111 0.34319454
0.38221672 0.31382295 0.047091957 -0.023768421 0.33650705 0.37980407 0.010365777 0.15594922
0.00023225302 0.2998669 0.38632566 0.3608338 -0.0074621476 0.020541027 0.013298869 0.0049552806
-0.004835733 0.3335208 -0.0018858286 0.018077739 0.024487173 0.01621624 0.33768025 -0.01970888
0.0025557769 0.3696089 0.016345501 0.3258345 0.026287196 -0.014565741 0.0305023 -0.006255976
0.02570624 0.36941546 0.36314866 0.3586564 0.026139038 0.04183866 0.0017785202 0.3688869
-0.022609506 0.3231421 -0.009115114 0.13298981 0.0017919722 0.017376356 -0.01218858 0.060827676
-0.01068289 -0.0037576044 0.36376134 0.007328756 0.010639771 0.019635865 0.35451153 0.0018631938
0.021812912 0.65490216 -0.0013876598 0.6665791 0.69894856 -0.014512631 0.021832889 0.67346734
0.6683596 0.70302224 0.0072863046 0.008636438 0.7060187 0.6813054 0.00532586 0.0024500743
0.021812953 0.67743963 0.6845339 0.6598649 -0.0065425993 -0.0031128468 0.022140058 -0.009047993
-0.0003399559 0.6842894 -0.019594345 0.017585749 -0.022225413 -0.00052920746 0.6904627 -0.014004091
-0.017195512 0.69011354 0.01971932 0.77643543 -0.013534287 0.004063964 -0.0045721675 0.018677128
0.026382802 0.6685116 0.6820993 0.6839626 0.023092277 0.032681882 -0.019128878 0.7125938
-0.00230222 0.6854684 -0.012848109 0.023711033 0.028210336 0.0008415122 -0.017173393 0.007258485
0.0040338924 0.017607925 0.70236516 -0.012432845 0.023297986 0.02748515 0.6624268 0.024368081
-0.0141465645 0.4278623 0.017558994 0.43859133 0.42142287 0.0062167943 0.012740607 0.42386097
0.39810315 0.42607826 0.0375801 -0.016084244 0.40221432 0.4371747 0.024722815 0.01461594
-0.013446888 0.4126885 0.39850628 0.4107039 -0.0028887487 -0.00020007964 -0.005705245 0.0019239968
-0.010470059 0.39833593 0.029396284 0.023247084 0.02257905 -0.018519951 0.4030173 0.00046512886
0.031102987 0.4228484 0.011220041 0.44257843 -0.0180901 0.00049310154 0.007813037 0.029777735
0.028488006 0.4096575 0.44803473 0.39246073 0.018348105 0.016248362 0.0033428408 0.4061749
0.024617802 0.4364967 -0.00073129416 0.0038530575 0.013536065 -0.025544612 0.024115521 0.014502886
0.025605507 -0.02773161 0.3966384 0.030596163 0.014723393 -0.028475901 0.4376788 -0.017747797

layer4.bias f4 [290]
00000000: b1d8 c441 7fb5 883e 566a 173f be13 b73e
00000010: fc02 c23f 1cde 763e 1402 a93e ebc7 cc3e
00000020: df68 fc41 035f e841 c2a7 103f 0f5f 053f
00000030: bf7d 8a3e 8c7f 8d3f 5b8e 8e3e 7d72 a93e
00000040: 74c8 a33e ae4e 0f3f 2915 2340 1c18 553f
00000050: 26a6 0c42 b230 6d3e 3433 953c fb87 203d
00000060: 23ae 4c3c 2cf6 c43c 850a 473e 6051 963c
00000070: 1bfd a53e bd5c 7c40 3c0f 793e 5357 903e
00000080: 7378 a63e 31a5 74bc d5c6 d1bc 50cd efbb
00000090: 4d7f 0dbc c8b5 313d 8b76 6c3d dfb2 2e3e
000000a0: 651b 493e c3c1 033e 902b 293e 4228 2f3e
000000b0: 4c25 563e ffe1 b93c fb6c afbc 1bb4 cebc
000000c0: 70be 55bc f507 7b3f b4d6 2a3f 4fb2 24bc
000000d0: bf4d 9c41 2db8 103f 4c2b 3d3e 8b90 c53c
000000e0: f86d eaba a35a d5bc 1e13 c93c e99f be3e
000000f0: 6da1 20bc 9089 b43c 904c 0c3c 5266 fa3c
00000100: bf3f 51bb 5dc2 b1bc 7c19 313d b903 a53d
00000110: eecf c93d b439 0c3e 0013 acbc 1bf3 0a3e
00000120: 03ce 143e 6466 763c 39ec a3bc f4d6 bcbc
00000130: 790d 15bc 44e3 f0bc 73d8 d7bc 5fa7 f6bb
00000140: 5827 793d 98d7 ac3d d4e1 ed3c b7ad 6e3e
00000150: 2797 a041 4fef 7e3f acdc 87bc 9338 22bc
00000160: c904 a1bc 00b4 27bc c97b 8d3b b2f4 0c3d
00000170: d584 d43c a06c aa3b bd1c d2bc edff c03b
00000180: c311 edbc e739 33bc f4dd 5bbc 5752 1c3a
00000190: 1b00 c43c 950e 3abc a3ba 453c 4057 393e
000001a0: 937d 2b3b 23af 6940 8564 bbbc 71e9 273c
000001b0: 8170 673b e992 8a3e afd1 f8bc f100 9741
000001c0: efea d8bc a800 e1bc ec09 acbb c78c 933b
000001d0: 20c8 8a3c d84f bfbc 64d2 8ebb ebec 8b3c
000001e0: 15a0 59bb 4fe9 5d3d 80fd 23bb 3e75 0d3e
000001f0: 2ebe 5f3c d5b4 1e3e f080 edbc 87e1 24b8
00000200: 5fc7 b9bc e280 04bc 947d 7b3c ad7c c9bc
00000210: b612 e53c 34df 353c 768f 253c 3ab6 c63c
00000220: 5ddb f13c 0d61 7e3c e58c c8bb 7535 bfbc
00000230: 5ccb 9f41 be06 f4bc 55ee debc bd64 d83c
00000240: a5f6 6d3c 6ca9 5b3c 8189 b23b 95a1 9aba
00000250: f6b7 afbc ad74 99bc 8e93 a3bc fba8 1abc
00000260: dc5f 963c 52d4 9c3c f1d5 993c e5e3 b23c
00000270: b68a 11bc 4b47 ab3c bfb1 003c 08cd ef3d
00000280: 718b c7bc 49b6 cbbc 19d5 a93c 609f 9d3c
00000290: cc35 7dbc 1314 8e3e 4c10 61bc bf8f e4bc
000002a0: 0a00 8a3c 3e0f 9fbb 5bcc a13c e0c6 e2bc
000002b0: d5da 503c f087 043c f47b ae3c 3629 c9bc
000002c0: 9f9c 85ba e932 5abc f500 fabc 8410 41bc
000002d0: c73b cabc ab45 d8bc 86f0 2f3c 372c ed3c
000002e0: c89b 0bbc 0429 003c 94c1 d6bc 98f2 d63c
000002f0: 6ba7 91bc 81de b33c 6406 04bc 7ad2 8fbc
00000300: 9db1 983c f88f f6bb c57c 633f b7ee 5fbc
00000310: 4e1e 9e3c 8fc1 ef3c 8a38 10bc 278a adbc
00000320: 4cc1 fdbb 7bb3 423e 8117 a6bc fab2 be3c
00000330: 1ca3 8a3c 879e da3c 1ede c9bc 5811 46bc
00000340: 2d68 36bc 0d92 d7bc 74ff 96bb 2108 363d
00000350: d57a a33c c6a3 4a3c 25ad 76bb 33c3 783c
00000360: 154c 69bc 814b d3bc fd01 98bc e5a0 bb3c
00000370: d1e9 6bbc c99f c03c b65f 8f3c 75de 1c3d
00000380: e9c5 a63c a807 f63c fe02 f0bb a85b 273e
00000390: ccad 66bc 0438 013e e6e3 db3d 28ac 8fb9
000003a0: f1c5 d63c 0043 4f3c 9256 28bc ece6 133d
000003b0: 2f7b 823c 9756 433e 042d 0a3e b48b 253e
000003c0: 8765 053e 613c 023e fe5d 2b3e cd6c 223e
000003d0: de40 e23d 2559 ff3c 6069 023e 649e 403e
000003e0: 9e97 f33d bcf3 3c3e 2ee9 ad3d 4baa 393e
000003f0: 09aa 203f 075b 813d 7773 c53d fd65 863d
24.605806 0.2670097 0.5914663 0.3575725 1.5157161 0.24108166 0.33009398 0.39996275
31.551207 29.046392 0.5650598 0.5209817 0.27049062 1.1054549 0.27842984 0.3309516
0.3198887 0.5597943 2.5481665 0.83239913 35.162254 0.23163107 0.018212892 0.03919218
0.012492689 0.024043165 0.19437607 0.01834935 0.32419667 3.9431603 0.24322218 0.28191623
0.3251377 -0.014931963 -0.025607506 -0.0073181763 -0.008636308 0.04338625 0.05773024 0.17060421
0.19639356 0.12866883 0.16520524 0.17105201 0.20912665 0.022690771 -0.02141427 -0.025232365
-0.013045892 0.98059016 0.6673386 -0.010052278 19.537962 0.5653103 0.18473548 0.024116775
-0.0017885556 -0.026044196 0.024545249 0.37231377 -0.009804112 0.022038251 0.008563176 0.030566368
-0.0031928865 -0.021699125 0.043237194 0.08057351 0.098541126 0.13693887 -0.021005154 0.135693
0.14531712 0.01503906 -0.0200101 -0.023051716 -0.00909745 -0.029405244 -0.026348328 -0.0075272764
0.060828537 0.08439559 0.029038347 0.23308454 20.073805 0.99583906 -0.016584717 -0.009901184
-0.019655602 -0.010235786 0.004317735 0.034413047 0.025942245 0.0052009374 -0.02564847 0.0058898837
-0.028939134 -0.010939098 -0.013419617 0.00059631973 0.023925832 -0.011356016 0.012068423 0.1809969
0.0026167377 3.6513145 -0.02287508 0.010248528 0.003531486 0.2706521 -0.030373422 18.87546
-0.026479213 -0.027466133 -0.005250206 0.004502866 0.01694113 -0.023353502 -0.0043585766 0.017080745
-0.0033206989 0.05417758 -0.0025022924 0.13814256 0.013656182 0.1549867 -0.028992146 -3.9310686e-05
-0.022678075 -0.008087369 0.015349764 -0.024595583 0.027963024 0.011100579 0.0101050045 0.024256814
0.029523546 0.015526068 -0.0061203116 -0.02334092 19.974297 -0.029788371 -0.027213255 0.026415223
0.014524137 0.013407093 0.0054485206 -0.0011797423 -0.021450024 -0.018732393 -0.01996782 -0.009439702
0.018356256 0.019144211 0.018778773 0.021837184 -0.008883169 0.020908019 0.007854878 0.117090285
-0.024358483 -0.024867194 0.020731496 0.019241035 -0.015454721 0.2774969 -0.013736796 -0.027900575
0.016845722 -0.004854112 0.019750765 -0.027682722 0.012747486 0.008089051 0.02129934 -0.024555784
-0.0010193771 -0.013317802 -0.030518034 -0.011783723 -0.024686707 -0.026400408 0.010738498 0.028951747
-0.008521028 0.007822279 -0.026215352 0.026238725 -0.017780026 0.021956684 -0.008058164 -0.017556418
0.01863938 -0.0075244866 0.8886226 -0.013667754 0.01930156 0.0292671 -0.008802542 -0.02118404
-0.00774399 0.19013779 -0.02027488 0.023278702 0.01692348 0.02668692 -0.024642047 -0.012089096
-0.011133236 -0.02631476 -0.004608089 0.044441346 0.019956032 0.012368148 -0.0037639823 0.015183258
-0.014239331 -0.025792839 -0.018555636 0.022903869 -0.014399008 0.023513691 0.017501693 0.03829809
0.020358043 0.030032948 -0.0073245754 0.16343558 -0.014079522 0.12619025 0.107368276 -0.00027403352
0.026217433 0.012650251 -0.010274546 0.036108896 0.01592788 0.19076 0.13493735 0.16166574
0.13027011 0.12718345 0.16735074 0.15861817 0.11047529 0.031170437 0.1273551 0.18810421
0.11894153 0.18452352 0.08491741 0.18131368 0.62759453 0.0631619 0.09641164 0.065624215
