catanatron_experimental/my_DQN_wyniki2/my_DQN2_50_steps.pth (torch, 268905 bytes, 8 tensors)

layer1.weight f4 [64, 614]
00000000: 7468 c53c e70c 263c 951a 21bd 00f1 e53c
00000010: ba6d 18bd a809 08bb 3714 dcbc 4616 de3a
00000020: 1fbb 7cbc 71f5 d4bc 87f6 8a3c e727 7e3c
00000030: 9bb3 143d 2af8 b63c 2efc 953c 50ee 50bc
00000040: adfa 1cbc 2fd0 053d 00b7 1bbd 7ae8 143b
00000050: 351a afbc bb1f 0abc bb44 82b7 edd5 433c
00000060: 3c98 043d f6e4 043d ab28 fb3c 9289 213c
00000070: 1291 36bb 320b a1bc 1e90 453c 16b7 d03c
00000080: b443 80bb 8ba8 b03b fc2c 233c b6a1 023d
00000090: be28 17bd b452 733c 43b2 a8ba 9eed a4bc
000000a0: b3cc 5bbc b2d6 e73c 3921 393b a98d c8bc
000000b0: f237 bbbb 06fd e53c 6eff 8c3c d93c 2ebc
000000c0: d754 c13a 19cf 9cbb 0714 053d 5b71 7bbb
000000d0: e95c 393c 9a14 933c 313e 0ebc d167 5a3b
000000e0: fbf3 273c 980e 53bc c1f7 df3c fe54 3ebc
000000f0: 5c8f 8e3c e0e3 003c 2e98 6439 1af4 a0bc
00000100: 0a42 8fbc d80a 10bd aa9d cc3c 48ac 923c
00000110: 686b 87bc a54b d63b 6721 ab3c 0af0 e03c
00000120: d935 13bd d0f1 123d 2e7d 12bc 0610 bb3c
00000130: 9606 c3bc e2d9 b6bc f325 fcbc e319 14bd
00000140: fb42 7d3b 3405 9a3c ecc1 383c 26a2 c2bc
00000150: 4354 fcbc c7dd 093b d1a3 24bc 7ab2 09bd
00000160: 322d a7bb a8b0 d7bc 5759 a0bc cce2 e1bb
00000170: a46a 0d3c a872 03bc 822e 30bc 0589 473c
00000180: 6dde f93c e853 f33a 1682 07bd 766a ac3c
00000190: 4c62 5d3c d907 c6bc 16c2 f7bc 2c03 acbc
000001a0: 3436 b23c 1bcb 82bc f0b7 0d3d e8bf 973c
000001b0: 9857 083b 2f26 473c b34f cebc 747c 9b3c
000001c0: ff55 963c 917b 05bd b979 c0bc 83b9 c6bc
000001d0: af92 d0bc 633b 4cbc 830d 76bc 65c4 f53c
000001e0: 4d27 633c ac4b 2f3b bff1 eabc 7612 ff3c
000001f0: f717 c3b9 18c8 a2ba 0565 203c d73f 70bc
00000200: caaa 533c 52d6 1bbc 721b 013b 3a65 be3c
00000210: 98f2 0c3d ccb9 33ba 0558 113d 5973 b4ba
00000220: 7559 c43c b15b 57bb 335b 983c f280 aebc
00000230: 91dc e4bc 435c 98ba 5a35 ecb8 59f2 9d3b
00000240: b248 fb3c 2da9 8cbc 0e40 32bc 1197 ee3c
00000250: bbb6 1fbb 77dd 9bba c42f 37bc 65b2 bc3c
00000260: aebd 0e3d 9971 5cb8 29a0 da3c 80a0 483c
00000270: e769 67bc a58d 0cbd 64fd ad3c 8f71 023c
00000280: 7d0a f5bc 8fc2 763c d4fe b0bc 39b6 4bbb
00000290: e1a7 c9bc a265 ebbc 5122 8cbc d3a9 663b
000002a0: cdf2 3abb 6dca 0c3c f5c9 e4bc 068d 0f3d
000002b0: b8f8 e0bc f52d 0d3d 95f8 9bbb 8606 a5bc
000002c0: 35a1 a0bc 3a00 b2bc 8aae 923b d7d2 403c
000002d0: 3a3f d73b 3c93 cc3c b3c9 a5bc 0ad4 03bd
000002e0: 11ab 9d3c 9b0d c6bc 545c 733c 8d26 97bc
000002f0: 8a6d ee3c 3c2b cebc f597 0dbd c826 483c
00000300: 6036 aabc 4209 963c 80e2 e83c a857 053d
00000310: 7bef 7dbc 5d4c a0bc 1c93 10bd fd97 fbbb
00000320: 1d5c d93c a880 ab3c ba1f bebc 4fe0 ff3b
00000330: bdab 513b 3be2 83bb 92c8 efbc 9b58 d03c
00000340: 244e 973c 419a 023d 8374 d73c 9bec c23c
00000350: cb23 6c3c 3dba 0cbd b0d9 a4bc 214d 04bb
00000360: ca40 c83c dbc6 a4bb 7806 9abc 40db ae3c
00000370: 6cd4 0b3d 3099 54bb 91f2 debc ba5f 1ebb
00000380: 7ebf cbba e6c7 b0bc 48b8 233c 2986 3ebc
00000390: d5ec bfbc 5da2 85bc 2718 943c 835e 8cbc
000003a0: 159b 76bc e968 09bc 00b3 70bc 0950 143d
000003b0: 0ee2 153a 2bec 2ebc c325 bbba b6b8 d4bc
000003c0: 1ae6 fe3c a215 003d b5ea 673c ac22 333c
000003d0: f56c 883c 56a0 7cbc c4be 2c3c cd4f 4dbc
000003e0: 7c31 073d 31c3 cfbc b552 093d a6cc 9f3b
000003f0: 1b66 f5bc 34af aa3c 9837 ca3c ea70 8b3c
0.024097659 0.010134912 -0.03933199 0.02806902 -0.03721402 -0.0020757709 -0.026865108 0.0016943894
-0.0154254725 -0.025995942 0.016963257 0.015512443 0.036304098 0.02233513 0.018308725 -0.012752131
-0.00958125 0.032669242 -0.03801632 0.0022721575 -0.021374801 -0.008430417 -1.5529213e-05 0.011952859
0.032371745 0.032444917 0.03065904 0.0098594595 -0.0027857465 -0.019658659 0.012058286 0.025477927
-0.003914321 0.0053911856 0.009959456 0.0318925 -0.03690409 0.014851261 -0.0012870509 -0.020132836
-0.013415503 0.028300617 0.0028248562 -0.024481611 -0.0057134563 0.028074753 0.017211642 -0.010634624
0.0014750016 -0.00478543 0.032489803 -0.0038367126 0.011313655 0.01795416 -0.00868182 0.003332604
0.010251041 -0.012881897 0.027339818 -0.011616943 0.017402343 0.00786683 0.00021800466 -0.019647647
-0.017487545 -0.03516659 0.024977524 0.017904416 -0.016530707 0.0065397792 0.02088995 0.02745821
-0.035940025 0.03587514 -0.008940978 0.022834789 -0.023806851 -0.022320691 -0.030779814 -0.0361575
0.003864466 0.01880131 0.011276703 -0.023758959 -0.030801898 0.002103673 -0.0100488225 -0.033617474
-0.0051018232 -0.026329353 -0.01957385 -0.0068934914 0.008631382 -0.008022942 -0.010753276 0.012178664
0.030501569 0.0018564435 -0.033083044 0.021046858 0.013512205 -0.024173664 -0.030243915 -0.020997606
0.021754362 -0.015965989 0.034599245 0.018524125 0.0020804163 0.0121551 -0.025184488 0.018980242
0.018351553 -0.032588545 -0.023495542 -0.02425838 -0.02546057 -0.012465331 -0.01501787 0.030000875
0.0138643505 0.0026747985 -0.028679727 0.031136733 -0.00037211154 -0.0012419252 0.00978971 -0.014663658
0.012919137 -0.009511547 0.0019700197 0.023241628 0.034411043 -0.0006855994 0.035484333 -0.0013767286
0.023968438 -0.0032861049 0.018598175 -0.02130172 -0.027937206 -0.0011624176 -0.000112632944 0.00482015
0.030674312 -0.017170513 -0.01087953 0.029124768 -0.002437039 -0.0011891563 -0.011180822 0.023034284
0.03484886 -5.2557883e-05 0.026687698 0.012245297 -0.01412437 -0.03431477 0.02123899 0.007961645
-0.029912228 0.015061035 -0.021605887 -0.0031083955 -0.024616184 -0.028734986 -0.017106207 0.0035196438
-0.0028526068 0.008593184 -0.027928332 0.0350466 -0.027462348 0.034467656 -0.004759858 -0.020144712
-0.01960812 -0.021728624 0.004476373 0.011769018 0.0065688165 0.02497255 -0.02023778 -0.032184638
0.01924661 -0.02417641 0.014853556 -0.018451 0.029104967 -0.0251671 -0.034568746 0.012216277
-0.020777881 0.018314961 0.028428316 0.0325543 -0.015498991 -0.019567663 -0.035296544 -0.0076780305
0.02653318 0.020935372 -0.023208488 0.007808722 0.0031993233 -0.0040247715 -0.029270444 0.025432875
0.018469878 0.03188539 0.026300674 0.023794463 0.014412831 -0.0343573 -0.020123333 -0.0020187574
0.024444956 -0.005028588 -0.018801913 0.02134478 0.03413813 -0.003243994 -0.027215274 -0.0024165944
-0.001554474 -0.021579694 0.009992667 -0.011628666 -0.02342836 -0.016312772 0.018077923 -0.01713491
-0.015051623 -0.008386829 -0.014691114 0.03620914 0.00057175837 -0.010676424 -0.0014278222 -0.025966983
0.03111558 0.03127063 0.01415508 0.010933559 0.016653517 -0.015419086 0.010543529 -0.012531233
0.033006176 -0.02536163 0.03352614 0.004876691 -0.029955914 0.020835496 0.024684712 0.017021615

layer1.bias f4 [64]
00000000: 5990 bf3c 16f0 e33a 4dcf adba 52d7 163e
00000010: 04f6 2bbd d125 503d 9e9d 2dbd 2480 da3d
00000020: 8cfb d03c d214 0d3e f9a4 5f3d 5798 0e3e
00000030: 6bdd debc 4fb8 2b3c 5944 af3c 7004 92bc
00000040: f276 f53d f2f7 873d d68e 163e a746 053d
00000050: 97c9 ef38 a47e c03d 099c 7a3d 272e 7ebc
00000060: 5146 82ba 3995 e03d 683f d0bc 9cb5 1a3e
00000070: f462 f73b 2ee5 fb3c 9eb9 fabc 1595 d3bc
00000080: 73a4 c33d 71ed dfbb 958b c63c fa39 0e3e
00000090: 5ed3 7e3d d41a be3d acaa e33d 44f0 b03b
000000a0: b14e c43c 9b66 ebbb da23 ce3d cb62 b7bc
000000b0: 2c4d 55bb 3f06 5ebc 64b9 e3bc 423d 5cbc
000000c0: c86b ad3d 3bde 6b3c 9c6c afbb 45ab 12bd
000000d0: 8a52 4a3d 8280 9d3d a592 883d 0784 483d
000000e0: eaac ef3b e234 88bc a824 f7bc 8aa4 973d
000000f0: e11b d93d 0ab6 d43d b726 ce3d 5127 423d
0.02338426 0.0017390277 -0.0013260633 0.14730576 -0.041982666 0.050817315 -0.042386644 0.10668972
0.025510572 0.13777474 0.05460069 0.139253 -0.02720519 0.010480954 0.021394895 -0.017824382
0.11985578 0.06639089 0.14702925 0.032538082 0.00011433957 0.09399155 0.061183963 -0.015513933
-0.0009939169 0.10965962 -0.02542086 0.15108341 0.007549638 0.03074893 -0.030606087 -0.025827924
0.095528506 -0.006833725 0.02423648 0.13889304 0.062213294 0.09282461 0.111165375 0.0053997356
0.023963304 -0.0071838624 0.10065432 -0.022385975 -0.0032547219 -0.013551294 -0.027798362 -0.013442339
0.08467823 0.014396246 -0.0053535234 -0.035807867 0.04939512 0.076905265 0.06668595 0.048954036
0.007314314 -0.016626779 -0.030168846 0.0740443 0.106010206 0.10386284 0.10065978 0.047400776

layer2.weight f4 [64, 64]
00000000: 76d4 91bc bfb5 3fbb 43bc 153c 3a50 853d
00000010: e0d4 47bd fec1 9d3b 0b12 bebd fae8 bb3d
00000020: 5161 09bd e7d5 863b eb6e b1bd 11fd 763d
00000030: fa29 80bd 15fd 983d f1ca a33a d971 223d
00000040: b125 883d f467 823d 98bb f33b 6358 e43b
00000050: 7092 c3bd 074c 42bd 5dc0 793d 208d 4e3d
00000060: 968a 963d d1ba 44bd 1bbf 713d b56d edbd
00000070: 8371 dabd f771 963c c6fc 9ebd ccbc e3bd
00000080: ebc1 95bd 7ffd 353d 891a 82bd e400 09bd
00000090: e839 903d 5748 7bbd f664 8ebd d0a8 67bd
000000a0: a89f af3d c988 9a3d 4444 d43d 9aa9 0d3d
000000b0: e753 07bd e6dc 013e b8ef c63d 1d6d cd3c
000000c0: 6ddc f4bd 9af7 963d 78d4 97bc 9afc 943d
000000d0: 59fa 803c bd21 e7bc 45f8 09be a0d1 ac3b
000000e0: 0805 3cbd 284f d0bd 7314 c63d dcf8 a73d
000000f0: 3e00 cbbd e870 a9bd 6bb7 103d 7866 c7bd
00000100: dc36 ad3c a06c 233d 40d4 cfbc 5140 9bbd
00000110: 6088 21bc 1854 6ebd d596 60bc 8111 85bd
00000120: c049 a0bd 6e06 3e3c cbd5 a23d c06d d73d
00000130: f664 aebc a1ac b23d 9132 18bd b5c5 ad3d
00000140: 337f 53bd d8e3 5d3d f772 37bd 7d00 bd3d
00000150: 6624 72ba 7abc debd d931 5a3d 8e24 703d
00000160: d2b6 07bb 00c7 21bd 18d6 39bd db9a 0ebd
00000170: bdd6 7a3d 84db b8bd 97cb 0ebd 7abd 67bd
00000180: 0799 1abd 6ba9 38bd 5919 563d 2c83 85bd
00000190: c569 c5bd 79ca e3bd 3b4e ebbd 420b 96bc
000001a0: 2b2e a1bd 7d69 adbd 7cac c23d 491c c03d
000001b0: 3b88 d0bc cd12 d3bd cc77 5bbd 8440 913c
000001c0: 913f 643d 8ba1 12bc e20a 37bd cad0 cd3d
000001d0: fad4 c83d 4aa5 113d a7ec 07bd 0511 26bd
000001e0: 3c0d 373d 459b a83b b09d f1bc 24db 913d
000001f0: d5c3 84bd b0c9 d33d 221e 7c3c f2e2 bc3d
00000200: 48e1 703c 2046 a23d ed64 b33d 0473 05bd
00000210: a1b8 5fbe 52d1 52bd 36d2 31bd 578e e8bc
00000220: 45c1 9abb 3c06 7b3d 5a4c 2b3e 59f8 d5bb
00000230: ab58 6bbd ac0d 84be a669 2e3d d690 ae3c
00000240: aaf4 453e 2d4e 3c3d df6d a63b e1a9 483d
00000250: 0394 763e 2df0 e63b 4d21 153e 687f 93bd
00000260: 3896 b43d d10f 353e b8de a0bd acfc ee3c
00000270: 3cf9 df3d 8f6c 35bd 658e eebc 7059 d5bc
00000280: 937e 593e 524f 68bd ef85 953d 821f c93c
00000290: 1e95 1a3e aae3 613e 7bee 2e3e c222 7fbc
000002a0: 8bb8 9abd 21ab 3f3d 5660 5cbc 72da 9abe
000002b0: 6c10 97bc 73cb f03a cbd9 12bc f152 9abb
000002c0: 08c6 163e 7aaf 8cbd d0dc ddbd a919 593d
000002d0: 1cc5 4e3e 8612 093e 5270 92bd 8a01 353e
000002e0: 6dfc bdbd 87f4 adb9 2910 0bbe 2301 6a3d
000002f0: 7b43 c43d ee71 663e aab2 023e eeec 143e
00000300: 5abb ab3d 63c7 e0bd 7a22 aebd b864 2dbd
00000310: 714c 813f 5a9a 263e 7826 f03c 4e93 adbd
00000320: f7b0 9dbc dcec 243d 50b9 a03d f5a1 a9bd
00000330: 91d3 153d 39a8 33bd 5d58 683d dfd9 c03e
00000340: 2669 a83d 7a6d bebd 170e a13d 11c9 a8bd
00000350: e024 aabe c17b 99be e1a2 bb3b d5dd 243d
00000360: 5af0 c0bd fc67 bfbd 5636 7ebe 5ce9 c03d
00000370: e4e4 613d fd28 993d ed76 413d 1ede 9dbd
00000380: e1f4 92be 08b2 d03c 08d6 1f3d bb6f 8e3d
00000390: 081e 06be 64c4 313d 85ca 21bd 7377 6cbd
000003a0: 5d0f cebd e40a 493c bcb8 82bc 0b91 233f
000003b0: 9e21 d3bd 8ddf ce3e bba1 f5bc c8fe e1bd
000003c0: aa70 2bbd ee2f 18bd 2c96 37bd 5122 4d3d
000003d0: c8e2 60be 5002 963d e4b7 1dbd 9439 5c3e
000003e0: 35cc a5bd 0467 b63d 0fb1 a0bd 9d10 99bd
000003f0: dda6 2abb 4c51 923d 1b2f afbd 8441 ffbd
-0.017801505 -0.0029252616 0.009139123 0.065094426 -0.048786998 0.0048143854 -0.09280785 0.09175296
-0.033540074 0.0041148546 -0.08663734 0.060299937 -0.062580064 0.074701466 0.0012496394 0.039659355
0.06647814 0.06367484 0.0074381344 0.0069685443 -0.09549415 -0.047435787 0.060974468 0.050427556
0.07350652 -0.048029725 0.059020143 -0.115931906 -0.10666182 0.01836489 -0.077630565 -0.111199945
-0.073123775 0.044431206 -0.063527174 -0.033448115 0.07042295 -0.061348286 -0.069528505 -0.056557477
0.08575374 0.07545621 0.10364583 0.034585573 -0.033039 0.12681922 0.097136915 0.025076443
-0.119561054 0.07371445 -0.01853393 0.072747424 0.015744375 -0.02821433 -0.13473614 0.0052740127
-0.045903236 -0.10171348 0.09671869 0.08201763 -0.099121556 -0.08273488 0.03533117 -0.09736341
0.021144323 0.039898515 -0.025369763 -0.07580627 -0.0098591745 -0.058185667 -0.013707836 -0.06497479
-0.07826567 0.011598213 0.07950934 0.1051898 -0.021288376 0.087243326 -0.0371576 0.08484975
-0.05163498 0.054172367 -0.044787373 0.09228609 -0.0009236991 -0.10875793 0.053270195 0.05862861
-0.0020708335 -0.03949642 -0.04537019 -0.03481565 0.061239947 -0.09026244 -0.034862127 -0.056577183
-0.037743594 -0.045083445 0.052270267 -0.0651916 -0.096393146 -0.11122603 -0.11489531 -0.018315915
-0.07870134 -0.08467386 0.09505555 0.09380395 -0.025455585 -0.1030632 -0.053581044 0.017730959
0.055724684 -0.008949648 -0.044688113 0.10049589 0.09806247 0.035558023 -0.033184674 -0.040543575
0.044690356 0.0051454627 -0.029494137 0.07121876 -0.064826645 0.10341203 0.015388044 0.09222974
0.014702149 0.079235315 0.087594844 -0.03258039 -0.21847774 -0.051469155 -0.043413363 -0.028388185
-0.0047227466 0.061285242 0.16728345 -0.0065298495 -0.057457607 -0.2579168 0.042581223 0.021309298
0.19331613 0.04597299 0.0050790156 0.048990134 0.240799 0.007047674 0.14563484 -0.07202035
0.088177145 0.17681815 -0.0785498 0.029173218 0.109362096 -0.044292983 -0.029120633 -0.026043624
0.2123969 -0.05671627 0.073009364 0.024551157 0.15095946 0.22059503 0.1708316 -0.015572252
-0.0755473 0.04679406 -0.013450703 -0.30244786 -0.018440448 0.001837118 -0.008963059 -0.0047095944
0.1472398 -0.06869407 -0.10833132 0.053002987 0.20192379 0.13385972 -0.0715033 0.17676368
-0.09276662 -0.00033179318 -0.13580383 0.05712999 0.095831834 0.22504398 0.12763467 0.14543507
0.08385344 -0.1097553 -0.0850267 -0.04233238 1.0101453 0.16269818 0.029315218 -0.08475362
-0.019249422 0.04026495 0.078478456 -0.08282844 0.03657872 -0.0438616 0.056724895 0.37666222
0.082231805 -0.09298225 0.078640155 -0.082414754 -0.33231258 -0.2997723 0.005726204 0.040250618
-0.094208434 -0.09346005 -0.24825415 0.0941951 0.055149928 0.07478521 0.047232557 -0.07708381
-0.28702453 0.025475517 0.039022475 0.06954905 -0.13097394 0.043400183 -0.03949978 -0.057731103
-0.10061524 0.012270663 -0.015957229 0.63893193 -0.10309146 0.4040493 -0.029984346 -0.11034924
-0.04185549 -0.037155084 -0.04482095 0.050081555 -0.2196151 0.0732466 -0.03850545 0.2150634
-0.0809559 0.089063674 -0.07846271 -0.07473872 -0.00260394 0.071444124 -0.085539065 -0.12463668

layer2.bias f4 [64]
00000000: 550c 97bd b3d7 a63d fc8b 993d 6861 c3bb
00000010: ddf5 833d add1 b33d 4ad0 f6bd cb3a cfbd
00000020: e834 4e3e ada6 31bd 4911 333d b8df b2bd
00000030: f272 843d 3501 d83d 1842 1f3e ec87 7fbc
00000040: 5838 4d3d d23a 1d3e 2b0a bebc d989 923d
00000050: a93d 773d a991 0e3e 1c17 d13c bb73 9ebd
00000060: b920 f6bd 79e2 d0bd 2680 91bd 0bef 083d
00000070: b067 e0bd 5891 383e 9ce1 0d3e 4f77 a23d
00000080: 50c8 663d c323 cdbd f8c3 e03d 3ad8 113c
00000090: 0f6c d93d 8f50 703d 3399 49bb 1b2e 04bc
000000a0: 4001 d4bc e16c 0cbd e4b6 0d3e 0e0a c9bb
000000b0: 4aeb 323b 8569 b7bd ce79 ddbd d5fc 953d
000000c0: 2fb6 c8bd 2153 d9bd 7393 f23c 8046 473b
000000d0: eeaf 9d3d 824e ef3d 49fe f5bc ddd9 a73d
000000e0: 9345 4b3e 309a d03c e61b 39bd e6b3 bc3d
000000f0: 310f 363d c3a4 073e 1044 2b3e 28aa 093e
-0.07375399 0.0814661 0.07497403 -0.0059625395 0.06443379 0.08780227 -0.12051447 -0.10118636
0.2013737 -0.043371845 0.043717656 -0.08734077 0.064672366 0.10547105 0.15552557 -0.015596371
0.05010256 0.1535447 -0.023198208 0.071551986 0.060361538 0.13922752 0.025523715 -0.077369176
-0.1201796 -0.10199446 -0.071045205 0.033431094 -0.10957277 0.18024194 0.13855594 0.079329126
0.056343377 -0.10016587 0.10974878 0.00890165 0.10616314 0.058670577 -0.003076148 -0.008067633
-0.025879502 -0.034283523 0.13839298 -0.006135232 0.0027300888 -0.08955673 -0.10814248 0.073236145
-0.09800374 -0.10611559 0.029611325 0.0030407012 0.076995715 0.11684896 -0.03002848 0.08195851
0.19850759 0.025464147 -0.04519262 0.092140004 0.04444808 0.13246445 0.16725183 0.13443816

layer3.weight f4 [64, 64]
00000000: 7604 653d 3392 ebbd 9307 01be 13cc d2bd
00000010: 4d99 903b 36a4 fcbd d7ff eb3c ad89 22bd
00000020: 2115 acbc 8ef0 e8bc 0563 bab9 a80e b3bd
00000030: aac9 e5bd a3eb fb3c daae bb3b 9d51 16bd
00000040: f5d5 763c d6db 853d 6944 9d3d 0937 e4bd
00000050: 01bd 76bd e163 3c3e b305 76bd 25ac fa3d
00000060: 23a4 b3bd 31b6 2fbd 95fb d1bd 5f7f d73d
00000070: 1df5 163b 82ab b6bd 2122 0d3d d765 b13d
00000080: a411 d73c 9525 d6bd 00ad c7bd 70b9 0f3d
00000090: d4c3 253d 6153 27bd 79c6 b43d d20e d63d
000000a0: dc7b b43d 509b 653d 9fea 853d 9b54 92bd
000000b0: 7c8f a43d 73ad 173d 601c b7bc 1fb2 bc3d
000000c0: 1680 9abc a196 8b3d b9a4 453d 1573 b7bd
000000d0: 322d 073d 90e7 63bd c672 763d d0e5 aebd
000000e0: b76f e5bd 77a6 ba3d de7f 3dbd be2e d8bd
000000f0: 8269 80bd eca7 9fbd beec 933d 0fec acbd
00000100: 457f a2bd baa8 acbc 246a 3c3e 7487 383f
00000110: 961e 543e d9b5 9b3d c8b6 bbbd 5573 af3d
00000120: dc59 873d 0d1a 82be c4e2 2b3d 0456 a4bd
00000130: 9edb 4e3e 75b5 51bc 780e 1f3e fe5a 5b3e
00000140: b4bd ca3d 7394 7b3d 5793 f73d ec8b c23d
00000150: fbf4 1e3d 9ecb 303e 6fc5 9c3d c3d1 68bd
00000160: 728c c13c b982 aabd 9cfc d03d d86b 493e
00000170: 40cd 60bc 0759 0f3e f557 1e3e e7de ce3d
00000180: b5de bbbd 662b 7b3d 2fb7 363d eab0 373e
00000190: ade6 e53d 2c8d bf3d c661 b93e d1a5 d53e
000001a0: dfbe 513e 25e2 623e 336a 523e 1780 b5bd
000001b0: 3b35 dfbc 8331 5f3d 6b1a d03a 028b 333e
000001c0: 4d3d 52bd 4e0d 973d bdcc 613e 9db8 a93d
000001d0: b7d2 a13d c29a 493e 40ff 683e c764 7d3e
000001e0: 3f5e 393b 9d29 e33d c978 5cbd 4ad2 0b3d
000001f0: de96 d73d b76a 5d3e 6837 4f3d ffdd 223e
00000200: a5cd afbd 9260 843d b8a5 473b bf8f 82bd
00000210: 1325 5dbc 604a 1c3d 8f96 c3bc 7aa7 c33d
00000220: 8a64 a63d 1e64 b2bd 5ecc 1dbd 4094 b2bd
00000230: 038f 04bd 7343 82bd ff0d 50bd 3822 b03d
00000240: 4090 8a3c c4ea 8cbd 9ae0 b7bb fa8b 4c3d
00000250: 8f47 6abc 9dce cebd 539c 5a3d 06fb f9bd
00000260: 5b41 99bd c4ec 72bd 091b 2d3d b99f c03d
00000270: d81a 963d f4ca 20bb 947d d63b 8215 5db8
00000280: c801 d9bb e7f1 cd3b 9bc2 ad3d c3b8 153d
00000290: 8bce 1d3b 4913 60bd 8e29 b63d 12d3 bbbd
000002a0: d7e8 d2bd 306b c8bd a089 dbbd c57f b43d
000002b0: 8f6b 21bd 52fa dabd 1b74 c6bd 93df e2bc
000002c0: cf0c 3a3d b045 d4bd 17bb 913d edcf 783c
000002d0: 1384 94bd ba2a a93d 6c80 fabd e877 153d
000002e0: 6a58 f83c bc2e 4b3c 922d b33d b0b6 5e3d
000002f0: fcc4 533d a0fc ac3c 130e 8bbd dbc6 f6bd
00000300: 51bd 5fbd 9cc0 d3bd dc9d 193e 82fb 223f
00000310: ef64 323e 2eb0 f13d f0c9 8bbd c495 a03c
00000320: e542 0f3e 3d3d 343f f2e1 9a3e 5254 4fbd
00000330: c07c 3d3e 33da 2eba d446 133e f6b0 163e
00000340: 6623 033e a86c 653e 7def 4dbc 5195 203e
00000350: 657b 863d e228 eeba a9e6 89bd bef5 c93d
00000360: 19fc 10bc 80f5 933d 1f63 e73c ceb9 fd3d
00000370: e8af 023d 3b27 0d3e 7779 443e eb89 993c
00000380: 24d6 29bd e946 573d 0ad1 613e e7b1 193e
00000390: f7e0 2e3d 6e2f ce3d 86f5 923f b4fa 033f
000003a0: e75a d43c d66d 073e 4992 683e f3ba 46bd
000003b0: e305 c7bd 014e 433d 9bb4 b93d 9ef2 533e
000003c0: 59ca cfbd a9e8 9d3c 9535 293e 1348 d3bc
000003d0: 068b 323e 99c1 5b3c 6d29 353e 7be7 103d
000003e0: ac11 9c3d 8c19 873d bc97 86bd b75c 5a3e
000003f0: 5ac0 943d b2c7 e53d ec9b 463e 0236 553e
0.055912457 -0.11502495 -0.12600546 -0.1029283 0.004412806 -0.12336008 0.028808517 -0.03968208
-0.021006169 -0.028435018 -0.0003555046 -0.0874303 -0.11220105 0.030752009 0.005727631 -0.036698926
0.01506566 0.06536071 0.07679064 -0.111433096 -0.060238842 0.18397476 -0.06006403 0.12239865
-0.08771541 -0.04289836 -0.102530636 0.10522341 0.0023034282 -0.08919431 0.034456376 0.086620025
0.026253529 -0.10456387 -0.09749794 0.035088956 0.04046996 -0.040851 0.08826918 0.104520455
0.08812687 0.05605632 0.06538891 -0.071450435 0.0803518 0.03703065 -0.022352397 0.092136614
-0.018859904 0.068158396 0.048252795 -0.08957497 0.033002086 -0.055640757 0.06016805 -0.08539927
-0.112029485 0.09113782 -0.04626452 -0.1055579 -0.06270124 -0.077957004 0.07222889 -0.08443462
-0.07934431 -0.021076549 0.18399864 0.72081685 0.20714793 0.07603044 -0.09165722 0.0856692
0.06608936 -0.254105 0.041964307 -0.08024219 0.20200965 -0.01279961 0.15532863 0.2142143
0.09899464 0.06142087 0.1208865 0.09499344 0.03880785 0.17265174 0.07654845 -0.05684067
0.02362654 -0.083257146 0.102044314 0.19670045 -0.01372081 0.13998805 0.1546324 0.10101109
-0.09173337 0.061320685 0.04460829 0.17938581 0.112256385 0.09353098 0.36207408 0.4172807
0.20482968 0.2215658 0.20548324 -0.08862322 -0.027247062 0.054490577 0.0015877014 0.17533496
-0.051327992 0.073755845 0.22050758 0.08287165 0.07901519 0.19687942 0.2275362 0.24745475
0.0028284935 0.110919215 -0.053826127 0.034136094 0.105268225 0.2162274 0.05058995 0.15904997
-0.085841455 0.06463732 0.0030463766 -0.06375074 -0.013497609 0.038156867 -0.023875503 0.09553428
0.08124645 -0.08710502 -0.038524978 -0.08719683 -0.03236295 -0.06360521 -0.050794598 0.08600277
0.016914487 -0.068807155 -0.0056114914 0.04993818 -0.014299287 -0.10098002 0.05337174 -0.12206082
-0.07483169 -0.05930783 0.04226211 0.09405465 0.07329339 -0.0024535032 0.006545732 -5.2710537e-05
-0.006622527 0.0062849405 0.08484384 0.036553156 0.0024079408 -0.05470589 0.08894645 -0.09171118
-0.10298317 -0.097860694 -0.10719609 0.088134326 -0.039409216 -0.10692276 -0.09690114 -0.0276945
0.04542237 -0.10364854 0.07115763 0.015186292 -0.07251754 0.082601026 -0.12231526 0.036491305
0.030315597 0.012401279 0.08748926 0.054373443 0.05170153 0.021116555 -0.06789794 -0.120496474
-0.054623906 -0.10339472 0.15001625 0.6366502 0.17421316 0.11801182 -0.06825626 0.019602664
0.13990362 0.7040594 0.30250508 -0.050617523 0.1850462 -0.00066700875 0.14382488 0.14715943
0.12806472 0.2240473 -0.0125693055 0.1568196 0.065665044 -0.0018170143 -0.06733448 0.09861325
-0.008849167 0.0722456 0.028245507 0.12388955 0.03190604 0.13784496 0.1918696 0.018742522
-0.041463986 0.05255786 0.22052398 0.1500927 0.042695012 0.1006764 1.1481178 0.5155442
0.025922252 0.13225493 0.22712053 -0.048518132 -0.0971792 0.047681812 0.09067651 0.2069802
-0.10146017 0.01927598 0.16524346 -0.025791204 0.17435846 0.0134128565 0.17691584 0.035377007
0.07620558 0.065966696 -0.0657191 0.2132443 0.07263251 0.112197295 0.19395417 0.20821384

layer3.bias f4 [64]
00000000: a8fe c3bb 82d3 1abd 6f69 4dbd 996b 543e
00000010: c621 b43d ba59 9abd decd e6bb 9ad9 253d
00000020: 3127 703d 2533 14bd 2c0b 12bd ad99 a9bd
00000030: f8ba 853d a449 df3c ae52 af3c 12c2 9b3d
00000040: a550 d6bd aefd 6d3d ab3b f93d 598d fb3d
00000050: 52d4 a2bd a2c2 e53c a088 523c 7427 473d
00000060: 92af 6d3d 040c e43c cc01 7abb 54b6 8c3c
00000070: 3f92 0f3d 648a 8d3d 4ace 9b3d 91e8 093b
00000080: affe e6bd 3dc3 4c3e fecf ee3c 9c8e 793d
00000090: 2bd3 293d f88d d53d c2ab f03c 454c a2bd
000000a0: 2b38 873c 02ac 583e 5935 063e 3506 f73d
000000b0: d57f ccbc 3242 803c 624b 4eba ad9a 1d3e
000000c0: 0bd1 c43a 43b6 0d3e cb35 d9bd 4e6a c33d
000000d0: b1bb 20bd 6227 cbbd 43bb d6bd 5ea1 ccbd
000000e0: 0c95 e13d 0ae8 9fbd 56a2 39bb 667d a9bd
000000f0: 30a5 ad3c 17f2 683d c8ba 393e cb27 97bc
-0.005981285 -0.037799366 -0.050149377 0.2074417 0.08795504 -0.07536645 -0.0070435842 0.040490724
0.058631126 -0.036181588 -0.035655186 -0.082812645 0.06529802 0.027256794 0.02140173 0.07605375
-0.104646005 0.058103256 0.12169584 0.12282819 -0.07950653 0.02804691 0.012849957 0.04862161
0.058028765 0.02783776 -0.0038148044 0.017176785 0.03505158 0.069111615 0.07607706 0.0021043161
-0.11279046 0.19996352 0.029151913 0.06092702 0.04146115 0.10427469 0.029378776 -0.079247035
0.016506275 0.21159366 0.13106288 0.12061731 -0.024963299 0.015656564 -0.0007869509 0.15391035
0.0015015913 0.13839059 -0.10605963 0.095417604 -0.039241496 -0.09919621 -0.10484936 -0.09991716
0.110147566 -0.0780793 -0.002832552 -0.08275871 0.021196932 0.0568715 0.18137658 -0.018451592

layer4.weight f4 [290, 64]
00000000: ee9e babc 48e3 113e c466 21bd 6193 ed3d
00000010: 51c2 86bb 494b 38bd 27af ecbd 175a b73d
00000020: 16ba 7a3d d713 15bd 94ec f8bc bdc9 863d
00000030: 3d28 2d3d 33ab 4c3e 20d3 b0bc ae76 1e3f
00000040: 4f58 06bb 53a4 99bd 7e89 183e b129 ef3d
00000050: 4a21 e1bc 5fef c93d 547e df3d 4a8c b53d
00000060: cdae 613b 187e 113d 2916 573d 0e88 a1bc
00000070: a61b 523d e4e6 dabd c948 023e 145a 09bd
00000080: b166 bc3d 5ec6 073e aaf9 d93d 8e86 33bd
00000090: d153 ba3d c30c d83d 2fcb 22be 9d19 7abd
000000a0: d380 d83d f0d4 483d 81e6 243e 4325 ca3d
000000b0: 1a94 34bd 4047 abbe c6f9 d7bd 7765 0f3e
000000c0: 3650 45bd 17b8 cc3d 6d43 b1bb 61d0 b23e
000000d0: 6e90 7dbd c76f 043d b8d4 c63c 2566 56be
000000e0: 7e66 c0bc b0d8 46bd 4715 3d3e 66af 5cbd
000000f0: 80c8 2abd fe64 a03c 203b 8b3d 69da 723d
00000100: 3fe4 4b3d 33cb a63d 458f 8fbc 2704 103e
00000110: aced e9bd ef8f 06bd 7b0d 163d 21ea 783d
00000120: 3e9c 463e 58bd 9cbd dd1c 253e d87a b2bd
00000130: eb56 c43c c692 463e 893c 833c 8362 123f
00000140: c23b 5f3a 4f0b dcbd aaa4 5f3e dbb5 ff3d
00000150: d522 e0bc b840 9a3d bdba 473d f6d4 943c
00000160: c03e 91bc 9c44 293c a192 e2bb 7958 5e3d
00000170: 19e1 b73d 1685 733d 0429 283d 8efd 93bd
00000180: 7188 193c f16e 1e3e f771 753d d6bc a7bd
00000190: cc62 c53d a7c0 5abd 1e0c e53d 86e9 bbbc
000001a0: 8405 c13d 3a21 123e b8e4 093e 2674 f33d
000001b0: c947 c43d c214 1d3e e0ad d53b 178c 1f3e
000001c0: 4fc8 a9bd 1fad 6ebc 10e4 08bd 11a6 f93e
000001d0: 884c d73b 317b 823d 380d 37bd cc61 643e
000001e0: 456d 20bd 32ba 61bc 955d 093e f520 dc3c
000001f0: 3dc9 1f3d c073 933d 7a6d d33d c7da df3b
00000200: 95ca a33d 127e d6bb 69b9 a6bb f6c9 253d
00000210: d93f f43d c6f4 59bd abf0 a33d 5d97 853d
00000220: 8fce 0a3d 3c96 cd3d cc6b 963b cab4 013d
00000230: e991 2c3e 9599 c63d db6a c63b 2e31 133c
00000240: a3ca a33d 757d 6e3d dc4f db3d c487 273c
00000250: 5783 c4bc d2ff 3abc fd41 a63d bfe2 07bd
00000260: 5260 a3ba a212 ac3d 6225 93bd 6ea3 9c3d
00000270: 15e5 a6bd 4f4b feba 7e00 053e 3b52 52bd
00000280: 7420 81bd d46e fa3d 4311 943d 7e78 4b3e
00000290: 6344 4bbd 221c 743c af54 89bc cf3d 8c3d
000002a0: 281c c63d 04c1 f23c 5123 bf3d 1a6d d33d
000002b0: d567 ad3d 9560 f53d d5a4 8fbd 130f 543e
000002c0: 754d 0abc 9457 d23d 7af2 40bd 8c0c b23d
000002d0: 96d5 d33d 6735 4a3b 0bf6 80bd 6f05 da3c
000002e0: 7f51 723c 6f38 843d 9d87 323e 44b8 3abd
000002f0: 86f2 ae3d 8f64 ce3d f096 ac3c bcfb b63d
00000300: f773 54bd 2eff 013e 61d9 833d c52d 2c3e
00000310: 27bc d53d 22bb ba3c 9058 3f3d 5842 e93d
00000320: e847 863c fd19 f93d 7930 d83d 6e8a 71bd
00000330: beba 013d f203 283e 72c9 443d 5b81 5b3d
00000340: 33f2 49bd 2847 913d 94ad b43c 5c73 823d
00000350: d489 2dbc 6d4f 40ba 3d5d abbc c928 e73b
00000360: 3d3d 1dbd cb95 953c ecbc dc3d b925 c73d
00000370: fd8d a93d 6312 8bbd cc23 1e3d 6488 df3a
00000380: d18c e93d fc08 dd3d 417f 283d 4f9d 1b3e
00000390: 6bd7 87bd 85f2 ec3a 46ac ea3c 9f9a df3d
000003a0: a8eb d53d f4a0 713d c07c 4e3e ad7e 8eba
000003b0: 38c7 893d 91ff 733d a4ce 483c 802a 463d
000003c0: 38da b83d 1187 213e f4b8 2fbb e676 673c
000003d0: 2c4b 4b3d 16d3 bfbd 4e15 b53d f9ce 593d
000003e0: 8a46 c03d d23c d0bd cb70 833c bbbe e53d
000003f0: dd1d 5d3d 0ad4 d5bd 67db 273e 6045 85bd
-0.022780862 0.14246857 -0.039404646 0.11600376 -0.00411252 -0.044993673 -0.11556845 0.0895273
0.06121262 -0.036395874 -0.030386247 0.06581447 0.042274702 0.19987182 -0.021585047 0.6189984
-0.0020499413 -0.075020455 0.14896199 0.11677874 -0.027481694 0.098601095 0.10912767 0.08864649
0.0034436465 0.035520643 0.052511368 -0.019718196 0.0512959 -0.1068857 0.12723078 -0.03353317
0.09199274 0.13259265 0.10643323 -0.043829493 0.09098018 0.10549309 -0.15897821 -0.061059583
0.10571446 0.049031198 0.16103555 0.09870388 -0.044086553 -0.33452797 -0.105456874 0.1400355
-0.0481722 0.0999605 -0.005409649 0.34924605 -0.061905317 0.03233316 0.024271354 -0.20937403
-0.023486372 -0.048546493 0.18465148 -0.05387821 -0.041695118 0.019579407 0.067983866 0.059290323
0.04977822 0.08144226 -0.01752437 0.14064084 -0.114222854 -0.03285211 0.03663395 0.060770158
0.19395539 -0.07653302 0.16124292 -0.08714837 0.023967227 0.19391927 0.016020076 0.57181567
0.00085156795 -0.107443444 0.21840158 0.12485858 -0.02736036 0.07531875 0.048762072 0.018167954
-0.017730117 0.010331299 -0.006914452 0.054283593 0.08978481 0.059453093 0.04105474 -0.07226096
0.009370909 0.15472008 0.05992314 -0.081903145 0.09637985 -0.053406384 0.11183952 -0.022938501
0.0942488 0.14270487 0.13466156 0.11887388 0.095840044 0.1533995 0.0065209717 0.15580784
-0.08290159 -0.0145676425 -0.033420622 0.4875951 0.0065704025 0.06371153 -0.04469034 0.22302932
-0.039166708 -0.013777303 0.13414605 0.026871184 0.039010275 0.07199812 0.10323615 0.0068315
0.07997624 -0.0065457905 -0.0050880206 0.040475808 0.119262405 -0.05321195 0.08004888 0.06523011
0.033888396 0.100384206 0.004590487 0.031666555 0.16852535 0.09697262 0.0060552186 0.008983893
0.07997634 0.058225114 0.10708591 0.01022524 -0.023988409 -0.011413531 0.08118055 -0.033175226
-0.0012464619 0.084019914 -0.071848646 0.07648359 -0.08149163 -0.0019401106 0.12988469 -0.051347952
-0.06305018 0.1222817 0.07229855 0.19870183 -0.049625766 0.0148992855 -0.016764013 0.068477266
0.09673339 0.029633053 0.09332908 0.10323544 0.0846707 0.11981312 -0.07013861 0.20708875
-0.008441319 0.102706105 -0.047106244 0.086937994 0.10343473 0.0030854584 -0.06296929 0.026613919
0.014789938 0.06456076 0.17434545 -0.045585886 0.085423514 0.10077774 0.021068066 0.08934733
-0.051868405 0.12695 0.06437946 0.16814335 0.10436278 0.02279431 0.04671532 0.11389607
0.01639171 0.1216316 0.105561204 -0.058969907 0.03167223 0.16407755 0.048043676 0.05359016
-0.049303245 0.0709365 0.022055425 0.06369659 -0.010591943 -0.0007336054 -0.020918483 0.0070544225
-0.03838848 0.018259903 0.107782215 0.09723992 0.08279035 -0.06790616 0.038608357 0.0017054197
0.11403812 0.10792729 0.041136984 0.15196727 -0.066328846 0.0018077648 0.0286466 0.109181635
0.104453385 0.058991387 0.20164776 -0.0010871493 0.06727451 0.0595699 0.012256298 0.048380375
0.09025997 0.1577418 -0.0026813122 0.014127469 0.049632236 -0.09366433 0.08841954 0.0531759
0.09388454 -0.101678506 0.016044995 0.112180196 0.053983558 -0.10440834 0.16392289 -0.06507373

layer4.bias f4 [290]
00000000: f0d5 053d 139c 943d 77d8 753d 7024 073e
00000010: 1fbd 0c3e 041d 33bc ac55 673c 2906 5d3d
00000020: 9ae6 3f3e 830a 0abd c0fb b03d 1ec5 dc3d
00000030: 3e1b 483d ec48 bb3d eaca c0bc dcfc 463d
00000040: c48d a83c ba51 533d 90d4 ec3d 8254 0c3e
00000050: aa65 cebc b6a9 913d e193 25bd c21f 033e
00000060: 2f9f 3b3d 038b b43d b13d 8ebd a58d 353d
00000070: a223 a23d 9250 fd3d 41d4 62bd 38f1 1abc
00000080: 4f4a 2f3e 5440 60bd 574a c0bd 8f47 a5bc
00000090: 4ab4 01bd 113b 2b3e 3bec 143e 8326 17bd
000000a0: b3bc e83d 929c 2e3c 03fb aabb 9a25 043c
000000b0: fa83 2c3e e863 aa3d 56cb a0bd 9f77 bdbd
000000c0: 0bee 43bd 7f50 a0bd c10a 363d 13fa 16bd
000000d0: 44dc 823d 791b 633d a7b2 013e da6e 6e3d
000000e0: c5e3 d6bb a893 c3bd 78ed 6d3c fab9 073e
000000f0: 943f 13bd ed7d a53d d99b 003d 9585 e53d
00000100: 23d0 3fbc a4f1 a2bd 1f58 223e 9789 283e
00000110: 1142 9fbc c3c2 0c3e e4bb 9dbd 0b74 fb3d
00000120: 57d5 5a3d 76db 613d 8d43 96bd 7119 adbd
00000130: f79f 08bd 20ce dcbd 50d9 c5bd 1d17 e2bc
00000140: 13e6 213e b325 1d3e 8109 f33d 572d 563d
00000150: fe06 263e 481b c33d f150 65bd 97b0 14bd
00000160: fe98 93bd bbb9 19bd 13b1 813c cf8b c63d
00000170: 64ce c23d 93ed 093e f997 c0bd 39e9 b03c
00000180: 4e4d d9bd 0a47 24bd 4788 49bd 4c4c 0f3b
00000190: 77a9 b33d 9f8c 2abd 633e 353d 87ec f33d
000001a0: 2331 1d3c a050 9f3d d2c4 abbd 43eb 193d
000001b0: 1625 543c b156 8e3d fe13 e4bd 4091 a53d
000001c0: 16d7 c6bd 913f cebd 75b3 9dbc 4140 873c
000001d0: 8764 7e3d 095d afbd 4fea 82bc 9342 803d
000001e0: 8d7d 47bc a263 103d 8a53 16bc 9677 f93d
000001f0: 2e15 4d3d fce3 b1bc 5eb4 d9bd ae24 17b9
00000200: 9b4b aabd d9e6 f2bc 0486 663d 46b0 b8bd
00000210: 48fa d13d 5fad 723d a6c1 173d 6f25 b63d
00000220: 1652 bb3d 522c 693d b0d5 b7bc e544 afbd
00000230: d25f 433d 14af dfbd 3a58 ccbd 035b c63d
00000240: a848 3e3d a457 493d aea6 a33c b5bd 8dbb
00000250: 1711 a1bd 8ca8 8cbd 8af1 95bd 83c4 0dbd
00000260: ecd6 893d b1c1 8f3d 2502 8d3d dcf8 a33d
00000270: 0669 05bd b9fe 9c3d 5cea eb3c fdb1 0a3e
00000280: 3fe9 b6bd 28bb babd 2cac 9b3d 7a79 903d
00000290: c11a 68bd f3cd d13c 134e 4ebd ad80 d1bd
000002a0: f0f5 7c3d 0fcd 91bc 9d4c 943d 6edf cfbd
000002b0: 2273 3f3d a8f3 f23c e5ee 9f3d 2865 b8bd
000002c0: bbea 74bb c802 48bd 092a e5bd 82f8 30bd
000002d0: f25e b9bd 493e c6bd b445 213d 7f65 d93d
000002e0: bfec ffbc 8ef2 ea3c bad8 c4bd 1f05 c53d
000002f0: 5883 85bd 8bde a43d 9407 f2bc 73d4 83bd
00000300: 99f6 8b3d a201 e2bc 3ac2 84bd 8b41 4dbd
00000310: a8ee 903d f6c4 db3d d132 04bd 9713 9fbd
00000320: 019b e8bc 564a 7c3e 5eea cabd 87cd ae3d
00000330: f51f 7e3d a0be ebbc c408 b9bd 048e 35bd
00000340: 8833 27bd 3a98 c5bd 9569 8abc 56f5 a53d
00000350: aeda 953d 9dbe 393d 6c1c 62bc bbb2 e13b
00000360: 6ad9 55bd 28ad c1bd 2857 8bbd f2fb ab3d
00000370: e43e 58bd 6090 b03d 866b 833d 379e 0b3e
00000380: 0ddd 983d 859d e13d 4eec c53c 2893 033e
00000390: 7473 53bd 698d db3d fe60 bb3d cd99 e8bc
000003a0: e9b1 763d 9a6e 6cbd 91f8 10bd f5ba 8e3c
000003b0: d22d 6f3d 9e81 003e 6fc2 833d 298d f5bc
000003c0: 793a 1e3e dd55 ad3d 2363 273e 1262 313c
000003d0: 619b 873d d84c 093e cc98 123e 5181 01bd
000003e0: cf8d e83d 937b 9d3d 8c0d 0a3e 56ec 913d
000003f0: d567 55bd 154d 2c3a bc99 83bc 0a5b 9bbd
0.03267473 0.07256331 0.06002089 0.13197494 0.13744019 -0.010932211 0.014119547 0.053960953
0.18740311 -0.03370143 0.086417675 0.107797846 0.048854105 0.09144768 -0.023534257 0.04858099
0.020575412 0.051591612 0.115639806 0.13704112 -0.025194962 0.07112448 -0.04042423 0.12805083
0.045806106 0.08815577 -0.069453605 0.044324536 0.07916953 0.12368883 -0.055378202 -0.009456925
0.1711819 -0.054748848 -0.09389179 -0.020175723 -0.031666078 0.16721751 0.1454324 -0.036901962
0.113641165 0.010657446 -0.005217911 0.008065606 0.1684722 0.08319837 -0.07851283 -0.092513315
-0.047834437 -0.078278534 0.04444385 -0.036859583 0.063896686 0.05544612 0.12665807 0.058211185
-0.006557914 -0.095496476 0.014521949 0.13254538 -0.035949305 0.08080659 0.031398628 0.112071194
-0.0117073385 -0.079562455 0.15853928 0.16458736 -0.019440683 0.1374617 -0.07701853 0.12277993
0.053426113 0.055140935 -0.07337103 -0.08452118 -0.03335568 -0.10781503 -0.0966059 -0.027598912
0.15810423 0.15346412 0.11867047 0.052289333 0.16213605 0.09526688 -0.055985395 -0.03630122
-0.07206915 -0.037530642 0.015831506 0.09694635 0.09512022 0.13469534 -0.094039865 0.021595584
-0.10610448 -0.04010681 -0.04920223 0.0021865545 0.08772557 -0.041638013 0.04424895 0.119103484
0.009594235 0.0777905 -0.0838715 0.03757788 0.012948295 0.06950129 -0.11136626 0.08084345
-0.09708993 -0.10070718 -0.01925061 0.01651013 0.06210759 -0.08562667 -0.015980868 0.06262698
-0.01217593 0.035251267 -0.009175191 0.12181012 0.050069027 -0.021715157 -0.106301054 -0.00014414146
-0.08315202 -0.029651092 0.05628015 -0.090179965 0.102528155 0.05924737 0.037049912 0.08893859
0.09146516 0.056927033 -0.022440761 -0.085580625 0.047698803 -0.109220654 -0.099777654 0.09685328
0.04645601 0.049155846 0.01997694 -0.0043255934 -0.07864588 -0.06868085 -0.073214605 -0.034611236
0.06730446 0.070193656 0.06885175 0.080064505 -0.03257086 0.07665772 0.028798275 0.1354446
-0.08931207 -0.091177285 0.076011986 0.0705442 -0.05666614 0.0256109 -0.050367426 -0.10229621
0.06175798 -0.017797975 0.07241175 -0.10150038 0.04674066 0.0296572 0.078092374 -0.09003669
-0.0037371356 -0.048830777 -0.11189658 -0.043205746 -0.090513125 -0.09679849 0.039373115 0.10615062
-0.031240819 0.028680112 -0.0961165 0.096201174 -0.065191925 0.08050259 -0.02954463 -0.06437006
0.06834144 -0.02758867 -0.06482358 -0.050111335 0.0707677 0.10730927 -0.032275025 -0.07767408
-0.028394224 0.24637732 -0.09907983 0.08535295 0.062042195 -0.02877742 -0.09034875 -0.04432489
-0.04082063 -0.096481755 -0.016896049 0.08103435 0.073171005 0.0453478 -0.013800722 0.0068877614
-0.052209295 -0.09456855 -0.06803733 0.08397664 -0.052794352 0.08621287 0.06416993 0.13634573
0.07464037 0.110163726 0.02416053 0.12849104 -0.051623777 0.10720331 0.09149359 -0.02839365
0.060228262 -0.057722665 -0.0353933 0.017423132 0.058393307 0.12549445 0.0643357 -0.029974537
0.15451993 0.08463643 0.16346411 0.010826604 0.06621433 0.1340822 0.143161 -0.031617466
0.11355173 0.076895855 0.1348173 0.07125156 -0.052100975 0.00065727654 -0.016064517 -0.07585724
