catanatron_experimental/my_DQN_wyniki2/my_DQN2_200_steps.pth (torch, 268915 bytes, 8 tensors)

layer1.weight f4 [64, 614]
0.017771453 0.0074731507 -0.029002398 0.020699667 -0.027442213 -0.0015307021 -0.019811826 0.001249523
-0.011375506 -0.019170603 0.01250779 0.011439898 0.02677101 0.016470995 0.0134998355 -0.009404409
-0.007065223 0.024088033 -0.028031895 0.0016754877 -0.01576277 -0.0062162396 -1.1450399e-05 0.0088140555
0.023871047 0.023924261 0.022608628 0.0072700507 -0.002054368 -0.014495881 0.008892674 0.0187892
-0.0028863898 0.0039760307 0.007343796 0.023515537 -0.027212085 0.010952022 -0.00094909145 -0.014846064
-0.009893283 0.020870319 0.0020831672 -0.018053541 -0.00421345 0.020703891 0.012691629 -0.007842111
0.0010877927 -0.0035288155 0.023956906 -0.0028292935 0.008343188 0.01323861 -0.006401474 0.0024575638
0.007559048 -0.009499536 0.020161094 -0.0085663125 0.0128317 0.005800824 0.00016075875 -0.014487896
-0.012894992 -0.025932245 0.018420165 0.013201993 -0.012189597 0.00482283 0.015403669 0.020249348
-0.026500562 0.026452795 -0.00659273 0.01683973 -0.017555492 -0.016460404 -0.022698238 -0.026662964
0.002849885 0.013863476 0.008315745 -0.017520575 -0.02271462 0.0015511694 -0.0074101565 -0.024788348
-0.0037618964 -0.019416586 -0.014434034 -0.005083763 0.006364437 -0.0059160027 -0.007930409 0.008981115
0.022493433 0.001369029 -0.02439525 0.015519785 0.009964915 -0.017827295 -0.022303361 -0.015483128
0.01604224 -0.011772264 0.025511455 0.013659615 0.0015340793 0.008963803 -0.018571364 0.0139953215
0.013531352 -0.024028722 -0.017327476 -0.017889535 -0.018776262 -0.009192745 -0.011074892 0.022123959
0.010224166 0.0019725405 -0.021149233 0.022961458 -0.000274399 -0.00091575703 0.0072190887 -0.010813288
0.00952675 -0.0070135742 0.0014526385 0.017138388 0.025374336 -0.0005055748 0.026165117 -0.0010152971
0.017675154 -0.002423347 0.0137146525 -0.015708387 -0.020601373 -0.00085718924 -8.306107e-05 0.0035541875
0.022619963 -0.012661662 -0.008022829 0.021477837 -0.0017970473 -0.0008768565 -0.0082452195 0.01698718
0.025696218 -3.8759394e-05 0.019680412 0.00903007 -0.010416046 -0.025304195 0.015661705 0.0058704545
-0.022057831 0.011106738 -0.01593426 -0.0022923124 -0.018152773 -0.021190204 -0.012614663 0.0025955758
-0.0021036784 0.0063366066 -0.02059472 0.025843108 -0.020252433 0.025415583 -0.0035098502 -0.014854753
-0.01445924 -0.01602352 0.0033006964 0.0086795585 0.0048441957 0.01841649 -0.01492285 -0.023733666
0.014191912 -0.017829312 0.010953704 -0.013605266 0.021463403 -0.01855875 -0.025489232 0.009008749
-0.015320951 0.013504387 0.020964412 0.024003813 -0.01143005 -0.014429434 -0.026027165 -0.005662005
0.019566577 0.015437196 -0.017113712 0.0057582827 0.0023594273 -0.0029679767 -0.021584159 0.018755633
0.013619296 0.023510318 0.019395487 0.017546462 0.010628715 -0.02533518 -0.01483911 -0.0014886846
0.018026609 -0.0037081349 -0.013863922 0.015740432 0.025173612 -0.0023922012 -0.020068757 -0.0017818579
-0.001146361 -0.01591521 0.007368289 -0.008575043 -0.017277444 -0.012027815 0.013330861 -0.012635725
-0.011099794 -0.0061841905 -0.010833763 0.026701694 0.0004215858 -0.007873218 -0.001052962 -0.019148884
0.02294602 0.023058994 0.010438676 0.008062174 0.012280041 -0.011370769 0.0077749155 -0.00924142
0.024338178 -0.018702548 0.024721188 0.0035960374 -0.02209024 0.015363478 0.018203488 0.012551221
00000000: 7095 913c 55e1 f43b 7096 edbc 5992 a93c
00000010: 7ece e0bc d7a1 c8ba 694c a2bc 09c7 a33a
00000020: 5560 3abc ab0b 9dbc 79ed 4c3c 696e 3b3c
00000030: e14e db3c 2eee 863c 6a2e 5d3c f314 1abc
00000040: 6383 e7bb 4454 c53c 25a3 e5bc 0a9c db3a
00000050: ed20 81bc 99b1 cbbb 171b 40b7 d468 103c
00000060: 378d c33c d0fc c33c bb35 b93c 9b39 ee3b
00000070: 93a2 06bb 2280 6dbc 94b2 113c cfeb 993c
00000080: 9629 3dbb 5d49 823b 3aa4 f03b a8a3 c03c
00000090: e1eb debc 1c70 333c 73cc 78ba e83c 73bc
000000a0: 7017 22bc 3bf8 aa3c bf85 083b 05e5 93bc
000000b0: fb10 8abb 359b a93c 8df0 4f3c 337c 00bc
000000c0: 4494 8e3a b343 67bb 4641 c43c ab6b 39bb
000000d0: deb1 083c c1e6 583c 75c3 d1bb 140f 213b
000000e0: e4b1 f73b f1a3 1bbc e128 a53c b859 0cbc
000000f0: 0d3c 523c d714 be3b 5991 2839 a45e 6dbc
00000100: 8445 53bc dc6f d4bc e3e5 963c 2c4d 583c
00000110: e0b6 47bc d508 9e3b ac5f 7c3c f6e1 a53c
00000120: b517 d9bc 88b3 d83c d407 d8bb 79f3 893c
00000130: 89d0 8fbc f8d7 86bc a8f1 b9bc 4a6c dabc
00000140: 23c5 3a3b a223 633c c33e 083c 4f87 8fbc
00000150: 0314 babc 9c50 cb3a e6d0 f2bb ef10 cbbc
00000160: 268a 76bb 880f 9fbc ba7c 6cbc b295 a6bb
00000170: c48c d03b 07db c1bb 8cee 01bc 8725 133c
00000180: 2644 b83c fe70 b33a 8cd8 c7bc b246 7e3c
00000190: e243 233c 8c0a 92bc 8ab5 b6bc f2ac 7dbc
000001a0: 046b 833c 74e0 40bc 66fd d03c 94cc 5f3c
000001b0: 2913 c93a eadc 123c f922 98bc a24c 653c
000001c0: 9bb2 5d3c e2d7 c4bc 5af2 8dbc 138d 92bc
000001d0: add0 99bc 2b9d 16bc 7773 35bc 4e3d b53c
000001e0: 4383 273c bd45 013b 2841 adbc ab19 bc3c
000001f0: 36dd 8fb9 6a0f 70ba 1b8e ec3b 382a 31bc
00000200: 1616 1c3c 20d2 e5bb 7666 be3a ce65 8c3c
00000210: d7dd cf3c 8d88 04ba 3a58 d63c b813 85ba
00000220: 7ccb 903c 04d1 1ebb 6cb3 603c e0ae 80bc
00000230: 36c4 a8bc ffb4 60ba 1331 aeb8 5fed 683b
00000240: 804d b93c dc72 4fbc 2f72 03bc 4af2 af3c
00000250: e78a ebba d8dc 65ba f516 07bc b328 8b3c
00000260: e080 d23c 9591 22b8 d138 a13c dcf2 133c
00000270: 10a8 2abc be4a cfbc fa4c 803c f15c c03b
00000280: a0b2 b4bc 09f9 353c 9188 82bc 9f3a 16bb
00000290: 20b5 94bc 1497 adbc bbad 4ebc 891a 2a3b
000002a0: dedd 09bb 4fa3 cf3b 42b6 a8bc edb4 d33c
000002b0: 6ee8 a5bc 5734 d03c 8405 66bb 5a61 73bc
000002c0: 73e6 6cbc c243 83bc 7f50 583b b534 0e3c
000002d0: 0fbc 9e3b 2ede 963c f87e 74bc 1b6d c2bc
000002e0: 3185 683c c70e 92bc 2a77 333c 9fe8 5ebc
000002f0: 05d4 af3c 8508 98bc cbce d0bc 6f99 133c
00000300: ba04 7bbc 8141 5d3c 8fbd ab3c a5a3 c43c
00000310: 1b45 3bbc 6f69 6cbc ec36 d5bc 5788 b9bb
00000320: 164a a03c 4bec 7c3c 0e32 8cbc faaf bc3b
00000330: 9fa0 1a3b 6382 42bb 43d1 b0bc 6aa5 993c
00000340: 7823 5f3c b698 c03c 49e3 9e3c 99bd 8f3c
00000350: 1024 2e3c b98b cfbc bd1f 73bc f71f c3ba
00000360: 8aac 933c 2e04 73bb 8125 63bc 14f2 803c
00000370: e438 ce3c 7ac6 1cbb 3c67 a4bc 3b8d e9ba
00000380: 7e41 96ba 9d60 82bc b071 f13b 567e 0cbc
00000390: 6d89 8dbc 5010 45bc af69 5a3c 1206 4fbc
000003a0: e9db 35bc c0a4 cabb 1880 31bc 83bd da3c
000003b0: 4a08 dd39 abfe 00bc 8b03 8aba 1fde 9cbc
000003c0: 4bf9 bb3c 37e6 bc3c fb06 2b3c 3517 043c
000003d0: 3a32 493c 764c 3abc b8c4 fe3b 5369 17bc
000003e0: dc60 c73c 1636 99bc 1784 ca3c 7fab 6b3b
000003f0: 97f6 b4bc 19b7 7b3c 7b1f 953c a3a3 4d3c

layer1.bias f4 [64]
0.017244605 0.001282402 -0.0009778342 6.2212224 -0.03008546 6.160627 -0.031255435 6.185067
0.018813526 6.2202783 6.152295 6.214718 -0.031748477 -0.06053771 6.124266 5.992462
6.1969194 6.162867 6.222399 0.023992022 6.026474 6.176036 6.153883 -0.011440987
-0.00073286047 6.192038 -0.3620881 6.2281113 0.0055674734 0.022675324 -0.022569347 -0.019045932
6.1817355 -0.005039357 0.017873444 6.2105346 6.153602 6.186988 6.189247 0.0039823027
-0.32689145 -0.005297637 6.1876116 -0.16788515 -0.0024002471 -0.0149611635 -0.020499337 -0.0099131595
6.1714334 0.010616419 -0.003948003 -0.028534455 6.148801 6.1704445 6.169044 6.130429
0.005393598 -0.012260707 -0.022247985 6.1695585 6.195985 6.189324 6.183977 6.1413493
00000000: 8f44 8d3c 4516 a83a ac2a 80ba 4114 c740
00000010: c875 f6bc db23 c540 b305 00bd 12ec c540
00000020: d31e 9a3c 850c c740 9adf c440 f8de c640
00000030: b10a 02bd 64f6 77bd fdf9 c340 40c2 bf40
00000040: 2a4d c640 3536 c540 e51d c740 eb8a c43c
00000050: e0d8 c040 16a2 c540 9cec c440 fa72 3bbc
00000060: 6f1d 40ba 2d25 c640 9d63 b9be b04c c740
00000070: 5a6f b63b 9ac1 b93c 5ae3 b8bc 3706 9cbc
00000080: c7d0 c540 3121 a5bb 546b 923c b3bc c640
00000090: 4fea c440 cefb c540 500e c640 fa7d 823b
000000a0: 515e a7be cd97 adbb ea00 c640 16ea 2bbe
000000b0: 774d 1dbb ab1f 75bc 3aee a7bc ce6a 22bc
000000c0: 627c c540 7df0 2d3c 405e 81bb 17c1 e9bc
000000d0: fac2 c440 4874 c540 cf68 c540 792c c440
000000e0: c8bc b03b 22e1 48bc 6841 b6bc 066d c540
000000f0: 8245 c640 f10e c640 24e3 c540 ef85 c440

layer2.weight f4 [64, 64]
-0.01312624 -0.0021572353 0.006738798 0.04799732 -0.035977606 0.0035499758 -0.06843588 0.067664765
-0.024731433 0.0030341672 -0.063892536 0.044468116 -0.046146195 0.05508272 0.00092144636 0.029243562
0.04902195 0.046950176 0.0054851808 0.0051387125 -0.070416465 -0.034981254 0.044965725 0.037185222
0.05419996 -0.03541994 0.04352574 -0.085496224 -0.078655735 0.013541264 -0.057241775 -0.08200212
-0.053918257 0.03276668 -0.046841737 -0.024663817 0.05193117 -0.045239676 -0.051266726 -0.0417084
0.063240506 0.055638835 0.07642896 0.025501492 -0.024362547 0.0935108 0.0716341 0.018492982
-0.08816687 0.054354507 -0.0136669045 0.053643625 0.011609517 -0.020806734 -0.099349156 0.0038891041
-0.033852164 -0.075009085 0.07132683 0.060479313 -0.073097154 -0.06100591 0.026052378 -0.0718005
0.0155917825 0.029419946 -0.018708605 -0.05589678 -0.007269839 -0.042909116 -0.010108818 -0.04791031
-0.057714034 0.008552483 0.058627725 0.07757246 -0.015698455 0.06433323 -0.027400509 0.06256777
-0.038076624 0.03994975 -0.033027865 0.06805843 -0.00068119785 -0.080200024 0.039282896 0.04323374
-0.0015270368 -0.029123403 -0.033458177 -0.025671542 0.0451593 -0.06656283 -0.02570607 -0.041722916
-0.027830835 -0.033245318 0.038547345 -0.048067994 -0.071087666 -0.0820212 -0.084727705 -0.013505083
-0.05803189 -0.06243786 0.070096664 0.06917719 -0.018772554 -0.07600216 -0.03951315 0.0130743105
0.041092366 -0.0065991115 -0.03295508 0.074109845 0.07231409 0.026219362 -0.024470698 -0.02989547
0.032956723 0.00379436 -0.021750987 0.05251433 -0.047802567 0.07625706 0.011347737 0.06801718
0.010841991 0.058425624 0.06459217 5.3042803 -0.19682965 5.2983804 -0.03201513 5.321569
-0.0034823886 5.358463 5.455375 5.318464 -0.030694846 -2.339069 5.3886437 5.408263
5.468701 5.365481 5.3203645 0.036126852 5.7432084 5.3606925 5.434863 -0.053104945
0.065028906 5.4585323 -2.4670644 5.3262076 0.080646485 -0.032665316 -0.021474818 -0.019206336
5.511089 -0.0418254 0.053834774 5.338125 5.4570365 5.498128 5.4577937 -0.011483568
-3.457116 0.03450823 5.335159 -3.4635484 -0.013597422 0.08336967 -0.0066089835 -0.0034726982
5.4342246 -0.050655406 -0.07988976 0.04799866 5.4891787 5.4307837 5.290119 5.496056
-0.06840606 -0.00024466496 -0.100134216 5.3830543 5.39722 5.505364 5.417508 5.4626217
0.061831407 -0.08093958 -0.06269946 -0.033766758 0.7431742 0.116292335 0.021617554 -0.06539079
-0.014193968 0.027288422 0.05505227 -0.063455634 0.026971407 -0.03234422 0.037832163 0.27448377
0.05805252 -0.071383104 0.055643596 -0.06077344 -0.24503674 -0.2245033 0.0015400101 0.02968111
-0.06947839 -0.07199359 -0.18202321 0.06709964 0.040671557 0.055144414 0.034833066 -0.056838803
-0.21555635 0.018787406 0.02877495 0.048803627 -0.09991337 0.028530281 -0.031919695 -0.042573996
-0.07419643 0.009048706 -0.01504175 0.4702973 -0.07602281 0.29439133 -0.02211156 -0.08137928
-0.03346433 -0.027398635 -0.033052493 0.036933947 -0.16545324 0.051009238 -0.031388845 0.153535
-0.059694905 0.065680966 -0.057858877 -0.0583837 -0.0047143423 0.049056336 -0.06559194 -0.09500628
00000000: 710f 57bc 6760 0dbb 23d1 dc3b d698 443d
00000010: 415d 13bd b6a6 683b 1c28 8cbd d393 8a3d
00000020: 9399 cabc e1d8 463b 17da 82bd 3324 363d
00000030: cb03 3dbd 6b9e 613d 388d 713a 3290 ef3c
00000040: 3ecb 483d d44e 403d 08bd b33b a562 a83b
00000050: 8236 90bd 8148 0fbd fb2d 383d 884f 183d
00000060: c700 5e3d 8014 11bd 0c48 323d a518 afbd
00000070: 4216 a1bd 2edc 5d3c 5a76 6abd baf0 a7bd
00000080: 64d9 5cbd 5b36 063d 1fdd 3fbd c60b cabc
00000090: c7b5 543d 3d4d 39bd 0ffd 51bd 6dd6 2abd
000000a0: 3d84 813d 8ce5 633d c986 9c3d 81e8 d03c
000000b0: f793 c7bc 9782 bf3d e6b4 923d 987e 973c
000000c0: d590 b4bd d5a2 5e3d 27eb 5fbc 6bb9 5b3d
000000d0: d835 3e3c e272 aabc 9277 cbbd 57e0 7e3b
000000e0: 91a8 0abd 5d9e 99bd cd13 923d 28b9 773d
000000f0: f6b3 95bd 55e1 79bd cc6b d53c 240c 93bd
00000100: ad74 7f3c 1902 f13c ca42 99bc 06f4 64bd
00000110: d437 eebb 78c1 2fbd 759f 25bc 9a3d 44bd
00000120: 8d65 6cbd b71f 0c3c a023 703d 4fde 9e3d
00000130: 0c9a 80bc 24c1 833d 0877 e0bc 8823 803d
00000140: 3cf6 1bbd 59a2 233d 3a48 07bd 3862 8b3d
00000150: 6a92 32ba e93f a4bd 1ae7 203d dd15 313d
00000160: da26 c8ba 3494 eebc 710b 09bd 204d d2bc
00000170: f5f8 383d 1852 88bd 8995 d2bc a6e5 2abd
00000180: 7efd e3bc 3e2c 08bd d2e3 1d3d f2e2 44bd
00000190: 6996 91bd bbfa a7bd b885 adbd 6c44 5dbc
000001a0: d9b2 6dbd d7be 7fbd d78e 8f3d c5ac 8d3d
000001b0: e6c8 99bc 05a7 9bbd 8ad8 21bd a235 563c
000001c0: 7850 283d 5c3d d8bb e8fb 06bd e7c6 973d
000001d0: 6919 943d fdc9 d63c c676 c8bc 58e7 f4bc
000001e0: a1fd 063d ccaa 783b 202f b2bc 4419 573d
000001f0: a0cc 43bd a92c 9c3d dceb 393c 974c 8b3d
00000200: 9ba2 313c b54f 6f3d e648 843d aabc a940
00000210: b68d 49be 558c a940 4c22 03bd 4b4a aa40
00000220: c938 64bb 8778 ab40 6f92 ae40 db30 aa40
00000230: c273 fbbc 4eb3 15c0 c56f ac40 7e10 ad40
00000240: 99ff ae40 05b2 ab40 6d40 aa40 c0f9 133d
00000250: 5dc8 b740 cb8a ab40 66ea ad40 9284 59bd
00000260: e02d 853d 4cac ae40 62e4 1dc0 4b70 aa40
00000270: fc29 a53d 11cc 05bd f5eb afbc 9b56 9dbc
00000280: d75a b040 1c51 2bbd da81 5c3d ecd1 aa40
00000290: 0ba0 ae40 aaf0 af40 3fa6 ae40 9325 3cbc
000002a0: 6341 5dc0 8058 0d3d 9fb9 aa40 c7aa 5dc0
000002b0: b9c7 5ebc b8bd aa3d 2c90 d8bb 3596 63bb
000002c0: 2be5 ad40 0b7c 4fbd 3e9d a3bd 3e9a 443d
000002d0: 5aa7 af40 fbc8 ad40 a848 a940 b1df af40
000002e0: 7a18 8cbd 6046 80b9 2b13 cdbd fb41 ac40
000002f0: 07b6 ac40 f12b b040 3a5c ad40 cccd ae40
00000300: ee42 7d3d a7c3 a5bd 9368 80bd 034f 0abd
00000310: aa40 3e3f ad2a ee3d 4c17 b13c 9beb 85bd
00000320: d18d 68bc f88b df3c 7d7e 613d 07f5 81bd
00000330: 24f3 dc3c 5f7b 04bd e6f5 1a3d 2389 8c3e
00000340: 7bc8 6d3d 4e31 92bd 8aea 633d 92ed 78bd
00000350: e9ea 7abe 31e4 65be 2ada c93a cd25 f33c
00000360: b04a 8ebd 6071 93bd 4b64 3abe 896b 893d
00000370: 3897 263d 1cdf 613d 1ead 0e3d cecf 68bd
00000380: ceba 5cbe 0ce8 993c 72b9 eb3c 50e6 473d
00000390: 629f ccbd 56b8 e93c 3abe 02bd 1262 2ebd
000003a0: 4cf4 97bd 0641 143c ac71 76bc cfca f03e
000003b0: d9b1 9bbd 76ba 963e 4d23 b5bc 2eaa a6bd
000003c0: e511 09bd 1a73 e0bc 0d62 07bd 0d48 173d
000003d0: 936c 29be 10ef 503d 9791 00bd 4738 1d3e
000003e0: a582 74bd be83 863d 6efd 6cbd bf23 6fbd
000003f0: c57a 9abb 4cef 483d 1155 86bd a792 c2bd

layer2.bias f4 [64]
-0.054383893 0.06006903 6.711176 -0.0063087125 6.6865125 6.712237 -0.08887322 -0.07461634
6.7835093 -0.03198493 6.7411823 -0.06440411 6.6975627 0.07777939 6.7476926 6.6332774
6.686164 6.7872763 -0.017106256 6.7380753 0.044513557 6.6548114 0.018823316 -0.057047404
-0.088626206 -0.07521846 -0.052386574 6.6457872 -0.08080353 6.7978063 6.793219 0.05849481
0.041550636 -0.07386995 6.721423 6.630309 6.7287517 0.043265037 -0.0037060508 -0.007902368
6.6235723 6.676279 6.7413836 -0.00452428 0.0020131303 -0.06604253 -0.079984695 6.705465
-0.07450216 -0.07825369 6.708818 0.0022423656 6.704474 6.716376 6.6528773 6.716666
6.784529 6.6586676 -0.033326928 6.744756 6.662103 6.7494287 6.77776 6.7574325
00000000: a5c1 5ebd f10a 763d f4c1 d640 51b9 cebb
00000010: e9f7 d540 a5ca d640 2a03 b6bd 74d0 98bd
00000020: 8212 d940 a102 03bd c4b7 d740 4de6 83bd
00000030: 6f52 d640 cd4a 9f3d 19ed d740 cf43 d440
00000040: 0ef5 d540 5e31 d940 6b22 8cbc 509e d740
00000050: d953 363d 37f4 d440 5b33 9a3c 8aaa 69bd
00000060: a881 b5bd 230c 9abd 4e93 56bd 4aaa d440
00000070: 527c a5bd a187 d940 0d62 d940 4198 6f3d
00000080: 0031 2a3d 2149 97bd e615 d740 7e2b d440
00000090: ef51 d740 ae36 313d 37e1 72bb ef78 01bc
000000a0: 4ef4 d340 14a4 d540 6ab9 d740 6940 94bb
000000b0: b9ee 033b 4e41 87bd 04cf a3bd 2b93 d640
000000c0: 9794 98bd 7843 a0bd a3ae d640 a7f4 123b
000000d0: 0d8b d640 8dec d640 5fe4 d440 eeee d640
000000e0: dd1a d940 ce13 d540 d181 08bd 0bd5 d740
000000f0: f32f d540 52fb d740 69e3 d840 e33c d840

layer3.weight f4 [64, 64]
0.04123129 -0.08482382 -0.09291319 -0.07590359 0.0032539289 -0.090971634 0.021244712 -0.029260326
-0.015489451 -0.020969352 -0.00026216803 -0.064469226 -0.0827434 0.022677606 0.0042239274 -0.027059598
0.01111015 0.04819256 0.056624558 -0.08217282 -0.044423047 0.13567606 -0.044294085 0.090258725
-0.06468259 -0.03163624 -0.075612955 0.07759718 0.001698468 -0.06577675 0.025407365 0.06387993
0.019360792 -0.07711187 -0.07189934 0.02587457 0.029841606 -0.030122258 0.06509792 0.07707992
0.06499119 0.04133912 0.048213508 -0.052684866 0.059252787 0.027306153 -0.016483657 0.06794835
-0.013906655 0.050258834 0.03558514 -0.066055916 0.024335142 -0.04103091 0.044370815 -0.06297672
-0.08261601 0.0672101 -0.0341171 -0.0778433 -0.046235193 -0.057484508 0.05326135 -0.06226261
-0.058506005 -0.015542047 5.111446 0.52981454 5.121723 5.0169444 -0.06759401 0.06317759
5.0094357 -0.18736425 5.0066404 -0.059170574 5.1223035 -0.009439404 5.085525 5.1303
5.0407257 5.0207253 0.08914765 5.047149 0.028615361 5.116865 0.05644758 -0.041917063
0.017424017 -0.061391298 0.07525561 5.1189137 -0.010118491 5.0745335 5.0890903 0.07448576
-0.067650296 0.045219198 5.002395 5.099222 5.051131 0.0689739 0.26672485 0.30696777
5.1187325 5.133718 5.115935 -0.06535795 -0.020091947 0.04018124 0.0012882334 5.0964518
-0.04580983 0.05438528 5.1423793 0.06110676 5.02082 5.1143193 5.1389627 5.156106
4.9733496 5.0482783 -0.0396947 4.9928823 5.0662727 5.12824 5.002011 5.0857973
-0.063305795 0.047664877 0.0022465354 -0.047005918 -0.0099541 0.028137306 -0.017605549 0.070446
0.059907503 -0.064232655 -0.028407034 -0.06429943 -0.02386465 -0.046899043 -0.037458237 0.063425824
0.012471929 -0.0507378 -0.0041380688 0.03682786 -0.010544537 -0.0744626 0.039358113 -0.090013534
-0.05517867 -0.043736793 0.031164117 0.06936388 0.054042026 -0.001809209 0.0048272107 -3.8872473e-05
-0.00488372 0.004634728 0.06256338 0.026952755 0.0017755341 -0.040341754 0.06559498 -0.06763389
-0.07594365 -0.072165854 -0.0790515 0.06499677 -0.029059092 -0.07884902 -0.07146087 -0.020423295
0.033496737 -0.07643099 0.05246933 0.011199143 -0.053475868 0.06090869 -0.09019821 0.026907625
0.022356238 0.009145347 0.06451298 0.040095996 0.038125254 0.015571437 -0.050064184 -0.088859946
-0.040280644 -0.07624442 4.4947267 0.4682968 4.504315 4.4368806 -0.050332226 0.014455283
4.454315 0.51921284 4.600279 -0.037326302 4.518651 -0.0004918768 4.4821978 4.486009
4.4604597 4.545781 -0.00926904 4.4993 0.04841851 4.4338675 -0.049649876 0.072721004
-0.0065251463 0.053273883 0.020829713 4.4784193 0.02352548 4.4763618 4.522072 0.01382016
-0.030574163 0.038758963 4.5363717 4.482192 4.402205 0.0742408 0.8462886 0.3796408
4.3903384 4.466311 4.528829 -0.03578007 -0.07166517 0.035160642 0.06723833 4.5198736
-0.08222652 0.014213374 4.5077505 -0.0190191 4.485132 4.384852 4.5024714 4.406046
4.434517 4.4136705 -0.048458643 4.522703 4.4699416 4.4552317 4.503453 4.5235167
00000000: 24e2 283d 1cb8 adbd 4549 bebd 5773 9bbd
00000010: de3f 553b 564f babd 6409 ae3c 5ab3 efbc
00000020: 77c7 7dbc ebc7 abbc 9973 89b9 7108 84bd
00000030: 5f75 a9bd 63c6 b93c df68 8a3b 17ac ddbc
00000040: 5907 363c 9065 453d 27ef 673d 394a a8bd
00000050: f1f4 35bd aaee 0a3e b76d 35bd 91d9 b83d
00000060: 4e78 84bd 0195 01bd f7da 9abd 45eb 9e3d
00000070: 219f de3a f6b5 86bd 1b23 d03c 7bd3 823d
00000080: 869a 9e3c d4ec 9dbd f63f 93bd e8f6 d33c
00000090: 6276 f43c f4c2 f6bc 0f52 853d 14dc 9d3d
000000a0: 1a1a 853d 3653 293d 877b 453d 16cc 57bd
000000b0: 0db3 723d 27b1 df3c bc08 87bc 8128 8b3d
000000c0: bdd8 63bc 35dc 4d3d b9c1 113d 5348 87bd
000000d0: 7e5a c73c 0710 28bd 2cbe 353d f0f9 80bd
000000e0: 9532 a9bd 73a5 893d 5fbe 0bbd 4f6c 9fbd
000000f0: 1d61 3dbd e074 6bbd 9328 5a3d 1407 7fbd
00000100: fea3 6fbd 12a4 7ebc f790 a340 eda1 073f
00000110: 28e5 a340 cf8a a040 ba6e 8abd 4163 813d
00000120: 4c4d a040 6adc 3fbe 6636 a040 d85c 72bd
00000130: e9e9 a340 bba7 1abc 9fbc a240 6b2b a440
00000140: a04d a140 c8a9 a040 0b93 b63d 3f82 a140
00000150: c36a ea3c 5cbd a340 9435 673d 3ab1 2bbd
00000160: d0bc 8e3c 7175 7bbd 9d1f 9a3d 24ce a340
00000170: 07c8 25bc 9462 a240 d4d9 a240 fd8b 983d
00000180: 3d8c 8abd c437 393d 9f13 a040 d42c a340
00000190: dda2 a140 3042 8d3d 2990 883e e12a 9d3e
000001a0: a8cc a340 6b47 a440 bdb5 a340 64da 85bd
000001b0: de97 a4bc 1595 243d f1d9 a83a 2216 a340
000001c0: 17a3 3bbd 19c3 5e3d 5f8e a440 154b 7a3d
000001d0: 8faa a040 81a8 a340 6272 a440 d2fe a440
000001e0: ae25 9f40 7f8b a140 e996 22bd b1c5 9f40
000001f0: e81e a240 8b1a a440 7910 a040 dabe a240
00000200: 78a6 81bd 3f3c 433d 9c3a 133b 4789 40bd
00000210: 8516 23bc 3580 e63c 8339 90bc fe45 903d
00000220: 9261 753d 698c 83bd deb5 e8bc 6baf 83bd
00000230: cc7f c3bc 3619 40bd cf6d 19bd 66e5 813d
00000240: 1057 4c3c 70d2 4fbd a398 87bb cfd8 163d
00000250: fec2 2cbc d97f 98bd f935 213d 0459 b8bd
00000260: 0703 62bd 5a25 33bd e44b ff3c a60e 8e3d
00000270: 2c5b 5d3d fb22 edba 942d 9e3b 000b 23b8
00000280: 9d07 a0bb ebde 973b 3b21 803d 06cc dc3c
00000290: 0ab9 e83a 653d 25bd a956 863d a383 8abd
000002a0: 5888 9bbd b1cb 93bd c1e5 a1bd 071d 853d
000002b0: 550d eebc 987b a1bd 145a 92bd c14e a7bc
000002c0: e033 093d da87 9cbd 15ea 563d 9c7c 373c
000002d0: 8309 5bbd 647b 793d d7b9 b8bd 616d dc3c
000002e0: 6e24 b73c 5ed6 153c 621f 843d b33b 243d
000002f0: 3a29 1c3d 571f 7f3c 1a10 4dbd 34fc b5bd
00000300: 51fd 24bd 0926 9cbd cdd4 8f40 99c4 ef3e
00000310: 5923 9040 edfa 8d40 2a29 4ebd dad5 6c3c
00000320: c089 8e40 22eb 043f 7c35 9340 77e3 18bd
00000330: ca98 9040 4bf1 00ba 2a6e 8f40 638d 8f40
00000340: 16bc 8e40 0a77 9140 2cdd 17bc 44fa 8f40
00000350: 7d52 463d 3ee2 8d40 ab5d 4bbd c0ee 943d
00000360: e5d0 d5bb b735 5a3d 13a3 aa3c 364f 8f40
00000370: 82b8 c03c 5b3e 8f40 d0b4 9040 f46d 623c
00000380: ab76 fabc b8c1 1e3d f529 9140 1e6e 8f40
00000390: ddde 8c40 900b 983d 5fa6 583f 4760 c23e
000003a0: a77d 8c40 05ec 8e40 2bec 9040 1f8e 12bd
000003b0: 30c5 92bd 9b04 103d 40b4 893d cea2 9040
000003c0: 6166 a8bd 36df 683c 7e3f 9040 f2cd 9bbc
000003d0: 3486 8f40 b550 8c40 3f14 9040 54fe 8c40
000003e0: 90e7 8d40 ca3c 8d40 927c 46bd fcb9 9040
000003f0: c309 8f40 4291 8e40 491c 9040 a6c0 9040

layer3.bias f4 [64]
-0.0044106697 4.0107355 -0.036983404 3.9537358 2.949447 -0.0555727 -0.0051943175 2.7598007
3.2275941 2.571726 -0.03547786 -0.061063208 2.6124325 4.444334 -0.020132069 0.056079622
-0.07717231 3.8774135 4.540184 4.216027 -0.058625646 0.020683374 0.009476196 0.035856098
0.042794686 3.2602859 -0.002813216 0.0071241064 0.025846805 0.04220465 4.1381693 0.0015516422
-0.08317769 4.059839 0.02149762 1.862699 0.030572077 0.07689907 0.02166495 -0.058434274
0.012171457 2.9075718 4.432487 3.5481238 -0.018409641 0.011545032 -0.0005803084 4.3302913
0.0011073699 4.0104895 -0.078212515 0.070360646 -0.028936788 -0.0731524 -0.07732195 -0.0736859
0.08123162 -0.05757545 4.4097366 -0.069848955 0.015630405 0.04193978 3.5470665 -0.013605705
00000000: 6187 90bb f257 8040 e97b 17bd 020a 7d40
00000010: bdc3 3c40 33a0 63bd 1835 aabb 93a0 3040
00000020: e790 4e40 2997 2440 3c51 11bd 6a1d 7abd
00000030: 1832 2740 fc37 8e40 02ec a4bc bfb3 653d
00000040: 840c 9ebd 8b27 7840 3049 9140 b1e9 8640
00000050: 7221 70bd 2e70 a93c 0c42 1b3c d8dd 123d
00000060: 7b49 2f3d 86a8 5040 ef5d 38bb 5671 e93b
00000070: aebc d33c c8de 2c3d e26b 8440 7960 cb3a
00000080: 1159 aabd 33ea 8140 c71b b03c ec6c ee3f
00000090: 4b72 fa3c 427d 9d3d b17a b13c c758 6fbd
000000a0: ca6a 473c a815 3a40 efd6 8d40 7614 6340
000000b0: d1cf 96bc 6027 3d3c d61f 18ba bf91 8a40
000000c0: 2b25 913a ee55 8040 e22d a0bd 3e19 903d
000000d0: d80c edbc edd0 95bd f85a 9ebd a2e8 96bd
000000e0: c35c a63d 3cd4 6bbd 901c 8d40 f80c 8fbd
000000f0: 560b 803c 0cc9 2b3d 2303 6340 77ea 5ebc

layer4.weight f4 [290, 64]
-0.016799869 0.13774928 -0.029055716 0.11486152 0.05867759 -0.03317916 -0.085226774 0.09082679
0.074052006 0.05191525 0.0036902823 0.048529446 0.06145949 0.17650586 2.3062426e-05 0.45641276
-0.0015115258 0.09153506 0.16112158 0.13177058 -0.020266857 0.072712004 0.080471724 0.065375015
0.002539612 0.07546795 0.03872476 -0.0056896056 0.037828833 -0.07011804 0.12818393 -0.024726361
0.067842 0.12730591 0.07848642 0.029105224 0.06709358 0.077795625 -0.11722559 -0.045027938
0.07795853 0.06363067 0.17700204 0.114003256 -0.032512933 -0.2466719 -0.07776896 0.1423213
-0.035525918 0.11939797 -0.0039895126 0.2575313 -0.045652956 0.023842987 0.017899066 -0.15440495
-0.017320646 -0.035800915 0.17261966 -0.031295303 -0.030744758 0.014438166 0.09731611 0.043723952
0.036709484 0.11010432 -0.01292235 0.15352921 -0.024194077 -0.024223797 0.027011717 0.095372394
0.19668953 0.00860004 0.12734029 -0.064264186 0.0726883 0.19355357 0.028024253 0.42163512
0.0006279459 -0.025623461 0.2114381 0.14149433 -0.020176405 0.05553755 0.0359593 0.013397112
-0.013073687 0.06375234 -0.005099109 0.048877683 0.06620979 0.04384332 0.08063454 -0.053285394
0.0069098207 0.1646355 0.044188958 0.03977035 0.07107787 -0.039383776 0.08247353 -0.016916385
0.06950841 0.16093063 0.14837474 0.13756372 0.07067532 0.11311629 0.0048089908 0.16409002
-0.06112886 0.039184324 -0.0246436 0.35957775 0.0048453645 0.046977133 -0.032956712 0.16446507
-0.028882204 -0.010160435 0.15027927 0.019816324 0.02876588 0.053088263 0.12606657 0.0050376975
0.05897206 0.050493818 -0.0037516283 0.08208555 0.16598478 -0.03923975 0.059025623 0.10067251
0.086724155 0.17041585 0.019701201 0.023349611 0.1886985 0.12187968 0.014399054 0.0066243205
0.05897214 0.11147772 0.13040657 0.06407259 -0.01769013 -0.00841701 0.05985928 -0.024463683
-0.0009191028 0.12895979 -0.052978 0.04754836 -0.060088024 -0.0014307579 0.14669847 -0.03786687
-0.046491444 0.14585455 0.053313587 0.33907646 -0.036596663 0.010987241 -0.012361287 0.050497446
0.07133764 0.08707967 0.124068305 0.12889917 0.06243555 0.088353045 -0.051719945 0.20645519
-0.0062242555 0.13307583 -0.034740705 0.06411119 0.07627366 0.0022753396 -0.04643204 0.019625759
0.010907051 0.0476092 0.17833315 -0.033617597 0.06299475 0.07431433 0.07082652 0.06588898
-0.038248595 0.14237392 0.047474973 0.17263703 0.118410565 0.01680981 0.034449596 0.132689
0.058658924 0.12998395 0.10160109 -0.04348826 0.06857732 0.1685136 0.06684657 0.03951991
-0.036358003 0.09857416 0.06365244 0.09605891 -0.0078103826 -0.0005410142 -0.015424733 0.005202304
-0.028307281 0.057400595 0.07948567 0.06285615 0.061046742 -0.05007023 0.0765315 0.0012575942
0.08409701 0.12811162 0.030335007 0.17198862 -0.048911333 0.0013331567 0.021124676 0.08051195
0.077030554 0.08809819 0.197635 0.04799104 0.049605783 0.04392898 0.009038152 0.08440638
0.06656096 0.16515136 -0.001977388 0.010418329 0.036601454 -0.0690732 0.0652086 0.039213043
0.0692372 -0.07498302 0.058598544 0.08272803 0.03981131 -0.076997414 0.17025593 -0.047982268
00000000: e19f 89bc 260e 0d3e 4106 eebc 843c eb3d
00000010: ea57 703d dfe6 07bd 608b aebd 6503 ba3d
00000020: 94a8 973d 16a5 543d aad8 713b d0c6 463d
00000030: f2bc 7b3d f4bd 343e 2f76 c137 efae e93e
00000040: 641e c6ba bc76 bb3d 0efd 243e deee 063e
00000050: ae06 a6bc 08ea 943d 5cce a43d 56e3 853d
00000060: 9e6f 263b f18e 9a3d db9d 1e3d df6f babb
00000070: 68f2 1a3d 0c9a 8fbd a642 033e f08e cabc
00000080: bff0 8a3d 7b5c 023e 7dbd a03d 146e ee3c
00000090: 5c68 893d 5053 9f3d f813 f0bd 376f 38bd
000000a0: b9a8 9f3d cc50 823d 0640 353e 8a7a e93d
000000b0: 482c 05bd 8f97 7cbe 5545 9fbd adbc 113e
000000c0: a083 11bd ec86 f43d 75ba 82bb 24db 833e
000000d0: 98fe 3abd 5e52 c33c 10a1 923c 551c 1ebe
000000e0: 07e4 8dbc fba3 12bd 35c3 303e 812f 00bd
000000f0: 6edc fbbc 0f8e 6c3c ab4d c73d e317 333d
00000100: af5c 163d 607e e13d 44b8 53bc c336 1d3e
00000110: a832 c6bc fc70 c6bc ad47 dd3c 9a52 c33d
00000120: fb68 493e 2fe7 0c3c 7e65 023e f19c 83bd
00000130: 9add 943d e832 463e 1e93 e53c 8fe0 d73e
00000140: bc9c 243a 4be8 d1bc 3b83 583e e4e3 103e
00000150: fd48 a5bc 587b 633d 0f4a 133d 8f7f 5b3c
00000160: 0533 56bc 9690 823d 6d16 a7bb f733 483d
00000170: 0099 873d 0e95 333d b923 a53d c941 5abd
00000180: c76b e23b 3596 283e 7bff 343d 3ce6 223d
00000190: 4691 913d e250 21bd e2e7 a83d 3b94 8abc
000001a0: 6d5a 8e3d 00cb 243e 8cef 173e 81dd 0c3e
000001b0: 39be 903d 83a9 e73d bd94 9d3b 3707 283e
000001c0: 4162 7abd be7f 203d 60e1 c9bc 931a b83e
000001d0: ddc5 9e3b 186b 403d 9efd 06bd 8869 283e
000001e0: 5f9a ecbc f477 26bc cfe2 193e d855 a23c
000001f0: 6ca6 eb3c 1473 593d 9817 013e 4513 a53b
00000200: b08c 713d 9bd2 4e3d e1dd 75bb 781c a83d
00000210: eaf7 293e dcb9 20bd dac4 713d 642d ce3d
00000220: 6f9c b13d 7e81 2e3e 6a64 a13c af47 bf3c
00000230: 2e3a 413e 0e9c f93d 03ea 6b3c d410 d93b
00000240: c58c 713d 6e4e e43d 4d89 053e 7d38 833d
00000250: e4ea 90bc 80e7 09bc 012f 753d 1068 c8bc
00000260: f2ef 70ba 090e 043e 76ff 58bd 12c2 423d
00000270: dc1e 76bd 4588 bbba 2038 163e 4b1a 1bbd
00000280: d06d 3ebd e55a 153e 595f 5a3d 6e9b ad3e
00000290: 62e6 15bd d403 343c ff86 4abc 69d6 4e3d
000002a0: 7819 923d d356 b23d 8617 fe3d 25fe 033e
000002b0: 6bbc 7f3d 71f2 b43d 4bd8 53bd fd68 533e
000002c0: d7f4 cbbb 0845 083e 454c 0ebd ba4c 833d
000002d0: 5d35 9c3d dd1d 153b 862f 3ebd 33c6 a03c
000002e0: 7db3 323c dd01 433d f79c 363e 9bb2 09bd
000002f0: 6403 813d 1d32 983d 7f0d 913d cdf0 863d
00000300: 8faa 1cbd 78ca 113e 1e75 423d c3c7 303e
00000310: 3d81 f23d bab4 893c 051b 0d3d a0df 073e
00000320: 5744 703d 831a 053e 3b14 d03d bf20 32bd
00000330: 4472 8c3d d48e 2c3e dbe6 883d a1df 213d
00000340: 21ec 14bd 40e1 c93d 365c 823d 89ba c43d
00000350: 3dee ffbb d9d2 0dba 05b8 7cbc 1778 aa3b
00000360: ace4 e7bc e31c 6b3d 62c9 a23d baba 803d
00000370: 260c 7a3d 7116 4dbd 8cbc 9c3d dcd5 a43a
00000380: 0e3b ac3d b12f 033e 1f81 f83c c91d 303e
00000390: 4057 48bd 51bd ae3a a80d ad3c 73e3 a43d
000003a0: 32c2 9d3d d36c b43d d460 4a3e 4192 443d
000003b0: 6f2f 4b3d e0ee 333d c214 143c 41dd ac3d
000003c0: 1d51 883d 701d 293e 1197 01bb a4b1 2a3c
000003d0: 68eb 153d 4076 8dbd 168c 853d db9d 203d
000003e0: 3ccc 8d3d b390 99bd 0705 703d 506d a93d
000003f0: 2f11 233d d2b0 9dbd 9257 2e3e 0e89 44bd

layer4.bias f4 [290]
4.7676353 0.17478839 0.25790802 0.20837416 0.20183623 0.07906428 0.05088295 0.10221172
0.2254871 0.039350744 0.024895927 0.13066691 0.1573347 0.25570402 0.0065278877 0.13169971
0.14044455 0.19252428 0.17849496 0.0837284 -0.58200055 0.11231729 0.04924034 0.10596523
0.033780374 0.065012865 -0.05121109 0.049609143 0.09872155 0.17767313 0.08042435 -0.0069732005
0.22444238 -0.04037378 -0.069242604 -0.019787634 -0.02334926 0.11730158 0.15609287 0.02472656
0.14023216 0.07363587 0.064631544 0.08229262 0.18455504 0.06134791 -0.057895213 -0.06822281
-0.035273477 -0.057723597 0.05139005 -0.02717901 0.062283516 0.05723988 0.191221 0.06521197
-0.0048361747 -0.07041818 0.06636623 0.14769006 -0.026507387 0.059585646 0.02315285 0.082647294
-0.008633628 -0.05866689 0.1169019 0.20003007 0.074661456 0.18758322 -0.056791104 0.16378973
0.10388089 0.040664967 -0.054099273 -0.06232603 -0.024595853 -0.07950996 -0.07124396 -0.020353314
0.15936856 0.16570985 0.07851497 0.079494126 0.17353985 0.13333683 -0.044841364 -0.026768913
-0.05314155 -0.02767392 0.011673504 0.09304202 0.07014383 0.014061104 -0.069352865 0.015926769
-0.0782455 -0.029574573 -0.036283255 0.0016123281 0.06469021 -0.03070261 0.032633025 0.12825146
0.0070747123 0.13809271 -0.06184473 0.027708724 0.009548056 0.05089729 -0.08212386 0.116239
-0.071599565 -0.07426313 -0.014194835 0.012174318 0.045801807 -0.06314594 -0.011783245 0.046180654
-0.008979106 0.11147528 -0.006765241 0.1729548 0.03692468 0.028735155 -0.0783885 -0.00010628595
-0.0613137 -0.021866323 0.04150405 -0.066500515 0.07561116 0.030011127 0.027320465 0.065589234
0.07983034 0.04198069 -0.016548458 -0.063111685 0.08868405 -0.08054104 -0.07358268 0.07142571
0.03927096 0.03624893 0.014730388 -0.003189433 -0.05799168 -0.050645772 -0.053984534 -0.02552019
0.04962781 0.051760837 0.050770286 0.059037317 -0.024015857 0.056527432 0.021237124 0.09157395
-0.06586312 -0.06723928 0.056048352 0.05201902 -0.04178846 0.024671892 -0.037141606 -0.07544165
0.04554365 -0.01312364 0.05339849 -0.07485032 0.03446846 0.02187081 0.057585172 -0.06639449
-0.00275584 -0.036009774 -0.08251631 -0.03186414 -0.06674838 -0.07138546 0.02903246 0.07827945
-0.023037458 0.02114952 -0.07088266 0.070946164 -0.048068225 0.059363212 -0.021788254 -0.047467913
0.050396115 -0.020345816 -0.04780034 -0.036955815 0.05218231 0.07913533 -0.023800705 -0.057274144
-0.02093929 0.14508289 -0.15624025 0.062942244 0.04575406 0.015741143 -0.06662688 -0.032688715
-0.030099662 -0.071152754 -0.012458372 0.12015031 0.053952716 0.03344162 -0.010177581 0.026712185
-0.03850248 -0.069741555 -0.050168034 0.061922334 -0.038932983 0.06358219 0.047317818 0.10354744
0.055038087 0.08120851 -0.019804986 0.10155316 -0.03806844 0.12837216 0.09194809 -0.0055342047
0.06774004 0.02487647 -0.027779808 -0.01193139 0.04306046 0.09518921 0.04983902 -0.04965532
0.12775704 0.08389375 0.15705891 0.014103897 0.056582708 0.084276855 0.14054666 -0.023313565
0.092261225 0.13379508 0.075916514 0.052538477 -0.038422763 -0.0039752186 6.623134e-05 0.027040249
00000000: 7890 9840 bafb 323e 850c 843e 0960 553e
00000010: 28ae 4e3e 74ec a13d a46a 503d 6154 d13d
00000020: 17e6 663e 3f2e 213d 8bf2 cb3c 8ccd 053e
00000030: 591c 213e a3eb 823e e4e7 d53b 4adc 063e
00000040: b2d0 0f3e 1625 453e 62c7 363e cc79 ab3d
00000050: fdfd 14bf 9b06 e63d 3db0 493d 4c04 d93d
00000060: 4a5d 0a3d 7725 853d b8c2 51bd f532 4b3d
00000070: 862e ca3d f2ef 353e 86b5 a43d 727f e4bb
00000080: 39d4 653e fa5e 25bd 11cf 8dbd ad19 a2bc
00000090: f346 bfbc d03b f03d cfd6 1f3e 5b8f ca3c
000000a0: 0599 0f3e 67ce 963d 8b5d 843d 0889 a83d
000000b0: fffb 3c3e f247 7b3d 8823 6dbd 67b8 8bbd
000000c0: ec7a 10bd 946f 6cbd 607e 523d 84a6 debc
000000d0: 001d 7f3d 5d74 6a3d 70cf 433e da8d 853d
000000e0: c678 9ebb 6837 90bd 05eb 873d 103c 173e
000000f0: 0526 d9bc 1410 743d 0cab bd3c fc42 a93d
00000100: 0f74 0dbc b14c 70bd 436a ef3d afd4 4c3e
00000110: 1be8 983d d115 403e ca9d 68bd 7fb8 273e
00000120: 81bf d43d 4f90 263d 3397 5dbd 9449 7fbd
00000130: 3e7d c9bc 1ed6 a2bd 5ae8 91bd febb a6bc
00000140: 8331 233e d8af 293e 75cc a03d d1cd a23d
00000150: 6eb4 313e 7389 083e 94ab 37bd 7b4a dbbc
00000160: f4aa 59bd 6bb4 e2bc 3942 3f3c d18c be3d
00000170: 91a7 8f3d 8b60 663c e008 8ebd db78 823c
00000180: 2d3f a0bd 6046 f2bc c09d 14bd c154 d33a
00000190: 4d7c 843d 0a84 fbbc 35aa 053d 5a54 033e
000001a0: fdd2 e73b 2d68 0d3e e650 7dbd 68fd e23c
000001b0: 736f 1c3c ad79 503d 8e30 a8bd b60e ee3d
000001c0: cba2 92bd 4517 98bd 7491 68bc ca76 473c
000001d0: ad9a 3b3d a952 81bd 830e 41bc ed27 3d3d
000001e0: 1a1d 13bc 274d e43d f4ae ddbb 101b 313e
000001f0: 553e 173d fd65 eb3c 268a a0bd d6e5 deb8
00000200: 1324 7bbd 0121 b3bc 2700 2a3d 6c31 88bd
00000210: 06da 9a3d e5d9 f53c 2bcf df3c a653 863d
00000220: 177e a33d f2f3 2b3d a290 87bc b340 81bd
00000230: fc9f b53d b3f2 a4bd 84b2 96bd a547 923d
00000240: 96da 203d c279 143d ba57 713c ce05 51bb
00000250: af88 6dbd f171 4fbd e31e 5dbd b80f d1bc
00000260: 8846 4b3d 2c03 543d 81f4 4f3d 1dd1 713d
00000270: e7bc c4bc 4f89 673d 7af9 ad3c 208b bb3d
00000280: 3ee3 86bd bfb4 89bd f592 653d e511 553d
00000290: 602a 2bbd b51c ca3c cc21 18bd 2781 9abd
000002a0: fa8b 3a3d 8904 57bc 60b8 5a3d 204b 99bd
000002b0: cd2e 0d3d 6a2a b33c 6ede 6b3d d6f9 87bd
000002c0: 539b 34bb fc7e 13bd 50fe a8bd f983 02bd
000002d0: 60b3 88bd 8a32 92bd 7bd5 ed3c fa50 a03d
000002e0: 0db9 bcbc c241 ad3c ee2a 91bd 394c 913d
000002f0: 30e3 44bd d726 733d 487d b2bc b76d 42bd
00000300: 286c 4e3d 45ac a6bc 4aca 43bd fb5e 17bd
00000310: 1ebd 553d b411 a23d b2f9 c2bc 4b98 6abd
00000320: e088 abbc 9c90 143e 72fd 1fbe dde7 803d
00000330: 9c68 3b3d 92f3 803c ac73 88bd 9ae4 05bd
00000340: 9193 f6bc 89b8 91bd 331e 4cbc 5e11 f63d
00000350: 86fd 5c3d 15fa 083d debf 26bc 83d3 da3c
00000360: c7b4 1dbd a9d4 8ebd ff7c 4dbd 46a2 7d3d
00000370: 3178 1fbd 6137 823d 54d0 413d ae10 d43d
00000380: 9e6f 613d a650 a63d 113e a2bc 1afb cf3d
00000390: a7ed 1bbd fe73 033e 484f bc3d 4658 b5bb
000003a0: 4abb 8a3d bdc9 cb3c 7b92 e3bc e07b 43bc
000003b0: 2a60 303d 8ff2 c23d 0024 4c3d 6063 4bbd
000003c0: bed2 023e 7dd0 ab3d 0dd4 203e 0814 673c
000003d0: 45c3 673d 5899 ac3d 77eb 0f3e 17fc bebc
000003e0: 74f3 bc3d 9401 093e 1e7a 9b3d 9632 573d
000003f0: 3061 1dbd 8d42 82bb aee5 8a38 8383 dd3c
