catanatron_experimental/my_DQN_wyniki2/my_DQN2_650_steps.pth (torch, 268915 bytes, 8 tensors)

layer1.weight f4 [64, 614]
00000000: 218a bf3b 771a 213b f34d 1cbc 971a df3b
00000010: 80e5 13bc 11fd 03ba b385 d5bb 657b d739
00000020: ee34 75bb 5ca0 cebb fbd3 863b 5c98 763b
00000030: 7745 103c 0e85 b13b 2985 913b 1bb8 4abb
00000040: 5e4d 18bb dbd4 013c a415 17bc ea78 103a
00000050: d6e3 a9bb 8303 06bb 3fc0 7cb6 ad01 3e3b
00000060: 5ba6 003c c1f0 003c 73af f33b 36b9 1c3b
00000070: 4020 31ba 543f 9cbb 32b0 3f3b fc81 ca3b
00000080: 88e2 78ba e768 ab3a 2752 1e3b 6574 fd3b
00000090: 99a9 12bc f614 6c3b efae a3b9 6605 a0bb
000000a0: ed3f 55bb 41ef e03b 80a0 333a de96 c2bb
000000b0: a3a4 b5ba 3126 df3b eacc 883b a10b 29bb
000000c0: 9395 bb39 0624 98ba 641e 013c d1f5 73ba
000000d0: 99d9 333b 76b4 8e3b 9002 0abb 40e8 533a
000000e0: acf5 223b 19c5 4cbb 5f4b d93b ffa8 38bb
000000f0: 6951 8a3b 9b14 fa3a 7ec9 5d38 6229 9cbb
00000100: fdfe 8abb 0cc2 0bbc ce87 c63b 074f 8e3b
00000110: 9f63 83bb 68eb cf3a 9109 a63b a23e da3b
00000120: c9d4 0ebc a092 0e3c 3c21 0ebb 927d b53b
00000130: a836 bdbb 6f67 b1bb 90a4 f4bb 7cb2 0fbc
00000140: 6ab8 753a 3f6f 953b a144 333b fad4 bcbb
00000150: 65d1 f4bb 7fc3 053a 2ebf 1fbb 7999 05bc
00000160: ba33 a2ba f242 d1bb 6195 9bbb 5a2b dbba
00000170: 0d35 093b a10d ffba b6f1 2abb 8c97 413b
00000180: b86f f23b 1c16 ec39 9b79 03bc c84a a73b
00000190: 9dcd 563b 0723 c0bb 4d62 f0bb f4e5 a6bb
000001a0: 47e6 ac3b 99c4 7dbb 2580 093c ae3c 933b
000001b0: c848 043a be36 413b be2b c8bb 9fdc 963b
000001c0: 8edc 913b ce82 01bc c0c0 babb 6dcd c0bb
000001d0: 465e cabb 8527 46bb 03bc 6ebb 0075 ee3b
000001e0: 4164 5c3b 2514 2a3a fdf3 e3bb 777b f73b
000001f0: b047 bdb8 c5ef 9db9 bfa0 1b3b 6818 69bb
00000200: 0e5c 4d3b 2334 17bb 4580 fa39 8bb8 b83b
00000210: 71c0 083c 1061 2eb9 3a04 0d3c 6416 afb9
00000220: 7882 be3b 31f1 50ba c8d3 933b 254e a9bb
00000230: a60c debb ced4 93b9 752c e5b7 263e 993a
00000240: 74ce f33b 1f79 88bb eaef 2cbb 057e e73b
00000250: eef6 1aba 153b 97b9 69bb 31bb d916 b73b
00000260: 6a7e 0a3c 61e1 55b7 881e d43b 57a9 423b
00000270: 4586 60bb 5e5e 08bc a2cd a83b 1e17 fd3a
00000280: 36be edbb 226b 6f3b dfbb abbb ffa4 45ba
00000290: c1a8 c3bb e263 e4bb f5f6 87bb eccc 5f3a
000002a0: fc60 35ba 6a99 083b 60fa ddbb d547 0b3c
000002b0: 2947 dabb 1afa 083c 7b55 97ba 161d a0bb
000002c0: a2da 9bbb 8fb1 acbb 3951 8e3a f917 3b3b
000002d0: ccd5 d03a 977d c63b e7d8 a0bb 5ecd ffbb
000002e0: b1f8 983b 8b28 c0bb 401e 6c3b 7aa7 92bb
000002f0: e555 e73b b708 c8bb 1361 09bc 1732 423b
00000300: 2424 a5bb e291 913b 9af3 e13b fb5f 013c
00000310: 9861 76bb ba88 9bbb c744 0cbc 321b f4ba
00000320: 4ee6 d23b 8c66 a63b fd75 b8bb ca42 f83a
00000330: e36f 4b3a 4de9 7fba 2ba5 e8bb 5825 ca3b
00000340: ffcd 923b f865 fd3b 1409 d13b 371d bd3b
00000350: 7f1b 653b b189 08bc 6ef2 9fbb 845d 00ba
00000360: 934b c23b 85e0 9fba 7b70 95bb 57a6 a93b
00000370: 5bab 073c df45 4eba a94f d8bb b8a8 19ba
00000380: 16ae c5b9 6b87 abbb f7d9 1e3b 11d8 38bb
00000390: dd36 babb 6ba8 81bb cab0 8f3b 9830 88bb
000003a0: f544 6fbb 1252 05bb a587 69bb 1fe7 0f3c
000003b0: be6b 1139 deb6 29bb d792 b5b9 cc64 cebb
000003c0: 8950 f73b ba8a f83b 9202 613b 62cd 2d3b
000003d0: 865d 843b 051b 75bb cc9c 273b e135 47bb
000003e0: 712b 033c dc92 c9bb 823c 053c 4c0c 9b3a
000003f0: 4718 eebb 159a a53b b932 c43b c74a 873b
0.0058453237 0.0024582425 -0.009540069 0.0068085897 -0.009026885 -0.0005034963 -0.0065161823 0.00041099932
-0.0037415582 -0.0063057374 0.0041146255 0.0037627434 0.008805624 0.0054174727 0.0044409228 -0.003093249
-0.0023239474 0.007924284 -0.009221468 0.00055111817 -0.005184631 -0.002044887 -3.7662828e-06 0.0028992698
0.007852162 0.0078699 0.0074366867 0.0023914105 -0.000675682 -0.0047682915 0.0029249308 0.006180046
-0.0009494205 0.0013077528 0.0024157853 0.0077348226 -0.008951568 0.0036023236 -0.00031220118 -0.004883456
-0.0032539323 0.006864459 0.00068522245 -0.005938395 -0.001385827 0.0068099727 0.0041748183 -0.0025794285
0.0003577886 -0.0011607416 0.007880781 -0.0009306344 0.002744293 0.0043550087 -0.0021058656 0.0008083619
0.002486567 -0.003124541 0.0066312994 -0.0028176901 0.0042211306 0.0019079627 5.287816e-05 -0.0047656754
-0.0042418228 -0.008530151 0.0060586696 0.004342917 -0.0040096785 0.0015863003 0.0050670584 0.0066602984
-0.008717724 0.00870195 -0.002168729 0.005538651 -0.005774338 -0.0054139416 -0.0074659064 -0.008770581
0.0009373488 0.0045603807 0.0027354138 -0.0057626935 -0.007471251 0.00051026786 -0.0024375427 -0.0081542665
-0.0012375035 -0.0063861543 -0.004748032 -0.0016721294 0.0020936162 -0.0019459018 -0.0026084012 0.0029539792
0.007398572 0.000450299 -0.0080245985 0.00510535 0.0032776364 -0.0058635506 -0.007335937 -0.0050933305
0.0052764746 -0.0038721918 0.008392368 0.0044933176 0.00050462456 0.0029482092 -0.00610873 0.004603937
0.004451341 -0.007904721 -0.005699247 -0.0058838637 -0.006175789 -0.0030235958 -0.0036427982 0.007277131
0.0033629092 0.0006487987 -0.006956576 0.00755256 -9.025575e-05 -0.00030124016 0.0023746935 -0.0035567526
0.0031335386 -0.0023071847 0.00047779284 0.0056372336 0.008346663 -0.00016630092 0.008606965 -0.00033395283
0.005813893 -0.00079705106 0.0045113303 -0.0051667863 -0.00677641 -0.00028196577 -2.731963e-05 0.0011691495
0.0074403826 -0.0041648294 -0.0026388117 0.0070645832 -0.0005911429 -0.00028844984 -0.0027119762 0.0055874404
0.008452991 -1.2748264e-05 0.006473366 0.0029702985 -0.0034259718 -0.00832328 0.0051514665 0.0019309258
-0.007255341 0.0036532362 -0.005240902 -0.000753954 -0.005971045 -0.006969915 -0.0041493126 0.00085373106
-0.0006919054 0.0020843395 -0.006774232 0.008501013 -0.006661315 0.00836041 -0.0011545861 -0.00488628
-0.0047562877 -0.00527019 0.0010857946 0.0028548224 0.0015932857 0.006057452 -0.0049086693 -0.007806464
0.004668318 -0.005864208 0.0036028773 -0.004475531 0.0070598 -0.0061045545 -0.008384961 0.0029631907
-0.0050397087 0.0044424394 0.0068954946 0.007896419 -0.0037594792 -0.0047465237 -0.00856132 -0.0018623827
0.006436146 0.0050781425 -0.0056292997 0.0018940803 0.0007760508 -0.00097622426 -0.0070997677 0.0061690025
0.004480123 0.007733103 0.006379256 0.005771305 0.0034959016 -0.008333609 -0.004881195 -0.00048967474
0.0059294193 -0.0012197649 -0.004560528 0.0051773 0.0082806 -0.0007868688 -0.006601293 -0.0005861628
-0.00037704472 -0.005234649 0.0024238804 -0.0028204957 -0.0056828097 -0.0039568446 0.0043850886 -0.0041561835
-0.0036509607 -0.0020343107 -0.003563383 0.008783131 0.00013868415 -0.002589635 -0.00034632414 -0.006298637
0.0075474423 0.007584897 0.0034333807 0.0026520123 0.004039469 -0.0037400138 0.0025575636 -0.0030397105
0.008005963 -0.00615154 0.008132102 0.0011829226 -0.0072660777 0.0050537684 0.005987492 0.004128787

layer1.bias f4 [64]
00000000: 58dc b93b df25 dd39 aba0 a8b9 edb8 6042
00000010: 6126 22bc 68a4 6042 4c71 28bc 97ac 6042
00000020: 17c5 ca3b b1b8 6042 6fa1 6042 beb6 6042
00000030: a916 2bbc 4763 c8bc cc97 6042 d86a 6042
00000040: 98b0 6042 10a5 6042 62b9 6042 7f4f 013c
00000050: 7475 6042 73a9 6042 f5a1 6042 709e 76bb
00000060: 57c3 7cb9 efae 6042 4100 3bc0 68bb 6042
00000070: 4206 f03a e265 f43b fd43 f3bb c246 cdbb
00000080: 70ab 6042 08d0 b7bb 60a1 c03b 51b5 6042
00000090: cfa1 6042 50ad 6042 f9ad 6042 f2ad ab3a
000000a0: f2e1 3ac0 d664 e4ba 79ad 6042 b8f9 3ac0
000000b0: 65f6 4eba 0544 a1bb 23f1 dcbb ffad 55bb
000000c0: f4a7 6042 56d8 643b 5334 aaba feca 19bc
000000d0: 39a0 6042 9ea7 6042 36a7 6042 b199 6042
000000e0: 738a e83a 1627 84bb 05ca efbb 55a7 6042
000000f0: 61b0 6042 07ae 6042 48ac 6042 9a9d 6042
0.005672019 0.0004218062 -0.00032163164 56.18059 -0.009896846 56.160553 -0.010280918 56.168545
0.0061880457 56.180363 56.15765 56.17846 -0.010442414 -0.024461402 56.14824 56.10434
56.172455 56.161194 56.181038 0.0078924885 56.1147 56.165478 56.15816 -0.0037631057
-0.00024105363 56.170834 -2.9218905 56.183014 0.0018312412 0.0074584344 -0.0074238763 -0.0062645385
56.16742 -0.005609516 0.0058786124 56.177067 56.158016 56.16925 56.169895 0.0013098104
-2.9200406 -0.0017425071 56.169407 -2.9214916 -0.0007894992 -0.0049214386 -0.006742613 -0.003260493
56.164017 0.0034918985 -0.0012985565 -0.009386776 56.156467 56.16369 56.163292 56.15009
0.0017741456 -0.0040329797 -0.007317784 56.16341 56.172245 56.16995 56.168243 56.153908

layer2.weight f4 [64, 64]
00000000: 367d 8dbb f100 3aba f846 113b c458 813c
00000010: dbe1 41bc 070f 993a e468 b8bc d051 b63c
00000020: b04a 05bc a3d2 823a da26 acbc bba3 6f3c
00000030: 7cb1 78bc 136e 943c 29ec 9e39 ad9b 1d3c
00000040: 5a18 843c 7d04 7d3c 597a ec3a db8a dd3a
00000050: 97bf bdbc 7182 3cbc 2a52 723c bf66 483c
00000060: b80f 923c cde1 3ebc b08e 6a3c 845d e6bc
00000070: 98f1 d3bc c4f7 913b c141 9abc 6bf4 dcbc
00000080: 7c4c 91bc 1e91 303c 7e6e 7cbc 1aed 04bc
00000090: c7ef 8b3c 1ace 73bc 3b28 8abc fbc2 60bc
000000a0: 2d66 aa3c 60ef 953c 94f2 cd3c 3672 093c
000000b0: d14c 03bc 12f7 fb3c 7101 c13c 0852 c73b
000000c0: 8b91 edbc c979 923c b050 93bb 7d8c 903c
000000d0: 2140 7a3b a140 e0bb 34dd 05bd caae a73a
000000e0: 426d 36bc 161c cabc 1c2f c03c 70fa a23c
000000f0: 5bf3 c4bc 7f64 a4bc 1868 0c3c b375 c1bc
00000100: 4f0f a83b 3090 1e3c 96a3 c9bb 13a2 96bc
00000110: 0cb8 1cbb 4f3d 67bc 0de7 59bb f21b 81bc
00000120: 2d86 9bbc c95d 383b 25fd 9d3c 9602 d13c
00000130: ce32 a9bb 025a ad3c 3dac 13bc 8497 a83c
00000140: 6331 4dbc c74a 573c 20fd 31bc fa62 b73c
00000150: b6f0 6ab9 8e1b d8bc 4db4 533c 0bfe 683c
00000160: bfac 03ba 1bf5 1cbc 824d 34bc 925c 0abc
00000170: 2e60 733c a75d b3bc ea8b 0abc e9d6 60bc
00000180: 30ff 15bc ab2c 33bc 02bb 4f3c 2e8a 81bc
00000190: 658b bfbc 9a01 ddbc 4d4d e4bc d793 91bb
000001a0: 8b60 9cbc 973f a8bc e1de bc3c 4d65 ba3c
000001b0: 0a54 cabb 24c9 ccbc 2bee 54bc 5eed 8c3b
000001c0: 8872 5d3c 9644 0ebb 5c97 31bc d1b1 c73c
000001d0: bbdc c23c 5a4f 0d3c f1e0 03bc 7e1e 21bc
000001e0: a599 313c e098 a33a d66d eabb b483 8d3c
000001f0: a1d0 80bc 5b7a cd3c 019d 743b 5946 b73c
00000200: 9bb4 693b 1071 9d3c 220e ae3c bcf7 6042
00000210: e799 84bd 52f6 6042 a285 2cbc defd 6042
00000220: 5e26 96ba 1f0a 6142 1c2b 6142 d0fc 6042
00000230: 8d6d 25bc c943 7bbf 9a14 6142 831b 6142
00000240: bf2f 6142 840c 6142 62fd 6042 87b2 423c
00000250: 8e8c 6142 de0a 6142 2324 6142 4d1c 8fbc
00000260: 7938 af3c 192c 6142 d745 edc1 5bff 6042
00000270: c94c d93c 9d06 30bc a075 e7bb 5902 cfbb
00000280: 033e 6142 35a4 20bc 2012 913c 8303 6142
00000290: b42b 6142 8c39 6142 e32b 6142 478b 77bb
000002a0: 9f8b f1c1 91f6 393c 3902 6142 97bb f2c1
000002b0: f091 92bb a1a2 e03c 467b 0ebb f0ba 95ba
000002c0: d123 6142 3d7f 88bc 0644 d7bc b459 813c
000002d0: 7b36 6142 9222 6142 04f3 6042 2c39 6142
000002e0: 3554 b8bc fdc4 a8b8 dcec 06bd 4412 6142
000002f0: 1a17 6142 fd3b 6142 451e 6142 2f2d 6142
00000300: d79f a63c b916 dabc dff1 a8bc bef6 35bc
00000310: 674e 7a3e 5caf 1c3d e2ff e83b b52f b0bc
00000320: 72fe 98bb 6112 133c e558 943c 38fa aabc
00000330: a55d 113c e54f 2ebc 16e0 4b3c 02e6 b83d
00000340: 886e 9c3c a155 c0bc aaf2 953c a7c4 a3bc
00000350: 0b13 a5bd da3f 97bd 5ccc 043a 61f6 1f3c
00000360: db34 bbbc aefc c1bc 163a 75bd dfc9 b43c
00000370: 5f2d 5b3c d698 943c 37b6 3b3c 6f2a 99bc
00000380: 1838 91bd 057d ca3b 6d15 1b3c 9882 833c
00000390: 72a0 06bd 3fc5 193c 4602 2cbc 3f6c 65bc
000003a0: ebed c7bc 8b11 433b af23 a2bb a86b 1e3e
000003b0: 62d7 ccbc 494e c63d e752 eebb 5446 dbbc
000003c0: dd55 34bc aca9 13bc 8b1f 32bc d009 473c
000003d0: 22e9 5ebd 9776 893c b227 29bc b0da 4e3d
000003e0: 57db a0bc 1ef7 b03c b1e9 9bbc fc53 9dbc
000003f0: 153e cbba a030 843c 1fb9 b0bc a8fe ffbc
-0.004317905 -0.0007095477 0.0022167545 0.015789397 -0.011833633 0.0011677452 -0.022510953 0.022255808
-0.008135483 0.0009980988 -0.02101462 0.014626439 -0.015179034 0.018118894 0.0003031206 0.0096196355
0.016124893 0.015442965 0.0018041834 0.0016902344 -0.023162646 -0.011505709 0.014790097 0.012231528
0.01782976 -0.011650515 0.014316246 -0.028120764 -0.025872037 0.004454585 -0.018830182 -0.026972016
-0.017736666 0.010776786 -0.015407203 -0.00811317 0.017082108 -0.014880681 -0.016864887 -0.013718362
0.020800674 0.01830262 0.025140084 0.008389046 -0.00801392 0.03075746 0.023560258 0.006082777
-0.029000064 0.017880337 -0.0044957027 0.017645115 0.0038185196 -0.006843642 -0.03268166 0.001279318
-0.0111344475 -0.024671596 0.023459964 0.019894809 -0.024041822 -0.020067452 0.00856974 -0.023615694
0.005128778 0.009677932 -0.006153534 -0.01838783 -0.0023913411 -0.014113738 -0.003324929 -0.015760396
-0.018984878 0.0028132072 0.019285748 0.025513928 -0.005163527 0.021161083 -0.009013233 0.02058006
-0.012523982 0.013140387 -0.010863572 0.022386063 -0.00022405651 -0.026380327 0.012921405 0.014220725
-0.00050229946 -0.009579922 -0.011004807 -0.008444922 0.014854474 -0.021895243 -0.00845621 -0.013723114
-0.00915508 -0.010935943 0.0126788635 -0.01581296 -0.023381898 -0.026978303 -0.027868891 -0.0044426727
-0.019089004 -0.020538135 0.023055496 0.022753382 -0.006174569 -0.024998255 -0.012996237 0.0043007573
0.013516076 -0.002170836 -0.01083931 0.024376782 0.023786893 0.008624876 -0.008049236 -0.00983393
0.010839854 0.0012481473 -0.0071542067 0.017274715 -0.015724482 0.025082758 0.0037325027 0.022372412
0.0035660628 0.019218951 0.021246973 56.24193 -0.06474667 56.240547 -0.010529907 56.247917
-0.0011455526 56.259884 56.2921 56.246887 -0.01009692 -0.98150307 56.27012 56.276867
56.296627 56.262222 56.247444 0.011883385 56.38726 56.260612 56.28529 -0.01746955
0.021389233 56.293064 -29.659101 56.24937 0.026525872 -0.010743764 -0.0070635825 -0.0063174185
56.31056 -0.009804775 0.017708838 56.25343 56.29268 56.3062 56.29286 -0.0037772225
-30.193174 0.01135029 56.25217 -30.341597 -0.0044729635 0.027421298 -0.0021740957 -0.001142351
56.284977 -0.016662234 -0.026277553 0.015789844 56.303204 56.28376 56.23732 56.305832
-0.02250109 -8.047556e-05 -0.03294073 56.267838 56.27256 56.308582 56.27956 56.294125
0.02033989 -0.026622163 -0.020623146 -0.011106191 0.2444397 0.038253173 0.0071105817 -0.021507123
-0.004669004 0.00897655 0.018108794 -0.020871267 0.008872424 -0.0106391655 0.012443563 0.090282455
0.019095674 -0.023478331 0.018304188 -0.019991232 -0.08060273 -0.073852256 0.00050658523 0.009763331
-0.022852352 -0.023680057 -0.05986985 0.022068916 0.0133775165 0.018139284 0.011457018 -0.018696992
-0.07090777 0.0061794543 0.0094655575 0.016053483 -0.032867856 0.009385406 -0.010498589 -0.014002859
-0.02440544 0.0029765095 -0.0049481015 0.15470755 -0.025005046 0.096829005 -0.0072730663 -0.026766934
-0.0110067995 -0.009012621 -0.010871778 0.012148336 -0.05442155 0.01678018 -0.0103244055 0.050501525
-0.01963584 0.02160221 -0.019032331 -0.019205086 -0.0015506173 0.016136467 -0.021572648 -0.03124936

layer2.bias f4 [64]
00000000: f58d 92bc 54e0 a13c 81f9 6942 72fe 07bb
00000010: 40f1 6942 76fa 6942 6978 efbc 9a0d c9bc
00000020: 1b12 6a42 155c 2cbc 0e04 6a42 f18b adbc
00000030: 7cf5 6942 ef91 d13c de05 6a42 b8df 6942
00000040: 1ef1 6942 6413 6a42 5b61 b8bb 1003 6a42
00000050: 32e2 6f3c b5e5 6942 20e0 ca3b 39bc 99bc
00000060: a0ce eebc 80ac cabc 3c2b 8dbc 4de3 6942
00000070: c7b8 d9bc 2617 6a42 a515 6a42 02a1 9d3c
00000080: 58ea 5f3c 380b c7bc 1bfd 6942 afde 6942
00000090: a4ff 6942 8f28 693c c6c9 9fba 5a57 2abb
000000a0: 80dc 6942 a7ee 6942 0504 6a42 bc10 c3ba
000000b0: 3f97 2d3a e1f3 b1bc f985 d7bc 9df8 6942
000000c0: 67c0 c8bc 80dd d2bc bcf8 6942 6356 413a
000000d0: 95f7 6942 5efb 6942 0fe6 6942 9bfa 6942
000000e0: 7612 6a42 7ce8 6942 6c9b 33bc 4d05 6a42
000000f0: e3e9 6942 0906 6a42 8210 6a42 5409 6a42
-0.017889956 0.019760288 58.493656 -0.0020751026 58.485596 58.49459 -0.02923222 -0.024542619
58.51768 -0.010520001 58.50396 -0.021184893 58.48973 0.025582282 58.50573 58.468475
58.485466 58.518936 -0.00562684 58.50299 0.0146413315 58.474323 0.0061912686 -0.01876651
-0.02915126 -0.024740458 -0.01723253 58.471973 -0.026577367 58.522606 58.521137 0.019241814
0.013666712 -0.024297342 58.497173 58.467464 58.49965 0.014230861 -0.001219087 -0.0025992007
58.465332 58.48306 58.503925 -0.0014882307 0.00066219637 -0.021722736 -0.026309 58.492786
-0.024505807 -0.025740385 58.492905 0.00073752383 58.49178 58.495476 58.474667 58.49473
58.51803 58.477036 -0.010962348 58.505177 58.478405 58.505894 58.51612 58.50911

layer3.weight f4 [64, 64]
00000000: d733 5e3c ed8e e4bc c359 fabc 2385 ccbc
00000010: ce4a 8c3a c51e f5bc c3f8 e43b eab2 1dbc
00000020: 7df7 a6bb 6e01 e2bb 56d4 b4b8 d3b9 adbc
00000030: a7f4 debc 256c f43b f318 b63a 48d8 11bc
00000040: eb7d 6f3b 24e0 813c ab94 983c 4e6a ddbc
00000050: c465 6fbc 0aca 363d 7db4 6ebc f136 f33c
00000060: e44b aebc 337c 2abc a7bc cbbc 8613 d13c
00000070: 5f77 123a 173a b1bc 9cee 083c 2c1e ac3c
00000080: efa9 d03b cac6 cfbc cbba c1bc f872 0b3c
00000090: 30d3 203c fb58 22bc a567 af3c e5b0 cf3c
000000a0: b71e af3c e6c7 5e3c 7fee 813c c9f9 8dbc
000000b0: c5ab 9f3c b82a 133c 76a8 b1bb 9516 b73c
000000c0: e8e6 95bb 606f 873c f1c3 3f3c 3afd b1bc
000000d0: 4827 033c a81d 5dbc f61d 6f3c abb0 a9bc
000000e0: 319d debc 4f16 b53c f4dc 37bc 9cbe d1bc
000000f0: 9d2a 79bc 83e8 9abc 9986 8f3c 01c8 a7bc
00000100: c3a8 9dbc 9087 a7bb 2c58 6042 b674 323e
00000110: 9e5b 6042 fb37 6042 b620 b6bc e73a aa3c
00000120: 6e35 6042 906d 7cbd 7c34 6042 c273 9fbc
00000130: cc5b 6042 4079 4bbb 604f 6042 8a5e 6042
00000140: 1740 6042 4539 6042 0f35 f03c 3d42 6042
00000150: 263a 1a3c fd59 6042 da1a 983c 2ae3 61bc
00000160: d8ca bb3b a76e a5bc 26c6 ca3c ad5a 6042
00000170: 791c 5abb a24b 6042 9a50 6042 51b5 c83c
00000180: c747 b6bc 18b2 733c 1033 6042 1654 6042
00000190: 9a43 6042 3bd9 b93c fcad b33d 28c9 ce3d
000001a0: 995a 6042 a35f 6042 a959 6042 4a19 b0bc
000001b0: e88f d8bb 4f8c 583c 1b29 de39 2653 6042
000001c0: 3bde 76bc e88e 923c 8a62 6042 5ca9 a43c
000001d0: 4e39 6042 1a59 6042 6561 6042 3567 6042
000001e0: 4929 6042 a942 6042 6ee8 55bc cf2f 6042
000001f0: db48 6042 ca5d 6042 e932 6042 754f 6042
00000200: 1893 aabc 6170 803c a7b3 413a 9d51 7dbc
00000210: 8291 56bb 20a5 173c a1c3 bdbb 32d4 bd3c
00000220: f96f a13c 2613 adbc 2419 19bc 3042 adbc
00000230: 689d 00bc c5bd 7cbc 2fdc 49bc b4e5 aa3c
00000240: b570 863b d4b8 88bc 5168 b2ba 7a76 463c
00000250: af4f 63bb aba5 c8bc d11a 543c 898b f2bc
00000260: 8db0 94bc 68b2 6bbc c8f4 273c f0e5 ba3c
00000270: 00a3 913c 4902 1cba 791b d03a 4182 56b7
00000280: af8d d2ba 9bd1 c73a 8f94 a83c 9043 113c
00000290: 421b 193a e565 59bc 36bb b03c 623c b6bc
000002a0: caa0 ccbc 1c75 c2bc 55ff d4bc 8b22 af3c
000002b0: f29b 1cbc 5875 d4bc dd8a c0bc 191f dcbb
000002c0: d781 343c f9f3 cdbc 8b64 8d3c 4c67 713b
000002d0: 6118 90bc ac21 a43c a40c f3bc 7904 113c
000002e0: b2f3 f03b 3b20 453b 06d8 ad3c f715 583c
000002f0: c075 4d3c cad7 a73b d6ea 86bc 4a6f efbc
00000300: 0f13 59bc 7871 cdbc 68ff 5f42 50be 1d3e
00000310: a002 6042 27ec 5f42 2ca1 87bc c3cf 9b3b
00000320: e3f1 5f42 86e1 2e3e ff22 6042 2726 49bc
00000330: 7b07 6042 50a5 29b9 30fb 5f42 77fc 5f42
00000340: fbf3 5f42 8310 6042 4bcf 47bb e900 6042
00000350: e17a 823c 30eb 5f42 1ccc 85bc 83f3 c33c
00000360: d9aa 0cbb 1a8f 8f3c bc7f e03b f4f9 5f42
00000370: e48f fd3b 41f9 5f42 a008 6042 37f7 943b
00000380: 2fc6 24bc 33dd 503c 6e0d 6042 30fb 5f42
00000390: 7be0 5f42 bc0c c83c f189 8e3e 89bc ff3d
000003a0: 66dc 5f42 e5f5 5f42 e60a 6042 d0ce 40bc
000003b0: 1717 c1bc 947c 3d3c e329 b53c e107 6042
000003c0: dd8f ddbc b634 993b cb03 6042 5dfc ccbb
000003d0: 26fc 5f42 8ada 5f42 fd01 6042 c8e1 5f42
000003e0: 64eb 5f42 5de4 5f42 5b96 82bc d608 6042
000003f0: 22f7 5f42 37f2 5f42 5102 6042 1b09 6042
0.013562164 -0.027900184 -0.03056038 -0.024965828 0.0010703446 -0.029921899 0.0069876625 -0.009625176
-0.005095421 -0.006897143 -8.6226195e-05 -0.021206772 -0.027216269 0.007459181 0.0013892933 -0.008901663
0.0036543559 0.015853949 0.018625578 -0.02702823 -0.014611665 0.044626273 -0.014569399 0.029689284
-0.021276422 -0.010405588 -0.02487023 0.025522005 0.00055872457 -0.021634145 0.00835767 0.02101048
0.006367914 -0.025363345 -0.02364864 0.008511297 0.009815976 -0.00990891 0.021411726 0.025352905
0.02137695 0.013597464 0.015860794 -0.01733102 0.019491086 0.008982353 -0.0054216934 0.022349635
-0.0045746453 0.0165326 0.011704431 -0.021727193 0.008004971 -0.01349584 0.014594546 -0.020714125
-0.027174564 0.022105364 -0.011222113 -0.025603585 -0.015207914 -0.018909698 0.017520236 -0.020481111
-0.01924551 -0.005112596 56.086105 0.17427334 56.08947 56.05467 -0.022232395 0.02078004
56.052177 -0.061627924 56.051254 -0.019464377 56.089645 -0.0031047612 56.077515 56.092323
56.062588 56.055927 0.029322175 56.064686 0.009413278 56.08788 0.018567491 -0.01378707
0.005730968 -0.020194365 0.024752688 56.08855 -0.0033281131 56.07386 56.078712 0.02450052
-0.022251023 0.014874004 56.049866 56.082115 56.066017 0.022686591 0.08773419 0.10096961
56.088474 56.093395 56.08756 -0.021496434 -0.006608952 0.013217046 0.00042373766 56.0812
-0.015067632 0.017890409 56.09623 0.020100288 56.05596 56.087013 56.09511 56.10079
56.040318 56.065098 -0.013055904 56.046688 56.071148 56.09159 56.049717 56.077595
-0.020822093 0.015678586 0.0007389136 -0.015461353 -0.0032740538 0.009255677 -0.005791143 0.023172472
0.019706713 -0.021127295 -0.009344373 -0.021149725 -0.007850029 -0.015426104 -0.012320562 0.020861484
0.004102791 -0.016689695 -0.0013611411 0.012113208 -0.0034684946 -0.02449306 0.012945847 -0.029607551
-0.018150592 -0.014385797 0.0102512315 0.02281472 0.01777792 -0.0005951268 0.0015877328 -1.2785721e-05
-0.0016063954 0.0015244962 0.02057865 0.008866206 0.00058405485 -0.013268922 0.021573644 -0.02224559
-0.024979014 -0.023737483 -0.026000658 0.021378776 -0.009558665 -0.02593486 -0.023503715 -0.0067175743
0.011017284 -0.02514075 0.017259857 0.0036835251 -0.01758975 0.020035587 -0.029669113 0.008851164
0.0073532695 0.0030079025 0.021221172 0.013188831 0.012540281 0.0051221596 -0.0164694 -0.029227871
-0.013249173 -0.02507852 55.99942 0.1540463 56.002563 55.980618 -0.016556345 0.0047549917
55.986217 0.17078218 56.034176 -0.012277163 56.007305 -0.0001617868 55.9953 55.996548
55.988262 56.016125 -0.0030488546 56.00089 0.015927734 55.979675 -0.016332678 0.023919826
-0.0021464138 0.01752429 0.0068511646 55.994095 0.0077381004 55.993412 56.008423 0.004546072
-0.010057016 0.0127480505 56.013115 55.9953 55.96922 0.024420135 0.27839616 0.12487132
55.965233 55.99013 56.010643 -0.011768058 -0.02357058 0.011565346 0.0221147 56.007694
-0.027046138 0.004675473 56.003704 -0.00625567 55.99624 55.963417 56.00194 55.97049
55.979874 55.97301 -0.015940836 56.00863 55.99134 55.986538 56.002262 56.008892

layer3.bias f4 [64]
00000000: 8f29 beba 17b9 5d42 7c4e 47bc d212 5e42
00000010: 11a1 5c42 8fc1 95bc b5ef dfba 54ae 5c42
00000020: 0d24 5d42 69da 5b42 1631 3fbc 558b a4bc
00000030: c071 5c42 b664 5e42 aefc d8bb 6820 973c
00000040: 3af0 cfbc bbef 5d42 5d9a 5e42 9a25 5e42
00000050: b2fb 9dbc daed de3b 4844 4c3b f937 413c
00000060: 409e 663c 57d1 5c42 1992 72ba 1d96 193b
00000070: e44c 0b3c e573 633c ca42 5e42 f6cd 053a
00000080: d01e e0bc 05e9 5d42 04b5 e73b 9bfb 5a42
00000090: 47c3 243c e634 cf3c a580 e93b 0b77 9dbc
000000a0: ee31 833b f6cc 5c42 8c44 5e42 b793 5d42
000000b0: 946a c6bb acdf 783b 9527 48b9 4461 5e42
000000c0: 93f7 be39 b500 5e42 b4c0 d2bc 4b98 bd3c
000000d0: caf3 1bbc 0419 c5bc d156 d0bc 718b c6bc
000000e0: 61e0 da3c f926 9bbc ee61 5e42 3234 bcbc
000000f0: 8378 a83b ea02 623c 01b0 5d42 ada8 92bb
-0.0014508235 55.43075 -0.012164708 55.51838 55.15729 -0.018280772 -0.0017084988 55.170242
55.285206 54.96329 -0.011669418 -0.02008597 55.111084 55.59835 -0.0066219186 0.01844807
-0.025383104 55.48411 55.650745 55.53672 -0.019285057 0.0068032565 0.0031168628 0.01179313
0.014075816 55.204433 -0.00092533376 0.0023435422 0.008502219 0.013882612 55.565224 0.0005104238
-0.027358443 55.47756 0.0070711393 54.74571 0.010056323 0.025293779 0.0071259313 -0.019221803
0.004003755 55.200157 55.56694 55.394253 -0.0060551856 0.0037975116 -0.00019088232 55.594986
0.0003642408 55.50069 -0.025726654 0.023143908 -0.009518573 -0.02405978 -0.025432022 -0.024236413
0.02671832 -0.018939482 55.595634 -0.022974107 0.0051413192 0.01379464 55.42188 -0.004475674

layer4.weight f4 [290, 64]
00000000: f10e b5bb c045 2d42 4a97 1cbc 103e 2d42
00000010: 1e2b 2d42 a0d0 32bc 41a2 e5bc f935 2d42
00000020: 5c30 2d42 d628 2d42 d61d 9f3a d6c6 823c
00000030: 042c 2d42 c352 2d42 4789 fe36 15bf 193e
00000040: db58 02ba 3436 2d42 944d 2d42 af43 2d42
00000050: fe6e dabb 63ed c33c 55d6 d83c f224 b03c
00000060: 35f9 5a3a dd30 2d42 4cae 503c 3449 f5ba
00000070: 7fdb 4b3c 9aed bcbc 8f42 2d42 ac43 05bc
00000080: c9cc b63c 3f42 2d42 317e d33c 1521 2d42
00000090: c3c5 b43c 499d d13c c9f2 1dbd 24a9 72bc
000000a0: 270f d23c c92c 2d42 e752 2d42 d03d 2d42
000000b0: 6836 2fbc 812e a6bd a88a d1bc 3a47 2d42
000000c0: e272 3fbc 8b3f 2d42 56fd abba f27c ad3d
000000d0: 1504 76bc 217f 003c 89e7 c03b e804 50bd
000000e0: f1ad babb 56eb 40bc 7b51 2d42 fba6 28bc
000000f0: c6b2 25bc bca0 9b3b 1b38 2d42 a7a0 6b3c
00000100: 1bd2 453c 354a c93e 044a 8bbb bb54 d03e
00000110: 4fe4 b33e ca8e 02bc 0096 113c f67a c63e
00000120: 246f d83e 0f89 b93e d38d 2b3d 5f29 adbc
00000130: 95ad c33e 232b d73e 310b 173c 4f07 0e3e
00000140: 3496 5839 a8e8 b23e 4527 da3e 3e93 ce3e
00000150: 2c75 d9bb 34a9 953c 40c8 413c ee65 903b
00000160: a5eb 8cbb 7b57 c23e e6d4 dbba 4fb5 833c
00000170: cd68 b23c a945 6c3c ddf8 c33e f096 8fbc
00000180: c5f5 143b 799b d23e f323 6e3c 9c16 bf3e
00000190: b384 bf3c d13d 54bc 5c3b de3c 5952 b6bb
000001a0: 8d49 bb3c 85b2 d23e f697 cf3e 787c cd3e
000001b0: 2971 be3c 3d66 183d 9853 cf3a a233 d23e
000001c0: b0b8 a4bc 0a6c bd3e 1dd1 04bc 4838 f23d
000001d0: 9de2 d03a c929 7d3c a199 31bc 1894 5d3d
000001e0: caa8 1bbc 3004 5bbb 6ce3 cf3e 3792 d53b
000001f0: f608 1b3c f410 8f3c 06a2 cb3e 6e2f d93a
00000200: cceb 9e3c a21a 153f c3c2 a1ba 2dc2 173f
00000210: 2022 1f3f 7c79 53bc ed10 9f3c 4e56 193f
00000220: f928 183f c40e 203f 3557 d43b 5ea9 fb3b
00000230: 54be 203f d21d 1b3f 4135 9b3b 3cd0 0e3b
00000240: deeb 9e3c ed3d 1a3f cbd8 1b3f 893e 163f
00000250: 7eab bebb b96d 35bb 414e a13c 54d7 03bc
00000260: 3284 9eb9 a3ca 1b3f c5c4 8ebc ee1e 803c
00000270: 60ed a1bc a8ba f6b9 2e35 1d3f f80f 4cbc
00000280: f589 7abc 6c20 1d3f 17aa 8f3c ccc3 303f
00000290: 7135 45bc acd7 6c3b 6d3e 85bb 4611 883c
000002a0: 8136 c03c bf31 183f cb4b 1b3f b5b7 1b3f
000002b0: 033e a83c d912 ee3c f35e 8bbc cb3d 223f
000002c0: e22f 06bb eb0e 1c3f f336 3bbc 8fbd ac3c
000002d0: 0686 cd3c a230 443a ca37 7abc 8689 d33b
000002e0: 4f1c 6b3b 7449 803c 98e8 1f3f ba27 35bc
000002f0: 12bd a93c c43f c83c 74d2 163f 8988 b13c
00000300: 6121 4ebc 819a e53e e5d7 7f3c 3172 ea3e
00000310: 79e7 e23e 882a b53b bea5 393c 06bd e33e
00000320: de27 d83e dc10 e53e b3e4 083d e55a 6abc
00000330: 8613 da3e 3ad0 e93e 2b1e b43c 63f7 543c
00000340: 1bf0 43bc f0cb de3e c534 d83e 2bc9 dd3e
00000350: 6b5e 28bb 5b97 3ab9 f943 a6bb 7247 e03a
00000360: ad8d 18bc d953 d83e 4d2b d63c ae5d a93c
00000370: 3480 a43c 06ef 86bc f53e da3e 0be0 d839
00000380: ef9a e23c 4857 e33e 8b7d 233c f19c ec3e
00000390: 5bcc 83bc 76e4 e539 f0b0 e33b a0f1 d83c
000003a0: 0b8f cf3c 1a7b dd3e dbb8 ee3e 356c d53e
000003b0: 98ad 853c 0dbc 6c3c 87d6 423b 41b3 db3e
000003c0: 615c b33c 938d e93e e77e 2aba ce92 603b
000003d0: 173c 453c ab1d babc 3eb3 af3c 1355 533c
000003e0: ac8e ba3c 180a cabc cb60 d73e 17ea de3c
000003f0: 708a 563c 5578 cfbc 8e07 ea3e 414e 81bc
-0.005525463 43.318115 -0.0095575545 43.310608 43.292107 -0.010913998 -0.02803147 43.302708
43.297226 43.28988 0.0012139629 0.015963953 43.292984 43.330822 7.585771e-06 0.15014298
-0.0004972347 43.302933 43.32576 43.316097 -0.0066660633 0.023916906 0.026469389 0.021501992
0.0008353175 43.297718 0.012736868 -0.0018713833 0.012442469 -0.023062516 43.315 -0.00813381
0.022314446 43.314693 0.025817009 43.282307 0.022066956 0.025587695 -0.038561616 -0.014810834
0.02564199 43.293736 43.33096 43.310364 -0.010694124 -0.08114339 -0.025578812 43.319557
-0.011685105 43.312054 -0.0013121765 0.08471097 -0.015015622 0.00784281 0.005886976 -0.05078593
-0.005697005 -0.011774858 43.32957 -0.0102937175 -0.010113424 0.0047493856 43.30479 0.014381564
0.012074019 0.39314428 -0.0042507667 0.40689644 0.35135123 -0.007968614 0.00888586 0.38765687
0.42272294 0.3623738 0.0418833 -0.021137891 0.3821837 0.42025098 0.009218977 0.13869976
0.0002065532 0.34943128 0.42608085 0.40346712 -0.0066362824 0.018269159 0.0118275285 0.004406682
-0.004300552 0.37957367 -0.0016771823 0.016077666 0.021778489 0.014420905 0.38275805 -0.017528027
0.0022729498 0.4113424 0.014534938 0.37321937 0.023378706 -0.012954191 0.027127914 -0.005564016
0.02286222 0.41151825 0.40545624 0.40134025 0.023247318 0.037206877 0.001581776 0.41055018
-0.020107597 0.3699649 -0.008106497 0.11827141 0.0015936677 0.015451857 -0.010839851 0.05409631
-0.009500692 -0.0033419244 0.40603197 0.0065176743 0.009462586 0.017464139 0.39772052 0.0016569921
0.019399546 0.58243763 -0.0012341369 0.59280664 0.62161446 -0.012907382 0.01941725 0.59897316
0.5943752 0.6252253 0.0064801225 0.0076801023 0.6279042 0.6059238 0.004736573 0.0021791598
0.01939958 0.6025074 0.60877675 0.5868917 -0.0058187833 -0.0027683808 0.019690635 -0.008046944
-0.00030234602 0.60856074 -0.017427811 0.015639748 -0.01976651 -0.00047059846 0.6140927 -0.012454979
-0.015291681 0.61377597 0.01753716 0.6904876 -0.012036667 0.0036139293 -0.0040662796 0.0166098
0.02346349 0.59450907 0.60662526 0.6082719 0.020537382 0.029061722 -0.017013049 0.6337554
-0.0020475318 0.60960263 -0.011426675 0.021086482 0.025088321 0.00074840535 -0.01527209 0.006455603
0.0035875028 0.015660025 0.62464285 -0.011056835 0.020720039 0.024444468 0.58914876 0.02167155
-0.0125812 0.4484444 0.015615438 0.45790246 0.44317225 0.0055287518 0.01133102 0.4448015
0.42217916 0.44739425 0.03342123 -0.0143038975 0.4259302 0.45666677 0.021987041 0.012998435
-0.011959101 0.43514967 0.4222776 0.4331754 -0.0025691043 -0.00017794727 -0.005074021 0.0017111136
-0.009311122 0.4225147 0.026143694 0.020674553 0.020080663 -0.016471397 0.42626157 0.00041365655
0.027661769 0.44402528 0.009978662 0.46213487 -0.016088655 0.000438485 0.006948583 0.026482403
0.025336763 0.43257982 0.4662541 0.41684118 0.016318128 0.014449132 0.002972992 0.42910197
0.021894636 0.45615825 -0.0006503895 0.003426719 0.012038252 -0.022719225 0.021447774 0.012898701
0.02277311 -0.024663016 0.42066035 0.027211232 0.0130945295 -0.025325933 0.4570889 -0.015784385

layer4.bias f4 [290]
00000000: 672b 0342 cd63 933e 82aa 063f 5758 b93e
00000010: 07b7 b13f 428e 5b3e 3051 963e d620 b63e
00000020: 6520 1642 b623 0d42 15a7 003f 2a33 ed3e
00000030: a44d 763e d4a8 7b3f 8f88 7d3e 38b4 963e
00000040: 6caa 913e f1e0 fe3e 0f09 1140 bf84 3d3f
00000050: 8f24 2042 84f3 523e b0b0 843c f7c7 0e3d
00000060: a209 363c 882d af3c b202 313e ecaf 853c
00000070: a49e 933e 4eab 8540 2a7f 5d3e 965f 803e
00000080: f20a 943e 1c92 59bc 6092 babc d942 d5bb
00000090: 66a8 fbbb 210d 1e3d 9e4c 523d 2f5e 1b3e
000000a0: 9add 323e 7658 ea3d bb75 163e ecc5 1b3e
000000b0: 8074 3e3e 9650 a53c a702 9cbc 0bd5 b7bc
000000c0: 4a19 3ebc 0c42 5f3f 9c5d 1e3f 317c 12bc
000000d0: b1f4 a541 acb5 003f 633d 283e 8bb5 af3c
000000e0: cf7d d0ba c9c0 bdbc 2cd6 b23c e587 a93e
000000f0: 3bde 0ebc fc8e a03c 8f8a f93b a9b2 de3c
00000100: cb1a 3abb 4718 9ebc 9882 1d3d acc3 923d
00000110: a17c b33d b169 f93d 1509 99bc 3220 f73d
00000120: 6f56 043e 4724 5b3c 9dca 91bc 44f3 a7bc
00000130: 098f 04bc 2d3c d6bc 63f6 bfbc cf5d dbbb
00000140: e794 5d3d 2dba 993d ac91 d33c 859b b73e
00000150: 8f36 ae41 99ba 623f dfa4 71bc 8842 10bc
00000160: 2c35 8fbc c325 15bc 2ba2 7b3b deb2 fa3c
00000170: a1ff bc3c 9390 973b 5ede babc 3aa7 ab3b
00000180: c8d7 d2bc 2565 1fbc 6e8a 43bc f308 0b3a
00000190: 1951 ae3c 5278 25bc 7dda 2f3c ecd4 243e
000001a0: e381 183b 5139 7540 18a9 a6bc fc55 153c
000001b0: fed3 4d3b f131 873e 8148 ddbc b6f5 9f41
000001c0: cde9 c0bc 3d1c c8bc dd00 99bb c339 833b
000001d0: 16d3 763c 1c25 aabc 3801 7ebb 63e0 783c
000001e0: 538c 41bb 375b 453d 2ada 11bb 9596 fb3d
000001f0: f0fc 463c df24 0d3e 753b d3bc a6a5 12b8
00000200: db38 a5bc adac ebbb 64aa 5f3c 5f33 b3bc
00000210: 6abb cb3c 27c0 213c 5f3e 133c 46b7 b03c
00000220: bd1a d73c 253c 623c a45d b2bb 890d aabc
00000230: 0e26 ae41 5105 d9bc c443 c6bc ce72 c03c
00000240: 04a4 533c bc5b 433c cac8 9e3b be85 89ba
00000250: eb44 9cbc 8278 88bc d07a 91bc 5c8c 09bc
00000260: d8bc 853c fc7a 8b3c 8acf 883c e918 9f3c
00000270: d170 01bc 3651 983c 0de4 e43b 9842 d53d
00000280: 7576 b1bc 912a b5bc 170b 973c 012c 8c3c
00000290: e830 61bc f0af 7c3e 2b2a 48bc 7b46 cbbc
000002a0: dd6d 753c 0176 8dbb cbe3 8f3c 8fae c9bc
000002b0: c3bf 393c 13b9 eb3b a72d 9b3c ede9 b2bc
000002c0: 5f9f 6dba d70e 42bc be58 debc d2b5 2bbc
000002d0: 8adb b3bc 4057 c0bc 0a77 1c3c 80ef d23c
000002e0: d24e f8bb c4f4 e33b 16ff bebc 8e2a bf3c
000002f0: 568a 81bc 0af7 9f3c dad4 eabb 2dce 7fbc
00000300: 86cc 873c 1649 dbbb a735 8c3f 2e28 47bc
00000310: c89d 8c3c 7d38 d53c 0144 00bc f957 9abc
00000320: 5cad e1bb 1f27 2d3e d2b5 93bc ef98 a93c
00000330: ab90 763c 7e6e c23c 2089 b3bc 9426 30bc
00000340: e939 22bc f5b7 bfbc 2f4b 86bb 89e4 213d
00000350: 9064 913c 1037 343c e962 5bbb b03b 5d3c
00000360: 837d 4fbc 35ea bbbc c531 87bc e8de a63c
00000370: 74ce 51bc 5151 ab3c 98ff 7e3c d283 0b3d
00000380: f54e 943c 6ad0 da3c b672 d5bb 08d6 143e
00000390: 1326 4dbc 08d0 e53d b78f c33d fec7 343d
000003a0: f502 bf3c 1e53 383c 79b8 15bc e489 033d
000003b0: a393 c63e 5fa9 6f3e 722d 6f3e 123b 133e
000003c0: 893e ed3d ce9f e73d c9a8 4e3e ac43 113e
000003d0: e936 c93d ad18 e33c f4ef e73d 1250 2b3e
000003e0: 2aa3 d83d eb0c 283e 09ec a33d f01e 253e
000003f0: c3e5 0e3f 650e 663d 079c af3d 9561 8e3d
32.792385 0.2878708 0.52603924 0.3620021 1.388398 0.21440986 0.29358816 0.35571927
37.531635 35.284874 0.50254947 0.46328098 0.24053055 0.98304486 0.24759124 0.2943437
0.28450334 0.49780992 2.266178 0.7403068 40.0357 0.20600706 0.016197532 0.03485867
0.011110695 0.021384016 0.17286184 0.016319238 0.2883197 4.177161 0.2163054 0.25072926
0.289146 -0.013279464 -0.022774875 -0.006508213 -0.007679987 0.03858674 0.0513426 0.15172647
0.17467347 0.11442654 0.14693348 0.1521222 0.18599129 0.020180028 -0.019044233 -0.022440454
-0.011602709 0.87210155 0.61861587 -0.008940742 20.744478 0.5027721 0.16429667 0.021448871
-0.0015906635 -0.023163216 0.02183064 0.33111492 -0.008719976 0.01959943 0.0076153944 0.027184801
-0.0028397318 -0.019298686 0.038454622 0.07166228 0.087640055 0.12178362 -0.018681088 0.12066688
0.12923597 0.013375348 -0.017796809 -0.02050174 -0.008090743 -0.02615174 -0.023432916 -0.0066945325
0.054097082 0.07506213 0.025826298 0.3586084 21.77664 0.88565975 -0.014748781 -0.008804925
-0.017481409 -0.009103241 0.003839622 0.030602869 0.023071112 0.004625389 -0.022811111 0.005238441
-0.025737658 -0.009728705 -0.01193486 0.0005303763 0.021278905 -0.010099487 0.010733244 0.16096848
0.0023270778 3.8316233 -0.020344302 0.009114739 0.0031406875 0.2640529 -0.027012112 19.994976
-0.023548985 -0.024427528 -0.0046692924 0.0040046885 0.015064975 -0.020769648 -0.003875805 0.015190217
-0.0029533103 0.048182692 -0.002225528 0.122845806 0.012145266 0.13783596 -0.025785187 -3.4963385e-05
-0.020168712 -0.0071922154 0.013651464 -0.021875082 0.02486964 0.009872473 0.008987038 0.021571767
0.026257867 0.013808285 -0.0054432917 -0.020758407 21.768581 -0.026491793 -0.024202235 0.023492243
0.012917522 0.011923727 0.0048457133 -0.0010492129 -0.019075831 -0.016659025 -0.017758757 -0.008395281
0.0163254 0.017026417 0.016700525 0.019421058 -0.007900433 0.018593412 0.0069851936 0.104130924
-0.02166293 -0.022115024 0.018437905 0.017110826 -0.01374457 0.2467649 -0.012217085 -0.024813881
0.014979807 -0.0043170457 0.017564675 -0.024619369 0.011337223 0.0071936934 0.018942667 -0.02184006
-0.00090645807 -0.011844358 -0.027141925 -0.010480361 -0.02195527 -0.023479104 0.0095498655 0.025748968
-0.0075777555 0.0069566686 -0.023314994 0.023335721 -0.015813034 0.019526977 -0.007166487 -0.015613121
0.016577017 -0.006692062 1.0953873 -0.012155576 0.01716508 0.026027912 -0.007828713 -0.018840777
-0.006887121 0.16909455 -0.018031035 0.020702807 0.01504914 0.023734327 -0.021915972 -0.010751385
-0.009901502 -0.023403147 -0.004098318 0.03952459 0.017748147 0.010999456 -0.0033475703 0.013503
-0.012664202 -0.022938827 -0.016503224 0.020369962 -0.01280557 0.020912798 0.015563868 0.03406126
0.018104056 0.026710708 -0.0065139187 0.14534771 -0.012521285 0.112213194 0.09548896 0.04413604
0.02331684 0.011250285 -0.00913822 0.032113925 0.38784513 0.23404454 0.2335718 0.14378002
0.11584193 0.11309777 0.20181574 0.14185971 0.098249264 0.027721727 0.11325064 0.16729763
0.10577996 0.16411178 0.080040045 0.16125083 0.5581934 0.05616607 0.08574682 0.06952206
