catanatron_experimental/my_DQN_wyniki2/my_DQN2_250_steps.pth (torch, 268915 bytes, 8 tensors)

layer1.weight f4 [64, 614]
0	0x3c7a820b	0.015289794
1	0x3bd2b5dc	0.0064303707
2	0xbccc6fe9	-0.024955707
3	0x3c91e9cc	0.017811678
4	0xbcc16efe	-0.023612496
5	0xbaaca151	-0.0013170635
6	0xbc8ba51a	-0.0170465
7	0x3a8cec4a	0.0010751572
8	0xbc205c15	-0.009787579
9	0xbc872272	-0.016495917
10	0x3c3054e1	0.010762424
11	0x3c2145f5	0.009843339
12	0x3cbcb297	0.023034377
13	0x3c682df6	0.014171114
14	0x3c3e528d	0.011616361
15	0xbc0492fd	-0.008091685
16	0xbbc7352f	-0.006079338
17	0x3ca9cc88	0.02072741
18	0xbcc59859	-0.024120497
19	0x3abcf456	0.001441608
20	0xbc5e318c	-0.013561618
21	0xbbaf4539	-0.005348828
22	0xb7254c26	-9.852496e-06
23	0x3bf8822c	0.007583877
24	0x3ca841dd	0.020539219
25	0x3ca8a131	0.020584675
26	0x3c9f5eeb	0.01945444
27	0x3bccfaa8	0.0062554665
28	0xbae7ab60	-0.0017674975
29	0xbc4c5caf	-0.012473269
30	0x3bfab438	0.0076508783
31	0x3c846f43	0.016166335
32	0xbb22c655	-0.0024837453
33	0x3b602f0d	0.0034207732
34	0x3bcf103e	0.006319075
35	0x3ca5c348	0.020234719
36	0xbcbfd059	-0.023414778
37	0x3c1a66a4	0.0094238855
38	0xba561412	-0.0008166443
39	0xbc51497f	-0.0127738705
40	0xbc0b7813	-0.008512515
41	0x3c931c8c	0.017957948
42	0x3aeaee72	0.0017923845
43	0xbc7e7f05	-0.0155332135
44	0xbb6d90ac	-0.0036249561
45	0x3c91f164	0.0178153
46	0x3c32ecc9	0.010920712
47	0xbbdd1827	-0.006747264
48	0x3a7555a0	0.00093587674
49	0xbb46fe6f	-0.0030364057
50	0x3ca8dd10	0.020613223
51	0xbb1f8ca7	-0.002434531
52	0x3beb39b6	0.0071785105
53	0x3c3aa3b7	0.011391572
54	0xbbb47d84	-0.0055081267
55	0x3b0a975d	0.0021147348
56	0x3bd51f9b	0.006504012
57	0xbc05ed7b	-0.008174296
58	0x3c8e1eb0	0.017348617
59	0xbbf184ad	-0.0073705525
60	0x3c34e3ed	0.01104067
61	0x3ba38e8e	0.004991359
62	0x39110d27	0.00013833177
63	0xbc4c3fcf	-0.012466385
64	0xbc35c9a7	-0.011095441
65	0xbcb6cbd4	-0.02231399
66	0x3c81d804	0.015850075
67	0x3c3a1e69	0.011359789
68	0xbc2bd7ea	-0.01048849
69	0x3b87f8ab	0.0041495166
70	0x3c592669	0.013253787
71	0x3c8ebcb0	0.017423958
72	0xbcbace31	-0.022803398
73	0x3cba7740	0.022761941
74	0xbbb9e239	-0.00567272
75	0x3c6d5e57	0.014487824
76	0xbc777aaf	-0.015104934
77	0xbc680798	-0.014161967
78	0xbc9ffe3f	-0.019530414
79	0xbcbbf193	-0.02294234
80	0x3b20b2c4	0.0024520615
81	0x3c4371b0	0.011928961
82	0x3bea755b	0.007155103
83	0xbc76fb10	-0.015074506
84	0xbca01b60	-0.019544303
85	0x3aaef1d1	0.0013347213
86	0xbbd0ed98	-0.0063759796
87	0xbcaebb0f	-0.02132943
88	0xbb54237e	-0.0032369788
89	0xbc88dc7a	-0.016706694
90	0xbc4b7d0f	-0.012419953
91	0xbb8f561d	-0.004374279
92	0x3bb37390	0.0054764226
93	0xbba6ceff	-0.005090594
94	0xbbdf92f5	-0.0068229386
95	0x3bfd3315	0.0077270367
96	0x3c9e8f19	0.019355344
97	0x3a9a6767	0.0011780084
98	0xbcabf4c6	-0.02099074
99	0x3c5acc4d	0.013354373
100	0x3c0c7988	0.008573897
101	0xbc7b4bb9	-0.015337878
102	0xbc9d35a4	-0.019190617
103	0xbc5a477c	-0.013322707
104	0x3c6223b4	0.013802458
105	0xbc25f851	-0.010130004
106	0x3cb3d4be	0.02195203
107	0x3c40905d	0.011753169
108	0x3aad0458	0.0013200147
109	0x3bfcb605	0.007712128
110	0xbc82ea41	-0.015980842
111	0x3c454cd8	0.012042247
112	0x3c3ec4a5	0.011643563
113	0xbca960d9	-0.020676063
114	0xbc744011	-0.014907853
115	0xbc7c2c87	-0.0153914755
116	0xbc8457b3	-0.0161551
117	0xbc019921	-0.007910044
118	0xbc1c20a3	-0.009529266
119	0x3c9bf2e7	0.019036723
120	0x3c1020ea	0.00879691
121	0x3ade70d2	0.0016970879
122	0xbc951459	-0.01819818
123	0x3ca1dae1	0.01975769
124	0xb97790c5	-0.00023609686
125	0xba4e8f9a	-0.00078796747
126	0x3bcb8c08	0.0062117614
127	0xbc187018	-0.009304069
128	0x3c06509b	0.008197929
129	0xbbc5c0bc	-0.0060349386
130	0x3aa3d404	0.0012499099
131	0x3c71990c	0.014745962
132	0x3cb2dca5	0.021833727
133	0xb9e41101	-0.00043500218
134	0x3cb86e3b	0.0225135
135	0xba64fd2d	-0.0008735236
136	0x3c792959	0.015207612
137	0xbb08a5fb	-0.0020850885
138	0x3c41575e	0.011800615
139	0xbc5d6dac	-0.013514917
140	0xbc91391a	-0.017727423
141	0xba4158be	-0.00073755893
142	0xb895e2cb	-7.147117e-05
143	0x3b486c5d	0.0030582168
144	0x3c9f7314	0.019464053
145	0xbc328059	-0.010894858
146	0xbbe2303f	-0.006902724
147	0x3c976552	0.01848093
148	0xbacaac95	-0.001546281
149	0xba45c9f0	-0.00075450446
150	0xbbe87466	-0.007093954
151	0x3c6f7568	0.014615394
152	0x3cb51f7b	0.022109738
153	0xb80bdfe4	-3.3348697e-05
154	0x3c8abad8	0.016934797
155	0x3bfe973c	0.0077694934
156	0xbc12d7d5	-0.008962591
157	0xbcb25dbd	-0.021773214
158	0x3c5cc877	0.013475529
159	0x3ba58599	0.0050513265
160	0xbc9b7d2c	-0.018980585
161	0x3c1c9244	0.009556357
162	0xbc609bae	-0.013708992
163	0xbb0143e5	-0.0019724306
164	0xbc7fe67a	-0.015618915
165	0xbc955e49	-0.018233435
166	0xbc31d648	-0.010854311
167	0x3b125e87	0.0022334175
168	0xbaed397a	-0.0018098794
169	0x3bb2aa27	0.0054524126
170	0xbc912d24	-0.01772172
171	0x3cb62a12	0.022236858
172	0xbc8ec234	-0.017426588
173	0x3cb32747	0.021869315
174	0xbb45ece8	-0.0030201022
175	0xbc516915	-0.012781401
176	0xbc4bd831	-0.012441681
177	0xbc61df01	-0.013786078
178	0x3b3a214b	0.0028401192
179	0x3bf4b1d0	0.007467486
180	0x3b8893b5	0.0041679987
181	0x3c81d15b	0.015846899
182	0xbc52609d	-0.012840417
183	0xbca74bc6	-0.020421874
184	0x3c4812ce	0.012211515
185	0xbc7b5303	-0.015339616
186	0x3c1a6cbc	0.009425338
187	0xbc3fcd92	-0.011706727
188	0x3c974b48	0.018468514
189	0xbc82d361	-0.015969934
190	0xbcb3ac88	-0.021932855
191	0x3bfdfabc	0.007750837
192	0xbc57fdd3	-0.013183075
193	0x3c3e632a	0.011620322
194	0x3c93c5b0	0.0180386
195	0x3ca93322	0.020654265
196	0xbc21220b	-0.009834777
197	0xbc4b6c6c	-0.0124159865
198	0xbcb77818	-0.022396132
199	0xbb9fa4f5	-0.0048719593
200	0x3c89eeb4	0.016837455
201	0x3c599fb1	0.013282702
202	0xbc7141d1	-0.0147251645
203	0x3ba25d97	0.0049550044
204	0x3b050c48	0.002030151
205	0xbb275df2	-0.0025538174
206	0xbc9824e8	-0.018572286
207	0x3c843222	0.016137186
208	0x3c3fffdb	0.011718716
209	0x3ca5b9bd	0.020230168
210	0x3c88b5e8	0.016688302
211	0x3c7759af	0.015097066
212	0x3c15d797	0.009145639
213	0xbcb295cb	-0.021799942
214	0xbc51309c	-0.012767937
215	0xbaa7e48c	-0.0012809201
216	0x3c7e1c2e	0.015509648
217	0xbb511931	-0.0031905884
218	0xbc43734a	-0.0119293425
219	0x3c5de106	0.013542419
220	0x3cb17179	0.021660553
221	0xbb06e7e8	-0.0020585004
222	0xbc8d7876	-0.017269354
223	0xbac8f5c9	-0.0015332039
224	0xba8149d7	-0.0009863925
225	0xbc605703	-0.01369262
226	0x3bcfc1d8	0.0063402466
227	0xbbf1c267	-0.007377911
228	0xbc738c31	-0.014864967
229	0xbc299239	-0.010349804
230	0x3c3bef5a	0.01147064
231	0xbc32227d	-0.01087248
232	0xbc1c7907	-0.00955034
233	0xbbae5e05	-0.0053212666
234	0xbc18ba43	-0.009321752
235	0x3cbc36c3	0.022975331
236	0x39be315e	0.00036276405
237	0xbbddf6aa	-0.0067737894
238	0xba6d79c1	-0.0009058975
239	0xbc86fbe8	-0.01647754
240	0x3ca1beba	0.019744266
241	0x3ca28cc1	0.019842507
242	0x3c132931	0.008981989
243	0x3be350ad	0.0069371075
244	0x3c2d1f5e	0.010566561
245	0xbc204b3d	-0.009783563
246	0x3bdb3853	0.006690064
247	0xbc0249b1	-0.00795214
248	0x3cab8e30	0.020941824
249	0xbc83d35b	-0.016091993
250	0x3cae41ee	0.021271672
251	0x3b4ac8b0	0.0030942373
252	0xbc9bb731	-0.01900825
253	0x3c58964e	0.013219429
254	0x3c804f04	0.015662678
255	0x3c30f0b3	0.010799575

layer1.bias f4 [64]
0	0x3c731621	0.014836819
1	0x3a90a114	0.0011034333
2	0xba5c8e94	-0.000841358
3	0x412d836c	10.844585
4	0xbcd41222	-0.025887553
5	0x412caf5a	10.79281
6	0xbcdc502f	-0.026893703
7	0x412d0456	10.813559
8	0x3c849b91	0.016187461
9	0x412d80ca	10.843943
10	0x412c914b	10.785472
11	0x412d6cba	10.839045
12	0xbcdfc355	-0.027314821
13	0xbc93c1d8	-0.018036768
14	0x412c2e16	10.761251
15	0x412a5b89	10.647347
16	0x412d2dd3	10.823688
17	0x412cb697	10.794578
18	0x412d87df	10.845672
19	0x3ca91d80	0.02064395
20	0x412acbf0	10.674789
21	0x412ce441	10.805726
22	0x412c96b8	10.786797
23	0xbc2149f0	-0.009844288
24	0xba254e32	-0.00063059025
25	0x412d1cac	10.8195
26	0xbebddf2e	-0.37084335
27	0x412d9c86	10.850714
28	0x3b9cf8ce	0.004790402
29	0x3c9fd583	0.01951099
30	0xbc9f1913	-0.019421136
31	0xbc8642d3	-0.016389286
32	0x412cf87b	10.810664
33	0xbc706837	-0.014673284
34	0x3c7bf269	0.015377619
35	0x412d5dcc	10.8354
36	0x412c954d	10.78645
37	0x412d0bb5	10.815358
38	0x412d129a	10.817041
39	0x3b60897a	0.003426163
40	0xbe9b33ec	-0.3031305
41	0xbb955ee7	-0.0045584324
42	0x412d0d72	10.815783
43	0xbe45075e	-0.19241092
44	0xbb075a1f	-0.0020653082
45	0xbc52ebe2	-0.012873622
46	0xbc907dec	-0.01763817
47	0xbc0bbeef	-0.008529409
48	0x412cd49d	10.801908
49	0x3c15ab37	0.009135059
50	0xbb5e9af3	-0.0033966869
51	0xbcc921f9	-0.024552332
52	0x412c84cd	10.782422
53	0x412cd12d	10.801068
54	0x412cccd6	10.800009
55	0x412c4262	10.766207
56	0x3b981390	0.004641004
57	0xbc2cd871	-0.0105496505
58	0xbc9cd0fd	-0.019142622
59	0x412cce3f	10.800353
60	0x412d2b56	10.82308
61	0x412d1341	10.817201
62	0x412d00ee	10.812727
63	0x412c6a1f	10.775908

layer2.weight f4 [64, 64]
0	0xbc390aa4	-0.011294041
1	0xbaf345dd	-0.001856025
2	0x3bbe015c	0.005798502
3	0x3d2929ae	0.041299514
4	0xbcfd930c	-0.030953906
5	0x3b482f9d	0.0030545958
6	0xbd71309e	-0.058884256
7	0x3d6e7311	0.058215205
8	0xbcae5468	-0.021280482
9	0x3b2b19a2	0.0026107808
10	0xbd6127cb	-0.05496959
11	0x3d1cb7ae	0.038261108
12	0xbd22a62b	-0.03970925
13	0x3d422411	0.047397677
14	0x3a4fd9a4	0.00079288543
15	0x3cce21a2	0.025162522
16	0x3d2cc53a	0.042180277
17	0x3d257948	0.040398866
18	0x3b9aa911	0.0047198613
19	0x3b90e424	0.0044217277
20	0xbd782c68	-0.060589224
21	0xbcf68d98	-0.030096814
22	0x3d1e7be3	0.038692366
23	0x3d0310cb	0.031998437
24	0x3d3f0772	0.04663796
25	0xbcf9a512	-0.03047422
26	0x3d1966f2	0.037451692
27	0xbd96aa0c	-0.073566526
28	0xbd8a9d79	-0.06768317
29	0x3c3ee82b	0.011652033
30	0xbd49be2f	-0.04925364
31	0xbd90801f	-0.07055687
32	0xbd3e088c	-0.04639487
33	0x3ce6f072	0.028190825
34	0xbd251618	-0.040304273
35	0xbcadda75	-0.021222332
36	0x3d370857	0.044685688
37	0xbd1f72d9	-0.038927887
38	0xbd34ae40	-0.04411149
39	0xbd12ff92	-0.035888262
40	0x3d5edc3e	0.054409258
41	0x3d4417e7	0.047874358
42	0x3d86b203	0.06576922
43	0x3cb3c2b6	0.021943431
44	0xbcabb9fe	-0.020962711
45	0x3da4c71f	0.08045792
46	0x3d7c711c	0.061631307
47	0x3c825c17	0.015913052
48	0xbd9b5ffd	-0.07586668
49	0x3d3f91ed	0.046770025
50	0xbc40aa7c	-0.011759397
51	0x3d3d0de6	0.046155833
52	0x3c23aaa3	0.009989413
53	0xbc92aa40	-0.017903447
54	0xbdaf1351	-0.08548606
55	0x3b5b5000	0.0033464432
56	0xbcee970f	-0.029124765
57	0xbd842c02	-0.06453706
58	0x3d7b5ba8	0.061366707
59	0x3d5525cd	0.052038003
60	0xbd80cf6e	-0.06289564
61	0xbd5704a4	-0.05249466
62	0x3cb7a57d	0.022417778
63	0xbd7d075a	-0.06177459
64	0x3c5bcf25	0.013416086
65	0x3ccf6161	0.025314989
66	0xbc83de0c	-0.016097091
67	0xbd44ffbc	-0.04809545
68	0xbbccf927	-0.006255287
69	0xbd173b50	-0.0369218
70	0xbc0e83e9	-0.008698442
71	0xbd28d9d9	-0.04122338
72	0xbd4b6912	-0.04966075
73	0x3bf1220e	0.007358796
74	0x3d4ea114	0.050446585
75	0x3d88b191	0.06674493
76	0xbc5d4a86	-0.013506537
77	0x3d62ba6c	0.055353567
78	0xbcc122a9	-0.023576098
79	0x3d5c8286	0.053835414
80	0xbd0634f2	-0.032765336
81	0x3d0ccc2f	0.034374412
82	0xbce8c97f	-0.028416393
83	0x3d6fd938	0.058556765
84	0xba19a72d	-0.0005861398
85	0xbd8d560e	-0.06901179
86	0x3d0a7563	0.033803355
87	0x3d185e99	0.03719959
88	0xbaac37e5	-0.0013139216
89	0xbccd47d0	-0.025058657
90	0xbcebd285	-0.028786907
91	0xbcb4f2b4	-0.022088386
92	0x3d1f2b65	0.038859744
93	0xbd6a9655	-0.057272274
94	0xbcb5315d	-0.022118265
95	0xbd130ca0	-0.035900712
96	0xbcc42c6c	-0.023946963
97	0xbcea55c3	-0.028605347
98	0x3d07d959	0.033166263
99	0xbd296a87	-0.041361358
100	0xbd7a83b7	-0.06116077
101	0xbd9088e6	-0.07057361
102	0xbd954f58	-0.07290524
103	0xbc3e65b5	-0.0116209285
104	0xbd4c8866	-0.049934767
105	0xbd5c0eb7	-0.05372497
106	0x3d770831	0.060310546
107	0x3d73c8c9	0.059517656
108	0xbc8450f2	-0.016151879
109	0xbd85f027	-0.06539946
110	0xbd0b429b	-0.033999067
111	0x3c3850db	0.011249746
112	0x3d10d42f	0.035358604
113	0xbbba10b0	-0.005678259
114	0xbce845ad	-0.028353537
115	0x3d829aa1	0.063771494
116	0x3d7edab2	0.062220283
117	0x3cb8ced4	0.02255956
118	0xbcac7c67	-0.021055413
119	0xbcd2bb13	-0.02572397
120	0x3ce848a5	0.028354952
121	0x3b55f6d5	0.0032648344
122	0xbc99516c	-0.018715583
123	0x3d39132d	0.045184303
124	0xbd287808	-0.041130096
125	0x3d866436	0.065620825
126	0x3c1ff956	0.009764036
127	0x3d6fb3b0	0.058520973
128	0x3c18d811	0.009328858
129	0x3d4de9e5	0.050271887
130	0x3d63a4fe	0.05557727
131	0x412066cd	10.025098
132	0xbe2d6e09	-0.16936506
133	0x41205425	10.020543
134	0xbce1a472	-0.027544234
135	0x4120a528	10.040321
136	0xbb445f3f	-0.0029963998
137	0x4121268b	10.07191
138	0x41227bf9	10.155267
139	0x41209a05	10.037602
140	0xbcd85cbd	-0.026411409
141	0xc023cb0a	-2.5592675
142	0x41218fba	10.0975895
143	0x4121dbb1	10.116136
144	0x4122aa61	10.166596
145	0x41213edd	10.0778475
146	0x4120a008	10.03907
147	0x3cfea34b	0.031083724
148	0x4126734f	10.4031515
149	0x41212e46	10.073797
150	0x412232b2	10.137377
151	0xbd3b2c2e	-0.04569643
152	0x3d65298f	0.055947836
153	0x412286f6	10.157949
154	0xc10c77ce	-8.779249
155	0x4120b4e3	10.044162
156	0x3d8e1fa1	0.069396265
157	0xbce638dd	-0.028103286
158	0xbc975fdf	-0.018478332
159	0xbc8761db	-0.016526153
160	0x41234005	10.20313
161	0xbcd21c1e	-0.025648173
162	0x3d3dbc5b	0.046322208
163	0x4120df40	10.054504
164	0x412281f7	10.15673
165	0x4123126e	10.191999
166	0x412283af	10.157149
167	0xbc21e53d	-0.009881315
168	0xc11bf64a	-9.747629
169	0x3cf33851	0.02968994
170	0x4120d48b	10.05189
171	0xc122c6c2	-10.173525
172	0xbc3fb174	-0.011700023
173	0x3d92ea65	0.071736135
174	0xbbba5890	-0.005686827
175	0xbb43d3e3	-0.0029880933
176	0x4122305c	10.1368065
177	0xbd328846	-0.04358699
178	0xbd8cc7b8	-0.06874031
179	0x3d292ae8	0.041300684
180	0x4122f343	10.18439
181	0x41222410	10.133804
182	0x412034e9	10.0129175
183	0x41230bde	10.190397
184	0xbd71157e	-0.058858387
185	0xb95cbd54	-0.00021051365
186	0xbdb0754c	-0.086161226
187	0x41217bc5	10.092717
188	0x4121ad11	10.104753
189	0x41232b5c	10.198086
190	0x4121f636	10.12261
191	0x4122945f	10.161223
192	0x3d59eb26	0.05320277
193	0xbd8ea2cf	-0.06964647
194	0xbd5cf709	-0.05394653
195	0xbcedfba7	-0.029050661
196	0x3f23b3d9	0.639463
197	0x3dccee02	0.10006334
198	0x3c985fcb	0.018600365
199	0xbd666f54	-0.056258515
200	0xbc481a38	-0.012213282
201	0x3cc05925	0.023480007
202	0x3d420897	0.047371473
203	0xbd5f9e18	-0.05459413
204	0x3cbe1ef6	0.023208123
205	0xbce3faa6	-0.02782948
206	0x3d055657	0.032553043
207	0x3e71d4d7	0.23616348
208	0x3d4c9acb	0.04995231
209	0xbd7b8e78	-0.061415166
210	0x3d441c2e	0.047878437
211	0xbd5630d9	-0.05229268
212	0xbe57e7c1	-0.21084501
213	0xbe45d041	-0.19317724
214	0x3aadafcb	0.0013251243
215	0x3cd135c4	0.025538333
216	0xbd74d77f	-0.059775826
217	0xbd7db5b4	-0.061940864
218	0xbe205f70	-0.15661407
219	0x3d6c7670	0.05773014
220	0x3d0f576a	0.034995474
221	0x3d425b87	0.04745057
222	0x3cf5803d	0.029968375
223	0xbd4852f2	-0.048907228
224	0xbe3deded	-0.18547793
225	0x3c846bff	0.016164778
226	0x3ccad4b5	0.02475963
227	0x3d2c0092	0.04199273
228	0xbdb011b9	-0.0859713
229	0x3cc91a93	0.024548804
230	0xbce0f7e8	-0.02746196
231	0xbd160cf2	-0.03663344
232	0xbd82c1e2	-0.063846365
233	0x3bff2007	0.0077858004
234	0xbc540ea1	-0.012942941
235	0x3ecf3197	0.40467522
236	0xbd85f98f	-0.0654174
237	0x3e81b276	0.25331467
238	0xbc9bdcf1	-0.019026252
239	0xbd8f679a	-0.07002182
240	0xbcebdd86	-0.028792154
241	0xbcc11f3b	-0.023574462
242	0xbce8f61a	-0.028437663
243	0x3d022ceb	0.03178112
244	0xbe11c96a	-0.1423699
245	0x3d33c860	0.043892264
246	0xbcdd3c40	-0.027006269
247	0x3e074833	0.13211136
248	0xbd5263cc	-0.051364705
249	0x3d67761e	0.05650913
250	0xbd4bec01	-0.049785618
251	0xbd4dc3e3	-0.05023564
252	0xbb84eb69	-0.0040563834
253	0x3d2ce4df	0.042210456
254	0xbd67257e	-0.05643224
255	0xbda76bd8	-0.081748664

layer2.bias f4 [64]
0	0xbd3fac42	-0.046795137
1	0x3d53b70f	0.05168825
2	0x41612fab	14.074138
3	0xbbb1e045	-0.0054283463
4	0x4160d9a5	14.053136
5	0x416135ec	14.0756645
6	0xbd9c9b0c	-0.0764676
7	0xbd837dc3	-0.064204715
8	0x4162316e	14.137068
9	0xbce16d7a	-0.027518023
10	0x41619bb0	14.10051
11	0xbd62fb74	-0.055415586
12	0x41610140	14.062805
13	0x3d891026	0.06692533
14	0x4161b268	14.106056
15	0x41601d77	14.007194
16	0x4160d743	14.052554
17	0x41623d9f	14.140044
18	0xbc7126be	-0.0147187095
19	0x416190fd	14.097898
20	0x3d1ce0f9	0.03830049
21	0x416066f4	14.025135
22	0x3c84ad65	0.016195962
23	0xbd490eec	-0.049086496
24	0xbd9c2ca0	-0.07625699
25	0xbd848b56	-0.06471889
26	0xbd38a066	-0.045074843
27	0x41604954	14.017902
28	0xbd8e65eb	-0.06953033
29	0x41626436	14.149466
30	0x4162524f	14.145095
31	0x3d4e289a	0.05033169
32	0x3d1271c9	0.035753045
33	0xbd822dda	-0.06356402
34	0x41615528	14.08329
35	0x41601449	14.004952
36	0x41616ef4	14.089588
37	0x3d187adc	0.037226543
38	0xbb50fb77	-0.0031888166
39	0xbbdec8cf	-0.0067988406
40	0x415ffab3	13.998706
41	0x4160b694	14.044575
42	0x41619c77	14.100699
43	0xbb7f1ef3	-0.003892836
44	0x3ae30a31	0.0017321763
45	0xbd68bd8a	-0.056821384
46	0xbd8cf346	-0.06882338
47	0x41611ee8	14.070045
48	0xbd834b5b	-0.06410857
49	0xbd89e8ef	-0.06733882
50	0x416127e5	14.07224
51	0x3afcdee8	0.0019292505
52	0x4161191a	14.068628
53	0x41614334	14.078907
54	0x416060dd	14.023648
55	0x4161406a	14.078226
56	0x4162343b	14.137752
57	0x41607874	14.0294075
58	0xbceae7bf	-0.028674958
59	0x4161a88c	14.103649
60	0x4160859a	14.032618
61	0x4161b567	14.106788
62	0x41621db6	14.132254
63	0x4161d445	14.114324

layer3.weight f4 [64, 64]
0	0x3d1152c3	0.03547932
1	0xbd957ab4	-0.072987944
2	0xbda3bb2c	-0.079946846
3	0xbd85c347	-0.06531387
4	0x3b377fd6	0.002799978
5	0xbda04dad	-0.078273155
6	0x3c95c0a4	0.018280335
7	0xbcce4006	-0.025177013
8	0xbc5a5e95	-0.013328214
9	0xbc93ce91	-0.018042834
10	0xb96c8432	-0.0002255596
11	0xbd633733	-0.055472564
12	0xbd91d0f4	-0.07119933
13	0x3c9fd990	0.019512922
14	0x3b6e2889	0.0036340079
15	0xbcbebf13	-0.02328447
16	0x3c1c9ead	0.009559316
17	0x3d29db5c	0.041468963
18	0x3d4791d3	0.048723053
19	0xbd90ceb3	-0.07070675
20	0xbd1c8eb8	-0.038222045
21	0x3def10b3	0.11673107
22	0xbd1c1bca	-0.03811244
23	0x3d9f1098	0.07766837
24	0xbd63f56f	-0.055653986
25	0xbcdef90f	-0.02721837
26	0xbd853ef3	-0.06506147
27	0x3d88bcdd	0.06676648
28	0x3abf8ec4	0.0014614691
29	0xbd67ccdb	-0.05659185
30	0x3cb31867	0.021862222
31	0x3d611c70	0.05495876
32	0x3c887678	0.016658053
33	0xbd87e0f7	-0.066347055
34	0xbd7d609b	-0.06185971
35	0x3cb6632b	0.022264084
36	0x3cd2592d	0.025677288
37	0xbcd453ea	-0.02591892
38	0x3d6566f6	0.056006394
39	0x3d87d2cb	0.066320024
40	0x3d650800	0.055915833
41	0x3d11b3ac	0.03557174
42	0x3d29ee30	0.04148692
43	0xbd39ae60	-0.045332313
44	0x3d50d43a	0.050983645
45	0x3cc078ec	0.02349516
46	0xbc685bd4	-0.01418205
47	0x3d6f7512	0.058461256
48	0xbc440ceb	-0.0119659705
49	0x3d312181	0.043244842
50	0x3cface4f	0.030615954
51	0xbd68c9ab	-0.05683295
52	0x3cab88bb	0.020939222
53	0xbd109b99	-0.03530464
54	0x3d1c5fb9	0.038177226
55	0xbd5dee89	-0.054182563
56	0xbd9197b5	-0.07109014
57	0x3d6cd93c	0.05782436
58	0xbcf07921	-0.029354634
59	0xbd892d5c	-0.06698105
60	0xbd22f599	-0.039785
61	0xbd4a9999	-0.04946289
62	0x3d3bb7e5	0.045829672
63	0xbd5b7135	-0.05357476
64	0xbd4e32bf	-0.050341364
65	0xbc5b1c57	-0.013373456
66	0x411c2fee	9.761702
67	0x3ee96470	0.4558444
68	0x411c539f	9.770415
69	0x411ae0ad	9.6798525
70	0xbd6e32b3	-0.05815382
71	0x3d5ea38d	0.054355193
72	0x411ac625	9.673375
73	0xbe25157b	-0.16121475
74	0x411abc61	9.670991
75	0xbd508af5	-0.05091377
76	0x411c559a	9.770899
77	0xbc051275	-0.008122076
78	0x411bd404	9.739262
79	0x411c71cd	9.777783
80	0x411b3549	9.700509
81	0x411aede5	9.68308
82	0x3d9d17bd	0.07670543
83	0x411b4c1d	9.706082
84	0x3cc9b430	0.024622053
85	0x411c42a0	9.766266
86	0x3d46f24b	0.048570912
87	0xbd13bb1f	-0.036067124
88	0x3c759b23	0.014990601
89	0xbd585e2d	-0.052824188
90	0x3d849c40	0.06475115
91	0x411c49e7	9.768043
92	0xbc0ea68d	-0.008706701
93	0x411bad50	9.729813
94	0x411be08a	9.742319
95	0x3d83441c	0.06409475
96	0xbd6e65e6	-0.058202647
97	0x3d1f60a6	0.03891053
98	0x411aad99	9.667382
99	0x411c04a0	9.751129
100	0x411b5a0a	9.709482
101	0x3d731211	0.0593434
102	0x3e6b0037	0.229493
103	0x3e873cdb	0.26413617
104	0x411c4946	9.767889
105	0x411c7db4	9.780689
106	0x411c3f76	9.765493
107	0xbd665199	-0.05623016
108	0xbc8da2e6	-0.01728959
109	0x3d0da084	0.034576908
110	0x3a914bbc	0.0011085193
111	0x411bfaf1	9.748765
112	0xbd2173c5	-0.039417047
113	0x3d3fad7e	0.046796314
114	0x411c9ba0	9.787994
115	0x3d575f21	0.052580956
116	0x411aee3e	9.683165
117	0x411c39cf	9.764113
118	0x411c8fc9	9.785104
119	0x411ccc31	9.799851
120	0x411a47fa	9.642572
121	0x411b5024	9.707066
122	0xbd0be46c	-0.034153387
123	0x411a8c13	9.659198
124	0x411b9010	9.7226715
125	0x411c6a84	9.776005
126	0x411aac37	9.667045
127	0x411bd4fb	9.739497
128	0xbd5f1712	-0.05446536
129	0x3d27fcb5	0.041012485
130	0x3afd5765	0.0019328414
131	0xbd25ac46	-0.040447496
132	0xbc0c51d6	-0.008564433
133	0x3cc65661	0.02421111
134	0xbc7831a4	-0.015148554
135	0x3d784725	0.060614724
136	0x3d532501	0.05154896
137	0xbd625e24	-0.05526556
138	0xbcc83ca5	-0.02444298
139	0xbd629b68	-0.05532399
140	0xbca83668	-0.020533755
141	0xbd254a83	-0.040354263
142	0xbd040246	-0.03222873
143	0x3d5f833b	0.05456851
144	0x3c2fd386	0.010731583
145	0xbd32d2cd	-0.043658067
146	0xbb695464	-0.003560328
147	0x3d01ccb5	0.031689364
148	0xbc14a7c9	-0.009073206
149	0xbd8339e2	-0.06407525
150	0x3d0ab86e	0.033867292
151	0xbd9ea12f	-0.07745587
152	0xbd427a4e	-0.04747992
153	0xbd1a2614	-0.03763397
154	0x3cdbac30	0.026815504
155	0x3d747093	0.05967767
156	0x3d3e7982	0.046502598
157	0xbacc0c60	-0.0015567653
158	0x3b8817c1	0.0041532223
159	0xb80c47c2	-3.344543e-05
160	0xbb89b4c1	-0.0042024557
161	0x3b82af65	0.003988194
162	0x3d5c7ea5	0.053831715
163	0x3cbdfce9	0.023191886
164	0x3ac83f60	0.0015277676
165	0xbd0e3033	-0.034713935
166	0x3d67283f	0.056434866
167	0xbd6e56f9	-0.058188412
168	0xbd85d584	-0.065348655
169	0xbd7e52b1	-0.06209058
170	0xbd8b4dd8	-0.06801957
171	0x3d650cf8	0.05592057
172	0xbcccd522	-0.025003973
173	0xbd8af39b	-0.06784745
174	0xbd7bd4b0	-0.06148213
175	0xbc8ff417	-0.017572446
176	0x3cec177d	0.028819794
177	0xbd86b2ea	-0.06577094
178	0x3d38ea39	0.045145247
179	0x3c1de22b	0.009636442
180	0xbd3c777f	-0.046012398
181	0x3d56ac13	0.052410197
182	0xbd9ef51a	-0.07761593
183	0x3cbdaa89	0.023152607
184	0x3c9d95be	0.019236442
185	0x3c00ed30	0.00786905
186	0x3d635e8a	0.05551008
187	0x3d0d525f	0.034502383
188	0x3d06613a	0.032807566
189	0x3c5b8600	0.013398647
190	0xbd3072a8	-0.043078095
191	0xbd9c9503	-0.07645609
192	0xbd0df980	-0.03466177
193	0xbd865e75	-0.06560985
194	0x4115ae47	9.355048
195	0x3ece4eee	0.40294594
196	0x4115cfcd	9.363233
197	0x4114e378	9.305534
198	0xbd3163e8	-0.04330817
199	0x3c4bc9e3	0.01243827
200	0x41152035	9.320363
201	0x3ee4b84e	0.44671863
202	0x41172276	9.445913
203	0xbd038dc6	-0.032117628
204	0x4116026c	9.375591
205	0xb9dddfad	-0.00042319056
206	0x411581f1	9.344224
207	0x41158f7e	9.347532
208	0x41153605	9.325688
209	0x411661af	9.398849
210	0xbc02ade2	-0.007976027
211	0x4115be22	9.358919
212	0x3d2aa671	0.041662637
213	0x4114d94e	9.303053
214	0xbd2efd0c	-0.042721793
215	0x3d8024e0	0.06257033
216	0xbbb7fb55	-0.005614678
217	0x3d3bc313	0.045840334
218	0x3c92d38e	0.017923143
219	0x411574f4	9.341053
220	0x3ca5d579	0.020243393
221	0x41156dad	9.339276
222	0x41160e5b	9.378505
223	0x3c42d5f7	0.0118918335
224	0xbcd78463	-0.026308244
225	0x3d0898a4	0.033348694
226	0x411640bb	9.390803
227	0x411581ed	9.34422
228	0x411469e3	9.275851
229	0x3d82d601	0.06388474
230	0x3f3a6bd5	0.7282079
231	0x3ea740d0	0.32666636
232	0x41143faa	9.265543
233	0x41154a73	9.330676
234	0x411625fb	9.384273
235	0xbcfc2e52	-0.030783806
236	0xbd7c8d2b	-0.061658066
237	0x3cf7d56f	0.03025314
238	0x3d6cf27d	0.057848442
239	0x411606b2	9.376635
240	0xbd90e76c	-0.0707539
241	0x3c486030	0.012229964
242	0x4115dbf1	9.366197
243	0xbc8611f5	-0.016365984
244	0x41158c33	9.346728
245	0x41142c0e	9.260756
246	0x4115c94b	9.361644
247	0x4114778f	9.279189
248	0x4114db53	9.303546
249	0x41149208	9.285652
250	0xbd2aca82	-0.041697033
251	0x41161083	9.379031
252	0x4115576a	9.333841
253	0x4115238d	9.321179
254	0x4115cca6	9.362463
255	0x41161364	9.379734

layer3.bias f4 [64]
0	0xbb78b5f0	-0.003795024
1	0x4135cf5f	11.363128
2	0xbd0259c4	-0.03182389
3	0x41385c2e	11.522505
4	0x412986c0	10.595398
5	0xbd43dc77	-0.047817674
6	0xbb92754b	-0.004469549
7	0x4128e9a3	10.55704
8	0x412e949b	10.911281
9	0x41218a2c	10.096233
10	0xbcfa0c95	-0.030523578
11	0xbd573816	-0.052543722
12	0x41274a39	10.455621
13	0x413c58ae	11.77165
14	0xbc8deab9	-0.017323839
15	0x3d45a69d	0.048254598
16	0xbd87fbc7	-0.066398196
17	0x4137284b	11.447337
18	0x413e6322	11.899202
19	0x4139f2de	11.621794
20	0xbd4e9f30	-0.05044478
21	0x3c91cc81	0.01779771
22	0x3c059878	0.008154027
23	0x3cfcb79e	0.030849274
24	0x3d16d411	0.036823336
25	0x412c1bd2	10.756792
26	0xbb1ea572	-0.00242075
27	0x3bc8ddcd	0.0061299563
28	0x3cb630c6	0.022240054
29	0x3d14bfb4	0.036315635
30	0x413a576b	11.646342
31	0x3aaeff75	0.0013351279
32	0xbd92941f	-0.07157158
33	0x41372bc7	11.448188
34	0x3c978905	0.018497953
35	0x411808e2	9.502169
36	0x3cd780a5	0.02630646
37	0x3d878290	0.066167
38	0x3c98b597	0.018641276
39	0xbd4df1bb	-0.05027936
40	0x3c2b96b3	0.010472941
41	0x412ad734	10.67754
42	0x413b5483	11.708133
43	0x41326b75	11.151235
44	0xbc81c4ed	-0.015840972
45	0x3c22c474	0.009934533
46	0xba02e78b	-0.0004993609
47	0x413c105b	11.753993
48	0x3a79c14e	0.0009527401
49	0x4137d111	11.488542
50	0xbd89d61f	-0.067302935
51	0x3d77f966	0.06054058
52	0xbccbf94b	-0.024899146
53	0xbd80e87c	-0.06294343
54	0xbd883f10	-0.06652653
55	0xbd81da64	-0.06340483
56	0x3d8f2583	0.06989577
57	0xbd4aebcd	-0.049541283
58	0x413bdd96	11.741598
59	0xbd7625d7	-0.06009468
60	0x3c5c59b2	0.013449119
61	0x3d13cf88	0.03608659
62	0x4133b696	11.232077
63	0xbc3fcf24	-0.011707101

layer4.weight f4 [290, 64]
0	0xbc6ccfbc	-0.014453825
1	0x3f98efee	1.1948221
2	0xbccccf25	-0.025001118
3	0x3f966a19	1.1751128
4	0x3f903aa7	1.1267899
5	0xbce9dc73	-0.028547501
6	0xbd96307d	-0.07333467
7	0x3f93c4f5	1.1544482
8	0x3f91ebe0	1.1400108
9	0x3f8f7bb4	1.1209626
10	0x3b501a9a	0.0031754137
11	0x3d2b0a24	0.041757718
12	0x3f9088cb	1.1291746
13	0x3f9d349a	1.2281678
14	0x37a678dd	1.9845023e-05
15	0x3ec912a1	0.39272025
16	0xbaaa79c8	-0.0013006264
17	0x3f93d8ec	1.1550574
18	0x3f9b82df	1.2149314
19	0x3f9847b3	1.1896881
20	0xbc8edc07	-0.017438902
21	0x3d8020cb	0.06256255
22	0x3d8dd169	0.069247074
23	0x3d66610d	0.0562449
24	0x3b0f359b	0.002185202
25	0x3f92139a	1.1412232
26	0x3d087960	0.033318877
27	0xbba06943	-0.0048953607
28	0x3d05534e	0.03255015
29	0xbd771bb9	-0.060329173
30	0x3f97e224	1.1865888
31	0xbcae4b40	-0.021276116
32	0x3d6f1452	0.05836899
33	0x3f97c96f	1.1858348
34	0x3d8a5204	0.067539245
35	0x3f8cf96c	1.1013618
36	0x3d6c7106	0.057724975
37	0x3d891791	0.06693948
38	0xbdce938a	-0.100867346
39	0xbd1eb46c	-0.038746282
40	0x3d896208	0.06708151
41	0x3f90c64c	1.1310515
42	0x3f9d428d	1.2285935
43	0x3f9651f0	1.1743755
44	0xbce526da	-0.027972627
45	0xbe59562d	-0.2122428
46	0xbd890b62	-0.06691624
47	0x3f9970bb	1.1987528
48	0xbcfa635a	-0.030564953
49	0x3f96ea32	1.1790221
50	0xbb60f16c	-0.0034323586
51	0x3e62e7ec	0.22158784
52	0xbd20e4bb	-0.039280634
53	0x3ca80f9a	0.020515252
54	0x3c7c4ef3	0.015399682
55	0xbe08092b	-0.13284747
56	0xbc742782	-0.0149019975
57	0xbcfc53f9	-0.03080176
58	0x3f9cc708	1.224824
59	0xbcdc96bc	-0.026927345
60	0xbcd8b637	-0.026454074
61	0x3c4b8c00	0.012423515
62	0x3f947c12	1.1600363
63	0x3d1a1a71	0.037622873
64	0x3d01615c	0.03158699
65	0x3f31e8e2	0.69495976
66	0xbc362cf4	-0.011119116
67	0x3f3b3bab	0.7313792
68	0x3f15444d	0.58307344
69	0xbcaac095	-0.020843783
70	0x3cbe6888	0.023243204
71	0x3f2e59fd	0.6810606
72	0x3f4569ed	0.77114755
73	0x3f1c861f	0.6114215
74	0x3de05f66	0.10955696
75	0xbd627b13	-0.055293154
76	0x3f2a3919	0.66493374
77	0x3f441b4b	0.76604146
78	0x3cc58a85	0.024113903
79	0x3eb9c024	0.36279404
80	0x3a0da70d	0.00054036157
81	0x3f14640b	0.57965153
82	0x3f480329	0.7812982
83	0x3f38c781	0.7217942
84	0xbc8e3a19	-0.017361687
85	0x3d43bcde	0.04778754
86	0x3cfd71ff	0.030938147
87	0x3c3cdc11	0.011527077
88	0xbc384ea5	-0.011249219
89	0x3f28611d	0.65773183
90	0xbb8fc403	-0.00438738
91	0x3d2c4323	0.042056214
92	0x3d695503	0.05696584
93	0x3d1a868c	0.03772597
94	0x3f2b15d3	0.66830176
95	0xbd3bcd5d	-0.045850147
96	0x3bc2d419	0.005945694
97	0x3f3dfff7	0.74218696
98	0x3d1bbeb3	0.03802366
99	0x3f23a53b	0.63923997
100	0x3d7a7adc	0.061152324
101	0xbd0acf4d	-0.033889104
102	0x3d9157af	0.070968024
103	0xbc6e73c5	-0.014553969
104	0x3d74f27a	0.059801556
105	0x3f3dc356	0.74126184
106	0x3f3a31a6	0.7273201
107	0x3f37900f	0.7170419
108	0x3d7912de	0.06080901
109	0x3dc755f4	0.09733191
110	0x3b87966f	0.004137806
111	0x3f3da224	0.7407553
112	0xbd5772ef	-0.052599844
113	0x3f225aff	0.634201
114	0xbcadb5fe	-0.021204945
115	0x3e9e6b12	0.30941063
116	0x3b889c41	0.0041690175
117	0x3d2591f1	0.040422384
118	0xbce8489f	-0.028354941
119	0x3e10ea30	0.14151835
120	0xbccb969c	-0.02485209
121	0xbc0f3cb9	-0.008742505
122	0x3f3a8ae7	0.728682
123	0x3c8bad1e	0.017050322
124	0x3ccac44f	0.02475181
125	0x3d3b1d48	0.04568222
126	0x3f351a13	0.7074291
127	0x3b8e0c3d	0.004334955
128	0x3d4fd92d	0.050744224
129	0x3f8cca71	1.099928
130	0xbb5390a4	-0.0032282257
131	0x3f9045c2	1.1271288
132	0x3f99c946	1.2014549
133	0xbd0a4eed	-0.033766676
134	0x3d5009ba	0.050790526
135	0x3f925408	1.1431894
136	0x3f90cb33	1.1312011
137	0x3f9acd23	1.2093853
138	0x3c8adfe7	0.016952468
139	0x3ca493bc	0.020089976
140	0x3f9c06de	1.2189596
141	0x3f94a7c8	1.1613703
142	0x3c4afe94	0.012389798
143	0x3bbac839	0.005700138
144	0x3d4fd941	0.0507443
145	0x3f9382cf	1.1524295
146	0x3f959add	1.1687886
147	0x3f8e48cf	1.111597
148	0xbc795e8f	-0.015220298
149	0xbbed49e9	-0.007241477
150	0x3d52f92c	0.05150716
151	0xbcac6fca	-0.021049399
152	0xba4f51b0	-0.0007908596
153	0x3f9581e9	1.168027
154	0xbd3ab925	-0.045586724
155	0x3d27945a	0.040912963
156	0xbd53c808	-0.051704437
157	0xbaa15c72	-0.0012310876
158	0x3f97656e	1.1827829
159	0xbd0575f2	-0.032583185
160	0xbd23da45	-0.04000308
161	0x3f974b35	1.1819826
162	0x3d3be68c	0.045874164
163	0x3fafb9e3	1.3728603
164	0xbd00fb0b	-0.031489413
165	0x3c1ae636	0.009454301
166	0xbc2e446e	-0.010636432
167	0x3d31f95f	0.04345071
168	0x3d7b656d	0.061376024
169	0x3f90d634	1.131537
170	0x3f94e3f4	1.1632066
171	0x3f956f6f	1.1674632
172	0x3d5c0ca4	0.053722993
173	0x3d9bb3af	0.07602631
174	0xbd3648ac	-0.0445029
175	0x3f9df75e	1.2341115
176	0xbbaf7f0e	-0.0053557223
177	0x3f95e2a4	1.170979
178	0xbcf4da35	-0.029889205
179	0x3d61eeb3	0.055159282
180	0x3d866bc5	0.06563524
181	0x3b004d9f	0.0019577516
182	0xbd23a543	-0.039952528
183	0x3c8a596a	0.01688834
184	0x3c19c3bc	0.009385046
185	0x3d27cad6	0.040964924
186	0x3f9ae97b	1.2102503
187	0xbcecefae	-0.028922882
188	0x3d5dfec8	0.054198056
189	0x3d82f75a	0.06394835
190	0x3f8f09ed	1.1174904
191	0x3d68327e	0.056688778
192	0xbd06d047	-0.032913473
193	0x3f4ec4d7	0.80769104
194	0x3d27529e	0.040850274
195	0x3f553473	0.83283156
196	0x3f4a9736	0.7913698
197	0x3c6cf34c	0.014462303
198	0x3cf2ceed	0.029639686
199	0x3f4c68dd	0.7984751
200	0x3f3cd94a	0.73769057
201	0x3f4d5588	0.80208635
202	0x3db30b92	0.08742441
203	0xbd194501	-0.037419323
204	0x3f3f4273	0.7471077
205	0x3f5457ec	0.8294666
206	0x3d6b941a	0.057514288
207	0x3d0b48a2	0.034004815
208	0xbd00229c	-0.031283006
209	0x3f45976a	0.77184165
210	0x3f3d45d4	0.73934674
211	0x3f4486a8	0.7676797
212	0xbbdc3757	-0.006720464
213	0xb9f40a0f	-0.000465468
214	0xbc597229	-0.013271847
215	0x3b92aeb6	0.0044763936
216	0xbcc788d0	-0.02435723
217	0x3f3ce50b	0.7378699
218	0x3d8c0f53	0.0683886
219	0x3d5d81e4	0.05407895
220	0x3d572955	0.05252965
221	0xbd30781c	-0.043083295
222	0x3f40024e	0.75003517
223	0x3a8dd7d2	0.0010821766
224	0x3d943143	0.072359584
225	0x3f4bb6c5	0.7957576
226	0x3cd5d29f	0.026101409
227	0x3f5712ac	0.84012866
228	0xbd2c6160	-0.04208505
229	0x3a965b77	0.001147135
230	0x3c94e80a	0.018177051
231	0x3d8de36b	0.06928142
232	0x3d87bce4	0.06627825
233	0x3f43aad8	0.7643256
234	0x3f5acb3c	0.8546636
235	0x3f39b652	0.72543824
236	0x3d2ed548	0.04268387
237	0x3d1ad41d	0.037799943
238	0x3bfed28d	0.0077765645
239	0x3f41d8a1	0.75721174
240	0x3d6a94ab	0.057270687
241	0x3f53dacf	0.8275575
242	0xbadefc9a	-0.0017012537
243	0x3c12e00c	0.00896455
244	0x3d00ff62	0.031493552
245	0xbd736b50	-0.059428513
246	0x3d65ca57	0.05610117
247	0x3d0a3720	0.033743978
248	0x3d73feb9	0.059569094
249	0xbd842024	-0.06451443
250	0x3f3c2918	0.73500204
251	0x3d91ca0c	0.071186155
252	0x3d0c4d2b	0.03425328
253	0xbd87ae31	-0.06625021
254	0x3f54aab7	0.8307299
255	0xbd291bdf	-0.041286346

layer4.bias f4 [290]
0	0x40f78b32	7.7357416
1	0x3f0c9f45	0.54930526
2	0x3f8b46ca	1.0880978
3	0x3f35ce98	0.7101836
4	0x3f8b577a	1.0886071
5	0x3f0f9639	0.56088597
6	0x3f058e83	0.5217058
7	0x3f259f97	0.6469664
8	0x3fd206e7	1.6408356
9	0x3faa8090	1.3320484
10	0x3f5e7679	0.86899525
11	0x3f8d069b	1.1017641
12	0x3f064761	0.52452666
13	0x3f58451d	0.8448046
14	0x3f1aa341	0.60405356
15	0x3f2bfa34	0.67178655
16	0x3ededc74	0.43527567
17	0x3f7bcf2f	0.9836301
18	0x3f5d6533	0.8648254
19	0x3f73b34e	0.9519547
20	0x3fc8fcb0	1.5702114
21	0x3f09f757	0.53893036
22	0x3d2d8bbc	0.04236959
23	0x3dbabd5a	0.09118147
24	0x3cee146f	0.029062478
25	0x3d651b49	0.055934224
26	0x3ee78515	0.4521872
27	0x3d2ed850	0.04268676
28	0x3f12965d	0.57260686
29	0x3f23adc3	0.63937014
30	0x3f10dc80	0.56586456
31	0xbbc49bd0	-0.0060000196
32	0x3f41a0ee	0.75636184
33	0xbd0e4cde	-0.034741275
34	0xbd740393	-0.05957372
35	0xbc8b79f9	-0.017025935
36	0xbca49318	-0.020089671
37	0x3dceb5fc	0.100933045
38	0x3e098a35	0.13431628
39	0x3ecb3472	0.3968845
40	0x3ee9ed89	0.45689037
41	0x3e99436d	0.29934254
42	0x3ec4c635	0.3843247
43	0x3ecbbcf1	0.39792588
44	0x3eaa7b28	0.33297086
45	0x3d58374a	0.052787103
46	0xbd4c0cda	-0.049816944
47	0xbd706ec6	-0.05869939
48	0xbcf8a0d8	-0.030350134
49	0xbd4b71b9	-0.049669
50	0x3f3979d8	0.72451544
51	0xbcbf9511	-0.02338651
52	0x3f8f4a56	1.119456
53	0x3d49bc77	0.049252
54	0x3e8e4d5d	0.27793398
55	0x3d65cd64	0.05610408
56	0xbb88590c	-0.004161006
57	0xbd782dfa	-0.06059072
58	0x3d69e3bf	0.05710196
59	0x3e38137c	0.17976183
60	0xbcbada9e	-0.022809323
61	0x3d520083	0.05127002
62	0x3ca33483	0.0199225
63	0x3d91a5c4	0.071116954
64	0xbbf36790	-0.007428117
65	0xbd4ec492	-0.050480433
66	0x3dce00d7	0.10058754
67	0x3e3ff260	0.18744802
68	0x3e6abf2a	0.22924486
69	0x3ea31ef4	0.31859553
70	0xbd4827f1	-0.048866216
71	0x3ea19f07	0.3156664
72	0x3ead1621	0.33805946
73	0x3d0f5184	0.03498985
74	0xbd3ead38	-0.046551913
75	0xbd5baa34	-0.053629115
76	0xbcad5fe2	-0.021163885
77	0xbd8c1a26	-0.06840925
78	0xbd7b10d4	-0.061295345
79	0xbc8f76cf	-0.017512707
80	0x3e10eab9	0.1415204
81	0x3e490c4b	0.19633596
82	0x3d8a5ebc	0.067563504
83	0x3e5dfd3f	0.21678637
84	0x3f8e664a	1.1124966
85	0x3f92ac8d	1.1458908
86	0xbd1e0adf	-0.038584586
87	0xbcbcaed7	-0.023032589
88	0xbd3b4ce0	-0.04572761
89	0xbcc3125b	-0.023812464
90	0x3c248f0c	0.010043871
91	0x3da3f4a9	0.080056496
92	0x3d773348	0.06035164
93	0x3c463b29	0.012099066
94	0xbd7466ac	-0.059668228
95	0x3c6080ad	0.013702554
96	0xbd89e532	-0.06733169
97	0xbcd077db	-0.025447777
98	0xbcffbeac	-0.03121885
99	0x3ab5d6d7	0.0013873231
100	0x3d63fc37	0.055660453
101	0xbcd86aa8	-0.026418045
102	0x3ce5fe5e	0.028075393
103	0x3ed79770	0.42107725
104	0x3bc7799c	0.006087495
105	0x3f1122b0	0.56693554
106	0xbd59f752	-0.05321438
107	0x3cc350ec	0.023842297
108	0x3c069e36	0.008216431
109	0x3ec4bdad	0.3842596
110	0xbd90b829	-0.07066376
111	0x3f84a527	1.03629
112	0xbd7c51ec	-0.061601564
113	0xbd82e021	-0.063904054
114	0xbc481d58	-0.012214027
115	0x3c2ba0fc	0.010475393
116	0x3d216c75	0.039410073
117	0xbd5e8706	-0.054327987
118	0xbc26204f	-0.010139539
119	0x3d22c4ec	0.03973858
120	0xbbfd2492	-0.007725307
121	0x3e0113ba	0.12605181
122	0xbbbec186	-0.0058214096
123	0x3ea48792	0.32134682
124	0x3d022482	0.031773098
125	0x3eb89835	0.36053625
126	0xbd8a2660	-0.06745601
127	0xb8bfcb2f	-9.1454356e-05
128	0xbd58189f	-0.052757856
129	0xbc9a2251	-0.018815191
130	0x3d1247e9	0.03571311
131	0xbd6a5e99	-0.05721912
132	0x3d853e22	0.065059915
133	0x3cd38d3d	0.025824184
134	0x3cc09294	0.023507394
135	0x3d67230b	0.056429904
136	0x3d8cac76	0.06868832
137	0x3d13f44e	0.03612166
138	0xbc694690	-0.014238015
139	0xbd5e6827	-0.054298546
140	0x3f814460	1.0098991
141	0xbd8df071	-0.06930626
142	0xbd81ab97	-0.06331556
143	0x3d7bb4f0	0.061451852
144	0x3d0a6abf	0.033793207
145	0x3cff8163	0.031189626
146	0x3c4fab66	0.012675142
147	0xbb33dbfd	-0.0027444356
148	0xbd4c640c	-0.0499001
149	0xbd327f90	-0.043578684
150	0xbd3e450a	-0.04645256
151	0xbcb3e48c	-0.021959566
152	0x3d2ee924	0.04270281
153	0x3d366dc7	0.044538286
154	0x3d32f031	0.043686096
155	0x3d50142e	0.050800495
156	0xbca9493d	-0.020664806
157	0x3d473a46	0.04863956
158	0x3c95b2f4	0.018273808
159	0x3da15eef	0.07879435
160	0xbd681b11	-0.056666438
161	0xbd6cf355	-0.057849247
162	0x3d458a60	0.048227668
163	0x3d375810	0.044761717
164	0xbd134789	-0.035956893
165	0x3cade904	0.021229275
166	0xbd02e93d	-0.031960715
167	0xbd84f0f4	-0.06491271
168	0x3d208117	0.03918561
169	0xbc39012e	-0.011291785
170	0x3d3c3263	0.04594649
171	0xbd83e511	-0.06440175
172	0x3cf2f0d5	0.029655853
173	0x3c9a2a71	0.018819066
174	0x3d4af497	0.049549665
175	0xbd69fdc9	-0.057126794
176	0xbb1b690d	-0.0023713738
177	0xbcfdcd24	-0.030981608
178	0xbd916ae8	-0.07100469
179	0xbce093c8	-0.027414218
180	0xbd6b3c49	-0.05743054
181	0xbd7b909a	-0.0614172
182	0x3ccca5cf	0.024981407
183	0x3d89f4b6	0.06736128
184	0xbca26579	-0.019823777
185	0x3c9514df	0.018198429
186	0xbd79cb11	-0.060984675
187	0x3d7a03f0	0.06103891
188	0xbd296abc	-0.041361555
189	0x3d5136a6	0.051077507
190	0xbc9994ed	-0.018747771
191	0xbd274c4b	-0.040844243
192	0x3d319db6	0.043363295
193	0xbc8f6962	-0.017506305
194	0x3eb8eb03	0.361168
195	0xbd0240c0	-0.03180003
196	0x3d37ea87	0.044901397
197	0x3d8b7333	0.06809082
198	0xbca7c3dc	-0.020479135
199	0xbd49db70	-0.049281538
200	0xbc939889	-0.01801707
201	0x3e2e1d98	0.17003477
202	0xbd412f6d	-0.04716437
203	0x3d5dcf79	0.05415294
204	0x3d2140eb	0.03936855
205	0x3d7e4a02	0.062082298
206	0xbd6acf9e	-0.057326905
207	0xbce6633b	-0.028123489
208	0xbcd42b86	-0.02589966
209	0xbd7abe7a	-0.06121681
210	0xbc2fa29f	-0.010719924
211	0x3dd3bc89	0.103386946
212	0x3d3e27ff	0.046424862
213	0x3cebb4e6	0.028772783
214	0xbc0f7a1d	-0.008757141
215	0x3d10af9f	0.035323735
216	0xbd07b18a	-0.0331283
217	0xbd75c404	-0.06000139
218	0xbd30cf5d	-0.043166507
219	0x3d5a3e32	0.05328197
220	0xbd0937b8	-0.033500403
221	0x3d601024	0.054702893
222	0x3d26c5dc	0.040716037
223	0x3db67979	0.08909888
224	0x3d41fb9c	0.047359094
225	0x3d8f1b2d	0.06987605
226	0xbc8b98e8	-0.017040685
227	0x3db2f5e3	0.087383054
228	0xbd062d7f	-0.032758232
229	0x3e1ba125	0.1519819
230	0x3de3639b	0.111029826
231	0xba271f69	-0.0006375225
232	0x3d79d014	0.060989454
233	0x3cf11413	0.029428517
234	0xbcc3d0b1	-0.023903223
235	0xbc28330f	-0.01026608
236	0x3d17c3dd	0.037052024
237	0x3e2f98e9	0.17148174
238	0x3d7578ad	0.05992954
239	0xbd187eca	-0.03723029
240	0x3e1a77fa	0.1508483
241	0x3e4e2525	0.20131357
242	0x3e91ad0c	0.28452337
243	0x3d7f9035	0.062393386
244	0x3e11ddae	0.1424472
245	0x3d94836f	0.072516315
246	0x3e105a9b	0.14097063
247	0x3dcfab4c	0.10140094
248	0x3e03d90e	0.12875769
249	0x3e565bb5	0.20933421
250	0x3dbbe386	0.09174256
251	0x3ed7f71c	0.42180717
252	0xbd076ad0	-0.03306085
253	0x3d6ea7d2	0.058265515
254	0x3d1eb209	0.038744006
255	0x3d6d5869	0.057945643
