catanatron_experimental/my_DQN_wyniki2/my_DQN2_700_steps.pth (torch, 268915 bytes, 8 tensors)

layer1.weight f4 [64, 614]
0.0052094366 0.0021908134 -0.008502593 0.006067877 -0.008044661 -0.000448713 -0.0058074594 0.000366281
-0.00333453 -0.005619625 0.0036665846 0.003353427 0.007847985 0.004828237 0.003957868 -0.0027565954
-0.002071159 0.0070613064 -0.008218349 0.0004911805 -0.0046205516 -0.0018221845 -3.3564536e-06 0.0025838148
0.0069972374 0.007012871 0.0066274046 0.0021312712 -0.0006021982 -0.0042497376 0.002606746 0.005507514
-0.00084611285 0.0011654278 0.0021529146 0.006893261 -0.007977713 0.0032103935 -0.0002782436 -0.004352393
-0.00290002 0.0061176517 0.0006106545 -0.005292222 -0.0012350829 0.0060691093 0.0037203722 -0.0022989232
0.00031886535 -0.0010344806 0.0070225615 -0.0008293528 0.0024456345 0.0038807057 -0.0018764854 0.0007203852
0.0022160104 -0.0027846997 0.005909953 -0.0025110866 0.0037614023 0.0017004306 4.712559e-05 -0.0042473967
-0.0037799643 -0.007601648 0.0053992704 0.003869909 -0.0035731269 0.0014136785 0.00451557 0.0059357816
-0.007768348 0.0077541503 -0.0019325371 0.0049361917 -0.00514601 -0.004825107 -0.0066535706 -0.007815973
0.0008353958 0.004064265 0.0024377645 -0.005135783 -0.0066583804 0.00045469342 -0.0021724403 -0.007266138
-0.0011028033 -0.0056916527 -0.004231611 -0.0014902162 0.0018656626 -0.0017342125 -0.0023244466 0.0026325404
0.006593737 0.0004013068 -0.0071510035 0.0045498293 0.002921062 -0.005225725 -0.006537773 -0.0045389817
0.004702715 -0.0034509485 0.0074784486 0.0040044417 0.0004497123 0.0026274917 -0.005444223 0.0041031125
0.003967129 -0.0070438837 -0.005079233 -0.005243877 -0.0055037667 -0.002694543 -0.003246444 0.0064854273
0.0029970105 0.0005782031 -0.0061997673 0.0067308196 -8.043464e-05 -0.0002684565 0.0021164115 -0.003169861
0.0027927563 -0.0020562084 0.00042581925 0.0050238585 0.0074381195 -0.00014820685 0.007669962 -0.00029760765
0.00518135 -0.00071035774 0.004020453 -0.0046048313 -0.0060392073 -0.0002512851 -2.4347755e-05 0.001041924
0.0066306703 -0.003711558 -0.0023518654 0.0062959497 -0.00052683876 -0.0002570722 -0.00241699 0.00497956
0.007532431 -1.13616225e-05 0.005768859 0.0026470975 -0.0030532505 -0.0074174884 0.004591336 0.0017208045
-0.006466223 0.0032556525 -0.00467066 -0.0006719289 -0.00532147 -0.006211677 -0.0036977348 0.00076085207
-0.00061664527 0.0018574775 -0.006037267 0.0075755087 -0.0059366855 0.00745025 -0.0010289906 -0.004354927
-0.004238997 -0.0046971585 0.00096753525 0.00254425 0.001419979 0.005398177 -0.0043747877 -0.006957167
0.004160288 -0.0052263127 0.0032108899 -0.0039886315 0.00629167 -0.0054404736 -0.0074719125 0.00264073
-0.004491556 0.0039592166 0.0061452305 0.007036489 -0.0033505368 -0.0042302613 -0.0076295347 -0.0016597082
0.0057358798 0.004525303 -0.005016769 0.0016879635 0.0006915989 -0.0008700159 -0.0063274303 0.005497795
0.003992713 0.006891709 0.00568543 0.0051433644 0.0031156102 -0.007426603 -0.0043503637 -0.0004363776
0.0052841813 -0.0010871119 -0.004064396 0.004614094 0.007379083 -0.0007012633 -0.0058829347 -0.00052238285
-0.0003360239 -0.0046650027 0.0021601794 -0.0025136413 -0.005064582 -0.003525935 0.0039078016 -0.0037039297
-0.0032536383 -0.001812745 -0.0031757934 0.007827447 0.00012359922 -0.0023079144 -0.00030865284 -0.0056133596
0.0067262896 0.006759465 0.0030598515 0.002363531 0.0035998714 -0.00333314 0.0022793263 -0.002708952
0.007134115 -0.0054824282 0.0072464617 0.0010542473 -0.006475685 0.0045039007 0.0053362045 0.0036792448
00000000: ecb3 aa3b c093 0f3b 764e 0bbc 0bd5 c63b
00000010: c1cd 03bc 3d41 ebb9 804c bebb 6709 c039
00000020: 2188 5abb d524 b8bb 154b 703b 2bc5 5b3b
00000030: d694 003c 3036 9e3b 01b1 813b ffa7 34bb
00000040: 48bc 07bb 8862 e73b 41a6 06bc 91c2 003a
00000050: ff67 97bb 5ed6 eeba 6f3f 61b6 3855 293b
00000060: 1549 e53b 3acc e53b b32a d93b ccac 0b3b
00000070: d6dc 1dba 6241 8bbb f1d5 2a3b 6078 b43b
00000080: accd 5dba 45c1 983a ea17 0d3b dde0 e13b
00000090: f4b4 02bc 7765 523b 39e1 91b9 859e 8ebb
000000a0: 430e 3ebb 9576 c83b 5414 203a 606a adbb
000000b0: 81e2 a1ba 61df c63b 7dd1 733b 88a9 16bb
000000c0: 622d a739 6997 87ba 841d e63b ed68 59ba
000000d0: f046 203b 7053 7e3b 67f4 f5ba 3bd8 3c3a
000000e0: 7c3a 113b 827f 36bb 47a8 c13b 0b91 24bb
000000f0: dc81 763b fce0 de3a b8a8 4538 bf2d 8bbb
00000100: 47b9 77bb 3f17 f9bb 5dec b03b 4d9e 7d3b
00000110: 1f2b 6abb 2e4b b93a 59f7 933b f280 c23b
00000120: a08d febb 8716 fe3b 2f4d fdba c7bf a13b
00000130: dc9f a8bb ee1b 9ebb 3206 dabb 910e 00bc
00000140: 77fe 5a3a 872d 853b e7c2 1f3b 124a a8bb
00000150: 8b2e dabb eb63 ee39 805f 0ebb c918 eebb
00000160: f08b 90ba 0b81 babb 53a9 8abb 5c53 c3ba
00000170: 4089 f43a 844e e3ba be55 18bb b386 2c3b
00000180: 4610 d83b 7d66 d239 f752 eabb bc16 953b
00000190: 4a6f 3f3b 8f3c abbb d13a d6bb bdbb 94bb
000001a0: 3c19 9a3b 4f29 62bb c60d f53b b137 833b
000001b0: 5dc7 eb39 ff31 2c3b 7465 b2bb 6773 863b
000001c0: b1fe 813b 61d0 e6bb b26f a6bb d4d4 abbb
000001d0: f158 b4bb ee96 30bb 4bc2 54bb b583 d43b
000001e0: 7e69 443b 8e92 173a 6b27 cbbb 358e dc3b
000001f0: 05af a8b8 9fbf 8cb9 7eb3 0a3b 71bd 4fbb
00000200: ad06 373b 74c1 06bb 7e40 df39 2e9f a43b
00000210: 78bb f33b f967 1bb9 4e54 fb3b 3908 9cb9
00000220: 50c8 a93b 4d37 3aba 01be 833b 20e4 96bb
00000230: 8be4 c5bb eabe 83b9 683e ccb7 2b91 883a
00000240: 1846 d93b 9c3d 73bb c121 1abb 414e ce3b
00000250: 8d1b 0aba a6c7 86b9 5d66 1ebb 942b a33b
00000260: 9cd2 f63b cc9d 3eb7 b208 bd3b ed7a 2d3b
00000270: 0b19 48bb 670e f3bb eb72 963b 9e8c e13a
00000280: 9ce2 d3bb c95c 553b 560c 99bb 6324 30ba
00000290: ba5f aebb 538b cbbb b255 72bb eb73 473a
000002a0: 5da6 21ba 9a76 f33a 44d4 c5bb f93b f83b
000002b0: 8788 c2bb 3a21 f43b 32df 86ba c7b3 8ebb
000002c0: 49e7 8abb 9fea 99bb 31a2 7d3a 6fbd 263b
000002d0: 971e ba3a 31e3 b03b 615a 8fbb f2f8 e3bb
000002e0: 0653 883b 7d41 abbb cb6d 523b 11b3 82bb
000002f0: 5a2a ce3b 0046 b2bb f2d6 f4bb 1910 2d3b
00000300: e72d 93bb 51bc 813b ee5d c93b 5992 e63b
00000310: ae94 5bbb 019e 8abb 2d01 fabb 918a d9ba
00000320: 0cf4 bb3b fe48 943b b563 a4bb a83e dd3a
00000330: 6b4c 353a c711 64ba 5556 cfbb d926 b43b
00000340: 4ed5 823b d8d3 e13b d84c ba3b ab89 a83b
00000350: 442f 4c3b dd5a f3bb 7f8d 8ebb 9cc9 e4b9
00000360: ed26 ad3b 6c7d 8eba a02e 85bb d331 973b
00000370: 3ccc f13b fcd4 37ba a2c5 c0bb 85f0 08ba
00000380: 5d2c b0b9 e1dc 98bb cc91 0d3b e7bb 24bb
00000390: cbf4 a5bb 6013 67bb 040d 803b a1bd 72bb
000003a0: fe3a 55bb a199 edba f920 50bb b13e 003c
000003b0: 6a9a 0139 6140 17bb afd2 a1b9 46f0 b7bb
000003c0: 3568 dc3b 817e dd3b ca87 483b 78e5 1a3b
000003d0: d2eb 6b3b cf70 5abb c060 153b ac88 31bb
000003e0: 4bc5 e93b f1a5 b3bb ba73 ed3b ab2e 8a3a
000003f0: fc31 d4bb 7595 933b 54db ae3b 7c1f 713b

layer1.bias f4 [64]
0.0050549647 0.0003759088 -0.00028666304 60.89828 -0.008819561 60.880573 -0.009163026 60.88763
0.005514553 60.898075 60.878006 60.896397 -0.009305682 -0.021800669 60.86969 60.830894
60.891087 60.881138 60.898674 0.007032989 60.840046 60.884926 60.878456 -0.0033537475
-0.00021482327 60.889652 -3.437125 60.90042 0.0016319791 0.0066468455 -0.0066160886 -0.0055832723
60.88664 -0.0049991836 0.005239184 60.89516 60.878326 60.88826 60.88883 0.0011672896
-3.4397793 -0.0015529447 60.888397 -3.438775 -0.0007035843 -0.004385961 -0.0060089496 -0.0029058591
60.883633 0.003112036 -0.0011572511 -0.008365437 60.87696 60.883343 60.882988 60.871326
0.0015811451 -0.0035941685 -0.0065214653 60.883095 60.890903 60.888874 60.887367 60.874695
00000000: 1ea4 a53b a015 c539 434b 96b9 d797 7342
00000010: ec7f 10bc b585 7342 8420 16bc ef8c 7342
00000020: 6cb3 b43b a197 7342 1483 7342 e995 7342
00000030: dc76 18bc 5197 b2bc 907a 7342 d652 7342
00000040: 7990 7342 4986 7342 3e98 7342 fd74 e63b
00000050: 355c 7342 2a8a 7342 8a83 7342 8cca 5bbb
00000060: 2f42 61b9 018f 7342 dbf9 5bc0 089a 7342
00000070: 22e8 d53a c8cd d93b c6cb d8bb e2f3 b6bb
00000080: eb8b 7342 31d0 a3bb 76ad ab3b a594 7342
00000090: 6883 7342 948d 7342 298e 7342 bdff 983a
000000a0: 5825 5cc0 2d8c cbba b88d 7342 e414 5cc0
000000b0: be70 38ba 1cb8 8fbb b9e6 c4bb 3a70 3ebb
000000c0: d788 7342 4df3 4b3b e7ae 97ba 300f 09bc
000000d0: 0282 7342 8b88 7342 2e88 7342 3d7c 7342
000000e0: 6d3e cf3a 248c 6bbb 04b2 d5bb 4a88 7342
000000f0: 4990 7342 358e 7342 aa8c 7342 b07f 7342

layer2.weight f4 [64, 64]
-0.0038477557 -0.00063235656 0.0019756395 0.014069914 -0.010545783 0.0010406675 -0.02006152 0.019834725
-0.0072494326 0.0008893993 -0.018728795 0.01303473 -0.01352726 0.016147688 0.00027014408 0.008572615
0.0143705 0.0137624685 0.0016079057 0.0015063559 -0.020642359 -0.010254026 0.01318125 0.010901076
0.015890202 -0.010383011 0.012758432 -0.02506071 -0.023056267 0.0039700125 -0.016781544 -0.02403719
-0.015807452 0.0096046785 -0.013730743 -0.0072298246 0.015222855 -0.013261266 -0.015027994 -0.012225899
0.018536959 0.01631155 0.02240538 0.0074755177 -0.007141326 0.027410971 0.020997671 0.0054209176
-0.025845848 0.01593516 -0.0040065623 0.015726075 0.0034031621 -0.0060991044 -0.029122297 0.0011401469
-0.00992318 -0.021987291 0.020908047 0.017730128 -0.021427104 -0.017885508 0.0076369913 -0.021046199
0.0045709717 0.008624932 -0.005484182 -0.01638755 -0.0021312104 -0.012578094 -0.0029632503 -0.014044084
-0.016919956 0.002507102 0.01718694 0.022738932 -0.00460196 0.018859629 -0.008032527 0.018342495
-0.011162034 0.011710712 -0.009681847 0.019950507 -0.00019967348 -0.023509705 0.011515207 0.01267382
-0.00044762835 -0.008537533 -0.009807301 -0.0075251916 0.013238116 -0.01951269 -0.007535318 -0.012230132
-0.008159138 -0.009745994 0.011299021 -0.014090899 -0.020838287 -0.024042776 -0.024837092 -0.003959424
-0.017013121 -0.018304659 0.02054734 0.020278065 -0.005502694 -0.022279333 -0.011582461 0.0038325682
0.0120456675 -0.0019344033 -0.009660342 0.021724686 0.02119873 0.0076858266 -0.007173331 -0.008764093
0.009660824 0.0011123826 -0.0063757724 0.015393764 -0.014012113 0.022354798 0.0033263797 0.019938374
0.003178178 0.017126994 0.018935533 60.952484 -0.057699148 60.95126 -0.009384842 60.957775
-0.0010209337 60.96835 60.996822 60.956867 -0.00899848 -0.87472427 60.977398 60.98336
61.00082 60.970417 60.957355 0.010590352 61.08105 60.968998 60.990803 -0.015567385
0.01906125 60.997673 -30.473608 60.959057 0.02364042 -0.009574728 -0.006295054 -0.0056299316
61.01313 -0.008738582 0.015782716 60.96265 60.99733 61.00928 60.99749 -0.0033662443
-30.975874 0.0101155015 60.961533 -31.088423 -0.003986349 0.024438052 -0.0019372904 -0.0010180782
60.990524 -0.014848806 -0.023418566 0.014070311 61.00663 60.989452 60.948414 61.008953
-0.020052757 -7.172543e-05 -0.029353887 60.975384 60.979553 61.011387 60.985737 60.99861
0.018125756 -0.023726208 -0.018380566 -0.009898063 0.21785069 0.034092147 0.006337106 -0.01916723
-0.0041609015 0.007999919 0.01613868 -0.018599145 0.007907362 -0.009481622 0.011089657 0.08046065
0.01701909 -0.02092446 0.016312951 -0.01781691 -0.07183627 -0.0658186 0.00045143528 0.008701572
-0.020366278 -0.021103023 -0.053356905 0.01966851 0.011922157 0.016165873 0.010210628 -0.016662374
-0.063195236 0.0055069923 0.008435926 0.014305891 -0.029288743 0.008364212 -0.009356507 -0.01247963
-0.02175042 0.0026526614 -0.0044094916 0.13787384 -0.022285445 0.086290255 -0.006481845 -0.023854895
-0.009809111 -0.008031982 -0.009689121 0.010826373 -0.048500992 0.014952878 -0.009201588 0.045006078
-0.01750017 0.019252958 -0.016962415 -0.017114552 -0.001381862 0.014380671 -0.019226657 -0.02784956
00000000: a12a 7cbb bbc4 25ba bb79 013b 7f85 663c
00000010: 38c8 2cbc 0267 883a 0f58 a4bc 6f7c a23c
00000020: a68c edbb 9426 693a 216d 99bc 9f8f 553c
00000030: 71a1 5dbc 2848 843c 20a2 8d39 2774 0c3c
00000040: 3f72 6b3c fa7b 613c 5dc0 d23a eb70 c53a
00000050: 2a1a a9bc 8100 28bc 2bf6 573c 6d9a 323c
00000060: 2b2c 823c 811d 2abc be08 513c 1e4c cdbc
00000070: 7fe0 bcbc e116 823b 7379 89bc a4e9 c4bc
00000080: a17e 81bc f15c 1d3c e9f6 60bc 2ae8 ecbb
00000090: 4869 793c c845 59bc fa37 76bc 234f 48bc
000000a0: d2da 973c cd9f 853c 7d8b b73c 30f5 f43b
000000b0: c901 eabb f98c e03c 4f03 ac3c f4a1 b13b
000000c0: acba d3bc 748a 823c 7b49 83bb f8d3 803c
000000d0: 9607 5f3b ffda c7bb e291 eebc fb70 953a
000000e0: d594 22bc b11e b4bc 5a47 ab3c c63e 913c
000000f0: e587 afbc a184 92bc ba3f fa3b 1469 acbc
00000100: 17c8 953b 964f 0d3c a7b4 b3bb 2f3f 86bc
00000110: c7ab 0bbb 5a14 4ebc 1733 42bb 2819 66bc
00000120: b89b 8abc 314e 243b a0cb 8c3c ff46 ba3c
00000130: 0acc 96bb 827f 9a3c dc9a 03bc 0043 963c
00000140: f7e0 36bc 49de 3f3c 9ca0 1ebc 3f6f a33c
00000150: 715f 51b9 6d97 c0bc 47aa 3c3c dba5 4f3c
00000160: a9af eab9 02e1 0bbc cdae 20bc e295 f6bb
00000170: afe4 583c 14d9 9fbc d4ea f6bb e460 48bc
00000180: e8ad 05bc a9ad 1fbc 871f 393c 84dd 66bc
00000190: 0eb5 aabc 5bf5 c4bc 2877 cbbc 0ebe 81bb
000001a0: 1a5f 8bbc a7f3 95bc e552 a83c 2f1e a63c
000001b0: f14f b4bb 2683 b6bc 5dc4 3dbc d32b 7b3b
000001c0: 315b 453c ce8b fdba 6946 1ebc f8f7 b13c
000001d0: f6a8 ad3c 63d9 fb3b 430e ebbb 4597 0fbc
000001e0: 6f48 1e3c 5ecd 913a dbeb d0bb 2036 7c3c
000001f0: 1093 65bc 6921 b73c 64ff 593b cd55 a33c
00000200: fb48 503b e94d 8c3c b11e 9b3c 58cf 7342
00000210: f155 6cbd 17ce 7342 e1c2 19bc c3d4 7342
00000220: dad0 85ba 97df 7342 bffc 7342 d5d3 7342
00000230: 5c6e 13bc eeed 5fbf dbe8 7342 f6ee 7342
00000240: d700 7442 b5e1 7342 55d4 7342 2883 2d3c
00000250: ff52 7442 41e0 7342 95f6 7342 580e 7fbc
00000260: 5726 9c3c 9efd 7342 f3c9 f3c1 13d6 7342
00000270: 8ea9 c13c 52df 1cbc be46 cebb 4a7b b8bb
00000280: 720d 7442 452c 0fbc c14a 813c c1d9 7342
00000290: 44fd 7342 8109 7442 6efd 7342 359c 5cbb
000002a0: 97ce f7c1 7dbb 253c 9cd8 7342 17b5 f8c1
000002b0: eb9f 82bb 4f32 c83c aeec fdba 0971 85ba
000002c0: 4cf6 7342 6848 73bc 4bd8 bfbc 2987 663c
000002d0: ca06 7442 33f5 7342 2dcb 7342 2b09 7442
000002e0: ae45 a4bc 4c6b 96b8 9077 f0bc cbe6 7342
000002f0: 10eb 7342 a90b 7442 65f1 7342 94fe 7342
00000300: 777c 943c 775d c2bc d792 96bc 7c2b 22bc
00000310: 4014 5f3e 35a4 0b3d 80a7 cf3b 9804 9dbc
00000320: 2c58 88bb 1812 033c 4435 843c 3c5d 98bc
00000330: e18d 013c ce58 1bbc 65b1 353c 8ec8 a43d
00000340: 9e6b 8b3c c669 abbc bda2 853c c5f4 91bc
00000350: e51e 93bd e7cb 86bd 9eae ec39 0a91 0e3c
00000360: 2ed7 a6bc 3fe0 acbc c58c 5abd db1f a13c
00000370: 2755 433c 4b6e 843c 7a4a 273c 887f 88bc
00000380: 816c 81bd 0074 b43b d736 0a3c 4163 6a3c
00000390: f2ee efbc 0c0a 093c 094c 19bc 5d77 4cbc
000003a0: f02d b2bc 46d8 2d3b 7f7d 90bb cd2e 0d3e
000003b0: f78f b6bc f2b8 b03d a865 d4bb 576b c3bc
000003c0: 65b6 20bc 9398 03bc 1ebf 1ebc 1961 313c
000003d0: faa8 46bd eafc 743c 42c2 16bc 4b58 383d
000003e0: 845c 8fbc 61b8 9d3c c3f4 8abc d133 8cbc
000003f0: 981f b5ba e89c 6b3c 3981 9dbc c324 e4bc

layer2.bias f4 [64]
-0.015943708 0.017609062 62.958656 -0.0018492731 62.9514 62.959496 -0.026050905 -0.0218736
62.980274 -0.009375879 62.967926 -0.01888067 62.955124 0.022799945 62.96952 62.935993
62.951286 62.981407 -0.005014582 62.967056 0.013048109 62.941257 0.0055173896 -0.016724572
-0.025979377 -0.022047894 -0.015356399 62.93914 -0.023686392 62.98471 62.983387 0.017147511
0.012179883 -0.02165335 62.961823 62.935085 62.96405 0.01268289 -0.0010865036 -0.0023163415
62.933167 62.949116 62.9679 -0.001326309 0.00059016986 -0.019359786 -0.023446457 62.957874
-0.021840544 -0.022939803 62.957977 0.00065728545 62.956966 62.960293 62.941563 62.959625
62.98059 62.943695 -0.0097694 62.96902 62.94493 62.96967 62.978874 62.972565
00000000: 619c 82bc e140 903c aad5 7b42 4f63 f2ba
00000010: 3cce 7b42 86d6 7b42 b568 d5bc 4430 b3bc
00000020: cdeb 7b42 499d 19bc 28df 7b42 a3ab 9abc
00000030: 0cd2 7b42 f3c6 ba3c cae0 7b42 75be 7b42
00000040: 1ece 7b42 f6ec 7b42 5d51 a4bb 44de 7b42
00000050: bcc7 553c d9c3 7b42 38cb b43b f801 89bc
00000060: b4d2 d4bc c99d b4bc 6899 7bbc aec1 7b42
00000070: f709 c2bc 58f0 7b42 fdee 7b42 f078 8c3c
00000080: 228e 473c 5e62 b1bc e8d8 7b42 87bd 7b42
00000090: 30db 7b42 e5cb 4f3c 0369 8eba c3cd 17bb
000000a0: 90bb 7b42 e5cb 7b42 21df 7b42 8cd7 adba
000000b0: a1b5 1a3a 6a98 9ebc c912 c0bc ddd4 7b42
000000c0: f1ea b2bc 41ec bbbc f8d4 7b42 ae4d 2c3a
000000d0: efd3 7b42 57d7 7b42 29c4 7b42 a8d6 7b42
000000e0: 20ec 7b42 58c6 7b42 d50f 20bc 47e0 7b42
000000f0: 9cc7 7b42 f1e0 7b42 5eea 7b42 e8e3 7b42

layer3.weight f4 [64, 64]
0.012086741 -0.024865031 -0.027236143 -0.022250148 0.000953851 -0.026666729 0.0062275226 -0.008577588
-0.0045408686 -0.0061467024 -7.68478e-05 -0.018900007 -0.024255393 0.0066475174 0.0012381641 -0.007933352
0.0032566583 0.014127405 0.016599022 -0.024087775 -0.013021459 0.039771367 -0.012984197 0.026458861
-0.018961556 -0.009273104 -0.02216411 0.022746215 0.00049794174 -0.019281263 0.0074478327 0.01872505
0.005675201 -0.02260311 -0.021075029 0.0075847344 0.008748383 -0.008830419 0.019081129 0.022593694
0.019050395 0.01211819 0.014133503 -0.015443634 0.017371219 0.008005078 -0.004831978 0.01991813
-0.0040769875 0.014732579 0.010431191 -0.019363739 0.0071332157 -0.0120273335 0.013006358 -0.018460713
-0.024218237 0.019700998 -0.010001104 -0.02281879 -0.013553301 -0.016852688 0.015613004 -0.018253202
-0.017150829 -0.0045563676 60.81478 0.1553139 60.81775 60.786995 -0.019813914 0.01851878
60.784798 -0.054922186 60.783978 -0.017347248 60.817905 -0.0027668981 60.807186 60.82028
60.793995 60.788113 0.026131712 60.79585 0.00838915 60.81635 0.01654779 -0.012286962
0.005107506 -0.017997423 0.022058658 60.816944 -0.0029660808 60.803955 60.808247 0.021835798
-0.019830473 0.013255368 60.782757 60.811253 60.797024 0.020218533 0.07818658 0.08998265
60.81687 60.82122 60.816067 -0.019157533 -0.0058897263 0.011778692 0.0003776394 60.810444
-0.013428452 0.015944114 60.823727 0.017914817 60.788143 60.81558 60.822742 60.82775
60.77432 60.796215 -0.011635792 60.779945 60.801563 60.819626 60.782623 60.80726
-0.01855583 0.013971955 0.0006585015 -0.013779034 -0.002917885 0.008248861 -0.00516102 0.02065114
0.017562183 -0.018829769 -0.008327498 -0.01884959 -0.0069953697 -0.013747511 -0.01098024 0.018590529
0.0036560057 -0.014873038 -0.0012130624 0.0107948305 -0.0030911397 -0.021829098 0.011536917 -0.026386661
-0.01617596 -0.012820507 0.009136234 0.020332737 0.015844122 -0.00053040334 0.0014149707 -1.1394839e-05
-0.0014316335 0.0013586435 0.018341227 0.007901835 0.0005204968 -0.0118256295 0.01922756 -0.019825643
-0.022262014 -0.021154467 -0.02317232 0.019052008 -0.008519001 -0.023112847 -0.020947143 -0.005986693
0.009818642 -0.022405967 0.015380603 0.003282861 -0.01567637 0.017856829 -0.026441043 0.007888465
0.0065533426 0.002680771 0.01891273 0.011753671 0.011176432 0.004564998 -0.014676082 -0.026046999
-0.011807746 -0.022351058 60.73817 0.13728042 60.74095 60.72156 -0.014753805 0.0042378376
60.72651 0.15219688 60.768887 -0.010942048 60.74514 -0.00014418704 60.73453 60.735638
60.72831 60.752934 -0.0027171634 60.73947 0.01419312 60.720726 -0.01455386 0.021317817
-0.0019127722 0.015616654 0.0061058076 60.73347 0.006896222 60.73287 60.746128 0.004051503
-0.008963443 0.011361423 60.75028 60.73453 60.711483 0.021763615 0.2480732 0.11128614
60.707962 60.72997 60.748093 -0.010488048 -0.021006726 0.010306902 0.019709298 60.745487
-0.024103818 0.0041666892 60.74196 -0.0055753286 60.735363 60.70636 60.740406 60.71261
60.720898 60.714832 -0.014204789 60.74631 60.731033 60.72679 60.74069 60.746544
00000000: 7707 463c c0b1 cbbc 551e dfbc f145 b6bc
00000010: db0b 7a3a 2f74 dabc 3f10 cc3b 0389 0cbc
00000020: 91cb 94bb 476a c9bb 5929 a1b8 30d4 9abc
00000030: 3fb3 c6bc 6bd3 d93b e549 a23a e4fa 01bc
00000040: a96d 553b a276 673c acfa 873c ba53 c5bc
00000050: f557 55bc 4de7 223d abbb 54bc 41c0 d83c
00000060: 4455 9bbc 38ee 17bc 8291 b5bc 4556 ba3c
00000070: 4e88 023a bdf3 9dbc f30c f43b 4765 993c
00000080: 09f7 b93b 282a b9bc 8aa5 acbc 5d89 f83b
00000090: 6155 0f3c 76ad 10bc 0750 9c3c 6916 b93c
000000a0: 930f 9c3c 5f8b 463c 3590 673c 4c07 7dbc
000000b0: 164e 8e3c bb27 033c 9255 9ebb 592b a33c
000000c0: 4098 85bb ea60 713c 96e7 2a3c b4a0 9ebc
000000d0: c0bd e93b 4b0e 45bc 9f18 553c ec3a 97bc
000000e0: 5365 c6bc fd63 a13c acdb 23bc 79ee babc
000000f0: aa0e 5ebc a60e 8abc afcd 7f3c bd87 95bc
00000100: e57f 8cbc 954d 95bb 5642 7342 9b0a 1f3e
00000110: 6045 7342 e225 7342 ca50 a2bc b2b4 973c
00000120: a223 7342 16f6 60bd cb22 7342 d11b 8ebc
00000130: 8945 7342 d954 35bb 8f3a 7342 f747 7342
00000140: 0d2d 7342 0727 7342 2c12 d63c f32e 7342
00000150: a572 093c f143 7342 3b8f 873c 414f 49bc
00000160: de5c a73b 556f 93bc 5cb4 b43c 8d44 7342
00000170: 9462 42bb 4037 7342 a53b 7342 fde0 b23c
00000180: 8473 a2bc 0b2d 593c 8b21 7342 b93e 7342
00000190: 2730 7342 56a1 a53c 4920 a03d d348 b83d
000001a0: 7a44 7342 ee48 7342 a743 7342 42f0 9cbc
000001b0: 9bfe c0bb 6afb 403c e7fd c539 e53d 7342
000001c0: 0303 5cbc 3b9d 823c 7f4b 7342 18c2 923c
000001d0: 0f27 7342 2743 7342 7d4a 7342 9e4f 7342
000001e0: e718 7342 532f 7342 0da4 3ebc aa1e 7342
000001f0: cd34 7342 4c47 7342 6821 7342 a23a 7342
00000200: 6502 98bc a0ea 643c 4a9f 2c3a 75c1 61bc
00000210: fd39 3fbb 3b26 073c c61d a9bb 942c a93c
00000220: 91de 8f3c e340 9abc 0f70 08bc 756a 9abc
00000230: 6a39 e5bb 3e3d 61bc 77e6 33bc 2a4b 983c
00000240: 9999 6f3b 0bae 73bc 9fff 9eba cddc 303c
00000250: b894 4abb f0d2 b2bc 5605 3d3c d728 d8bc
00000260: 7283 84bc 1b0d 52bc 25b0 153c d790 a63c
00000270: 88cb 813c c40a 0bba 8a76 b93a 762c 3fb7
00000280: a6a5 bbba 8314 b23a 5740 963c b376 013c
00000290: f371 083a 49c0 41bc 1e83 9d3c 6369 a2bc
000002a0: d45e b6bc 224c adbc e1d3 bdbc f512 9c3c
000002b0: 4893 0bbc 2757 bdbc 5899 abbc 052c c4bb
000002c0: 5fde 203c b88c b7bc edfe 7b3c 4525 573b
000002d0: bb6b 80bc 7c48 923c e39a d8bc 9f3e 013c
000002e0: 6cbd d63b e0af 2f3b dfee 9a3c 7892 403c
000002f0: 5a1d 373c fb95 953b f373 70bc 8460 d5bc
00000300: 4775 41bc 9119 b7bc e3f3 7242 3d93 0c3e
00000310: bcf6 7242 e1e2 7242 f1b9 71bc 8fdd 8a3b
00000320: f2e7 7242 80d9 1b3e 5713 7342 4746 33bc
00000330: 06fb 7242 ea30 17b9 29f0 7242 4bf1 7242
00000340: cae9 7242 0103 7342 7012 32bb 38f5 7242
00000350: 438a 683c 06e2 7242 5073 6ebc b4a2 ae3c
00000360: fcb5 faba ffdc 7f3c 3a13 c83b 13ef 7242
00000370: b4f9 e13b 75ee 7242 09fc 7242 78c2 843b
00000380: 68db 12bc 4325 3a3c 4900 7342 29f0 7242
00000390: 8fd8 7242 9c49 b23c e706 7e3e fde9 e33d
000003a0: f4d4 7242 7deb 7242 0cfe 7242 10d6 2bbc
000003b0: 4c16 acbc 48de 283c 6575 a13c 61fb 7242
000003c0: 5f75 c5bc b988 883b c4f7 7242 3fb1 b6bb
000003d0: 03f1 7242 50d3 7242 2df6 7242 b6d9 7242
000003e0: 33e2 7242 fddb 7242 34bb 68bc 39fc 7242
000003f0: 94ec 7242 3ce8 7242 77f6 7242 76fc 7242

layer3.bias f4 [64]
-0.0012929696 60.134624 -0.010841076 60.213898 59.89147 -0.016292065 -0.0015226278 59.90305
60.00453 59.720108 -0.010399902 -0.017902173 59.850792 60.286404 -0.005901457 0.016441278
-0.022620931 60.182903 60.33419 60.230457 -0.01718632 0.006063125 0.0027777893 0.010510223
0.012544164 59.933163 -0.00082466955 0.0020885393 0.007576591 0.0123722665 60.256413 0.0004548328
-0.024382055 60.176926 0.0063018156 59.527637 0.008962835 0.022540992 0.00635084 -0.017129555
0.0035677585 59.929485 60.25788 60.10168 -0.005396141 0.0033842977 -0.00017011802 60.28337
0.00032461405 60.19787 -0.022927659 0.020625614 -0.0084833605 -0.021443151 -0.022665054 -0.021598639
0.023811681 -0.016879339 60.284027 -0.020474799 0.004582289 0.012293721 60.126724 -0.003988758
00000000: dc78 a9ba db89 7042 c59e 31bc 08db 7042
00000010: de90 6f42 f076 85bc e992 c7ba b99c 6f42
00000020: a404 7042 64e1 6e42 5a64 2abc 94a7 92bc
00000030: 3667 6f42 4725 7142 0261 c1bb dcaf 863c
00000040: 884f b9bc 4bbb 7042 3656 7142 fdeb 7042
00000050: 53ca 8cbc 2ead c63b 920b 363b 1233 2c3c
00000060: 0a86 4d3c 8fbb 6f42 a32e 58ba e0df 083b
00000070: 0d45 f83b 0cb5 4a3c 9106 7142 a076 ee39
00000080: e0bc c7bc 2cb5 7042 767f ce3b 4d1c 6e42
00000090: dbd8 123c e3a7 b83c b51a d03b 4853 8cbc
000000a0: 0ed1 693b cbb7 6f42 1208 7142 1f68 7042
000000b0: 1dd2 b0bb 18cb 5d3b b561 32b9 2c22 7142
000000c0: f630 aa39 9eca 7042 c9d2 bbbc 0cf7 a83c
000000d0: cbfd 0abc 8ca9 afbc 10ac b9bc a1ef b0bc
000000e0: b710 c33c 8a46 8abc d822 7142 c4ba a7bc
000000f0: 0727 963b 9a6b 493c c481 7042 21b4 82bb

layer4.weight f4 [290, 64]
-0.004924469 49.43638 -0.008518034 49.429688 49.413208 -0.009726543 -0.024982166 49.42265
49.417767 49.41122 0.001081905 0.014225377 49.413986 49.447697 6.7605715e-06 0.13380635
-0.00044308347 49.42285 49.443188 49.434578 -0.005940906 0.021315198 0.023589266 0.019162575
0.0007444439 49.41821 0.0113513395 -0.0016678087 0.011088673 -0.020553598 49.433598 -0.0072479635
0.01988685 49.43333 0.023007587 49.404472 0.01966673 0.022804735 -0.034365013 -0.013199567
0.022852764 49.41466 49.44782 49.429474 -0.009530189 -0.07231099 -0.022796871 49.437668
-0.0104139205 49.430973 -0.0011694302 0.075497404 -0.013382411 0.0069890544 0.0052466583 -0.045259647
-0.0050772345 -0.010494127 49.446583 -0.009174552 -0.009012971 0.0042328215 49.424503 0.012816711
0.010760301 0.35038763 -0.003787988 0.36262643 0.31311366 -0.0071007875 0.007919307 0.34546533
0.3767208 0.32295135 0.037325546 -0.018839136 0.34060714 0.37452868 0.008216128 0.12359476
0.00018407479 0.3114119 0.37973157 0.35956767 -0.005914434 0.01628171 0.010540322 0.0039274325
-0.0038323859 0.33826897 -0.0014947078 0.014327806 0.019409206 0.012851983 0.34112164 -0.015620015
0.0020256746 0.36659122 0.012953823 0.3326164 0.020835433 -0.0115444595 0.024176676 -0.004958738
0.020375073 0.3667468 0.3613275 0.35769102 0.020718023 0.03315959 0.0014096192 0.3658904
-0.017921235 0.32970813 -0.007223961 0.105406396 0.0014203235 0.013770456 -0.0096608205 0.04821124
-0.008467362 -0.0029783573 0.36184675 0.0058087823 0.008433267 0.015562515 0.35444292 0.0014767338
0.017289067 0.5190744 -0.0010997953 0.52832246 0.55399406 -0.0115028 0.017304955 0.5337949
0.5297214 0.5572346 0.0057749655 0.006844525 0.55961806 0.54001385 0.0042213574 0.0019418428
0.017289096 0.53695714 0.54256654 0.523047 -0.00518572 -0.0024672565 0.017548112 -0.007171253
-0.00026944894 0.54237324 -0.0155298235 0.013937971 -0.017614659 -0.00041940456 0.54725444 -0.011099933
-0.013628265 0.54697835 0.015628286 0.6154005 -0.010727521 0.0032207984 -0.003623432 0.014802347
0.020911198 0.5298408 0.54064155 0.54211485 0.018303981 0.025900459 -0.015160906 0.56477344
-0.0018245487 0.54330546 -0.010183584 0.018793704 0.022359708 0.00066699774 -0.013610885 0.005753091
0.0031971058 0.013955711 0.55671185 -0.009854191 0.018465921 0.021785464 0.52506 0.019314418
-0.011212535 0.47337648 0.013916567 0.48172787 0.46915713 0.0049273926 0.010098326 0.47001857
0.45026553 0.4730092 0.029782988 -0.012747574 0.45369908 0.4806544 0.019594079 0.011584448
-0.010658181 0.4617948 0.45006934 0.45984504 -0.002289741 -0.00015858858 -0.0045216843 0.0015249574
-0.008298064 0.45069915 0.023299862 0.018425854 0.017897397 -0.014677866 0.4535788 0.0003686478
0.024652163 0.46945873 0.0088931965 0.4862912 -0.014337766 0.000390779 0.0061926306 0.023601051
0.022579135 0.4596901 0.48917535 0.4451999 0.014540853 0.01287729 0.0026495103 0.45612434
0.019512152 0.48031726 -0.0005796046 0.0030539164 0.010728914 -0.02024762 0.019113401 0.011495122
0.02029565 -0.021979744 0.44862142 0.024250904 0.011670046 -0.022569368 0.4810032 -0.01406545
00000000: 715d a1bb dabe 4542 398f 0bbc 00b8 4542
00000010: 20a7 4542 145c 1fbc 66a7 ccbc cbb0 4542
00000020: cbab 4542 17a5 4542 b5ce 8d3a 8e11 693c
00000030: eca7 4542 71ca 4542 ded8 e236 8804 093e
00000040: a84d e8b9 00b1 4542 d3c5 4542 02bd 4542
00000050: eeab c2bb 369d ae3c 473e c13c d5fa 9c3c
00000060: c926 433a 3fac 4542 f8fa 393c 609a daba
00000070: 44ad 353c 0560 a8bc 01bc 4542 5380 edbb
00000080: bfe9 a23c bbbb 4542 687a bc3c 2e9e 4542
00000090: 1f1c a13c ffd0 ba3c 54c2 0cbd ff42 58bc
000000a0: b835 bb3c 9da8 4542 91ca 4542 c8b7 4542
000000b0: 8324 1cbc c917 94bd 81c0 babc 2cc0 4542
000000c0: 269f 2abc 51b9 4542 9147 99ba 629e 9a3d
000000d0: e641 5bbc 7004 e53b 29ec ab3b 2e62 39bd
000000e0: ee5e a6bb 8fef 2bbc 4dc9 4542 dc50 16bc
000000f0: 24ab 13bc 7bb3 8a3b b1b2 4542 2ffd 513c
00000100: f94b 303c 0266 b33e e53f 78bb 2caa b93e
00000110: 6f50 a03e b9ad e8bb fbbf 013c d5e0 b03e
00000120: 8ce1 c03e e159 a53e ace2 183d 8854 9abc
00000130: 0f64 ae3e 39c2 bf3e f09c 063c 401f fd3d
00000140: 3304 4139 6171 9f3e 2d6c c23e 4119 b83e
00000150: decd c1bb 3861 853c 51b1 2c3c b1b1 803b
00000160: c428 7bbb 9731 ad3e 12ea c3ba 2dbf 6a3c
00000170: 0e00 9f3c 2091 523c 7fa7 ae3e 17eb 7fbc
00000180: 2ec1 043b d8b1 bb3e 463c 543c b24c aa3e
00000190: 12af aa3c f924 3dbc 2a0e c63c e97c a2bb
000001a0: a0e9 a63c 3dc6 bb3e ebff b83e 4723 b73e
000001b0: d8b8 a93c 5ad2 073d f9c2 b83a fd55 bb3e
000001c0: 8ecf 92bc 81cf a83e fab6 ecbb 4fdf d73d
000001d0: 262a ba3a 7b9d 613c 6b48 1ebc 2679 453d
000001e0: b1ba 0abc 8b30 43bb fa43 b93e 9957 be3b
000001f0: af2b 0a3c ebf9 7e3c 8b79 b53e f78e c13a
00000200: cda1 8d3c 0fe2 043f 0227 90ba 2440 073f
00000210: 8ed2 0d3f 3d76 3cbc 1fc3 8d3c c8a6 083f
00000220: d29b 073f eda6 0e3f ec3b bd3b 0a48 e03b
00000230: 2143 0f3f 593e 0a3f 5053 8a3b 6f85 fe3a
00000240: dda1 8d3c 0676 093f a4e5 0a3f 68e6 053f
00000250: f9ec a9bb b2b1 21bb 0fc1 8f3c d5fc eabb
00000260: d344 8db9 f9d8 0a3f cd70 7ebc 165c 643c
00000270: 9e4c 90bc 87e3 dbb9 de18 0c3f 7edc 35bc
00000280: 1649 5fbc c606 0c3f e406 803c e38a 1d3f
00000290: 7cc2 2fbc 0814 533b 1a77 6dbb 8b85 723c
000002a0: f64d ab3c a6a3 073f 7c67 0a3f 0ac8 0a3f
000002b0: 3bf2 953c 332d d43c 7365 78bc fe94 103f
000002c0: b225 efba 1116 0b3f 0cd9 26bc 41f5 993c
000002d0: b52b b73c 76d9 2e3a 3000 5fbc 6d84 bc3b
000002e0: 8986 513b 7fa6 643c ab84 0e3f 7973 21bc
000002f0: d845 973c 6e77 b23c 556a 063f 4539 9e3c
00000300: c8b4 37bc 675e f23e 5002 643c 09a5 f63e
00000310: 5d35 f03e f775 a13b 7373 253c 46a6 f03e
00000320: 3489 e63e 432e f23e 74fb f33c 33db 50bc
00000330: 3f4b e83e 5518 f63e c383 a03c b2cc 3d3c
00000340: a79f 2ebc 5e70 ec3e 7d6f e63e cf70 eb3e
00000350: 7b0f 16bb cc4a 26b9 a32a 94bb 14e1 c73a
00000360: 9af4 07bc 0ac2 e63e 5adf be3c d1f1 963c
00000370: 909d 923c 6f7b 70bc 7b3b e83e 1247 c139
00000380: 55f3 c93c e55c f03e c5b4 113c 29fb f83e
00000390: f3e8 6abc 78e1 cc39 8deb ca3b fe56 c13c
000003a0: e1f7 b83c 805c eb3e 3175 fa3e 3ef1 e33e
000003b0: c23c 6e3c 45fb 523c 68a3 2d3b 2189 e93e
000003c0: f3d7 9f3c 25ec f53e 9bf0 17ba 3724 483b
000003d0: 54c8 2f3c 56de a5bc b593 9c3c 0956 3c3c
000003e0: 1043 a63c dd0e b4bc b5b1 e53e d5a9 c63c
000003f0: b833 3f3c 65e3 b8bc 0d46 f63e c672 66bc

layer4.bias f4 [290]
39.95672 0.2565496 0.46875715 0.3703941 1.2765467 0.19108306 0.31651357 0.31702352
42.698826 40.04888 0.44783285 0.412888 0.21436699 0.9014836 0.22065385 0.26232424
0.25355628 0.44365534 2.0196958 0.65975314 44.03739 0.18359274 0.014434333 0.031062385
0.0099020675 0.01905664 0.1540628 0.014541845 0.2569486 4.486418 0.19277382 0.22343914
0.2576831 -0.0118350005 -0.020297224 -0.005800355 -0.006844423 0.03438756 0.04575738 0.13522315
0.15566856 0.10197651 0.13094953 0.13557722 0.16575558 0.017984832 -0.016973063 -0.019998856
-0.01034029 1.1673931 0.551303 -0.0079680905 22.07697 0.62188995 0.1464297 0.019114394
-0.0014176138 -0.02064287 0.01945543 0.4054091 -0.0077703735 0.01746831 0.006786962 0.024227357
-0.0025307997 -0.01719855 0.034268994 0.06386591 0.07810313 0.10853487 -0.016648144 0.107539006
0.11517212 0.0119202295 -0.015860913 -0.018271819 -0.0072101164 -0.023307 -0.020883877 -0.005966212
0.048211925 0.0668948 0.023015803 0.40121877 23.650522 0.78930056 -0.013144632 -0.007847364
-0.01557806 -0.008112904 0.0034218824 0.027273834 0.020561153 0.004122245 -0.02032952 0.0046684337
-0.02293739 -0.008670497 -0.010636465 0.0004726287 0.01896375 -0.009000734 0.009565186 0.14346445
0.0020739057 4.143661 -0.018129738 0.0081231585 0.0027990642 0.23530227 -0.024073148 21.307602
-0.020987596 -0.021770254 -0.0041611595 0.0035686046 0.013426102 -0.018509625 -0.0034542042 0.0135373445
-0.002631955 0.042941704 -0.001983438 0.10948062 0.010823619 0.12282971 -0.02297944 -3.115967e-05
-0.017974898 -0.0064096404 0.012166299 -0.01949482 0.02216358 0.008797818 0.008009242 0.019225858
0.02340111 0.012305902 -0.004851122 -0.018499725 23.677221 -0.023609556 -0.021568162 0.020936893
0.011511772 0.010626491 0.004318522 -0.0009349533 -0.017001335 -0.014845976 -0.015827088 -0.0074810185
0.014547355 0.015172899 0.014882593 0.017308373 -0.007040064 0.016570907 0.0062253186 0.092805244
-0.019306779 -0.019709587 0.01643221 0.015248618 -0.012249248 0.59253454 -0.010888109 -0.022113396
0.013350336 -0.0038469946 0.015653443 -0.021941334 0.010103855 0.006410966 0.016882189 -0.019463778
-0.0008078675 -0.010555391 -0.024189156 -0.009340015 -0.019565899 -0.020925151 0.00851133 0.022947399
-0.006753124 0.0061998502 -0.0207785 0.020797022 -0.014090965 0.01740343 -0.006386574 -0.013914506
0.014772545 -0.005964016 0.9761718 -0.010832876 0.015296659 0.023196956 -0.00697672 -0.016791023
-0.006137767 0.19893456 -0.016069114 0.018450743 0.013412083 0.02115164 -0.019531064 -0.009581639
-0.008823752 -0.020857275 -0.0036520069 0.03522173 0.015817657 0.009802435 -0.002983376 0.012033802
-0.011285798 -0.020443352 -0.014706319 0.018152894 -0.011412737 0.018636668 0.013870725 0.030353354
0.016134428 0.023804916 -0.0058054524 0.1295352 -0.011159607 0.10000525 0.08510075 0.039335392
0.060285095 0.010026147 -0.008144101 0.02861809 0.3456344 0.22011258 0.2081538 0.12813666
0.10324145 0.100792855 0.17985633 0.12642972 0.14747551 0.024705697 0.10092963 0.14908905
0.09426867 0.14626285 0.09670152 0.14371236 0.49740735 0.050054792 0.07641344 0.09377167
00000000: aed3 1f42 785a 833e f000 f03e 4ca4 bd3e
00000010: e265 a33f 47ab 433e 110e a23e e850 a23e
00000020: 99cb 2a42 0e32 2042 594a e53e 0e66 d33e
00000030: 0583 5b3e a1c7 663f 15f3 613e 5d4f 863e
00000040: 21d2 813e cb26 e33e b242 0140 95e5 283f
00000050: 4a26 3042 bcff 3b3e fb7d 6c3c 8b76 fe3c
00000060: 483c 223c ac1c 9c3c a3c2 1d3e eb40 6e3c
00000070: c48e 833e bc90 8f40 8066 453e 3bcd 643e
00000080: 0aef 833e 97e7 41bc 5d46 a6bc e810 bebb
00000090: 2e47 e0bb f8d9 0c3d 176c 3b3d f077 0a3e
000000a0: 9467 1f3e 0fd9 d03d a217 063e c1d4 0a3e
000000b0: d5bb 293e ed54 933c 180b 8bbc a4d4 a3bc
000000c0: 526a 29bc 236d 953f 3222 0d3f 988c 02bc
000000d0: a29d b041 2e34 1f3f abf1 153e ca95 9c3c
000000e0: 3acf b9ba 3c1b a9bc fe60 9f3c c891 cf3e
000000f0: 9e9e febb b419 8f3c 2a65 de3b 7378 c63c
00000100: c6db 25bb f9e3 8cbc a55d 0c3d 21cc 823d
00000110: 89f4 9f3d 8847 de3d b061 88bc 693d dc3d
00000120: 5cdf eb3d 114d 433c bfee 81bc c8ae 95bc
00000130: d742 ecbb 52ee bebc aa14 abbc 3780 c3bb
00000140: de79 453d 2400 893d a38b bc3c 8c6c cd3e
00000150: 4534 bd41 9a0f 4a3f 955c 57bc 3b92 00bc
00000160: 1f3b 7fbc fceb 04bc a941 603b 606d df3c
00000170: dd6f a83c e613 873b 188a a6bc a9f9 983b
00000180: 31e7 bbbc b30e 0ebc 9144 2ebc 26cb f739
00000190: de59 9b3c d177 13bc 4cb7 1c3c 58e8 123e
000001a0: 5dea 073b df98 8440 d184 94bc ff16 053c
000001b0: 8170 373b 14f3 703e 0d35 c5bc f875 aa41
000001c0: 2eee abbc 8857 b2bc 565a 88bb 40df 693b
000001d0: 27f9 5b3c 7fa1 97bc ee5f 62bb bdcb 5d3c
000001e0: e17c 2cbb a4e3 2f3d 91fc 01bb 6037 e03d
000001f0: 8c55 313c 258e fb3d 613f bcbc 71b1 02b8
00000200: 1840 93bc f607 d2bb 2855 473c 9ab3 9fbc
00000210: 6590 b53c b924 103c 3239 033c 8c7f 9d3c
00000220: afb3 bf3c b29e 493c 29f6 9ebb bc8c 97bc
00000230: f36a bd41 d468 c1bc b7af b0bc d983 ab3c
00000240: df9b 3c3c bc1a 2e3c 6382 8d3b a717 75ba
00000250: 6246 8bbc 893c 73bc cfa7 81bc 5523 f5bb
00000260: 0758 6e3c c097 783c 1fd6 733c 4aca 8d3c
00000270: 56b0 e6bb b6bf 873c c2fd cb3b ad10 be3d
00000280: 4029 9ebc 0076 a1bc d89c 863c 57d5 793c
00000290: 12b1 48bc 58b0 173f 0a64 32bc 2727 b5bc
000002a0: 5ebb 5a3c dc1d 7cbb a63b 803c 50be b3bc
000002b0: a48a 253c 1513 d23b 844c 8a3c 8072 9fbc
000002c0: 12c7 53ba 85f0 2cbc 5628 c6bc dd06 19bc
000002d0: aa48 a0bc 396b abbc 1b73 0b3c 2ffc bb3c
000002e0: 4f49 ddbb 1d28 cb3b ac37 aabc 845e aa3c
000002f0: cadd 66bc a391 8e3c 7746 d1bb abf9 63bc
00000300: 8b08 723c cb6d c3bb 65e6 793f 607c 31bc
00000310: d79e 7a3c 8b07 be3c f89c e4bb 548d 89bc
00000320: 521f c9bb 80b5 4b3e 60a3 83bc 0326 973c
00000330: 5abe 5b3c 3446 ad3c 9cff 9fbc 4ffc 1cbc
00000340: 8091 10bc e0dc aabc 8256 6fbb a944 103d
00000350: 0894 813c 649a 203c be84 43bb 6d29 453c
00000360: 11e8 38bc d178 a7bc c6f2 70bc 61b5 943c
00000370: 7dfc 3abc edab 983c 0a42 633c 99a7 f83c
00000380: 592c 843c 8702 c33c aa3b bebb e0a4 043e
00000390: c9d6 36bc 8dcf cc3d 4d49 ae3d 261e 213d
000003a0: 81ed 763d b544 243c d66e 05bc 7c70 ea3c
000003b0: fef6 b03e 3165 613e 4526 553e 4236 033e
000003c0: 4170 d33d 7c6c ce3d 422c 383e cb76 013e
000003d0: d203 173e 9a63 ca3c 32b4 ce3d cdaa 183e
000003e0: ef0f c13d eec5 153e 720b c63d 5529 133e
000003f0: 2dac fe3e 4106 4d3d a67e 9c3d 5c0b c03d
