catanatron_experimental/my_DQN_wyniki2/my_DQN2_450_steps.pth (torch, 268915 bytes, 8 tensors)

layer1.weight f4 [64, 614]
0	0x3c179e9d	0.009254125
1	0x3b7f0a37	0.0038916
2	0xbc7773b0	-0.015103266
3	0x3c3099a3	0.010778817
4	0xbc6a21bb	-0.0142902685
5	0xba50f458	-0.00079709804
6	0xbc290600	-0.010316372
7	0x3a2a9390	0.0006506974
8	0xbbc21b4e	-0.005923665
9	0xbc23906d	-0.009983164
10	0x3bd56d9e	0.0065133115
11	0x3bc3351e	0.00595726
12	0x3c64679f	0.013940721
13	0x3c0c8512	0.008576648
14	0x3be65c69	0.007030059
15	0xbba0763a	-0.004896906
16	0xbb711d32	-0.0036791083
17	0x3c4d843f	0.012543737
18	0xbc6f2c1a	-0.014597917
19	0x3a64b7a8	0.00087248767
20	0xbc067cec	-0.008208495
21	0xbb5424a5	-0.0032370475
22	0xb6c81390	-5.962742e-06
23	0x3b9669a9	0.0045902324
24	0x3c4baa09	0.012430676
25	0x3c4c1e4b	0.012458394
26	0x3c40e463	0.011773202
27	0x3b781cee	0.003785904
28	0xba8c34e2	-0.0010696913
29	0xbbf75c36	-0.007548834
30	0x3b97bc93	0.004630634
31	0x3c204c02	0.009783747
32	0xbac5025e	-0.0015030613
33	0x3b07ae9e	0.0020703445
34	0x3b7a9f83	0.003824205
35	0x3c48a1f1	0.012245641
36	0xbc682b6e	-0.014170511
37	0x3bbae211	0.0057032187
38	0xba019388	-0.00049429433
39	0xbbfd5371	-0.0077308943
40	0xbba8ce62	-0.005151556
41	0x3c320f98	0.010867976
42	0x3a8e322d	0.0010848694
43	0xbc1a09cc	-0.00940175
44	0xbb0fc909	-0.0021939895
45	0x3c30a2b5	0.01078098
46	0x3bd89067	0.006609011
47	0xbb85d30b	-0.004083996
48	0x3a147b7f	0.00056641543
49	0xbaf0db46	-0.0018375895
50	0x3c4c659c	0.012475397
51	0xbac11c02	-0.0014733078
52	0x3b8e5f99	0.004344892
53	0x3be1e638	0.0068938993
54	0xbb5a7831	-0.00333358
55	0x3aa7be5c	0.001279782
56	0x3b80ff51	0.003936686
57	0xbba219eb	-0.0049469373
58	0x3c2c033d	0.010498819
59	0xbb922f80	-0.004461229
60	0x3bdaf56c	0.0066820886
61	0x3b45f745	0.0030207199
62	0x38af9216	8.371861e-05
63	0xbbf73900	-0.0075446367
64	0xbbdc0918	-0.0067149512
65	0xbc5d3ee4	-0.013503764
66	0x3c1d2730	0.009591863
67	0x3be1451a	0.0068746926
68	0xbbcfffc8	-0.00634763
69	0x3b24941f	0.00251127
70	0x3c036e4f	0.008021905
71	0x3c2cc12c	0.010544103
72	0xbc6219ee	-0.013800127
73	0x3c61b017	0.013774893
74	0xbb60fd24	-0.003433057
75	0x3c0faaa7	0.008768714
76	0xbc15c9d6	-0.00914236
77	0xbc0c6d83	-0.0085710315
78	0xbc41a7cf	-0.011819794
79	0xbc637ca8	-0.013884701
80	0x3ac2847e	0.0014840511
81	0x3bec8fa7	0.007219273
82	0x3b8de919	0.004330766
83	0xbc157c6a	-0.009123901
84	0xbc41cbab	-0.011828343
85	0x3a53bfc8	0.0008077589
86	0xbb7ce3d5	-0.0038587947
87	0xbc537d90	-0.012908354
88	0xbb00642a	-0.0019590952
89	0xbc25a84b	-0.010110925
90	0xbbf64b65	-0.007516312
91	0xbb2d7daa	-0.0026472607
92	0x3b5932c0	0.0033141822
93	0xbb49e5c4	-0.0030807117
94	0xbb8750f8	-0.0041295253
95	0x3b993fab	0.0046767793
96	0x3c3fe9ef	0.011713489
97	0x3a3ae2fb	0.00071291596
98	0xbc5022d2	-0.012703614
99	0x3c046bcb	0.0080823405
100	0x3baa09d9	0.005189162
101	0xbc1816fa	-0.009282822
102	0xbc3e499f	-0.011614232
103	0xbc041aa4	-0.008062992
104	0x3c08deee	0.008353932
105	0xbbc8e153	-0.0061303764
106	0x3c59a90e	0.013284935
107	0x3be9144f	0.0071130167
108	0x3a516b03	0.0007988663
109	0x3b98f307	0.004667643
110	0xbc1e756b	-0.009671549
111	0x3beed131	0.007288121
112	0x3be6e6c7	0.007046554
113	0xbc4d0280	-0.012512803
114	0xbc13d3ce	-0.009022666
115	0xbc189ebd	-0.00931519
116	0xbc203028	-0.009777106
117	0xbb9cda8c	-0.004786795
118	0xbbbcf938	-0.005767014
119	0x3c3cc1bd	0.0115208
120	0x3bae76d2	0.005324223
121	0x3a86a2e1	0.001027193
122	0xbc3470e6	-0.011013245
123	0x3c43e7d2	0.011957126
124	0xb915d73d	-0.0001428993
125	0xb9fa0323	-0.00047686053
126	0x3b765da6	0.003759244
127	0xbbb883d7	-0.005630951
128	0x3ba29212	0.0049612606
129	0xbb6f5cbb	-0.0036523778
130	0x3a464c5d	0.00075644796
131	0x3c123bf0	0.008925423
132	0x3c587cf7	0.013213388
133	0xb98a0a70	-0.00026329188
134	0x3c5f3d45	0.013625448
135	0xba0a99d0	-0.0005287202
136	0x3c16cf0d	0.009204638
137	0xbaa56693	-0.001261907
138	0x3bea052f	0.007141731
139	0xbc06074e	-0.0081804525
140	0xbc2fc695	-0.010728498
141	0xb9ea06d9	-0.0004463706
142	0xb83569c0	-4.325225e-05
143	0x3af2975b	0.0018508242
144	0x3c40fcaf	0.011778994
145	0xbbd80dca	-0.0065934407
146	0xbb88e68c	-0.004177874
147	0x3c373fda	0.011184657
148	0xba754f50	-0.0009357827
149	0xb9ef67cf	-0.00045662976
150	0xbb8cb04f	-0.0042934786
151	0x3c10edc8	0.008845754
152	0x3c5b3ce2	0.013381215
153	0xb7a94ea3	-2.0182988e-05
154	0x3c27e927	0.010248459
155	0x3b9a186a	0.0047026174
156	0xbbb1bb9c	-0.005423976
157	0xbc57e416	-0.0131769385
158	0x3c05a256	0.00815638
159	0x3b48583b	0.0030570168
160	0xbc3c333b	-0.011486824
161	0x3bbd84ba	0.0057836445
162	0xbc07efce	-0.00829692
163	0xba9c72ab	-0.0011936029
164	0xbc1ae29f	-0.009453445
165	0xbc34c8d3	-0.011034208
166	0xbbd740ee	-0.0065690195
167	0x3ab12757	0.0013515753
168	0xba8f946b	-0.0010954266
169	0x3b584026	0.003299722
170	0xbc2fb84c	-0.010725092
171	0x3c5c7cca	0.013457486
172	0xbc2cc7f3	-0.0105457185
173	0x3c58d6de	0.013234822
174	0xbaef91ed	-0.0018277742
175	0xbbfd791a	-0.0077353837
176	0xbbf6ba92	-0.007529565
177	0xbc08b538	-0.008343987
178	0x3ae1488d	0.001718776
179	0x3b941810	0.00451947
180	0x3b25508b	0.002522501
181	0x3c1d1f0f	0.0095899245
182	0xbbfea2f7	-0.0077708918
183	0xbc4a7df0	-0.012359127
184	0x3bf229b3	0.007390225
185	0xbc181b53	-0.009283858
186	0x3bbae96f	0.005704097
187	0xbbe82812	-0.007084855
188	0x3c37202e	0.011177106
189	0xbc1e598a	-0.009664902
190	0xbc5977b4	-0.013273168
191	0x3b99ba04	0.0046913642
192	0xbc02bb3f	-0.007979213
193	0x3be6708c	0.0070324596
194	0x3c32de51	0.010917262
195	0x3c4ccc12	0.012499826
196	0xbbc30a04	-0.0059521217
197	0xbbf63717	-0.0075138914
198	0xbc5e106c	-0.01355372
199	0xbb4139ec	-0.0029483987
200	0x3c26f2fa	0.010189766
201	0x3c03b6e1	0.008039207
202	0xbc1206b2	-0.008912729
203	0x3b4484ae	0.002998631
204	0x3aa108f3	0.0012285992
205	0xbaca9416	-0.001545551
206	0xbc3828dc	-0.01124021
207	0x3c2003c1	0.00976652
208	0x3be86511	0.007092126
209	0x3c48968c	0.012242924
210	0x3c2579c7	0.010099835
211	0x3c15b5cf	0.009137585
212	0x3bb55c21	0.0055346643
213	0xbc58279d	-0.013193038
214	0xbbfd354a	-0.0077273
215	0xba4b383e	-0.0007752216
216	0x3c19ce30	0.009387538
217	0xbafd18d1	-0.0019309764
218	0xbbec9194	-0.0072195027
219	0x3c064c9a	0.008196974
220	0x3c56c782	0.01310909
221	0xbaa34975	-0.0012457805
222	0xbc2b3bc4	-0.010451261
223	0xba733f9f	-0.00092791946
224	0xba1c79e7	-0.00059690926
225	0xbc07c698	-0.0082870945
226	0x3b7b776c	0.0038370742
227	0xbb925528	-0.004465718
228	0xbc1367e4	-0.008996937
229	0xbbcd3d72	-0.0062634284
230	0x3be379f7	0.0069420296
231	0xbbd79cba	-0.0065799626
232	0xbbbd6650	-0.005780019
233	0xbb530d0b	-0.003220382
234	0xbbb8dbab	-0.005641421
235	0x3c63d0e0	0.01390478
236	0x3966342c	0.00021953945
237	0xbb865998	-0.004100036
238	0xba0fbb32	-0.00054829114
239	0xbc2361b6	-0.009972027
240	0x3c43c60c	0.0119490735
241	0x3c44bd47	0.012008018
242	0x3bb21f0d	0.0054358304
243	0x3b8995a8	0.0041987486
244	0x3bd18bb4	0.0063948277
245	0xbbc20693	-0.005921194
246	0x3b84adcf	0.00404904
247	0xbb9db1bc	-0.0048124474
248	0x3c4fa641	0.012673915
249	0xbc1f917f	-0.009739279
250	0x3c52eb14	0.01287343
251	0x3af5710c	0.0018725707
252	0xbc3c7975	-0.011503567
253	0x3c03174c	0.00800116
254	0x3c1b4fd9	0.009479486
255	0x3bd62c63	0.006536053

layer1.bias f4 [64]
0	0x3c13210c	0.008980047
1	0x3a2f1100	0.00066782534
2	0xba057ef9	-0.0005092468
3	0x42017ad0	32.369934
4	0xbc80597d	-0.015667671
5	0x42015a9d	32.33849
6	0xbc8558d7	-0.016277714
7	0x42016775	32.351032
8	0x3c20805b	0.009796227
9	0x42017a72	32.369576
10	0x420155fb	32.333965
11	0x42017767	32.366604
12	0xbc876dff	-0.016531942
13	0xbd1ea1a0	-0.038728356
14	0x420146dd	32.319202
15	0x4201007c	32.250473
16	0x42016dc5	32.357197
17	0x42015ba4	32.339493
18	0x42017b82	32.370613
19	0x3c4cb251	0.012493686
20	0x42011119	32.266697
21	0x42016285	32.34621
22	0x420156cd	32.334766
23	0xbbc339e7	-0.00595783
24	0xb9c81604	-0.00038163376
25	0x42016b25	32.354633
26	0xbfa3bdbc	-1.2792277
27	0x42017ea9	32.37369
28	0x3b3e004d	0.0028991878
29	0x3c4175ae	0.011807842
30	0xbc409039	-0.011753135
31	0xbc22815d	-0.009918538
32	0x420165a3	32.349255
33	0xbc1181ee	-0.008881075
34	0x3c187b1f	0.009306698
35	0x42017526	32.364403
36	0x42015692	32.33454
37	0x42016898	32.352142
38	0x4201699d	32.353138
39	0x3b07e4de	0.002073578
40	0xbfa4296e	-1.2825143
41	0xbb34c991	-0.0027585963
42	0x420168d6	32.35238
43	0xbfa27320	-1.2691383
44	0xbaa3d3e7	-0.0012499065
45	0xbbff4ba9	-0.007791002
46	0xbc2ee702	-0.010675194
47	0xbba925ea	-0.0051619904
48	0x42016031	32.343937
49	0x3bb52629	0.0055282307
50	0xbb06bc29	-0.002055893
51	0xbc7375b9	-0.01485961
52	0x42015412	32.3321
53	0x42015fab	32.343426
54	0x42015f08	32.342804
55	0x420149e0	32.322144
56	0x3b3813c4	0.0028087953
57	0xbbd13638	-0.006384637
58	0xbc3dd053	-0.011585313
59	0x42015f3b	32.343
60	0x42016d6b	32.356853
61	0x420169ba	32.35325
62	0x420166f5	32.350544
63	0x42014ffa	32.328102

layer2.weight f4 [64, 64]
0	0xbbdffb64	-0.006835388
1	0xba933db1	-0.0011233595
2	0x3b65f9f0	0.0035091601
3	0x3cccc0d2	0.024994288
4	0xbc997a7f	-0.018735169
5	0x3af24cf2	0.0018486066
6	0xbd11fc37	-0.03564092
7	0x3d105027	0.03523269
8	0xbc53016c	-0.012878757
9	0x3acf18bb	0.0015800217
10	0xbd0844f0	-0.03326887
11	0x3cbdb1d2	0.02315608
12	0xbcc4dbc4	-0.024030574
13	0x3ceafc83	0.02868486
14	0x39fb9458	0.00047984975
15	0x3c797f29	0.015228071
16	0x3cd11f6d	0.02552768
17	0x3cc84981	0.024449112
18	0x3b3b3278	0.0028564017
19	0x3b2f611b	0.002676076
20	0xbd1635a3	-0.036672246
21	0xbc953a07	-0.018216146
22	0x3cbfd2ca	0.023415942
23	0x3c9ea462	0.019365493
24	0x3ce737cc	0.028224848
25	0xbc971a1a	-0.018445063
26	0x3cb9ac89	0.022665279
27	0xbd365c15	-0.04452141
28	0xbd27c5ba	-0.04096005
29	0x3be711dd	0.00705169
30	0xbcf4313e	-0.029808637
31	0xbd2ee9a1	-0.042703275
32	0xbce602aa	-0.028077442
33	0x3c8bc544	0.017061837
34	0xbcc7d2f9	-0.024392592
35	0xbc526df4	-0.012843598
36	0x3cdd87d9	0.027042316
37	0xbcc0fc67	-0.023557855
38	0xbcdab401	-0.02669716
39	0xbcb1ec2e	-0.021719065
40	0x3d06e355	0.032931644
41	0x3ced587e	0.02897286
42	0x3d230821	0.039802674
43	0x3c5992eb	0.013279657
44	0xbc4fdb72	-0.012686597
45	0x3d477495	0.048695166
46	0x3d18c8ca	0.037300862
47	0x3c1dc825	0.009630238
48	0xbd3c0fe6	-0.0459136
49	0x3ce7dfba	0.028304923
50	0xbbe933fc	-0.0071167927
51	0x3ce4d61a	0.027934123
52	0x3bc619aa	0.00604554
53	0xbc3183e5	-0.010834669
54	0xbd53e848	-0.051735193
55	0x3b04bc4a	0.002025383
56	0xbc90661c	-0.017626815
57	0xbd1ffc86	-0.039059184
58	0x3d18207d	0.03714036
59	0x3d010321	0.031497125
60	0xbd1be858	-0.038063377
61	0xbd0224c8	-0.03177336
62	0x3c5e47eb	0.013566951
63	0xbd1924df	-0.03738868
64	0x3c0509fa	0.008120054
65	0x3c7b0229	0.015320339
66	0xbc1f9e8a	-0.0097423885
67	0xbcee73d3	-0.029107964
68	0xbb781b1d	-0.0037857958
69	0xbcb70cc2	-0.02234495
70	0xbbac7cb5	-0.0052638897
71	0xbccc61c6	-0.024948966
72	0xbcf632ff	-0.030053614
73	0x3b91f354	0.004454056
74	0x3cfa185f	0.0305292
75	0x3d25748d	0.040394355
76	0xbc05f1d4	-0.008175332
77	0x3d093a70	0.033502996
78	0xbc69c57c	-0.014268275
79	0x3d05779c	0.03258477
80	0xbca2708c	-0.019829057
81	0x3caa6d08	0.020803943
82	0xbc8ce493	-0.017198836
83	0x3d112aaf	0.035441097
84	0xb9b9fa49	-0.00035472427
85	0xbd2b127b	-0.04176567
86	0x3ca79565	0.020456979
87	0x3cb86f07	0.02251388
88	0xba507454	-0.00079519046
89	0xbc787a9b	-0.01516595
90	0xbc8ebbcc	-0.017423533
91	0xbc5b0727	-0.0133684045
92	0x3cc0a64c	0.023516797
93	0xbd0dfd01	-0.03466511
94	0xbc5b5254	-0.013386328
95	0xbcb1fc21	-0.02172667
96	0xbc6d7149	-0.014492341
97	0xbc8dd60a	-0.017313976
98	0x3ca46e1d	0.020072037
99	0xbccd0e06	-0.025031101
100	0xbd179f9c	-0.03701745
101	0xbd2ef41e	-0.042713277
102	0xbd34b711	-0.0441199
103	0xbbe673a7	-0.00703283
104	0xbcf79189	-0.030220764
105	0xbd0530d7	-0.03251728
106	0x3d158461	0.0365032
107	0x3d138c3c	0.03602241
108	0xbc20282c	-0.009775203
109	0xbd221d27	-0.039578583
110	0xbca88cdd	-0.020574981
111	0x3bdf195b	0.0068084425
112	0x3caf4e0c	0.02139952
113	0xbb6134b7	-0.0034363696
114	0xbc8c93a1	-0.017160239
115	0x3d1e1460	0.03859365
116	0x3d1a411b	0.037659746
117	0x3c5fb354	0.013653595
118	0xbc50c785	-0.012742882
119	0xbc7f108d	-0.015567911
120	0x3c8c9574	0.017161109
121	0x3b0181e1	0.0019761252
122	0xbc39927b	-0.011326428
123	0x3ce0059a	0.027346421
124	0xbccbec19	-0.024892854
125	0x3d22a9d5	0.039712746
126	0x3bc1a1c5	0.005909177
127	0x3d1113c8	0.035419255
128	0x3bb8ff92	0.0056457007
129	0x3cf93c7c	0.030424349
130	0x3d09c8dc	0.03363882
131	0x42016c32	32.35566
132	0xbdd1ead4	-0.10249868
133	0x420169f7	32.35348
134	0xbc8891aa	-0.01667102
135	0x420175c9	32.365025
136	0xbaedaeb4	-0.0018133731
137	0x42018901	32.383793
138	0x4201bca1	32.434208
139	0x42017428	32.363434
140	0xbc82f48b	-0.015985748
141	0xbfc6e6df	-1.5539206
142	0x42019961	32.399784
143	0x4201a43e	32.410393
144	0x4201c3e3	32.441296
145	0x42018cc0	32.38745
146	0x4201750a	32.364296
147	0x3c9a1fb0	0.018813938
148	0x42025585	32.583515
149	0x42018a29	32.384922
150	0x4201b1bc	32.42357
151	0xbce28c5b	-0.027654817
152	0x3d0ab4c2	0.03386379
153	0x4201be31	32.435734
154	0xc1b7f22f	-22.993254
155	0x4201781d	32.3673
156	0x3d2c045e	0.041996352
157	0xbc8b57c0	-0.017009616
158	0xbc373939	-0.011183077
159	0xbc23dd47	-0.010001487
160	0x4201da45	32.463154
161	0xbc7e4ff4	-0.015521992
162	0x3ce5a643	0.028033381
163	0x42017eaa	32.373695
164	0x4201bd93	32.43513
165	0x4201d342	32.456306
166	0x4201bddc	32.43541
167	0xbbc3f442	-0.0059800455
168	0xc1bdce52	-23.725742
169	0x3c933591	0.017969878
170	0x42017c9f	32.3717
171	0xc1c03732	-24.02695
172	0xbbe805fa	-0.0070807906
173	0x3d31d24c	0.043413445
174	0xbb618abd	-0.003441497
175	0xbaed064c	-0.0018083542
176	0x4201b138	32.423065
177	0xbcd81756	-0.026378315
178	0xbd2a67ad	-0.04160278
179	0x3cccc245	0.024994979
180	0x4201ce6d	32.451588
181	0x4201af46	32.421165
182	0x420164d0	32.34845
183	0x4201d2ad	32.455738
184	0xbd11ebaa	-0.035625137
185	0xb9059b8a	-0.00012741811
186	0xbd559593	-0.0521446
187	0x420195b7	32.396206
188	0x42019d4d	32.403614
189	0x4201d715	32.46004
190	0x4201a890	32.41461
191	0x4201bfe9	32.437412
192	0x3d03e39b	0.032199483
193	0xbd2ca1c9	-0.042146478
194	0xbd05bece	-0.03265267
195	0xbc9008e4	-0.017582364
196	0x3ec624f3	0.38700065
197	0x3d780d84	0.060559765
198	0x3c38707b	0.011257286
199	0xbd0b783f	-0.034050222
200	0xbbf232c2	-0.0073913047
201	0x3c68d155	0.014210065
202	0x3ceadb55	0.028669039
203	0xbd0757a8	-0.03304258
204	0x3c661dd8	0.014045201
205	0xbc89fcdb	-0.016844204
206	0x3ca162b6	0.01970039
207	0x3e126044	0.14294535
208	0x3cf7a7fc	0.030231468
209	0xbd183ed1	-0.03716928
210	0x3ced5dab	0.028975328
211	0xbd01a4e8	-0.031651407
212	0xbe02ade8	-0.12761652
213	0xbdef6f6a	-0.116911724
214	0x3a523a5c	0.00080195605
215	0x3c7d3b93	0.015456098
216	0xbd142eaa	-0.036177315
217	0xbd198fbb	-0.037490588
218	0xbdc21f6e	-0.09478651
219	0x3d0f1eba	0.034941413
220	0x3cad7f45	0.02117885
221	0x3ceb3f8a	0.028716821
222	0x3c9495c2	0.018137816
223	0xbcf2783b	-0.029598346
224	0xbde5e261	-0.11224819
225	0x3c204824	0.009782825
226	0x3c757f79	0.014984005
227	0x3cd03125	0.025414059
228	0xbd551bf1	-0.0520286
229	0x3c736cad	0.014857453
230	0xbc882754	-0.016620316
231	0xbcb59d04	-0.022169597
232	0xbd1e4437	-0.038639273
233	0x3b9a6ae9	0.0047124517
234	0xbc005756	-0.0078333225
235	0x3e7ac811	0.24490382
236	0xbd22288d	-0.039589453
237	0x3e1cf969	0.15329517
238	0xbc3ca728	-0.0115144625
239	0xbd2d9326	-0.04237666
240	0xbc8ec272	-0.017426703
241	0xbc69c158	-0.014267288
242	0xbc8cfff6	-0.017211895
243	0x3c9d8ea9	0.019233065
244	0xbdb072f6	-0.08615677
245	0x3cd999e0	0.026562631
246	0xbc85e919	-0.016346501
247	0x3da3be2d	0.079952575
248	0xbcfea6cb	-0.031085392
249	0x3d0c14fc	0.0341997
250	0xbcf6d2c1	-0.030129792
251	0xbcf90f03	-0.030402666
252	0xbb20e11b	-0.0024548236
253	0x3cd144f6	0.025545578
254	0xbd0be4e6	-0.03415384
255	0xbd4aa50b	-0.049473803

layer2.bias f4 [64]
0	0xbce7ffac	-0.028320156
1	0x3d002171	0.031281892
2	0x420faaf6	35.916954
3	0xbb574cf4	-0.0032852264
4	0x420f9da8	35.90396
5	0x420fac80	35.918457
6	0xbd3d8f51	-0.046279255
7	0xbd1f2931	-0.038857643
8	0x420fd293	35.95564
9	0xbc887005	-0.016654978
10	0x420fbc07	35.93362
11	0xbd0961ec	-0.03354065
12	0x420fa471	35.910587
13	0x3d25e69a	0.040503122
14	0x420fbef4	35.936478
15	0x420f815a	35.87632
16	0x420f9d71	35.90375
17	0x420fd4a5	35.95766
18	0xbc11f630	-0.008908793
19	0x420fba68	35.932037
20	0x3cbde396	0.02317981
21	0x420f8b0f	35.8858
22	0x3c2095f0	0.009801373
23	0xbcf35e69	-0.029708104
24	0xbd3d080e	-0.04615026
25	0xbd206d2d	-0.03916662
26	0xbcdf7a95	-0.027280131
27	0x420f872e	35.88201
28	0xbd2c58b7	-0.042076793
29	0x420fdab3	35.963573
30	0x420fd83e	35.961174
31	0x3cf98780	0.03046012
32	0x3cb13ee1	0.021636428
33	0xbd1d8fc9	-0.038467202
34	0x420fb0d0	35.92267
35	0x420f7fb8	35.874725
36	0x420fb4ea	35.926674
37	0x3cb89096	0.022529881
38	0xbafcf4aa	-0.001929899
39	0xbb86d7ae	-0.0041150665
40	0x420f7c32	35.871284
41	0x420f9973	35.899853
42	0x420fbbf7	35.93356
43	0xbb1a6a45	-0.0023561877
44	0x3a896adc	0.0010484117
45	0xbd0cdd3b	-0.03439067
46	0xbd2a9bf1	-0.041652624
47	0x420fa987	35.915554
48	0xbd1eebbf	-0.038799044
49	0xbd26ec07	-0.040752437
50	0x420fa9bf	35.915768
51	0x3a990c15	0.0011676574
52	0x420fa7de	35.913933
53	0x420fadfc	35.919907
54	0x420f8ba4	35.886368
55	0x420facbf	35.918697
56	0x420fd327	35.956203
57	0x420f8f84	35.890152
58	0xbc8e2e23	-0.017355984
59	0x420fbe09	35.93558
60	0x420f91c4	35.89235
61	0x420fbf3a	35.936745
62	0x420fcfff	35.95312
63	0x420fc481	35.9419

layer3.weight f4 [64, 64]
0	0x3cafe53b	0.02147161
1	0xbd34eb29	-0.04416958
2	0xbd462dee	-0.048383646
3	0xbd21e6c1	-0.039526705
4	0x3ade19e4	0.0016944972
5	0xbd420993	-0.047372412
6	0x3c354036	0.011062672
7	0xbc79a37d	-0.015236733
8	0xbc0428c0	-0.008066356
9	0xbc32e92d	-0.010919851
10	0xb90f2706	-0.0001365208
11	0xbd098633	-0.033575248
12	0xbd307bf7	-0.043086972
13	0x3c417aab	0.0118090315
14	0x3b102381	0.0021993818
15	0xbc66e008	-0.014091499
16	0x3bbd93b2	0.005785429
17	0x3ccd9642	0.025096063
18	0x3cf18cbe	0.029486056
19	0xbd2f477f	-0.042792793
20	0xbcbd8076	-0.023132544
21	0x3d90b055	0.07064883
22	0xbcbcf33f	-0.023065208
23	0x3d4085fe	0.047002785
24	0xbd09f9b2	-0.033685394
25	0xbc86f4a1	-0.01647407
26	0xbd21465d	-0.039373744
27	0x3d25822c	0.040407345
28	0x3a67dbe9	0.000884472
29	0xbd0c4971	-0.034249727
30	0x3c58c4ee	0.013230545
31	0x3d083dea	0.03326217
32	0x3c252d49	0.010081598
33	0xbd24775b	-0.04015289
34	0xbd195b91	-0.03744084
35	0x3c5cc14f	0.013473823
36	0x3c7e99f1	0.015539632
37	0xbc8081fa	-0.015686978
38	0x3d0ada0e	0.03389936
39	0x3d24662e	0.04013651
40	0x3d0aa065	0.03384437
41	0x3cb058fc	0.021526806
42	0x3ccdad1d	0.02510696
43	0xbce0bf2c	-0.027434908
44	0x3cfcc4f8	0.03085564
45	0x3c68f7e0	0.014219254
46	0xbc0ca13c	-0.008583363
47	0x3d10ed92	0.035382815
48	0xbbed4b38	-0.007241633
49	0x3cd6672b	0.026172241
50	0x3c97cc20	0.018529952
51	0xbd0ce4aa	-0.03439776
52	0x3c4f9fa3	0.012672338
53	0xbcaf0a75	-0.021367291
54	0x3cbd473f	0.023105262
55	0xbd0654b7	-0.032795634
56	0xbd303797	-0.043021765
57	0x3d0f5a57	0.034998264
58	0xbc918c42	-0.017767075
59	0xbd2609d4	-0.040536717
60	0xbcc53be6	-0.024076413
61	0xbcf5388d	-0.029934192
62	0x3ce33670	0.027735919
63	0xbd04d094	-0.032425478
64	0xbcf993a1	-0.030465903
65	0xbc049cb8	-0.008094005
66	0x42007376	32.112755
67	0x3e8d43b5	0.2759072
68	0x420078cf	32.117977
69	0x42004106	32.0635
70	0xbd102989	-0.03519586
71	0x3d06c153	0.032899212
72	0x42003d03	32.05958
73	0xbdc7d23b	-0.09756895
74	0x42003b83	32.058117
75	0xbcfc6be9	-0.030813174
76	0x42007918	32.118256
77	0xbba11070	-0.0049152896
78	0x420065ac	32.09929
79	0x42007d5c	32.12242
80	0x42004dc2	32.075935
81	0x4200430c	32.065475
82	0x3d3e2594	0.046422556
83	0x42005121	32.079227
84	0x3c74253d	0.014901456
85	0x42007645	32.115498
86	0x3cf0cca3	0.029394453
87	0xbcb2d167	-0.021828366
88	0x3c14a65a	0.009072864
89	0xbd02f568	-0.03197232
90	0x3d20812d	0.03918569
91	0x42007757	32.116543
92	0xbbaca644	-0.005268844
93	0x42005fd4	32.093582
94	0x42006799	32.10117
95	0x3d1ee2eb	0.038790625
96	0xbd10481e	-0.035225026
97	0x3cc0e67a	0.0235474
98	0x42003949	32.055943
99	0x42006d02	32.106453
100	0x42005340	32.0813
101	0x3d131e9d	0.035917867
102	0x3e0e3ce7	0.1389042
103	0x3e23b06d	0.1598527
104	0x4200773d	32.116444
105	0x42007f1b	32.124126
106	0x420075c4	32.115005
107	0xbd0b6683	-0.03403331
108	0xbc2b6eb0	-0.010463402
109	0x3cab6bd4	0.02092544
110	0x3a2fdcd7	0.0006708628
111	0x42006b90	32.10504
112	0xbcc36c17	-0.023855252
113	0x3ce8012a	0.028320868
114	0x420083a3	32.12855
115	0x3d025b6b	0.031825464
116	0x4200431a	32.06553
117	0x420074e9	32.11417
118	0x420081d6	32.126793
119	0x42008af2	32.13569
120	0x420029f9	32.04099
121	0x420051c9	32.07987
122	0xbca9543b	-0.020670047
123	0x4200342d	32.050953
124	0x42005b74	32.08931
125	0x42007c37	32.121304
126	0x4200390c	32.05571
127	0x420065d2	32.099434
128	0xbd0706a0	-0.032965302
129	0x3ccb55b4	0.02482114
130	0x3a9955eb	0.0011698579
131	0xbcc88673	-0.024478173
132	0xbba9da36	-0.0051834835
133	0x3c7010ec	0.014652472
134	0xbc1638d1	-0.0091688195
135	0x3d1645db	0.036687713
136	0x3cff90e2	0.031197015
137	0xbd09026a	-0.033449568
138	0xbc725ce9	-0.014792659
139	0xbd09279b	-0.033485036
140	0xbc4b9c12	-0.012427347
141	0xbcc8119d	-0.024422461
142	0xbc9fcab0	-0.019505829
143	0x3d074789	0.033027206
144	0x3bd4d0ba	0.0064946087
145	0xbcd87118	-0.026421115
146	0xbb0d39d9	-0.0021549372
147	0x3c9d1966	0.01917715
148	0xbbb3efce	-0.0054912334
149	0xbd1ed677	-0.03877875
150	0x3ca7e63b	0.020495525
151	0xbd3fffbc	-0.046874747
152	0xbceb64b8	-0.02873455
153	0xbcba93e7	-0.022775603
154	0x3c84f4a0	0.016229928
155	0x3d13f0e8	0.036118418
156	0x3ce68bab	0.02814277
157	0xba76fa3a	-0.0009421442
158	0x3b24bac2	0.002513573
159	0xb7a9ce21	-2.0242356e-05
160	0xbb26ad19	-0.0025432764
161	0x3b1e2daf	0.0024136116
162	0x3d05753a	0.0325825
163	0x3c65f48a	0.014035353
164	0x3a726043	0.00092459115
165	0xbcac1840	-0.021007657
166	0x3d0be68c	0.034155414
167	0xbd103f11	-0.035216395
168	0xbd21fcdf	-0.039547797
169	0xbd19ef11	-0.037581507
170	0xbd289a68	-0.04116288
171	0x3d0aa369	0.033847246
172	0xbc77ef27	-0.015132702
173	0xbd282d99	-0.04105911
174	0xbd1868eb	-0.037209433
175	0xbc2e3fc1	-0.010635317
176	0x3c8ee56d	0.017443383
177	0xbd230939	-0.039803717
178	0x3cdfd4a1	0.027323069
179	0x3bbf198a	0.005831902
180	0xbce41fb0	-0.027847141
181	0x3d01ef51	0.03172237
182	0xbd4064de	-0.046971194
183	0x3c6590be	0.01401156
184	0x3c3ebd70	0.011641845
185	0x3b9c0bad	0.004762134
186	0x3d099e14	0.03359802
187	0x3cab0e0e	0.020880725
188	0x3ca2a638	0.01985465
189	0x3c04dd4a	0.0081094
190	0xbcd5924f	-0.026070742
191	0xbd3d8809	-0.04627231
192	0xbcabd69d	-0.020976359
193	0xbd22a2dc	-0.039706096
194	0x41ffd1e6	31.97749
195	0x3e79b551	0.24385573
196	0x41ffdc16	31.982464
197	0x41ff951c	31.947807
198	0xbcd6b72a	-0.026210386
199	0x3bf6a922	0.0075274864
200	0x41ffa739	31.956652
201	0x3e8a7001	0.27038577
202	0x420020ef	32.03216
203	0xbc9f3cb4	-0.019438125
204	0x41ffeb8a	31.99001
205	0xb9864bcd	-0.00025614948
206	0x41ffc493	31.970984
207	0x41ffc8a8	31.972977
208	0x41ffadcb	31.95986
209	0x420003ef	32.00384
210	0xbb9e2bd7	-0.0048270035
211	0x41ffd6b4	31.979836
212	0x3cce8cdb	0.02521365
213	0x41ff921e	31.946346
214	0xbcd3cd5c	-0.025854759
215	0x3d1b1dce	0.03787022
216	0xbb5eb0d6	-0.0033979914
217	0x3ce3440a	0.027742404
218	0x3c31b662	0.010846706
219	0x41ffc0b2	31.96909
220	0x3c48b7b0	0.012250826
221	0x41ffbe7c	31.96801
222	0x41ffef27	31.991774
223	0x3bebd37c	0.0071968418
224	0xbc8271ea	-0.01592346
225	0x3ca5567f	0.020182846
226	0x41fffe3e	31.999142
227	0x41ffc491	31.97098
228	0x41ff7069	31.929888
229	0x3d1e5cbd	0.03866266
230	0x3ee1a230	0.44069052
231	0x3e4a708f	0.197695
232	0x41ff6397	31.923628
233	0x41ffb3dd	31.962824
234	0x41fff646	31.99525
235	0xbc989fdb	-0.018630913
236	0xbd18d9f9	-0.03731725
237	0x3c9600e2	0.018310968
238	0x3d0f6991	0.035012785
239	0x41ffecd1	31.990633
240	0xbd2f6505	-0.04282095
241	0x3bf28870	0.0074015185
242	0x41ffdfca	31.984272
243	0xbc224622	-0.009904416
244	0x41ffc7a6	31.972485
245	0x41ff5dc2	31.92078
246	0x41ffda1a	31.981495
247	0x41ff747f	31.931883
248	0x41ff92bb	31.946646
249	0x41ff7c9b	31.935843
250	0xbcceb8a4	-0.025234528
251	0x41ffefcd	31.99209
252	0x41ffb7cd	31.964746
253	0x41ffa83e	31.95715
254	0x41ffdb19	31.981981
255	0x41fff0b0	31.992523

layer3.bias f4 [64]
0	0xbb16890e	-0.0022969875
1	0x41ff6941	31.926394
2	0xbc9dc552	-0.019259129
3	0x42003f0a	32.06156
4	0x41fbf2ef	31.49362
5	0xbced10ac	-0.028938614
6	0xbb31432b	-0.0027048092
7	0x41fc1297	31.509077
8	0x41fd8aa4	31.692696
9	0x41f98094	31.187782
10	0xbc975884	-0.018474825
11	0xbd0243db	-0.031802993
12	0x41fb5a92	31.419224
13	0x4200c280	32.18994
14	0xbc2bc4e2	-0.010483952
15	0x3cef3d48	0.029204026
16	0xbd2497ff	-0.040184017
17	0x4200086f	32.008236
18	0x4201176c	32.272873
19	0x42006014	32.093826
20	0xbcfa1612	-0.030528102
21	0x3c3076a6	0.0107704755
22	0x3ba1b2de	0.0049346527
23	0x3c98f401	0.018671038
24	0x3cb68f31	0.022285076
25	0x41fc8ea4	31.569649
26	0xbac004e0	-0.001464989
27	0x3b73223d	0.0037099265
28	0x3c5c84d2	0.013459401
29	0x3cb40c40	0.021978498
30	0x42008b17	32.13583
31	0x3a53d043	0.00080800446
32	0xbd3168d9	-0.04331288
33	0x41fffded	31.998987
34	0x3c376b45	0.011195009
35	0x41f6bd93	30.842566
36	0x3c826fa6	0.015922379
37	0x3d2404ec	0.040043756
38	0x3c38d622	0.011281522
39	0xbcf945d8	-0.030428812
40	0x3bcfb09a	0.006338191
41	0x41fc78b4	31.558937
42	0x4200910b	32.141644
43	0x41fee3f1	31.8613
44	0xbc1d0fed	-0.0095863165
45	0x3bc5001e	0.006011977
46	0xb99e721c	-0.00030221127
47	0x4200bcef	32.184505
48	0x3a172b3c	0.00057666353
49	0x42002326	32.034325
50	0xbd26d555	-0.040730793
51	0x3d1616b3	0.03664274
52	0xbc76e2f7	-0.015068761
53	0xbd1c0615	-0.038091738
54	0xbd24ea78	-0.04026267
55	0xbd1d2a15	-0.03837021
56	0x3d2d41f6	0.042299233
57	0xbcf59b31	-0.029981228
58	0x4200bca8	32.184235
59	0xbd14fb17	-0.03637227
60	0x3c055ea6	0.008140242
61	0x3cb2ea59	0.021840261
62	0x41ff3fa0	31.906067
63	0xbbe829fa	-0.007085082

layer4.weight f4 [290, 64]
0	0xbc0f549c	-0.0087482
1	0x41837532	16.432224
2	0xbc77e7dc	-0.015130963
3	0x41835c70	16.420135
4	0x41831ff3	16.3906
5	0xbc8d8cd2	-0.017279062
6	0xbd35c83e	-0.04438042
7	0x41834277	16.407454
8	0x41833086	16.398693
9	0x418318b8	16.38707
10	0x3afbe353	0.0019217528
11	0x3ccf05e8	0.025271371
12	0x418322d8	16.392014
13	0x41839eec	16.452599
14	0x37497cb8	1.2009572e-05
15	0x3e7362ed	0.23768206
16	0xba4e569f	-0.0007871184
17	0x41834330	16.407806
18	0x41838e65	16.444529
19	0x41836eac	16.429039
20	0xbc2ce7ad	-0.010553283
21	0x3d1b18f5	0.037865598
22	0x3d2ba680	0.041906834
23	0x3d0b6fbc	0.034042105
24	0x3aad55bb	0.0013224402
25	0x4183321e	16.399471
26	0x3ca530cb	0.020164868
27	0xbb422b87	-0.0029627995
28	0x3ca15f0a	0.019698638
29	0xbd159039	-0.036514495
30	0x41836af0	16.427216
31	0xbc52f658	-0.012876116
32	0x3d10b288	0.03532651
33	0x418369df	16.426695
34	0x3d276abc	0.040873274
35	0x4183000c	16.375023
36	0x3d0f1b74	0.03493829
37	0x3d25ef8d	0.040511657
38	0xbd7a07eb	-0.061042707
39	0xbcc016ea	-0.023448426
40	0x3d264957	0.040597286
41	0x41832546	16.3932
42	0x41839f64	16.452827
43	0x41835b99	16.419725
44	0xbc8ab320	-0.016931117
45	0xbe038b24	-0.12846047
46	0xbd25e0dc	-0.040497646
47	0x418379f4	16.434547
48	0xbc978c50	-0.018499523
49	0x4183614c	16.422508
50	0xbb082354	-0.002077301
51	0x3e095610	0.13411736
52	0xbcc2c073	-0.023773408
53	0x3c4b6cc0	0.012416065
54	0x3c18b3d9	0.009320223
55	0xbda4a89f	-0.080399744
56	0xbc13c514	-0.009019155
57	0xbc98b6ec	-0.018641911
58	0x41839ad8	16.450607
59	0xbc8583f5	-0.016298274
60	0xbc832a93	-0.016011512
61	0x3bf65da0	0.007518485
62	0x41834985	16.410898
63	0x3cba85d0	0.022768885
64	0x3c9c9691	0.019114764
65	0x3efbc55f	0.4917402
66	0xbbdc8040	-0.006729156
67	0x3f038238	0.51370573
68	0x3ed95f3d	0.42455474
69	0xbc4eac99	-0.012614393
70	0x3c667710	0.014066473
71	0x3ef76419	0.48318556
72	0x3f09c66c	0.5381839
73	0x3ee239d2	0.44184738
74	0x3d87cba0	0.06630635
75	0xbd0913fb	-0.03346632
76	0x3ef2930f	0.47377822
77	0x3f08e66d	0.534766
78	0x3c6f1b77	0.0145939505
79	0x3e60d468	0.21956027
80	0x39ab73ad	0.00032701847
81	0x3ed82801	0.4221802
82	0x3f0b413e	0.54396427
83	0x3f021318	0.50810385
84	0xbc2c2423	-0.010506663
85	0x3cecea7f	0.02892041
86	0x3c99663a	0.018725503
87	0x3be49a20	0.006976381
88	0xbbdf16aa	-0.0068081217
89	0x3ef069cd	0.4695572
90	0xbb2e04ae	-0.0026553082
91	0x3cd081fc	0.025452606
92	0x3d0d3a3c	0.034479365
93	0x3cbb08af	0.02283129
94	0x3ef36d14	0.47544158
95	0xbce35094	-0.027748384
96	0x3b6bd138	0.0035982858
97	0x3f053bc1	0.520443
98	0x3cbc828c	0.023011468
99	0x3eeadf44	0.45873463
100	0x3d179a57	0.037012424
101	0xbca801d2	-0.02050868
102	0x3d2feb1c	0.042948827
103	0xbc105095	-0.008808275
104	0x3d143edc	0.03619276
105	0x3f0529f4	0.5201714
106	0x3f02e6ba	0.5113331
107	0x3f014824	0.505007
108	0x3d16c16c	0.036805555
109	0x3d7144a4	0.05890335
110	0x3b241d01	0.0025041702
111	0x3f04f8fc	0.5194242
112	0xbd026761	-0.03183687
113	0x3ee8ef44	0.45495045
114	0xbc5241da	-0.012833083
115	0x3e3fbe86	0.18725023
116	0x3b255ad9	0.0025231151
117	0x3cc866fb	0.024463167
118	0xbc8c9571	-0.017161103
119	0x3daf6854	0.08564821
120	0xbc766a8f	-0.015040054
121	0xbbad5e79	-0.005290803
122	0x3f031e96	0.51218545
123	0x3c290fe8	0.010318734
124	0x3c756bcb	0.014979313
125	0x3ce27a37	0.027646167
126	0x3eff8d6e	0.4991259
127	0x3b2bed19	0.002623385
128	0x3cfb93c6	0.030710112
129	0x3f6c0b02	0.92204297
130	0xbb0009cb	-0.0019537087
131	0x3f703f3f	0.93846506
132	0x3f7bea2b	0.98404187
133	0xbca76705	-0.020434866
134	0x3cfbced1	0.030738266
135	0x3f72bd7d	0.94820386
136	0x3f70e325	0.94096595
137	0x3f7d6256	0.98978174
138	0x3c2815d7	0.010259113
139	0x3c47372d	0.012159151
140	0x3f7e791b	0.9940354
141	0x3f758cb8	0.95917845
142	0x3bf5b1b9	0.007497993
143	0x3b6212a7	0.003449598
144	0x3cfb93e1	0.030710163
145	0x3f742b39	0.9537845
146	0x3f76b7a5	0.9637397
147	0x3f6dd51f	0.9290332
148	0xbc16ef57	-0.0092123365
149	0xbb8f9e54	-0.004382888
150	0x3cff5bcc	0.031171702
151	0xbc50b832	-0.012739228
152	0xb9faef12	-0.00047861837
153	0x3f76a0e5	0.96339256
154	0xbce2004e	-0.027588036
155	0x3ccad672	0.024760459
156	0xbd002be1	-0.031291846
157	0xba43501c	-0.0007450597
158	0x3f78ded4	0.9721501
159	0xbca18905	-0.019718656
160	0xbcc65405	-0.024209986
161	0x3f78be60	0.9716549
162	0x3ce36f3f	0.027763007
163	0x3f8bed51	1.0931798
164	0xbc9c1c21	-0.019056382
165	0x3bbb7c7d	0.0057216273
166	0xbbd2ee1a	-0.0064370753
167	0x3cd76b30	0.026296228
168	0x3d182650	0.037145913
169	0x3f70f129	0.9411798
170	0x3f75d553	0.9602863
171	0x3f768286	0.9629291
172	0x3d052f91	0.032516066
173	0x3d3c7536	0.04601022
174	0xbcdca180	-0.026932478
175	0x3f806c3a	1.0033028
176	0xbb546a94	-0.0032412158
177	0x3f770e81	0.96506506
178	0xbc94304d	-0.018089438
179	0x3d08bebc	0.033385023
180	0x3d22b2fd	0.039721478
181	0x3a9b4e31	0.0011848864
182	0xbcc61317	-0.024179025
183	0x3c2773aa	0.010220448
184	0x3bba1cda	0.005679709
185	0x3ccb18e1	0.024792137
186	0x3f7d25a6	0.9888557
187	0xbc8f67e3	-0.017505592
188	0x3d065e77	0.032804932
189	0x3d1e855d	0.038701404
190	0x3f6ec0f7	0.9326319
191	0x3d0c87d7	0.034309234
192	0xbca32cd4	-0.019918837
193	0x3efa43d8	0.48879886
194	0x3cca8648	0.024722233
195	0x3f010c23	0.50409144
196	0x3ef535af	0.4789252
197	0x3c0f6a11	0.008753316
198	0x3c92f652	0.01793972
199	0x3ef76b16	0.48323888
200	0x3ee496bf	0.4464626
201	0x3ef88b03	0.48543558
202	0x3d58b57d	0.052907456
203	0xbcb98373	-0.022645688
204	0x3ee77f57	0.4521434
205	0x3f00846e	0.5020207
206	0x3d0e9625	0.034811158
207	0x3ca89422	0.020578448
208	0xbc9b1b1b	-0.018933823
209	0x3eef2af9	0.46712473
210	0x3ee518c3	0.44745454
211	0x3eeddf04	0.4645921
212	0xbb8549a6	-0.0040676175
213	0xb993b368	-0.00028171693
214	0xbc039be6	-0.008032775
215	0x3b31895a	0.0027089925
216	0xbc7181e5	-0.014740442
217	0x3ee4a50e	0.44657177
218	0x3d298939	0.04139063
219	0x3d061384	0.032733455
220	0x3d023af2	0.031794496
221	0xbcd5990a	-0.026073951
222	0x3ee86804	0.45391858
223	0x3a2bae32	0.00065490894
224	0x3d3361cb	0.043794435
225	0x3ef691cf	0.48158118
226	0x3c816c04	0.015798576
227	0x3f022d41	0.508503
228	0xbcd0a6b3	-0.025470113
229	0x3a35fc83	0.0006942229
230	0x3c343c38	0.011000685
231	0x3d2bbc1f	0.041927453
232	0x3d244ba1	0.040111188
233	0x3eecd4b6	0.46256036
234	0x3f046b25	0.5172599
235	0x3ee0c8aa	0.43903095
236	0x3cd39d43	0.025831824
237	0x3cbb6694	0.022876061
238	0x3b9a3c31	0.0047068824
239	0x3eeaa161	0.45826247
240	0x3d0dfbfd	0.034664143
241	0x3f003771	0.50084597
242	0xba86f6c2	-0.0010296928
243	0x3bb1c5a5	0.0054251724
244	0x3c9c2149	0.01905884
245	0xbd13542a	-0.035968937
246	0x3d0b15d5	0.033956368
247	0x3ca74a4f	0.020421175
248	0x3d13ac9b	0.03605328
249	0xbd1fee7f	-0.039045807
250	0x3ee3c040	0.44482613
251	0x3d3073b7	0.043079104
252	0x3ca9d49d	0.020731265
253	0xbd2439d0	-0.040094197
254	0x3f00b761	0.50279814
255	0xbcccb062	-0.02498645

layer4.bias f4 [290]
0	0x412ba606	10.728033
1	0x3ec07927	0.37592432
2	0x3f552bcb	0.8326995
3	0x3edc0f06	0.42980212
4	0x4008952f	2.1341054
5	0x3eadcc6d	0.33945027
6	0x3ec295de	0.38004965
7	0x3f032d11	0.5124064
8	0x416127da	14.072229
9	0x414069dc	12.025845
10	0x3f4bab2c	0.7955806
11	0x3f3bc50e	0.73347557
12	0x3ea286e4	0.31743538
13	0x3fc736be	1.5563581
14	0x3ec8b1df	0.39198205
15	0x3eee90c2	0.46594816
16	0x3ec94ba2	0.39315516
17	0x3f49c249	0.7881208
18	0x406597e9	3.5873969
19	0x3f83c586	1.0294654
20	0x41904770	18.034882
21	0x3ea6fd65	0.326152
22	0x3cd20ebd	0.025641793
23	0x3d620571	0.05518097
24	0x3c901797	0.017589374
25	0x3d0aac1b	0.03385554
26	0x3e8c1dec	0.2736658
27	0x3cd3a0ed	0.025833571
28	0x3ee9af97	0.45641777
29	0x400d9775	2.2123692
30	0x3eaf57fa	0.34246808
31	0x3ecb3b75	0.396938
32	0x3eea5e13	0.45774898
33	0xbcac3aa6	-0.02102406
34	0xbd13af83	-0.036056053
35	0xbc28d0bb	-0.0103036715
36	0xbc473669	-0.0121589685
37	0x3d7a31c8	0.06108263
38	0x3da679cb	0.08128699
39	0x3e75f2d3	0.24018411
40	0x3e8d9725	0.27654377
41	0x3e398189	0.1811582
42	0x3e6e2d21	0.23259403
43	0x3e769956	0.2408193
44	0x3e96c40e	0.29446453
45	0x3d02ddef	0.031949934
46	0xbcf6fad7	-0.030148907
47	0xbd1185f0	-0.035528123
48	0xbc967c40	-0.018369794
49	0x3f628059	0.88477093
50	0x3f0e1aad	0.55509454
51	0xbc67e389	-0.01415337
52	0x415ddd67	13.866553
53	0x3ecd855a	0.40140802
54	0x3e852f0f	0.26012465
55	0x3d0b17a8	0.033958107
56	0xbb2509cf	-0.0025182848
57	0xbd163694	-0.036673144
58	0x3d0d913b	0.03456233
59	0x3eca0a8e	0.39461178
60	0xbc62290f	-0.013803734
61	0x3cfe2e86	0.031028043
62	0x3c4588f6	0.01205658
63	0x3d304861	0.043037776
64	0xbb9351ea	-0.004495849
65	0xbcfa4389	-0.030549781
66	0x3d7957e9	0.060874853
67	0x3de854b6	0.11344282
68	0x3e0e15a5	0.13875444
69	0x3e456e8e	0.19280455
70	0xbcf2438e	-0.029573228
71	0x3e43a000	0.19104004
72	0x3e518088	0.20459187
73	0x3cad7805	0.021175394
74	0xbce6ca5e	-0.028172668
75	0xbd04f367	-0.03245869
76	0xbc51d9b7	-0.012808255
77	0xbd299698	-0.041403383
78	0xbd17f3d6	-0.037097774
79	0xbc2da5d6	-0.01059862
80	0x3daf68f7	0.08564942
81	0x3df35b2c	0.11882624
82	0x3d277a16	0.040887915
83	0x3ea400f9	0.32031992
84	0x415b9f10	13.726334
85	0x3f65b495	0.8972867
86	0xbcbf4a96	-0.023350995
87	0xbc646310	-0.013939634
88	0xbce2b427	-0.027673794
89	0xbc6c1c74	-0.014411081
90	0x3bc7317a	0.006078896
91	0x3d46745b	0.04845081
92	0x3d159e85	0.03652813
93	0x3beff026	0.007322329
94	0xbd13eafa	-0.036112763
95	0x3c07df97	0.008293054
96	0xbd26e784	-0.040748134
97	0xbc7c54b3	-0.015401053
98	0xbc9aca9d	-0.018895442
99	0x3a5c18eb	0.0008396047
100	0x3d09fdd0	0.03368932
101	0xbc82fcf4	-0.015989758
102	0x3c8b34de	0.016992982
103	0x3e827d6b	0.2548631
104	0x3b716f92	0.0036840183
105	0x40034278	2.050932
106	0xbd03ead1	-0.03220636
107	0x3c6c6811	0.014429108
108	0x3ba2f023	0.004972474
109	0x3e6e22a0	0.23255396
110	0xbd2f2c92	-0.042767115
111	0x415b7413	13.715838
112	0xbd18b5ad	-0.037282635
113	0xbd1e6914	-0.03867443
114	0xbbf23699	-0.0073917625
115	0x3bcfbd16	0.0063396795
116	0x3cc36352	0.02385107
117	0xbd06b037	-0.032882895
118	0xbbc91121	-0.006136075
119	0x3cc500ae	0.024048176
120	0xbb9936c8	-0.00467572
121	0x3d9c396d	0.076281406
122	0xbb66e2fe	-0.0035230513
123	0x3e472850	0.19448972
124	0x3c9d846a	0.019228179
125	0x3e5f7091	0.21820284
126	0xbd27361d	-0.04082309
127	0xb868252d	-5.5347733e-05
128	0xbd02cb6a	-0.031932272
129	0xbc3a8f59	-0.011386716
130	0x3cb10bb5	0.021612028
131	0xbd0ddb5f	-0.034633037
132	0x3d21455f	0.039372798
133	0x3c8007b6	0.015628677
134	0x3c6916fd	0.014226672
135	0x3d0be370	0.03415245
136	0x3d2a46f7	0.041571584
137	0x3cb3174d	0.021861697
138	0xbc0d315b	-0.008617724
139	0xbd069daf	-0.032865223
140	0x41583eca	13.515329
141	0xbd2bcbbc	-0.041942343
142	0xbd1cf109	-0.038315807
143	0x3d1855c7	0.03719118
144	0x3ca7888e	0.020450857
145	0x3c9aa5a5	0.018877814
146	0x3bfb5c20	0.0076708943
147	0xbad9b1f0	-0.0016608816
148	0xbcf76530	-0.030199617
149	0xbcd80cd8	-0.026373312
150	0xbce64c06	-0.028112423
151	0xbc59bc75	-0.013289561
152	0x3cd3b548	0.025843278
153	0x3cdcce07	0.02695371
154	0x3cd8947f	0.026437996
155	0x3cfbdb80	0.030744314
156	0xbc4ce663	-0.0125061
157	0x3cf12350	0.029435784
158	0x3c352f91	0.011058704
159	0x3e28d088	0.16485798
160	0xbd0c7976	-0.03429552
161	0xbd0f6a18	-0.03501329
162	0x3cef1b47	0.029187812
163	0x3cdde948	0.027088776
164	0xbcb24421	-0.021761002
165	0x3ec806b0	0.39067602
166	0xbc9e742c	-0.019342504
167	0xbd20e7d3	-0.039283585
168	0x3cc248db	0.02371638
169	0xbbdff016	-0.0068340404
170	0x3ce3cb93	0.027807033
171	0xbd1fa719	-0.038977716
172	0x3c930aad	0.017949427
173	0x3c3a9930	0.011389062
174	0x3cf5a5bd	0.029986257
175	0xbd0da0f1	-0.034577314
176	0xbabc1ade	-0.0014351269
177	0xbc999e1a	-0.018752147
178	0xbd300212	-0.042970724
179	0xbc87eb0e	-0.016591575
180	0xbd0e6124	-0.03476061
181	0xbd184017	-0.037170496
182	0x3c77b570	0.015118942
183	0x3d26fa39	0.040765975
184	0xbc448e22	-0.011996778
185	0x3c347185	0.011013393
186	0xbd173127	-0.03691211
187	0x3d175360	0.036944747
188	0xbccd0e41	-0.02503121
189	0x3cfd3ca0	0.030912697
190	0xbc39e431	-0.011345909
191	0xbcca7e91	-0.024718555
192	0x3cd6fcca	0.026243586
193	0xbc2d9557	-0.010594687
194	0x3e8d6413	0.27615413
195	0xbc9da6d5	-0.01924459
196	0x3cde9c49	0.027174132
197	0x3d28c85d	0.041206706
198	0xbc4b1061	-0.012394042
199	0xbcf45455	-0.029825369
200	0xbc32a721	-0.010904104
201	0x3e3619b6	0.17783245
202	0xbce9d4eb	-0.02854391
203	0x3d064212	0.032777853
204	0x3cc32f13	0.023826158
205	0x3d19e9d5	0.037576515
206	0xbd0e1f93	-0.03469808
207	0xbc8b7108	-0.017021671
208	0xbc80691d	-0.015675122
209	0xbd17c2b0	-0.037050903
210	0xbbd49596	-0.0064875586
211	0x3d8024cf	0.06257021
212	0x3ce628cf	0.02809563
213	0x3c8ea9ef	0.017415015
214	0xbbada9e6	-0.0052997945
215	0x3caf2260	0.021378696
216	0xbca43de0	-0.020049036
217	0xbd14bf92	-0.03631551
218	0xbcd6043b	-0.026125064
219	0x3d0414f6	0.032246552
220	0xbca61652	-0.020274315
221	0x3d079c14	0.033107832
222	0x3cc9da9f	0.02464038
223	0x3d5cdc15	0.053920824
224	0x3ceacba3	0.028661555
225	0x3d2d3541	0.042287115
226	0xbc28f6f2	-0.010312783
227	0x3e6b9f78	0.23010051
228	0xbca26781	-0.019824745
229	0x3e35ec65	0.17765959
230	0x3dcf057c	0.10108468
231	0xb9ca47d6	-0.00038581964
232	0x3d173432	0.03691501
233	0x3c91eacc	0.017812155
234	0xbc6d026f	-0.014465912
235	0x3d503ccc	0.05083923
236	0x3cb7b2d7	0.022424145
237	0x3df91df3	0.121639155
238	0x3d5cb568	0.05388394
239	0x3db26789	0.08711154
240	0x3df92dad	0.12166915
241	0x3e375a88	0.17905629
242	0x3e714337	0.23560797
243	0x3e18384f	0.1486523
244	0x3e1f49c6	0.15555486
245	0x3d33c494	0.043888643
246	0x3e3799cc	0.17929763
247	0x3e879b1a	0.2648552
248	0x3d9f9876	0.077927515
249	0x3e4edfc3	0.20202546
250	0x3d8fa792	0.070143834
251	0x3e82b72f	0.25530383
252	0x3f62351f	0.88362306
253	0x3db61da0	0.08892369
254	0x3cc0140b	0.023447057
255	0x3d0fa714	0.035071447
